best_double_dqn_model.pth (torch, 75988 bytes, 6 tensors)

0.weight f4 [128, 5]
0	0x3ecf6a69	0.40510872
1	0xbddbb640	-0.10728121
2	0xbec16694	-0.37773573
3	0xbe633f60	-0.22192144
4	0x3e9b00d8	0.3027408
5	0xbee2d50d	-0.4430317
6	0x3d4a9174	0.04945512
7	0x3de2a4e7	0.11066609
8	0x3ebb53e5	0.36587444
9	0x3eab3931	0.3344207
10	0xbed8d692	-0.42351204
11	0xbd9533f4	-0.072853
12	0xbec5ec22	-0.38656718
13	0xbe1a22ed	-0.15052386
14	0xbd01694e	-0.031594567
15	0xbd870b83	-0.065939926
16	0x3e8c889b	0.27447972
17	0xbeaebd49	-0.34128788
18	0xbe237334	-0.15961915
19	0xbe4afd25	-0.1982313
20	0x3da4abeb	0.08040603
21	0xbed01f3d	-0.40648833
22	0xbeb00349	-0.34377506
23	0x3ddb21cd	0.10699806
24	0x3dc1e460	0.09467387
25	0x3d7853b1	0.06062669
26	0x3e555ff8	0.2083739
27	0xbed57ebc	-0.41698253
28	0xbec70085	-0.38867584
29	0x3e559981	0.20859338
30	0x3ec76eac	0.38951623
31	0xbeb20872	-0.34772068
32	0xbe865df3	-0.26243553
33	0xbea89935	-0.32929388
34	0x3e474a52	0.19461945
35	0xbebeb962	-0.3725081
36	0x3ec7b5e5	0.39005962
37	0xbe3759d3	-0.17905359
38	0x3e8a1e6a	0.2697633
39	0xbeba5d3a	-0.3639925
40	0x3d338042	0.043823488
41	0xbe9db3e0	-0.30801296
42	0xbd82d8da	-0.063890174
43	0x3e2f356f	0.17110227
44	0xbece5373	-0.40298042
45	0x3ec3775d	0.38177004
46	0x3f01a5c2	0.5064355
47	0xbea58fac	-0.32336175
48	0xbeb8116d	-0.35950795
49	0xbcd9744c	-0.026544712
50	0xbec509fd	-0.38484183
51	0xbe4e3404	-0.2013703
52	0xbe25bb39	-0.16184701
53	0x3e751ad6	0.23936018
54	0x3ee13568	0.43986058
55	0xbea1e8ea	-0.31623012
56	0xbef270cd	-0.47351685
57	0x3ec16208	0.37770104
58	0x3e8d6c08	0.27621484
59	0xbed1b771	-0.40960267
60	0x3e3cee51	0.18450285
61	0x3eb030bc	0.3441218
62	0x3e4572e2	0.19282106
63	0x3e0aa43f	0.13539217
64	0xbe14fbb8	-0.14549148
65	0xbed8d3e3	-0.42349157
66	0x3e809723	0.25115308
67	0xbe8c7841	-0.27435496
68	0x3e1623f3	0.14662151
69	0x3eae4da1	0.340436
70	0x3dab5fe8	0.08367902
71	0x3e993259	0.29921225
72	0xbde76d80	-0.11300182
73	0x3ec5f431	0.38662866
74	0x3e18d44d	0.14924736
75	0x3bd68398	0.006546449
76	0xbea04082	-0.31299216
77	0x3d18bda5	0.037290234
78	0x3e528e91	0.20562197
79	0x3ee991fb	0.45619187
80	0x3e1f5bb8	0.15562332
81	0x3ed65a4b	0.41865763
82	0x3e3006be	0.17190072
83	0xbdb677df	-0.08909582
84	0x3ed56114	0.41675627
85	0xbe611482	-0.2198048
86	0x3cb7ac09	0.0224209
87	0xbeccc448	-0.399935
88	0xbe523357	-0.20527397
89	0xbe9e883e	-0.3096332
90	0xbd7ef6b6	-0.062247
91	0x3d5ce637	0.053930487
92	0xbd25e954	-0.040505722
93	0x3ce8420e	0.02835181
94	0x3dd83870	0.105576396
95	0x3df958f3	0.12175169
96	0x3e817df8	0.2529142
97	0x3dba7c90	0.0910579
98	0x3d1461cb	0.036226075
99	0x3d54436b	0.051822107
100	0x3cc6f5d4	0.024287142
101	0x3eab2738	0.3342836
102	0x3e27e97a	0.16397658
103	0x3e9ad63e	0.3024158
104	0x3d41fc6d	0.047359873
105	0xbdc72cdd	-0.09725354
106	0xbe4aa1b4	-0.19788247
107	0x3d1c0161	0.038087253
108	0x3e5b0c9f	0.21391533
109	0x3e4fce39	0.20293511
110	0x3de44c2a	0.1114734
111	0x3d96f918	0.073717296
112	0xbed325d7	-0.41239807
113	0x3dfa5644	0.12223485
114	0x3dc2c019	0.09509296
115	0xbe68bcd4	-0.22728282
116	0xbe97106e	-0.29504722
117	0xbbc2374a	-0.005927001
118	0xbdcc2b7f	-0.09969234
119	0x3e66fa7a	0.22556487
120	0xbe4754b5	-0.19465907
121	0x3ecf0866	0.40436095
122	0x3ebd71fb	0.37001023
123	0xbeef4701	-0.4673386
124	0x3e1c55cf	0.15267108
125	0xbe9bc42f	-0.30423114
126	0xbebe9f4d	-0.37230912
127	0x3da0e3b4	0.07855931
128	0x3e0e39df	0.13889264
129	0x3a5584db	0.0008145102
130	0xbcf8969b	-0.030345252
131	0xbd8b8b3a	-0.06813665
132	0xbcc2f7b6	-0.023799758
133	0xbe58c632	-0.21169356
134	0x3edf9fee	0.43676704
135	0xbd741daf	-0.05959862
136	0xbec249fe	-0.37947077
137	0xbdfaaff6	-0.12240593
138	0xbe0fd8e5	-0.14047582
139	0xbee126a8	-0.43974805
140	0x3e313ce1	0.1730838
141	0xbe8a8d48	-0.27060914
142	0x3d1212c3	0.035662424
143	0x3ede88e6	0.4346382
144	0x3c94d38f	0.018167285
145	0xbe72f81a	-0.23727456
146	0x3d27436a	0.040835775
147	0xbdbc0b4d	-0.09181843
148	0xbe89bc25	-0.26901355
149	0xbcbdbf00	-0.023162365
150	0xba24cfeb	-0.00062870857
151	0x3e3e1b92	0.18565205
152	0xbded259c	-0.11579439
153	0xbe4c7312	-0.19965771
154	0x3e11328d	0.1417944
155	0x3ebc0e03	0.3672944
156	0xbd89fa30	-0.067371726
157	0xbe4cfc39	-0.2001809
158	0xbe18b175	-0.14911444
159	0xbeb10c83	-0.34579858
160	0xbe1004c3	-0.14064316
161	0xbed26516	-0.41092747
162	0xbecbe578	-0.39823508
163	0x3d6875a6	0.056752823
164	0x3de08b53	0.10964074
165	0x3df9d08d	0.12197981
166	0x3dfe54e2	0.12418534
167	0x3e95720e	0.2918858
168	0x3ca5193e	0.020153638
169	0xbec06824	-0.37579453
170	0x3e6350b4	0.22198755
171	0xbd859d29	-0.065241165
172	0xbedd139b	-0.4317902
173	0xbe77df18	-0.24206197
174	0xbee369d0	-0.44416666
175	0xbecd60ee	-0.40113014
176	0xbe083d1c	-0.13304561
177	0x3eba31d7	0.3636615
178	0xbe01b97f	-0.12668417
179	0x3e538752	0.2065709
180	0xbe9aee0f	-0.3025975
181	0xbedbf220	-0.42958164
182	0x3e9dc2d6	0.3081271
183	0xbe968742	-0.2940007
184	0x3d9cd812	0.076584
185	0x3edcff9d	0.43163767
186	0xbed9430f	-0.42433974
187	0xbeab8eff	-0.33507535
188	0xbe2852e0	-0.16437864
189	0xbea7f0c4	-0.32800877
190	0xbe6fba0f	-0.2341082
191	0x3e76aef1	0.24090172
192	0x3cd05905	0.025433073
193	0xbe9b9ab8	-0.3039148
194	0x3c3b8d6d	0.011447293
195	0xbe0a47a0	-0.13503885
196	0x3d5c95af	0.053853687
197	0x3d2cba45	0.042169828
198	0x3e355b97	0.1771072
199	0xbe6e5279	-0.23273648
200	0x3e89846e	0.26858848
201	0x3e135b56	0.1439031
202	0x3e18559b	0.14876406
203	0x3eb8d8fa	0.3610304
204	0xbd6ac8fe	-0.057320587
205	0x3ed500df	0.41602227
206	0x3e2016ab	0.15633647
207	0xbdd45a55	-0.10368792
208	0xbe9001f6	-0.28126496
209	0x3e36cdb7	0.17851911
210	0x3d85a434	0.0652546
211	0xbe2cc2a9	-0.16871132
212	0x3d1657cf	0.036704835
213	0x3eaff231	0.34364465
214	0xbda0437a	-0.0782537
215	0x3d12d487	0.035847213
216	0xbea98cc3	-0.33115205
217	0xbedec1d5	-0.43507257
218	0x3e25f9ce	0.16208574
219	0xbe839646	-0.25700587
220	0x3ce3a10d	0.027786756
221	0xbdb651fd	-0.08902357
222	0x3d1023e6	0.035190485
223	0xbead5141	-0.33851054
224	0xbe32326c	-0.17402047
225	0x3ec2f23a	0.3807543
226	0x3dc708c7	0.09718471
227	0xbda00490	-0.0781337
228	0x3eaed74e	0.3414864
229	0xbcf07620	-0.029353201
230	0x3ec1820f	0.3779454
231	0x3e023c95	0.12718423
232	0xbeba1c0f	-0.36349532
233	0xbece1340	-0.40249062
234	0xbd8972e1	-0.067113645
235	0x3e92755c	0.28605163
236	0x3e10b869	0.14132847
237	0x3e822f9d	0.2542695
238	0x3e50636a	0.20350423
239	0xbcdb1258	-0.026742145
240	0xbeba3a11	-0.36372426
241	0x3ebe2c7e	0.3714332
242	0x3c9a4813	0.018833196
243	0xbf00d583	-0.50325793
244	0x3e626488	0.22108662
245	0xbed87151	-0.42273954
246	0x3af3b213	0.0018592499
247	0x3e747b38	0.23875129
248	0xbd43a40f	-0.04776388
249	0x3ebe8b99	0.3721588
250	0x3e65493f	0.22391222
251	0x3e8eac75	0.2786595
252	0x3e1eba05	0.15500648
253	0xbed3512c	-0.41272867
254	0x3d5ed0a5	0.054398198
255	0x3ede27a1	0.4338961

0.bias f4 [128]
0	0x384b08f4	4.840731e-05
1	0xbd8a3c25	-0.06749753
2	0xbeae157c	-0.34000766
3	0xbe6f982f	-0.23397897
4	0xbeca268b	-0.3948253
5	0x3e2f039e	0.17091224
6	0x3e82eafd	0.25569907
7	0x3dee7a36	0.11644404
8	0x3eea9074	0.45813334
9	0x3eaa4e1d	0.3326272
10	0xbd8d46cb	-0.06898268
11	0xbe53c35c	-0.20679992
12	0x3ec2cf84	0.38048947
13	0x3e03e2ad	0.12879439
14	0x3e8de0e9	0.27710655
15	0xbd21f37b	-0.03953884
16	0x3ee48c9b	0.44638523
17	0xbddd22d0	-0.107976556
18	0xbe99bf5a	-0.30028802
19	0xbe0ef720	-0.13961458
20	0x3dc20374	0.09473315
21	0x3e857b4e	0.26070637
22	0xbcca6297	-0.024705214
23	0x3f03ca0b	0.5148017
24	0xbcd8bc03	-0.026456838
25	0x3de3999f	0.11113285
26	0x3e8d086a	0.27545482
27	0xbe8ef21e	-0.27919096
28	0xbe80333b	-0.25039086
29	0xbedd4a76	-0.43220872
30	0xbeb0c391	-0.34524205
31	0xbe9f8b7e	-0.31161112
32	0xbde20df8	-0.110378206
33	0x3d85a83e	0.0652623
34	0x3e24e510	0.16103005
35	0xbe9149c2	-0.28376585
36	0x3d9c428f	0.076298825
37	0x3e6860f0	0.22693229
38	0x3e3b2a2f	0.1827781
39	0x3d8154fa	0.06315036
40	0xbd9b34d7	-0.07578438
41	0xbed47613	-0.41496333
42	0xbe3d6bba	-0.18498126
43	0xbe9c7f91	-0.30566075
44	0x3f080f72	0.5314857
45	0xbea14b9a	-0.31502992
46	0x3e4a9d6d	0.19786616
47	0xbe6ce7df	-0.23135327
48	0x3ee58bc4	0.44833195
49	0xbec00292	-0.3750196
50	0xbe5e8a2d	-0.21732397
51	0x3e8e8c63	0.27841482
52	0x3e6dd937	0.23227392
53	0x3d210e6c	0.039320394
54	0xbe0c3dea	-0.13695493
55	0x3e9a3f5f	0.30126473
56	0xbec19540	-0.3780918
57	0xbe5d70fe	-0.21625134
58	0x3eea11da	0.45716745
59	0xbe848db9	-0.25889376
60	0xbebaccb6	-0.36484307
61	0x3e8ca435	0.2746903
62	0x3e9f4db2	0.31113964
63	0x3eec6e45	0.4617788
64	0x3e1ee031	0.1551521
65	0x3e235e93	0.15954046
66	0x3e74d573	0.2390955
67	0x3edc3692	0.43010384
68	0x3ede0a29	0.43367127
69	0x3e892720	0.26787663
70	0x3ece4610	0.40287828
71	0x3e19d195	0.15021355
72	0xbe66257c	-0.22475237
73	0x3d277afa	0.040888764
74	0x3ef11036	0.4708268
75	0xbdd2b5f6	-0.102886125
76	0x3e6fdb44	0.23423487
77	0x3e27c2e9	0.16382946
78	0xbdbafe29	-0.091305085
79	0xbe31c59a	-0.17360535
80	0xbe84eae9	-0.25960472
81	0xbe82bd03	-0.2553483
82	0x3e55efc6	0.20892248
83	0x3dd2a9da	0.10286303
84	0xbeb22d05	-0.34799972
85	0xbeccb05c	-0.39978302
86	0xbe54288e	-0.20718595
87	0xbc3d6234	-0.011559058
88	0xbdc29af5	-0.09502212
89	0xbeda49a6	-0.42634314
90	0xbd8d910a	-0.0691243
91	0x3d2afce2	0.041745074
92	0xbe7404c7	-0.23829947
93	0x3d581443	0.052753698
94	0x3ec1a8b9	0.37824038
95	0xbe379692	-0.17928532
96	0x3e205596	0.15657648
97	0x3ee16dcb	0.44029078
98	0x3ef62334	0.48073733
99	0x3ef1baaf	0.4721274
100	0xbe587753	-0.21139269
101	0xbede9b3a	-0.43477803
102	0x3e1f09ca	0.15531078
103	0x3e914c0d	0.28378335
104	0xbecd10e6	-0.40051955
105	0x3ed9ea40	0.4256153
106	0x3f0b780e	0.54480064
107	0x3cae5592	0.021281037
108	0x3ef6ea6e	0.4822573
109	0xbd4c771c	-0.04991828
110	0x3e00e96d	0.12589045
111	0xbe9a1cc9	-0.30100086
112	0x3ed03698	0.40666652
113	0xbef2eaca	-0.47444755
114	0xbee1fe6c	-0.4413942
115	0xbe76dfe3	-0.24108844
116	0x3eb93ebc	0.36180675
117	0x3ea86625	0.3289043
118	0xbd582295	-0.052767355
119	0xbe71f33b	-0.23627941
120	0x3edca65f	0.4309568
121	0xbc173f83	-0.009231451
122	0x3c30a3a2	0.010781201
123	0xbe17e0ce	-0.1483185
124	0xbe8057e4	-0.25067055
125	0x3c5be457	0.01342114
126	0x3e8b9ff1	0.27270463
127	0xbe1c2b22	-0.15250829

2.weight f4 [128, 128]
0	0x3d93ef5a	0.07223387
1	0xbcf03b43	-0.029325133
2	0xbd8b41bb	-0.067996465
3	0xbd6a421a	-0.057191946
4	0xbb64152a	-0.0034802654
5	0x3db3d975	0.08781711
6	0xbcfb3707	-0.030665888
7	0x3e1ff435	0.15620501
8	0x3dbfdf6c	0.09368786
9	0x3e0113e6	0.12605247
10	0x3d3ce7f3	0.04611964
11	0x3c6def07	0.014522321
12	0x3ccebcb6	0.025236469
13	0xbba5c52f	-0.0050589065
14	0xbc09f857	-0.008421025
15	0x3d8cb65a	0.06870718
16	0x3d91bb82	0.071158424
17	0x3d7db7a5	0.061942715
18	0x3cb1ab6d	0.021688187
19	0x3d3106da	0.043219425
20	0x3c875255	0.016518751
21	0x3d987d32	0.07445754
22	0xbda9bfc0	-0.082885265
23	0x3dbe91f8	0.09305185
24	0xbc19cdf2	-0.00938748
25	0x3d2d8274	0.042360738
26	0x3df48c91	0.119408734
27	0x3d633382	0.055469044
28	0x3d547675	0.051870782
29	0x3d7444db	0.05963598
30	0xbcde6fe8	-0.02715297
31	0x3d9d499f	0.07680058
32	0xbd8ef220	-0.069797754
33	0xbd53448a	-0.051579036
34	0x3d875f8c	0.06610021
35	0xbdf46b7f	-0.11934566
36	0x3c354168	0.011062957
37	0x3b0dc98f	0.002163503
38	0x3d6c8a5a	0.05774913
39	0x3d621b4a	0.055201806
40	0xbcecf885	-0.028927097
41	0xbd1dac68	-0.038494498
42	0xbdc8b8c9	-0.0980087
43	0xbca5617d	-0.020188088
44	0x3dd539f0	0.10411441
45	0xbd037185	-0.032090683
46	0xbd1de636	-0.038549624
47	0xbdd1d780	-0.102461815
48	0x3decd78c	0.1156455
49	0xbde18f30	-0.11013639
50	0xbbbf9b95	-0.0058474042
51	0xbccc3c60	-0.024931133
52	0xbcd44f60	-0.025916755
53	0xbb8da38b	-0.0043224744
54	0xbd8b7202	-0.06808855
55	0xbda0d311	-0.07852758
56	0x38ecf672	0.00011299261
57	0xbd8e625d	-0.06952355
58	0x3d5ce2b2	0.05392713
59	0xbc151c33	-0.0091009615
60	0xbd301740	-0.042990923
61	0x3d9a5035	0.075348295
62	0x3c10f551	0.0088475505
63	0x3d195e12	0.037443228
64	0xbd50bd9c	-0.050962076
65	0x3c92f4e4	0.017939039
66	0x3da3a365	0.079901494
67	0x3ba1ac24	0.004933851
68	0xbc0755ab	-0.008260171
69	0x3d6bfd78	0.057614774
70	0x3dc205c0	0.09473753
71	0xbd15ecea	-0.036602892
72	0x3ab27e3b	0.0013617942
73	0xbc0fa1d7	-0.008766613
74	0x3dff6402	0.12470247
75	0xbdff8826	-0.1247714
76	0x3def1574	0.11674014
77	0x3d59dd37	0.053189483
78	0xbd2b6eed	-0.041853834
79	0x3d565d34	0.05233498
80	0x3d46b682	0.048513897
81	0xbd21f69e	-0.039541833
82	0x3d883be0	0.06652045
83	0x3c2e1699	0.010625505
84	0xbdcc8cd2	-0.09987797
85	0xbc00d0fc	-0.007862326
86	0x3d193706	0.03740599
87	0x3c26b8f7	0.010175935
88	0x3bc08876	0.0058756424
89	0xbe395e3e	-0.18102357
90	0x3cf0e4b5	0.029405931
91	0xbd141bb1	-0.03615922
92	0xbc19a13c	-0.00937682
93	0x3d687885	0.05675556
94	0x3db9449d	0.0904629
95	0x3cb2ffa2	0.02185041
96	0x3c12b978	0.008955352
97	0x3c9bb515	0.019007245
98	0x3cf7bae8	0.030240491
99	0x3d6031b1	0.05473489
100	0xbcd12253	-0.025529062
101	0x3db1fe04	0.08691028
102	0x3bba2da6	0.0056817112
103	0x3d7497b1	0.059714977
104	0x3a925d82	0.0011166784
105	0x3deea0e6	0.11651783
106	0x3dcaa544	0.09894803
107	0xbda08aa9	-0.07838947
108	0x3e0e07aa	0.13870111
109	0xbda5abd7	-0.080894165
110	0xbd55e1f8	-0.052217454
111	0x3d1b81ea	0.037965693
112	0xbc9d72df	-0.019219814
113	0xbd7cf7c3	-0.06175972
114	0x3d0f37c9	0.03496531
115	0x3cd4453e	0.025911923
116	0xbd67c102	-0.05658055
117	0x3e050691	0.12990786
118	0xbd86840a	-0.06568153
119	0xbdb387cd	-0.08766136
120	0x3e5c0c15	0.21488984
121	0x3d82ce07	0.06386953
122	0xbd66f86d	-0.05638926
123	0xbdb003dc	-0.08594486
124	0xbddc7064	-0.10763624
125	0x3d27aca4	0.040936127
126	0x3ce44a3c	0.027867429
127	0xbc20f3a4	-0.009823713
128	0xbd328ff2	-0.04359431
129	0x3d8ef221	0.06979776
130	0x3d23c366	0.03998127
131	0x3c8357f7	0.016033156
132	0xbb9135c0	-0.0044314563
133	0xbc8007d6	-0.015628736
134	0xbd4b9dd8	-0.04971108
135	0xbd902bfa	-0.07039638
136	0x3c48f280	0.012264848
137	0xbdab3f0f	-0.08361637
138	0xbbe695ae	-0.007036886
139	0xbcef7da7	-0.02923472
140	0xbd434fce	-0.04768353
141	0xbe04d43c	-0.12971586
142	0x3d828da9	0.06374676
143	0x3b08e90e	0.0020890865
144	0xbdbb471b	-0.09144422
145	0x3d4c24ea	0.04983989
146	0x3b8c8351	0.004288115
147	0x3c5dc8bf	0.013536631
148	0xbba2f987	-0.0049735936
149	0x3d41cd0c	0.04731469
150	0x3d4a22a3	0.04934944
151	0x3c422b56	0.011851152
152	0x3d5e1e26	0.05422797
153	0xba8067c9	-0.0009796555
154	0xbcf9c0d4	-0.030487455
155	0x3dab5471	0.08365715
156	0xbc24f406	-0.010067945
157	0xbd815542	-0.0631509
158	0x3da73633	0.081646346
159	0x3bac9a65	0.0052674287
160	0x3d2af329	0.0417358
161	0xbd90cce3	-0.07070329
162	0xbc2d7971	-0.010588036
163	0xbc52a575	-0.012856831
164	0x3c5cad23	0.013469013
165	0x3d36b832	0.044609256
166	0xbd940d7a	-0.07229133
167	0xbd8f6d04	-0.07003215
168	0xbd16b6f0	-0.036795557
169	0x3d7f005a	0.062256195
170	0x3d5682a6	0.05237069
171	0xbd207764	-0.03917636
172	0x3dc9eff6	0.09860222
173	0x3c0e15ca	0.008672187
174	0x3d88f86b	0.06688007
175	0xbcd325ab	-0.025774797
176	0x3d8f567e	0.06998919
177	0xbcfabf09	-0.03060867
178	0x3d2c8ffa	0.042129494
179	0xbdb09547	-0.086222224
180	0xbd50c276	-0.050966702
181	0xbdc7b75c	-0.0975177
182	0x3d766d97	0.060163107
183	0x3cc5f9e4	0.024167009
184	0x3d918bd1	0.07106746
185	0xbcc888a9	-0.024479227
186	0xbdbcac98	-0.09212607
187	0x3c5640b4	0.01307695
188	0x3abf8ffa	0.0014615052
189	0xbd96ca3e	-0.073627934
190	0xbd1bd13e	-0.038041346
191	0x3c546d32	0.012965487
192	0xbc19db86	-0.009390717
193	0xbdc0e7dc	-0.09419224
194	0xbc272813	-0.0102024255
195	0x3d18dd49	0.03732041
196	0xbdb026f2	-0.08601178
197	0x3d8cc199	0.06872863
198	0x3d60acc6	0.05485227
199	0xbcd99f95	-0.026565352
200	0x3cf8d470	0.030374736
201	0xbdbf9923	-0.093553804
202	0xbd3c3649	-0.045950208
203	0xbcc8e486	-0.024523031
204	0x3d8bc045	0.06823782
205	0xbd9792e8	-0.07401067
206	0x3d8e1f92	0.06939615
207	0x3ca495c0	0.020090938
208	0x3db0dd68	0.0863598
209	0x3d747c8b	0.059689086
210	0xbd7c8201	-0.06164742
211	0xbb6568c1	-0.0035005065
212	0xbd89f367	-0.067358784
213	0xbd625e8a	-0.05526594
214	0xbd9b290a	-0.07576187
215	0x3d40588d	0.04695945
216	0xbcf2457a	-0.029574145
217	0xbc73c4c9	-0.01487846
218	0x3d5a86f1	0.053351346
219	0x3a848e6d	0.0010113247
220	0x3ca74526	0.020418715
221	0xbdb68f17	-0.08914011
222	0x3bac44c3	0.0052572205
223	0x3c830dd4	0.015997805
224	0x3c9fc14f	0.019501356
225	0xbdbeddaf	-0.093196265
226	0x3c24f3ab	0.010067861
227	0xbd40870e	-0.0470038
228	0x3d8bcfed	0.06826768
229	0x3d4113f2	0.047138162
230	0x3c4adaf5	0.012381305
231	0x3d8bf0e5	0.06833056
232	0x3d02753b	0.03185008
233	0xbb08748d	-0.0020821423
234	0x3cc68d1e	0.024237212
235	0xbd845596	-0.06461637
236	0xbc8f428c	-0.017487787
237	0x3db12e85	0.08651451
238	0x3d18834c	0.03723459
239	0xbc728ade	-0.014803616
240	0xbcfa031b	-0.030519059
241	0x3d3bafff	0.04582214
242	0xbd306522	-0.043065198
243	0xbd7dd52a	-0.061970867
244	0x3d07a1a6	0.033113144
245	0xbda0b3c3	-0.07846787
246	0x3d1e8220	0.038698316
247	0xbc4ff982	-0.012693765
248	0x3e03b6bb	0.12862675
249	0x3d8575fa	0.06516643
250	0xbd8f6cb5	-0.07003156
251	0xbd9b0c17	-0.07570665
252	0xbc50dc1b	-0.01274779
253	0x3ca442ef	0.020051448
254	0x3d4d727f	0.05015802
255	0xbd1c0668	-0.038092047

2.bias f4 [128]
0	0xbd18a9c4	-0.037271276
1	0x3cb9d33b	0.02268373
2	0xbb835eaa	-0.0040090876
3	0x3c8452cd	0.016152764
4	0xbd331243	-0.043718588
5	0xbca3be10	-0.01998809
6	0xbd1eb355	-0.038745243
7	0x3df17668	0.11790162
8	0x3e0b5df9	0.13610066
9	0xbd280870	-0.04102367
10	0x3d55617a	0.052094914
11	0xbd9f8a9f	-0.07790112
12	0x3d98e15e	0.074648604
13	0xbbad1408	-0.005281929
14	0xbb971c7c	-0.00461155
15	0x3c5820c5	0.013191407
16	0x3d84ddd5	0.064876236
17	0x3cde87b5	0.02716432
18	0xbd344a90	-0.04401642
19	0xbcde49cf	-0.027134804
20	0x3d6d16e5	0.057883162
21	0xbdc46db2	-0.09591235
22	0x3e0504c9	0.12990107
23	0xbc992693	-0.018695151
24	0xbc84a810	-0.01619342
25	0xbd8d2e53	-0.06893601
26	0xbc82cf70	-0.015968055
27	0x3d7b6658	0.0613769
28	0xbdbce863	-0.09224012
29	0x3db5de17	0.08880251
30	0x3c2f78f5	0.010709991
31	0xbd9da8b7	-0.076981954
32	0xbd309f23	-0.043120515
33	0x3d1c7860	0.038200736
34	0xbb1568c5	-0.0022798043
35	0x3d45c13d	0.04827999
36	0xbd5ca9f8	-0.053873032
37	0xbda73e2c	-0.08166155
38	0x3cb37a05	0.02190877
39	0xbd82e88d	-0.06392012
40	0x3d590356	0.052981697
41	0x3d1662d9	0.036715362
42	0x3ce93475	0.028467396
43	0x3deb4a3c	0.114887685
44	0xbd2d4ce8	-0.04230967
45	0x3cb19b81	0.021680595
46	0x3cc55ddf	0.024092613
47	0x3d7d1433	0.06178684
48	0x3c56dcc4	0.013114158
49	0xbdaf285f	-0.08552622
50	0xbcbb8bcc	-0.022893809
51	0xbce6d0cd	-0.028175736
52	0x3cf64b1e	0.030065116
53	0xbce1186b	-0.027477464
54	0xbd9ed02e	-0.07754551
55	0x3ce7d176	0.028298121
56	0xbbe6c183	-0.0070421114
57	0xbda07d75	-0.07836429
58	0xbd853572	-0.065043345
59	0x3cc5743c	0.024103276
60	0x3d650436	0.05591222
61	0x3dbe635f	0.09296297
62	0x3c0153dd	0.00789353
63	0x3dbb0240	0.091312885
64	0xbcc84c2a	-0.02445038
65	0x3e1bf245	0.15229137
66	0xbaaca37b	-0.001317128
67	0x3d7cd82c	0.061729595
68	0x3d4fb6be	0.050711386
69	0xbd9835ea	-0.07432158
70	0xbd6c06b7	-0.05762359
71	0x3e010c4a	0.12602344
72	0xbcc0a774	-0.023517348
73	0xbd8b3314	-0.06796852
74	0x3d7e85ec	0.062139437
75	0x3bc80bf1	0.006104939
76	0x3dd60b00	0.10451317
77	0x3d0b9bc9	0.034084115
78	0x3d6b01d3	0.057374787
79	0xbd86f310	-0.06589329
80	0x3d14d769	0.036338244
81	0xbd92e179	-0.07171912
82	0xbc695a80	-0.014242768
83	0x3d8d8ceb	0.069116436
84	0x3dac01a8	0.083987534
85	0x3d5832d5	0.052782852
86	0x3c825614	0.015910186
87	0xbd1e66f3	-0.0386724
88	0xbc9dae55	-0.019248167
89	0x3d8b37b3	0.06797733
90	0xbce240c6	-0.027618777
91	0xbd20faa9	-0.03930155
92	0x3c818012	0.015808139
93	0x3a58f455	0.00082761544
94	0x3cc7b13f	0.02437651
95	0xbcd2526d	-0.02567407
96	0x3e0d9071	0.13824631
97	0xbd755f70	-0.05990547
98	0xbd90284a	-0.070389345
99	0x3c71a6de	0.014749257
100	0x3bcadf7d	0.0061911927
101	0x3d34a298	0.044100374
102	0xbc0d4138	-0.008621506
103	0xbd837310	-0.06418431
104	0x3d70a76d	0.05875342
105	0x3c00d4c1	0.0078632245
106	0xbd65b98c	-0.056085154
107	0x3c81d4ab	0.015848478
108	0x3d8f97d3	0.0701138
109	0xbc8490f4	-0.0161824
110	0x3c37cfc3	0.011218968
111	0xbd98b608	-0.07456595
112	0x3d7672b5	0.060167987
113	0xbd053d54	-0.03252919
114	0xbcaf8065	-0.021423528
115	0xbd408d2a	-0.047009625
116	0xbd63db96	-0.055629335
117	0x3c076589	0.008263954
118	0x3d8d8070	0.06909263
119	0xbb9b9a6b	-0.0047486327
120	0x3d39f9d4	0.04540427
121	0x3e08e1ea	0.1336743
122	0x3c8e5591	0.017374786
123	0x3d4d01fa	0.050050713
124	0x3cd225e6	0.025652837
125	0x3d78eea1	0.06077445
126	0x3d487abd	0.048945177
127	0x3e24512d	0.16046591

4.weight f4 [8, 128]
0	0xbd435960	-0.047692657
1	0x3c9ee592	0.019396577
2	0x3d78ec58	0.06077227
3	0xbda909b0	-0.08253801
4	0xbdb73991	-0.08946527
5	0x3dad51ef	0.08462893
6	0xbe038e97	-0.12847362
7	0xbd3a1854	-0.045433357
8	0xbdb2b388	-0.08725649
9	0x3c5e8f20	0.013583928
10	0x3d0dc693	0.034613203
11	0x3c244d3d	0.010028181
12	0xbd8d2d82	-0.068934456
13	0x3c87d216	0.016579669
14	0x3d53fcd2	0.05175478
15	0xbce92a9b	-0.028462699
16	0x3c4a562f	0.012349649
17	0xbd704f44	-0.058669344
18	0x3dd7bc14	0.1053392
19	0xbd05ebda	-0.03269563
20	0x3c91d1b6	0.017800193
21	0x3d797b44	0.06090857
22	0xbd8bdda0	-0.06829381
23	0x3c743b88	0.0149067715
24	0xbdb3eb05	-0.08785061
25	0xbc24749d	-0.010037568
26	0x3d0af339	0.03392336
27	0xbde152f0	-0.11002147
28	0x3c49a91a	0.012308383
29	0xbd583f1a	-0.052794553
30	0xbd9a75e6	-0.075420186
31	0x3cd73cf7	0.026274187
32	0x3cedbc1b	0.02902036
33	0x3db628e5	0.08894519
34	0x3d0429b6	0.03226634
35	0x39a0d6bb	0.00030677565
36	0x3c5efb8e	0.01360978
37	0xbd830585	-0.06397537
38	0xbc807987	-0.015682949
39	0xbd413c10	-0.04717642
40	0xbc9ead79	-0.019369828
41	0x3d906a7c	0.0705156
42	0x3d179ffd	0.03701781
43	0xbcaddb09	-0.021222608
44	0x3b9e7a57	0.0048363614
45	0x3d8416bc	0.06449649
46	0x3ce23d4e	0.027617123
47	0xbdeb3f5a	-0.11486693
48	0x3c7b41d9	0.0153355235
49	0xbb8e76cd	-0.0043476583
50	0x3d8daf67	0.06918221
51	0x3d8c863f	0.06861543
52	0x3d674f2a	0.05647198
53	0xbcdfc7a0	-0.027316868
54	0xbd39836f	-0.04529136
55	0xbc8d7b17	-0.017270608
56	0xbd8f9b35	-0.07012025
57	0x3dac7bd4	0.08422056
58	0x3d5c9a38	0.053858012
59	0xbd48d248	-0.049028665
60	0xbd8cc4c8	-0.068734705
61	0xbd64f95e	-0.055901878
62	0xbca53a02	-0.020169262
63	0xbd99e035	-0.07513467
64	0xbd0537ec	-0.032524034
65	0xbd86f115	-0.065889515
66	0xbcb10460	-0.021608531
67	0x3d4bd304	0.049761787
68	0xbc2b6cdd	-0.010462967
69	0xbd4ab6da	-0.049490787
70	0x3d0a4588	0.033757716
71	0xbd4e1070	-0.050308645
72	0xbda8efab	-0.08248838
73	0x3d75a7b9	0.059974406
74	0xbd978363	-0.07398107
75	0x3d9c0060	0.07617259
76	0xbd968f7e	-0.07351588
77	0xbe18bb66	-0.14915237
78	0x3c5b9573	0.013402331
79	0x3d5068d9	0.05088124
80	0xbd82d42f	-0.06388127
81	0xbcac26a7	-0.021014525
82	0xbd3d72bf	-0.04625201
83	0x3be6fa4d	0.007048881
84	0xbd8517fa	-0.06498714
85	0x3cc59658	0.024119541
86	0x3c9649c9	0.01834573
87	0x3d8de20a	0.06927879
88	0xbd7e8e18	-0.06214723
89	0xbcb08595	-0.021548072
90	0xbd7483f1	-0.05969614
91	0x3cc58567	0.024111463
92	0xbdc8f5c4	-0.09812501
93	0x3d6c761d	0.05772983
94	0xbc2fca34	-0.010729361
95	0x3d04521b	0.032304864
96	0xbde60f69	-0.11233408
97	0x3cf512ec	0.02991625
98	0x3b72d085	0.0037050557
99	0x3bdc9959	0.0067321477
100	0x3c35a51c	0.011086728
101	0xbdc4bbee	-0.09606157
102	0x3d876551	0.066111214
103	0xbd893e45	-0.0670133
104	0xbd5c3441	-0.05376077
105	0x3d25494a	0.040353097
106	0xbc51a63b	-0.01279598
107	0xbd1d138d	-0.038348723
108	0x3d96412d	0.0733665
109	0x3d017df5	0.031614263
110	0x3d9da647	0.076977305
111	0x3d8d9cc6	0.06914668
112	0x3d86e154	0.06585947
113	0xbd8e618a	-0.06952198
114	0x3cb46b33	0.022023773
115	0xbcd89c9a	-0.026441861
116	0x3d832e13	0.06405272
117	0xbce935ee	-0.028468098
118	0x3c78555d	0.015157071
119	0xbcefe21a	-0.029282618
120	0xbd0fc55c	-0.035100326
121	0xbdc73cb8	-0.09728378
122	0xbccf5309	-0.025308149
123	0xbd6057cb	-0.054771226
124	0xbb3106d4	-0.0027012127
125	0xbdaf1140	-0.08548212
126	0xbdce90bf	-0.10086202
127	0xbb971dfd	-0.004611729
128	0xbd06bc96	-0.032894693
129	0xbc0aca96	-0.008471152
130	0x3c6c32d0	0.0144164115
131	0xbdb40c96	-0.08791463
132	0x3d495b17	0.049159136
133	0xbdb05115	-0.08609215
134	0x3cbcd21d	0.023049409
135	0xbd9dce78	-0.077053964
136	0xbdb1947a	-0.08670898
137	0xbd83746c	-0.0641869
138	0xbd69986c	-0.057030126
139	0x3d716df1	0.05894274
140	0xbe233e34	-0.15941697
141	0x3d15bf1d	0.036559213
142	0xbc8dc660	-0.017306507
143	0x3c0096a6	0.007848417
144	0xbd0ec46b	-0.034855288
145	0xbdf7a757	-0.120924644
146	0xbc2dff27	-0.010619915
147	0xbdb260e8	-0.0870989
148	0xbc9415b5	-0.018076757
149	0x3d91ecb8	0.07125229
150	0xbd1af628	-0.03783241
151	0x3d3b20dc	0.045685634
152	0x3d15d39e	0.036578767
153	0x3ca3e730	0.0200077
154	0x3d6b8e44	0.057508722
155	0x3c4110d5	0.011783798
156	0x3d8dbca4	0.06920746
157	0x3d54705f	0.051864978
158	0xbde93505	-0.11387066
159	0xbb23d1cc	-0.0024996875
160	0xbd44d681	-0.04805613
161	0xbd140642	-0.03613878
162	0x3d5207a7	0.05127683
163	0xbcb31c1f	-0.021863995
164	0xbc7a25af	-0.0152677735
165	0xbd5845b3	-0.052800845
166	0xbde8f9bc	-0.11375758
167	0xbd5a71d9	-0.05333123
168	0xbd05eea0	-0.032698274
169	0x3d1b5926	0.037926815
170	0x3d8d0309	0.068853445
171	0xbdcea6f9	-0.10090441
172	0xbd15a4c8	-0.0365341
173	0x3b94d96a	0.0045425193
174	0xbd858704	-0.06519893
175	0xbe18dbe1	-0.14927627
176	0xbcef62b2	-0.029221866
177	0xbd47385d	-0.048637737
178	0xbdada0e7	-0.08477955
179	0xbd3f2e6e	-0.04667514
180	0xbde86f3c	-0.11349341
181	0xbdc40e96	-0.095730945
182	0x3d519647	0.051168706
183	0x3d90f8c4	0.07078698
184	0x3b6da1d5	0.003625979
185	0x3c404093	0.011734146
186	0xbd09d69e	-0.03365194
187	0xbe02794c	-0.12741584
188	0xbcea3954	-0.02859179
189	0xbc2f46af	-0.010698005
190	0xbbe4cc21	-0.006982342
191	0xbdb7d39f	-0.089759104
192	0x3bee1c24	0.007266538
193	0xbcea0d59	-0.028570818
194	0xbd138e8e	-0.036024623
195	0xbdb3bba9	-0.08776028
196	0x3dbbc352	0.09168114
197	0x3ce49bf5	0.027906397
198	0x3ce376cb	0.027766606
199	0x3d12d7a4	0.035850182
200	0x3d17c853	0.03705628
201	0x3da15be4	0.07878855
202	0xbdbb5d57	-0.091486625
203	0xbd0cbbdd	-0.034358848
204	0xbdd82384	-0.10553649
205	0xbcbe6b35	-0.02324448
206	0xbd824466	-0.06360702
207	0x3da7c209	0.08191306
208	0x3d74d5ef	0.059774335
209	0x3ba2d112	0.004968771
210	0xbcdc15c6	-0.026865851
211	0x3c464398	0.012101077
212	0xbcaba4e5	-0.020952651
213	0x3d440456	0.047855698
214	0x3d71ca21	0.059030656
215	0xbbcd21d6	-0.006260137
216	0x3d740e28	0.059583813
217	0xbd9ddf65	-0.07708625
218	0x3d1aae09	0.03776363
219	0x3d82250a	0.06354721
220	0xbc4d3fff	-0.012527465
221	0x3c742abc	0.014902767
222	0xbd93148d	-0.07181654
223	0x3d6de70d	0.058081675
224	0xbdf5665e	-0.119824156
225	0x3d9bd14c	0.076082796
226	0xbd969484	-0.07352546
227	0xbd1b49b9	-0.037912104
228	0x3d806cf6	0.06270783
229	0xbc8a033f	-0.016847251
230	0x3b9190f8	0.0044423304
231	0xbd89fb27	-0.06737357
232	0xbdabdd66	-0.08391838
233	0xbd21f0f9	-0.03953645
234	0xbdac8666	-0.08424072
235	0xbd318390	-0.04333836
236	0x3c209658	0.00980147
237	0xbd1c0794	-0.038093165
238	0x3d682da9	0.05668417
239	0x3d9b37d8	0.07579011
240	0xbda71ae5	-0.081594266
241	0x3b2cdb2a	0.002637575
242	0xbce0cc04	-0.027441032
243	0xbd5d69bb	-0.05405591
244	0x3cb875fa	0.022517193
245	0xbcee5696	-0.029094022
246	0x3d0b8a8c	0.034067675
247	0xbd545f73	-0.05184884
248	0xbda27b45	-0.07933668
249	0xbd81c2e7	-0.06336003
250	0xbd2a77b9	-0.041618083
251	0xbdc955df	-0.09830832
252	0x3d8c85c8	0.06861454
253	0x3dadbbfd	0.084831215
254	0xbe0496f1	-0.12948205
255	0xbdd497b0	-0.103804946

4.bias f4 [8]
0	0xbdca91fe	-0.09891127
1	0xbbcb3e86	-0.0062025217
2	0x3cbd366c	0.02309724
3	0x3c9eab63	0.019368833
4	0xbd9d4bea	-0.07680495
5	0xbdce2d28	-0.100672066
6	0xbd577f0d	-0.0526114
7	0xbddf3abf	-0.10899877
