Runs/10/final_model-rate=4.pth (torch, 75908 bytes, 6 tensors)

0.weight f4 [128, 5]
00000000: 9f0e 8abd 1335 25bd b042 b1be fe73 943e
00000010: 1aa3 ddbe 5093 6b3e 82e5 a53e 05f2 57bc
00000020: c212 6b3e b593 823e 1e57 2dbe 63fb 60be
00000030: a3da ecbd c6c9 893e 76ab 923a 6ed3 5c3e
00000040: 8924 963e efa1 01bd ab66 b93c 3ee7 afbe
00000050: 05ab cfbd 1746 6cbe 2f7c 913e fb12 11bf
00000060: ead5 f6be c758 99be b141 943e 4503 64bd
00000070: c6af 853d e5d4 b8be f23b 603e 4459 cabe
00000080: a9ac bbbd 1fe1 c4be afdf 1b3e c232 473e
00000090: 0c3b 80be 13e3 9bbe 35f5 0b3c 07b9 883e
000000a0: d291 8e3e a911 973d 1600 8a3a 6996 8abe
000000b0: 7632 4c3d cde7 2abc 47f7 13bf 6353 35bd
000000c0: e85e 0e3d 9021 79be c196 8e3e f1b9 c8bd
000000d0: 8bb2 813e c7f8 0a3e d5f4 9dbe 52db 8b3e
000000e0: 4f42 8f3c 45e2 8abe 4376 d73d 5fc9 9dbe
000000f0: e464 92be 2f93 54bd bcef ae3d 5e13 15be
00000100: 6b79 ac3e 09cb 2fbe 9f9f 01be 7688 6a3e
00000110: e1ba b1be 536f 573d f9c6 843e ce07 893e
00000120: 314d 6b3a 056f e6bd a1cf f7be 916e f0bd
00000130: 22b1 533d 67ed 563e dee9 8bbe e68a 03bf
00000140: 0cc7 72be f2b1 a3be 4f11 9cbd 8ed9 09be
00000150: f166 64bd 0fb1 0cbe cc22 c1be 6776 853d
00000160: 9736 aa3d 50cd 8ebd c2c4 9bbe bedc 0abf
00000170: c41b 233d 9c5a 51be 630d 32be 669c ddbc
00000180: a53e cfbb 6c33 603d f035 b3bb 8071 b13d
00000190: 45c7 4b3e db51 86be 6062 29be 12fc 6e3e
000001a0: 6ab5 8cbd 0239 123e 46a3 af3e b7dc b83d
000001b0: 2cc7 4dbe 0854 f0be 0216 5b3e fdb7 0bbe
000001c0: 8bda a5be aa5c 9d3c fd4f 433e 23e0 89bd
000001d0: ac1a 9dbd 2171 01be 9592 cabe 1317 29be
000001e0: 9ca5 48be 863e d7be 4f21 7e3e da54 b6be
000001f0: 730c 15bf d428 a03e 99b1 8bbd 8dd7 103e
00000200: 1883 633e 3cd8 0cbf ae00 ac3e a721 babe
00000210: e5cb b0be 7918 6e3e b718 85be ee53 4a3e
00000220: bb5b 03bf b9e3 cb3d 7e89 ec3d c9d4 d3be
00000230: 4528 b3bd 97ff fcbe 7f52 1abd 9f95 923d
00000240: 3d05 16be 2789 97be ee82 923e 208d 1d3d
00000250: e4b6 7ebe 3c3e a93e 82e9 b43e 33f3 283d
00000260: 6020 943c 8d19 243c 99cf bbbc 433f 3d3d
00000270: cb8d 463e a26f 46bd 0031 f1bd a0e1 efbe
00000280: 10b5 db3e f293 5ebe e0e2 cabe 89fc a3be
00000290: 2975 d93e 5d98 9bbd e0c0 38be daf3 bcbd
000002a0: 43dd 9b3d 773f de3d a62f ce3e 5751 f03e
000002b0: 4db8 62bd 22c6 7dbe b5e5 ecbe 5246 e33d
000002c0: dd80 683e 9cf0 dc3d d11c 0a3e ec8b 34bd
000002d0: c174 483e 5904 b5be 1401 9f3d dbb0 bd3d
000002e0: 9ee5 10bf af44 9ebe c809 023e 55e7 dcbe
000002f0: 12e6 c3be ff6c c03d be1a afbe cbaf 78be
00000300: a692 883d ac7b 2a3e 26c6 383e 2395 7fb8
00000310: 1b0a acbe 3d42 5b3e 01e5 c5be 6402 bfbe
00000320: fe60 493c f52c d6be 1a85 0d3e e9ed 40bb
00000330: 4418 d0be 265d d03e d32d 653b 0b42 bc3d
00000340: 1543 13bf 20e9 d8bc d043 973e 004e 583e
00000350: 63d5 7abd bd1a b2bd e960 2b3e 49a1 3cbe
00000360: 8e72 373e db45 88bc 48d2 113e 3ce1 cc3d
00000370: bc1a c6be f694 f6bd 527f 55be 5595 b1bc
00000380: 2421 a43e 1644 0fbe 6995 d6be b608 a3be
00000390: 108c 19bd cf61 cbbd 6d3e 6c3d 7791 8a3e
000003a0: c529 83be 9c75 f0bd a66a dfbe e491 383e
000003b0: faf3 79be 30a0 86be 276d 87be c0cb a23d
000003c0: 0ca0 4fbe 2a1a 043e 8420 1c3e deed dcbe
000003d0: 69c4 863d 51bc 8bbe b789 193d da80 363d
000003e0: 5ee0 8cbe 331d 94be 8315 903e a877 ddbe
000003f0: 071d 913c b025 97be f78b 9e3e 0e1f a6be
-0.0674107 -0.04033382 -0.3462119 0.28994745 -0.432885 0.23005414 0.32401663 -0.013180261
0.22956374 0.25503317 -0.16927764 -0.21970896 -0.11565139 0.26911753 0.0011190015 0.21565029
0.2932475 -0.031648573 0.022631964 -0.3435611 -0.10140041 -0.23073612 0.28415057 -0.56669587
-0.48210078 -0.29950544 0.2895637 -0.05566718 0.06527667 -0.36099926 0.21897867 -0.3952123
-0.09163792 -0.38453004 0.15222047 0.19452956 -0.2504505 -0.3044668 0.008542349 0.26703665
0.27845627 0.07376415 0.001052859 -0.2706788 0.04985281 -0.010431242 -0.5779919 -0.044268977
0.03475848 -0.2432921 0.2784939 -0.098010905 0.2533153 0.13571464 -0.30850855 0.27315766
0.017487673 -0.27125755 0.105206035 -0.30817696 -0.28592598 -0.051898178 0.085418195 -0.14558169
0.33686385 -0.17167296 -0.12658547 0.22903618 -0.3471289 0.0525964 0.25933054 0.26763767
0.0008976041 -0.11251644 -0.48400596 -0.11739839 0.0516826 0.20989 -0.27326864 -0.5138382
-0.23708743 -0.319717 -0.07620489 -0.13461897 -0.055762235 -0.13739417 -0.3772186 0.06516724
0.083111934 -0.06972754 -0.30423552 -0.54243076 0.0398214 -0.20444721 -0.17387919 -0.027052116
-0.0063246065 0.05473654 -0.0054690763 0.086642265 0.19900234 -0.26234326 -0.16541433 0.23338345
-0.068705395 0.14279559 0.34304255 0.09026473 -0.2009551 -0.4693911 0.21395114 -0.13644405
-0.32393298 0.019209225 0.19073482 -0.06732204 -0.07671103 -0.12640812 -0.39564958 -0.16512708
-0.19594425 -0.4203989 0.24817394 -0.35611612 -0.5822212 0.3128115 -0.068209834 0.14144726
0.22217977 -0.5501745 0.3359427 -0.363538 -0.3453056 0.23251523 -0.25995418 0.19758579
-0.51311845 0.09955544 0.11549662 -0.4137328 -0.08747915 -0.4941375 -0.03767633 0.07157444
-0.14650436 -0.29596826 0.28615516 0.038464665 -0.24874455 0.33055294 0.35334402 0.041247558
0.018081844 0.010015857 -0.022926139 0.04620291 0.19390027 -0.048446305 -0.11776924 -0.46851826
0.42911577 -0.21736124 -0.39626217 -0.32028607 0.424722 -0.0759742 -0.18042326 -0.092261985
0.07610562 0.10851949 0.40270728 0.46937057 -0.055351544 -0.24782613 -0.46269003 0.11097397
0.22705407 0.1078808 0.13487555 -0.044078752 0.19575788 -0.3535488 0.077638775 0.09262248
-0.5660037 -0.30911776 0.12699044 -0.43145242 -0.38261467 0.09395789 -0.3420009 -0.2428581
0.06668596 0.1664874 0.18044338 -6.0935632e-05 -0.3360146 0.21411987 -0.3865128 -0.3730651
0.012291191 -0.41831174 0.13820305 -0.002943868 -0.40643513 0.40696067 0.003496994 0.09192284
-0.57524234 -0.02647835 0.29543924 0.21123505 -0.061238658 -0.08696506 0.16736187 -0.184209
0.17914793 -0.016634872 0.14240372 0.100038975 -0.38692272 -0.12040131 -0.2084935 -0.021677652
0.32056534 -0.13990816 -0.41910866 -0.31842583 -0.03748709 -0.09930765 0.05767672 0.27064106
-0.25617805 -0.11741182 -0.43636054 0.18024403 -0.24409476 -0.26294088 -0.26450464 0.079490185
-0.20275897 0.12900606 0.15246779 -0.43150228 0.06580431 -0.27292112 0.03748485 0.044556476
-0.2751493 -0.28928527 0.28141412 -0.43255353 0.017714037 -0.2952094 0.3096616 -0.32445568

0.bias f4 [128]
00000000: 92f6 c63e 3da5 4dbe b469 efbd cf48 a3be
00000010: 7038 92bc bf92 c2be 9efd 753e 6ea3 463e
00000020: b2d1 4bbd 333c 4a3e fa25 943d 7ac6 5d3e
00000030: d74c 97be 6f1f 06bf 5ae3 afbc e82f 39be
00000040: 5f8f c8be 6ec0 f9be 0587 923d a32b 90be
00000050: dbca a33e 4852 fabd 9ccd 80be 59e0 56be
00000060: 3cac cbbe b3a8 debd 2d65 853e 38f6 303d
00000070: cc86 a23c 7b46 a9be 0392 03be 338d 4e3e
00000080: 7746 dabe bac2 53be 72c6 803e 7a38 28bd
00000090: 83a2 95be 33be a43e 66f5 a4be a073 cdbe
000000a0: 7b01 e7be 5655 8e3d 6707 5cbe 188f 0bbe
000000b0: ebdc 773e 55d9 ec3c 8312 bcbd 886f 91be
000000c0: 2524 8dbe 9c29 93be dbe8 b5bd 2915 b13d
000000d0: 7c5a b53e 89cb e53d d804 76be cd0f 5b3d
000000e0: fb8a e1be b7ec 973e 8570 c2be ffb7 35be
000000f0: b0c3 0c3d 0ba3 0bbd 1af6 d3be ea45 cd3e
00000100: 0e28 9abe a7e2 633d 8ffd b13d 34b9 09bd
00000110: 404a 5c3e 5b9f 70be 124f 13bf 392a 973e
00000120: dd8a 3a3e 5d44 45bd 6530 413e 46b3 80be
00000130: 6bfb 573e 3488 843e d4b3 9cbe 045c 8bbc
00000140: 2235 eabe fecb 78be c380 81be 1240 ea3d
00000150: 226d 673c 6eec a5be 8f0b febe ef93 5a3d
00000160: 42a3 25bf a261 bc3e c357 f6bd 0d6d 46be
00000170: ff90 8cbe 0ff7 aabe d394 b4be eb58 d93d
00000180: 37e8 a13e 634b 4fbe ca43 1a3e ec23 5d3e
00000190: 8332 eabe 7f63 043e de6c d2be 1d4f 43be
000001a0: 9c22 423e 139a ddbe 9ac6 b6be e8ce a2be
000001b0: 4c73 723e 1834 b33d 85a0 f53e a613 b6bd
000001c0: 0604 d9be 6fbf 2c3e 8d98 bbbe 34dd a33d
000001d0: a380 373e d23a 20bd d512 ef3d f1dc f8be
000001e0: eca1 66be e36e d8be a950 803e d604 f5bb
000001f0: 9ed3 923e bd5b 393e c688 923e 3b42 7b3d
0.38859993 -0.20082565 -0.11690083 -0.31891486 -0.017849177 -0.38002583 0.24022529 0.19398281
-0.049760528 0.19749527 0.07233806 0.21657744 -0.29550812 -0.52391714 -0.021470714 -0.18084681
-0.39171883 -0.48779625 0.07154659 -0.28158292 0.31990704 -0.12222725 -0.25156868 -0.2098402
-0.39779842 -0.108720206 0.26053753 0.043203562 0.019839667 -0.33061585 -0.12848668 0.2017105
-0.42631885 -0.20679751 0.25151402 -0.041069485 -0.2922555 0.3217636 -0.32218474 -0.40127277
-0.45118317 0.0694987 -0.21487199 -0.13628805 0.24205367 0.028912226 -0.09183218 -0.28405404
-0.2756664 -0.28742683 -0.08882304 0.08646614 0.35420597 0.11220462 -0.24025285 0.053481866
-0.44051346 0.29672787 -0.3797647 -0.1774597 0.03436631 -0.034091037 -0.41398698 0.40092403
-0.30108684 0.055636074 0.086909406 -0.03362389 0.21512699 -0.2349829 -0.57542527 0.295244
0.18217035 -0.0481609 0.18866117 -0.25136775 0.21092002 0.25885165 -0.30605948 -0.01701165
-0.45743662 -0.24296567 -0.2529355 0.11438002 0.01412514 -0.32406944 -0.49618194 0.053363737
-0.64702237 0.36793238 -0.12028458 -0.19377537 -0.27454373 -0.33391616 -0.35269794 0.10612663
0.31622478 -0.20243602 0.15064922 0.21595734 -0.45741662 0.1292858 -0.41098684 -0.19073148
0.18958515 -0.43281612 -0.35698396 -0.31798482 0.23676795 0.087501705 0.4797403 -0.088904664
-0.42385882 0.16869901 -0.36639825 0.080011755 0.17920165 -0.039118595 0.11673514 -0.48606065
-0.22522706 -0.422721 0.2506154 -0.007477383 0.28677076 0.18101402 0.28619975 0.06134246

2.weight f4 [128, 128]
00000000: d9f1 843d b712 f7bc 1d04 30be 27e1 9b3d
00000010: 2309 c93d d295 303d da0f 7b3d 93d7 ad3c
00000020: 5b2b a4bc 8db8 6dbd 66f0 75bd 4372 553d
00000030: b979 83bd 3112 86bd e059 07bd 4233 90bd
00000040: cfd4 95bd 5055 81bd 3ed9 9fbd aebe 2abd
00000050: 4c5e a1bd f809 f9bd 9329 8fbd f428 c4bc
00000060: fdc2 95bd 0e0f 07be 803a 89bc df13 53bc
00000070: f183 16bd 7711 f5bd 649c 38bd 92a8 553e
00000080: 7e0a 79bd d81f 4e3a 0fb2 b9ba dacf a6bd
00000090: cf63 35bc d5ab 303d b427 fcbd dbff 1f3d
000000a0: c2cb c3bd 7d8d da3d 16ad 39bd bb14 76bb
000000b0: ab09 53bd 3211 7cbc e04f 773d 1057 8cbd
000000c0: 73a2 8ebd 6551 b0bd bc6e 66bb 45d9 113d
000000d0: 7b9a 90bc 3344 b0bd 312c 3e3d 7329 96bd
000000e0: 5b86 6dbc 3565 933d f707 d8bd 3230 0fbc
000000f0: cd06 b2bb 8620 fbbd 9258 433d 69e1 2f3d
00000100: 6926 903d 0490 9ebd 4416 afbd fde9 a4bb
00000110: 06dd 51bd eb88 043d 4257 0bbe 188d fa3d
00000120: fbd0 0239 f0a4 45bc a697 c23d ab60 69bd
00000130: 39f3 a5bc 497d 6c3e ff00 943d 3aea 3e3d
00000140: 053f 05be 5ad0 893d e46b 9fbe 2d67 47bd
00000150: 0212 a03b 463a a2bd b240 5abc 3540 27bd
00000160: d81d 28bd 43c6 343d 94f5 5abd 6554 7a3b
00000170: e974 4fbd 7962 403d 47af 80bd ede4 f83c
00000180: c062 a23c 6302 a4bc 7d4a 85be 4281 61bd
00000190: 9d40 c0bd 0b68 66bd 8ce2 9cbd 7c4c f6bd
000001a0: e5e3 e4bb 099a 3fbd 749b 83bd 329a 36bc
000001b0: f29b 7b3d e594 38bd 7a6b 2a3d e89b 903d
000001c0: 53bd b03d 1378 05be cce8 03bd 5434 11bd
000001d0: 41f4 e93c db7a babc 49a3 cbbd d412 d5ba
000001e0: 2f46 3dbd d8f3 aebd 280a 27be 84e4 5fbd
000001f0: c371 063d 31af 993d 260c b1bb c7d2 21bd
00000200: 5213 923d 848c 12bc e5b2 11be df2e 6fbd
00000210: 9014 b93c edff 79bc 7df5 a73d 6c1b 81bd
00000220: bb12 1f3d 8be3 bcbd 7986 a9bc 970a e23c
00000230: ae6d afbd 0a91 2c3d 9a06 08bd 4f29 8e3c
00000240: 46ca 10bc f413 7bbd cb26 03bd ce47 55bd
00000250: f61d ecbd 000e a3bd d0df aa3d 8198 20bd
00000260: 9e4f 95bb f9f8 39bd bb5a 8a3d 70f4 5f3d
00000270: bbfc 11bd 20e8 9c3c 28e9 c63b 1860 8e3c
00000280: 6104 3f3d 2b22 47bd 82b7 393d 843a e739
00000290: 32e0 cdbd b0a7 aebc f9ea 04be 1e08 abbd
000002a0: 0b06 10bd 20a2 183d 1cb9 7cbd 8999 b3bd
000002b0: 3a89 93bc 6269 563c f658 9cbd 51c3 2abd
000002c0: cc35 a5bd 0d4e 9bbd b867 123d 6532 c5bd
000002d0: f989 28bd c663 1a3d 5a64 97bd c9c2 a23d
000002e0: ee30 8cbd d6b9 4ebc d7b6 f9bd 54d2 a73c
000002f0: 5bd7 403d af4d 533d 94c1 77bd 8a67 3e3d
00000300: e639 433d 3c70 1dbb de15 9238 c22c 1e3d
00000310: 44e6 9d3d 5b8d 933c 423b e1bc 41ad 853d
00000320: bb1c 89bd 7e5e de3c fc1f 7cbd d92a dabd
00000330: 71d9 2a3d 3356 083d 4fc8 833d 4793 f03c
00000340: 98bc 743c 1881 523c e859 a2bd faff b0bd
00000350: 7c6a a73c cb13 9ebc 404f fcbd e184 a9bd
00000360: 22da f6bd 11a7 3cbd c056 d5bd 14be 1dbd
00000370: 5769 753d abca 9cbd 5b12 b23d 4851 923d
00000380: c47f 293d ad5e d03c afdd a5bc bd21 593d
00000390: 4e73 e4bd 55d1 ebbd 83b5 123d 5ec7 dd3c
000003a0: d8d4 a43c c33a b3bb a385 32bd 6f13 2cbd
000003b0: 754b babc 56d0 b1bd 81a0 303d 4d8b 353d
000003c0: ebce c1bc 029f 9bbd 2110 dfbc 5a48 9ebd
000003d0: 8f17 38bc ffda 83bd cb60 91bc e595 64bd
000003e0: c351 853d 5526 0e3d 31e8 293c cd60 2e3d
000003f0: d492 84bd 6328 433d 7f5d 7dbd b2fc 273d
0.06491441 -0.030160291 -0.17189069 0.07611304 0.09816196 0.04311163 0.061294414 0.021220958
-0.020040205 -0.05803733 -0.060043715 0.05211092 -0.06419701 -0.065464385 -0.033044696 -0.07041027
-0.07315981 -0.063151 -0.078051075 -0.041685753 -0.07879314 -0.121601045 -0.069903515 -0.02394531
-0.07312582 -0.13189337 -0.016751528 -0.012883156 -0.036746923 -0.11966222 -0.04507102 0.20865086
-0.06080102 0.00078630215 -0.0014167445 -0.08145113 -0.0110711595 0.04313262 -0.1231226 0.039062362
-0.09560348 0.10671518 -0.045331083 -0.0037548977 -0.051522892 -0.015384959 0.06037891 -0.06852543
-0.069645785 -0.08609275 -0.0035161218 0.035607595 -0.017651787 -0.08606758 0.046428863 -0.073321246
-0.014497365 0.07197038 -0.10548394 -0.008739518 -0.0054329396 -0.12262063 0.04769189 0.042939577
0.07038576 -0.077423126 -0.08549169 -0.0050327764 -0.051236175 0.032357138 -0.13607505 0.12233943
0.00012475617 -0.01206325 0.09501581 -0.056976955 -0.02025758 0.23094667 0.072267525 0.046610095
-0.13012321 0.06729193 -0.31137002 -0.04868238 0.004884959 -0.07921271 -0.013321089 -0.040832717
-0.041044086 0.04413439 -0.053456858 0.0038197276 -0.050648604 0.04696891 -0.062834315 0.030382598
0.019822478 -0.02002067 -0.26033393 -0.05505491 -0.09387324 -0.056251567 -0.07660398 -0.12026307
-0.006985175 -0.04677776 -0.06426135 -0.011145161 0.061428018 -0.045063872 0.041606404 0.07060987
0.08629861 -0.13034086 -0.032204434 -0.035450295 0.028558852 -0.02276366 -0.099432535 -0.0016256222
-0.04620951 -0.08542603 -0.16312468 -0.05466129 0.032823335 0.07504118 -0.0054030595 -0.039507654
0.07132591 -0.008944634 -0.14228399 -0.05839431 0.022592813 -0.015258771 0.0820112 -0.063040584
0.038836222 -0.09223088 -0.020694004 0.02759294 -0.085658416 0.042130508 -0.03320942 0.017353682
-0.008837288 -0.061298326 -0.032019418 -0.05207043 -0.11529152 -0.07961655 0.0834347 -0.03920794
-0.0045566102 -0.045403454 0.06755587 0.054676473 -0.035641413 0.019153655 0.006070275 0.017379805
0.046635035 -0.04861657 0.045341022 0.0004410335 -0.100525275 -0.021320194 -0.1298026 -0.083511576
-0.035162013 0.03726399 -0.06169997 -0.08769519 -0.01800977 0.013086649 -0.076341555 -0.041690174
-0.080669016 -0.075832464 0.035743445 -0.096287526 -0.041147206 0.037692808 -0.073921874 0.079473086
-0.0684527 -0.012617549 -0.12193077 0.020486034 0.04708038 0.051587757 -0.060487345 0.04648546
0.047662638 -0.0024023196 6.9658956e-05 0.038616903 0.07709935 0.01801174 -0.027494077 0.06527186
-0.06694933 0.027144667 -0.06155394 -0.10652704 0.041711275 0.03328533 0.0643469 0.029367102
0.014937542 0.012848161 -0.079273045 -0.08642574 0.020436518 -0.019296547 -0.12319803 -0.08277298
-0.12053324 -0.046057764 -0.10416937 -0.03851135 0.059914913 -0.07655843 0.08694907 0.071444094
0.041381612 0.02543577 -0.020247309 0.05301069 -0.11154805 -0.11514536 0.035817634 0.027072605
0.020121023 -0.0054696514 -0.043584477 -0.04201072 -0.022741059 -0.08682315 0.04312182 0.0443223
-0.023658236 -0.07598688 -0.02722937 -0.07728644 -0.011236086 -0.064382546 -0.01774635 -0.055807013
0.065097354 0.034704525 0.0103703 0.042572785 -0.06473318 0.047645938 -0.061856743 0.041012473

2.bias f4 [128]
00000000: 5113 dfbc 4a62 c8bc a0a4 88bd 0bab 3cbd
00000010: 8300 f3bc 78cd abbd b9ce 29bb 7814 d83c
00000020: 5572 0e3d f4ef 243d 8e4d eb3c 90a2 353d
00000030: 0176 dabc b303 4dbb 976a 9ebd b609 8e3b
00000040: 04fa aebd 79a4 4abd 8c7d f0ba 37e7 97bd
00000050: 755e 2abc f619 43bd 8dbd 003e 99b2 813d
00000060: a69e dd3c 64c6 4ebc 9bb4 c9bd 138e a7bc
00000070: 1bb2 06bc c9d7 f3bd 8d49 ff39 ebbb cbbd
00000080: bf30 55bd 0fc6 193c 2f75 debd aa57 8e3d
00000090: 35fd 453b 2a6c 26bd 9e18 80bd 6ce3 debc
000000a0: d315 0d3e e4de fd3b cacd 83bd 7295 11bd
000000b0: f8a3 8ebd 0e48 18bd 6c40 fc3c e5a3 33bd
000000c0: dc1d f2bb e165 1c3e 92b9 8dbd d894 de3b
000000d0: 195c bcbd 2883 bfbd a120 1a3d c94f 823a
000000e0: 5d08 57bd 928f fdbc fa77 b7bc a711 f63d
000000f0: cd0b edbd a590 abbd 3351 b0bd 748c a3bc
00000100: ef6b dcbc 5118 573c b6c6 42bd 087a 89bd
00000110: b87b 8bbd 03ec de3d 701e 233c 3cb1 34bd
00000120: 09f7 be3d f7e8 81bd 245c a9bd 451c 12bc
00000130: b20e 1fbc 5e14 1bbd 5b22 22bd efc8 923c
00000140: 36a9 9a3d e998 e1bd e323 5dbd 9116 bdbd
00000150: 0ee6 f6bd cabf 4abd c955 483d 8495 cdbd
00000160: 9ad0 84bc 2183 56bd 222e 783c 59b3 df3c
00000170: 8797 4f3c a68d 573d 564b 82bc dfb5 67bd
00000180: df19 b73a c01f afbd 901c f53c 7d1d 84bd
00000190: 6682 d0bd 1607 533c 3ac0 debc 1f18 bebc
000001a0: dfcd a8bd 7a74 183c f1d4 5dbd f543 8a3c
000001b0: b942 91bc f98e fb3c bc9b 853d 96ec 6b3d
000001c0: 1f0b 9cbd 2101 cebd 31f4 f1bd aed9 e43c
000001d0: 89f6 dd3c f858 e03c 97bf a7bd 8ce2 b1bd
000001e0: 330e edbd 76d5 adbc e14a 373d b365 1e3d
000001f0: 77ce 48bd 46b4 3fbd 2ea7 aebd 41de e5bc
-0.02723089 -0.02446093 -0.06672025 -0.046061557 -0.02966333 -0.083887994 -0.002591057 0.026376948
0.034777004 0.0402679 0.028723504 0.044344485 -0.026667597 -0.0031282722 -0.07735174 0.0043346537
-0.085437804 -0.04947326 -0.0018347963 -0.074171476 -0.010398497 -0.04763218 0.12572308 0.06332893
0.027053189 -0.012620542 -0.09848901 -0.020453488 -0.008221175 -0.11906392 0.0004869219 -0.09947952
-0.05204844 0.0093856 -0.10862195 0.06950314 0.0030210738 -0.040630497 -0.06254695 -0.027208053
0.13777857 0.007747518 -0.064357355 -0.035542913 -0.06964868 -0.03717809 0.030792437 -0.043857474
-0.0073888134 0.15273239 -0.0692016 0.006792646 -0.09197254 -0.09351188 0.037628774 0.0009941991
-0.05249821 -0.030952249 -0.022396076 0.12015086 -0.115745164 -0.08377198 -0.086092375 -0.019964434
-0.026906935 0.013128356 -0.047552787 -0.06712729 -0.06810707 0.108848594 0.009955987 -0.044114336
0.09324462 -0.06343263 -0.082695276 -0.008917873 -0.0097080935 -0.03786122 -0.039583545 0.017918078
0.07551806 -0.110154934 -0.053989302 -0.0923282 -0.12055598 -0.04949931 0.048909936 -0.100382835
-0.01621275 -0.052371148 0.015147718 0.0273072 0.012670404 0.05262532 -0.015905064 -0.05656993
0.0013969502 -0.08550978 0.029920846 -0.06450937 -0.101811215 0.012880107 -0.02719127 -0.023204861
-0.08242392 0.009305114 -0.054158155 0.016878108 -0.017732011 0.030707823 0.065238446 0.057598673
-0.07619309 -0.10058809 -0.11814154 0.027935829 0.027095096 0.027386174 -0.0819084 -0.086857885
-0.11574974 -0.02121995 0.044749144 0.038671207 -0.049025025 -0.04680278 -0.08527981 -0.02806008

4.weight f4 [8, 128]
00000000: 95e0 3dbe 7b45 91bc 3317 4f3d 1fc4 c8bc
00000010: 4b59 8b3d 39e9 b3bc 3233 c6bd dec0 893d
00000020: d439 19be 5f19 6d3d dc82 69bd 0107 37be
00000030: f7cc 6d3d 6e73 f03c f60f 24bd 0d13 61bd
00000040: 4290 abbd c2bd bbbd d932 b0bd 2ab3 00bd
00000050: 0e79 99bd 683f 8c3d 2b1c 613d aaa3 483c
00000060: 68f6 1bbe 37f7 073c 0c8f 803c 7eca b73c
00000070: 825e a0bd 5905 843c 8f7d 8a3d d135 8bbc
00000080: 176f 3cbc b157 13bd 4245 21bd beaf d2bc
00000090: 09f6 233b c607 a53b 0ac0 85bd bcfe 02be
000000a0: 942b 61be 6a7a 183d 12fe aa3d 6341 f63b
000000b0: 35cd 30bd db06 793d b657 7ebd 3f4a 18be
000000c0: f428 503d 92a4 2fbe 482e eabb 4a56 8c3c
000000d0: 39b7 41bd f920 17bd 0533 adbd 973c 3dbc
000000e0: f9aa d6bd c852 f7bc bb6b 073d 9b1b 11be
000000f0: b83c d73c 686a 94bd df9a 933d 39f0 b739
00000100: 5b3c 8bbd 78e4 943c 1460 923d 1807 eebb
00000110: 1656 aabd 0746 303e be97 3dbc 6d82 ab3d
00000120: d69e a23e afa7 6ebd 2be4 98bd 3a36 50bd
00000130: 67b0 423d 9a3c f6bc 4003 07bd 3168 49b9
00000140: 697c e9bd 8af6 8d3d f9c5 03bd 76ec 8f3c
00000150: d35a 9fbc c86f 05bd 5fe0 05bd e9c2 7bbd
00000160: b956 033c 24f4 623d 00a6 c83d 62b1 90bd
00000170: bc7c 7fbd a260 293e 552d 61bc aece e23c
00000180: 72c7 b1bd a209 263d d7dd 04bc d9a3 0d3d
00000190: 831d 173d f53b 06be 2ef8 bc3b c40c 5abd
000001a0: 07be 7e3c 5a4a febb 1c72 613c f18e bfbd
000001b0: 13a9 423d 2a38 8c3c 49ac 25be 0310 113c
000001c0: e60e e9bc 260f 303d 58dd 2e3d edf1 aa3c
000001d0: ea45 33bd 0a89 083c d344 983d 30e6 80bd
000001e0: bf73 5fbc b259 9bbc 0375 04be 8185 843d
000001f0: c3da 7abc d6d6 2bbd db8c b0bd ed1e ddbc
00000200: 38ee ed3c e87a 96bd 9712 ac3d 5cfc fd3c
00000210: 4864 2cbd cac1 473d 3e60 56be e8b3 853d
00000220: 5147 353d f7a9 cf3c 54ec 35be 5ab4 43bc
00000230: c84c a33d 2bd4 3f3d 0b69 c1bd 6f94 b03d
00000240: 6bcd 1bbd bbf2 f2bc a2f6 823d 74ca a0bd
00000250: 8e6c 94bd 1b05 d63d be47 04be 7a4c d43d
00000260: 9340 12be 2a6b 57bd e3d6 8bba 380e 07bd
00000270: 1c58 89bc 21fe a73d 4140 493d c8fc c33d
00000280: 6e28 c73c e246 263d ca88 a63d 8a31 50bd
00000290: 916a bfbc d5b6 423d 68e1 7cbc 21e6 833b
000002a0: 912a 593c cce1 703d 46c9 643d b460 aabd
000002b0: 4716 743d c1fe 433d 5334 00bd b4d1 713e
000002c0: a06d 5abd aaa4 14be 75b6 c13c 1acd e3bc
000002d0: 63e9 0fbe 7b01 793d fc4b 873e 4238 b1bd
000002e0: ac43 923d a405 90bd cd6b 3dbd c01b ab3c
000002f0: e881 703a aead 833c 69cd 813d e734 e0bd
00000300: 2582 1cbd c43f 7fbd c1b5 d93b 267e 42bd
00000310: 00e6 39bd 6243 4abd 0a47 ff3c 30e8 bf3c
00000320: 6f82 44be dadf 873d 2752 0ebd 19c1 83bd
00000330: 2c7d af3d 0752 54bd 52ad b73c 1c92 583d
00000340: 5320 333e 0559 7c3d 3b1d 543c ca86 a5bc
00000350: dc5a f53c 0f6e dcbb bf2b aebd e148 ac3d
00000360: 18f8 e0bb 06ff c13c c554 9e3d 1408 b0bd
00000370: 144b 843c 3c75 56be 9090 acbc 22db c7bc
00000380: c28d 2bbd 3e0d 193d e654 a5bc 3c33 143b
00000390: 341a 473d 136c 82bd 2049 51bd 98c2 903c
000003a0: 7d93 4e3d e0c9 44bd 29d6 2fbe da72 823d
000003b0: a1ce 353d 7566 9fbd e4e7 6ebe 364e b03d
000003c0: d1c0 d7bd 2268 853d 6006 2cbc c771 673d
000003d0: b343 2ebd ad3a 3e3d 0c2c 2b3d 41f7 0bbd
000003e0: 1b15 bd3c 7304 84bc 4b5a 133e ba5b 54bd
000003f0: 432d b0bd 3bc6 463a 0d02 77bd 4560 8d3d
-0.18542702 -0.017733326 0.050559234 -0.02450758 0.06804141 -0.021961795 -0.096777335 0.067262396
-0.14963466 0.057885524 -0.057009563 -0.17873766 0.058056798 0.029351916 -0.040054284 -0.05494981
-0.08377124 -0.09167053 -0.086034484 -0.031420864 -0.074937925 0.06848031 0.054958504 0.012246052
-0.15230715 0.008298687 0.01569321 0.022435423 -0.07830526 0.016115831 0.0676223 -0.016993435
-0.011501095 -0.0359723 -0.03937269 -0.025718566 0.0025018475 0.005036327 -0.06530769 -0.12792486
-0.2198928 0.03722612 0.08349241 0.007515119 -0.04316445 0.060797554 -0.062095366 -0.14872073
0.050820306 -0.17152622 -0.0071466304 0.01713099 -0.047293875 -0.03689668 -0.08456997 -0.01155009
-0.10481829 -0.03019084 0.033061724 -0.14170687 0.02627407 -0.07246858 0.07207274 0.0003508346
-0.06798621 0.018175349 0.07147232 -0.0072640292 -0.08317201 0.17214213 -0.011571823 0.08374486
0.31761807 -0.058265384 -0.074653946 -0.050832964 0.04753151 -0.030058194 -0.032962084 -0.00019207668
-0.114006825 0.06931789 -0.032171223 0.017568808 -0.019452488 -0.032577306 -0.03268468 -0.061465178
0.008016282 0.055408612 0.09797287 -0.07065083 -0.062374815 0.16540769 -0.013743718 0.027686443
-0.08680619 0.04053653 -0.008109531 0.034580085 0.03689338 -0.1310881 0.00576689 -0.05323483
0.015548236 -0.0077603282 0.013760116 -0.09353436 0.047524523 0.017116625 -0.16179003 0.008853915
-0.028449487 0.042983197 0.04269156 0.020867312 -0.043767847 0.008333454 0.07435002 -0.06293905
-0.013638436 -0.018963668 -0.12935261 0.06470776 -0.015310946 -0.04195293 -0.08620616 -0.026992286
0.029044256 -0.07347661 0.08401983 0.031004123 -0.042087823 0.048768796 -0.20935151 0.06528455
0.044257466 0.0253496 -0.17765933 -0.011944855 0.07973629 0.0468332 -0.094438635 0.086220615
-0.0380377 -0.029656759 0.06394698 -0.07851115 -0.07247268 0.104501925 -0.12917992 0.10366149
-0.14282446 -0.052592434 -0.00106689 -0.032972544 -0.016765647 0.08202768 0.049133543 0.095696986
0.02431127 0.040594943 0.08131559 -0.050828494 -0.023366245 0.047537643 -0.0154346 0.0040252362
0.0132547775 0.058809087 0.05585601 -0.08319226 0.059591558 0.047850374 -0.0312999 0.23615152
-0.053327203 -0.1451594 0.023646573 -0.027807761 -0.14053874 0.060792428 0.2642516 -0.086533085
0.07141814 -0.07032326 -0.046245385 0.020887256 0.0009174631 0.016074028 0.06338007 -0.1094759
-0.038210053 -0.06231667 0.006643981 -0.047483586 -0.04538536 -0.049380668 0.031161804 0.023426145
-0.19190381 0.06634493 -0.034746315 -0.06433315 0.085687965 -0.05183604 0.022421513 0.052873716
0.174928 0.061608333 0.012946422 -0.020205874 0.029950552 -0.006726987 -0.08504438 0.08412338
-0.0068655126 0.023681175 0.07731012 -0.08595291 0.016149081 -0.20943159 -0.021065027 -0.024396483
-0.041883238 0.037366144 -0.020182084 0.0022613546 0.048608974 -0.0636827 -0.051095128 0.017670915
0.050433625 -0.048044086 -0.1717154 0.063695624 0.04438651 -0.07783214 -0.23330647 0.086086676
-0.10534824 0.065140024 -0.010499567 0.05650499 -0.04254503 0.046442676 0.041790053 -0.034171347
0.023081353 -0.016115403 0.14389913 -0.05184529 -0.08602383 0.0007582639 -0.06030469 0.069031276

4.bias f4 [8]
00000000: b596 28be 98b8 c0bd bd24 013e 0e12 3b3e
00000010: f207 77be 5882 2fbe beb0 713e be44 4e3e
-0.1646374 -0.094102085 0.12611671 0.18268606 -0.24124125 -0.17139566 0.23602578 0.2014341
