Runs/8/final_model-3.pth (torch, 75888 bytes, 6 tensors)

0.weight f4 [128, 5]
0	0x3ebd4158	0.36963916
1	0xbec62d07	-0.38706228
2	0xbaeb78d0	-0.0017965082
3	0xbe75c93f	-0.2400255
4	0xbda8d943	-0.082445644
5	0x3c775362	0.015095564
6	0xbec2dc8f	-0.38058898
7	0xbdb6b390	-0.089209676
8	0xbe0041b6	-0.12525067
9	0x3ebb462d	0.36576977
10	0x3eb7c93b	0.35895714
11	0x3e69ecb5	0.22844203
12	0xbdce942e	-0.10086857
13	0xbec1d699	-0.37859038
14	0x3d6e6fd9	0.058212135
15	0xbe462a38	-0.19352043
16	0xbf90c709	-1.1310741
17	0x3e7a6fc1	0.24456693
18	0xbe8d8c53	-0.2764612
19	0xbf06b662	-0.52622044
20	0xbeb79c58	-0.35861468
21	0x3de446e2	0.11146332
22	0x3e10fadc	0.14158195
23	0xbc04c314	-0.008103151
24	0x3e038080	0.12841988
25	0x3e48ce44	0.19609934
26	0x3eabdeda	0.3356846
27	0xbe9a515e	-0.30140203
28	0x3e48b2c0	0.19599438
29	0xbec972a0	-0.39345264
30	0xbe821559	-0.25406912
31	0xbe9d6a21	-0.30745032
32	0x3d91ecd3	0.07125249
33	0xbe2edf97	-0.1707748
34	0x3e40c4ec	0.1882512
35	0x3ce99fff	0.028518675
36	0x3e4d1a05	0.20029457
37	0xbd699815	-0.057029802
38	0xbeaa50af	-0.33264682
39	0xbe5e52fe	-0.21711347
40	0xbd4acf6e	-0.049514227
41	0xbb758e22	-0.003746875
42	0xbe016ab3	-0.12638359
43	0x3df426af	0.11921441
44	0x3e1dcb2f	0.1540954
45	0xbe0b9aba	-0.13633242
46	0xbf1ef90d	-0.6209877
47	0x3ca13bcb	0.019681832
48	0x3e53e038	0.20691001
49	0xbf1af7af	-0.60534185
50	0xbe42cfc4	-0.19024569
51	0xbe916988	-0.28400826
52	0x3ce111e7	0.027474357
53	0xbebf064e	-0.37309498
54	0x3ebe54e9	0.37174156
55	0xbdc1fcb2	-0.09472026
56	0x3d7b54c9	0.061360154
57	0xbe91d5e5	-0.284835
58	0x3e0ac165	0.13550337
59	0xbed078bd	-0.40717116
60	0xbe80d440	-0.25161934
61	0x3eea2ebd	0.45738783
62	0xbde7eb68	-0.11324197
63	0x3eb47af3	0.35250053
64	0x3ea25e03	0.3171235
65	0xbee1729e	-0.44032758
66	0xbd8ed7ee	-0.06974779
67	0x3cdd9928	0.02705057
68	0xbe321ae8	-0.17393076
69	0xbecd19e0	-0.40058804
70	0x3d882863	0.06648328
71	0x3e3a0375	0.18165381
72	0xbe96a9f1	-0.2942653
73	0xbe728e61	-0.23687126
74	0xbee4168a	-0.44548446
75	0x3e712308	0.2354852
76	0xbf1fc9f0	-0.6241751
77	0xbd777501	-0.060414318
78	0x3ea8d56a	0.32975322
79	0xbde10a38	-0.10988277
80	0x3dd0bdbf	0.10192441
81	0xbf4c91ee	-0.7991017
82	0x3dfd6280	0.12372303
83	0xbea55e03	-0.32298288
84	0xbe0071f3	-0.12543468
85	0x3dd27a80	0.10277271
86	0xbf3227c7	-0.69591945
87	0x3d4ce87d	0.050026406
88	0xbec7a0c6	-0.38989848
89	0x3c3c4543	0.011491123
90	0x3e6797d9	0.22616519
91	0x3f08d09d	0.5344332
92	0x3db8c447	0.09021812
93	0xbe6748f4	-0.22586423
94	0x3d6866e0	0.056738734
95	0x3d9907b0	0.074721694
96	0xbeeebb45	-0.4662725
97	0x3eb49672	0.3527103
98	0x3d566337	0.052340712
99	0x3e77de81	0.24205972
100	0xbec2c127	-0.3803799
101	0xbe5b6030	-0.21423411
102	0xbe7d6eff	-0.24749373
103	0xbdd1169a	-0.10209389
104	0x3d3ca166	0.04605236
105	0x3ec966e4	0.39336312
106	0xbeb9a797	-0.36260673
107	0xbac3247d	-0.0014888194
108	0xbda40877	-0.08009427
109	0xbe7fc92c	-0.24979085
110	0x3ee48c2e	0.446382
111	0x3ec759ca	0.3893569
112	0xbf027773	-0.50963515
113	0x3e83807f	0.25683972
114	0xbd5d9d92	-0.05410535
115	0xbea28eb3	-0.31749496
116	0xbf1ddeb5	-0.6166795
117	0x3ccdf481	0.025141003
118	0xbe87bab7	-0.2650964
119	0xbd069bab	-0.0328633
120	0xbecb5a08	-0.39717126
121	0xbe893f8c	-0.26806295
122	0xbd3fe30f	-0.0468474
123	0xbe2bf5ee	-0.16793033
124	0x3ed3311d	0.41248408
125	0xbdbfdf6d	-0.09368787
126	0x3ee073ad	0.43838254
127	0xbeec596b	-0.4616197
128	0x3e6b11d9	0.22956027
129	0xbe1f6b38	-0.15568244
130	0xbe4771c3	-0.1947699
131	0xbe2f3a43	-0.17112069
132	0x3db17527	0.08664923
133	0xbe8a48a9	-0.2700856
134	0xbf0955bc	-0.53646445
135	0x3ca9cf49	0.020728724
136	0x3d77b7ba	0.06047795
137	0xbe85ecc0	-0.26157188
138	0xbdb84a4b	-0.08998545
139	0x3e15cdec	0.14629334
140	0xbee1bfe4	-0.44091713
141	0xbe886ecd	-0.26647034
142	0x3e05d2ee	0.13068745
143	0x3e45c8c1	0.19314863
144	0xbed4cf26	-0.41564292
145	0x3e929483	0.2862893
146	0xbf53ee71	-0.8278571
147	0x3e8feea4	0.28111756
148	0xbede221e	-0.43385404
149	0x3dedf0d6	0.116182014
150	0xbe825f3e	-0.2546329
151	0xbeb4e4ff	-0.3533096
152	0xbdc810d4	-0.09768835
153	0xbe9d0e75	-0.30675092
154	0xbdaff4ce	-0.08591615
155	0x3ec84b78	0.39120078
156	0x3c7298c6	0.014806932
157	0xbed29f15	-0.41136995
158	0xbeb0f360	-0.3456068
159	0xbea9bfe2	-0.33154207
160	0x3e6c8f43	0.23101525
161	0x3db4be6c	0.088253826
162	0x3da3095b	0.07960769
163	0xbe956d08	-0.29184747
164	0xbdcc3e49	-0.099728175
165	0x3ea8eeee	0.3299479
166	0xbeb5a3da	-0.3547657
167	0xbeb15629	-0.34636047
168	0xbebb68a9	-0.36603287
169	0x3e40e8d2	0.18838814
170	0xbe8438ef	-0.25824687
171	0xbee62208	-0.4494784
172	0x3d23b931	0.039971534
173	0xbf01db16	-0.50724924
174	0x3ea9c327	0.33156702
175	0x3ebef9ed	0.37300053
176	0xbe62ecf5	-0.22160704
177	0xbdf81426	-0.12113218
178	0xbd16b559	-0.03679404
179	0x3e31f398	0.1737808
180	0x3ede590c	0.43427312
181	0x3e2d6d4e	0.16936228
182	0x3d11e0d5	0.035614807
183	0x3beeec01	0.0072913175
184	0xbefca5d3	-0.49345264
185	0x3bf5c190	0.007499881
186	0xbe518f55	-0.20464833
187	0xbe00711d	-0.1254315
188	0xbde8d94c	-0.11369571
189	0x3ecff286	0.40614718
190	0xbda51d6d	-0.08062253
191	0x3f1c90a3	0.611582
192	0xbdb7617f	-0.08954143
193	0x3e9336fe	0.28752893
194	0x3dbbff77	0.091795854
195	0xbe6709e9	-0.22562374
196	0x3dadb29a	0.08481331
197	0xbd60c35d	-0.054873813
198	0xbdbb7671	-0.0915345
199	0xbe22f795	-0.15914758
200	0xbe2a453d	-0.16627975
201	0x3d3e8a21	0.04651845
202	0xbe37509a	-0.17901841
203	0x3e66c363	0.22535472
204	0x3e26e3c0	0.16297817
205	0x3ee2ec3e	0.44320863
206	0xbe29e822	-0.16592458
207	0x3d184bf8	0.037181824
208	0xbe87f9ff	-0.2655792
209	0xbd96a8ee	-0.073564395
210	0x3ea49de5	0.32151714
211	0xbe407026	-0.18792781
212	0xbe230e72	-0.15923479
213	0xbd5a3f7c	-0.0532832
214	0x3e64f0c3	0.22357468
215	0x3db01abc	0.08598849
216	0xbed69d9c	-0.4191712
217	0xbe1c6d68	-0.1527611
218	0x3dcc47a6	0.09974603
219	0xbe2d76c6	-0.1693984
220	0x3e077a48	0.1323024
221	0xbd282cb3	-0.041058253
222	0x3e3ea78b	0.186186
223	0xbf1e8344	-0.61919045
224	0xbf401f83	-0.75048083
225	0xbdb5281b	-0.0884554
226	0xbe883868	-0.26605535
227	0x3d88c5eb	0.06678375
228	0x3c59a183	0.013283136
229	0xbea297bf	-0.31756398
230	0x3de5e455	0.112251915
231	0xbf282f7a	-0.65697443
232	0x3de4a6fc	0.11164662
233	0xbe5d113a	-0.21588603
234	0xbeb556b6	-0.35417718
235	0x3da342c4	0.07971719
236	0x3f20f690	0.62876225
237	0xbd6c397d	-0.057672013
238	0xbe4d9aba	-0.20078555
239	0x3d914c45	0.070946254
240	0x3e63fe6f	0.22265027
241	0x3d22be40	0.039732218
242	0xbe7f65df	-0.24941204
243	0xbe75fc0c	-0.2402193
244	0x3e73c2e2	0.2380481
245	0xbd3b028d	-0.04565673
246	0x3e3e9857	0.186128
247	0x3e028dab	0.12749355
248	0x3dc8c4f7	0.09803193
249	0x3d47d84b	0.048790257
250	0x3dcda53b	0.10041281
251	0xbec2cf90	-0.38048983
252	0xbe9c6f30	-0.3055358
253	0xbee24c15	-0.4419867
254	0xbe1cd024	-0.15313774
255	0xbe6af0f6	-0.22943482

0.bias f4 [128]
0	0xbe8a5542	-0.27018172
1	0x3ec7fdc6	0.390608
2	0xbe426a99	-0.18985976
3	0xbe9cbf96	-0.30614918
4	0xbc4a772e	-0.012357516
5	0xbecb16ff	-0.39665982
6	0xbe690b1d	-0.22758146
7	0x3e7fdeae	0.2498729
8	0xbe4364d3	-0.1908143
9	0xbefcecef	-0.49399516
10	0x3ee1957a	0.44059354
11	0xbdeef84e	-0.11668454
12	0x3eb1feee	0.34764808
13	0xbe9262e2	-0.28591067
14	0xbece5d94	-0.4030577
15	0xbe07268a	-0.13198295
16	0x3ec7d3aa	0.39028674
17	0x3df445b7	0.119273596
18	0xbeda70d6	-0.42664212
19	0xbe400e7e	-0.18755528
20	0x3e44cb36	0.19218144
21	0x3d84d978	0.06486791
22	0xbdbce45b	-0.09223243
23	0x3df0519a	0.11734314
24	0xbee1c871	-0.44098237
25	0xbd5a59aa	-0.053308167
26	0xbd84673e	-0.064650044
27	0xbed0beb8	-0.40770507
28	0xbf03049d	-0.51178914
29	0x3ebee9cf	0.37287757
30	0xbe71b9c1	-0.23606016
31	0x3eb85ad0	0.36006784
32	0xbed29540	-0.41129494
33	0xbe9a4f50	-0.30138636
34	0x3e3afaa6	0.18259677
35	0x3e36df09	0.17858519
36	0xbe864fdd	-0.26232806
37	0x3f06748e	0.525216
38	0x3f1cb26f	0.6120977
39	0x3e0774a4	0.13228089
40	0xbeae61d8	-0.34059024
41	0xbd808080	-0.062745094
42	0x3a58495a	0.00082506763
43	0xbea8810e	-0.3291096
44	0x3d265d0d	0.040616084
45	0xbe0b306e	-0.13592693
46	0xbeb467a2	-0.35235316
47	0x3ead423a	0.3383959
48	0x3bc583c2	0.0060276696
49	0xbe63f65d	-0.22261949
50	0xbe0df1ab	-0.1386172
51	0x3d8cc4a4	0.06873444
52	0xbe0d620b	-0.13806932
53	0xbeccb945	-0.399851
54	0x3ebab782	0.3646813
55	0xbe82df3c	-0.2556094
56	0x3e6a3327	0.22871076
57	0x3e8867d1	0.26641706
58	0xbe979797	-0.2960784
59	0x3cff0adf	0.031133113
60	0xbe71d3d5	-0.23615964
61	0x3eaab3de	0.33340353
62	0xbd1c9162	-0.038224585
63	0x3e4ea9d3	0.2018197
64	0x3cc6d630	0.024272054
65	0x3d532459	0.051548336
66	0x3eb38b79	0.35067347
67	0xbee2f411	-0.44326833
68	0xbee7d16d	-0.45276967
69	0xbd2da91d	-0.042397607
70	0x3eceb362	0.40371233
71	0x3e7631d7	0.2404245
72	0x3e208a1f	0.15677689
73	0xbeb40a71	-0.35164216
74	0xbec2aae7	-0.38021013
75	0x3e850953	0.25983676
76	0xbed1234a	-0.40847236
77	0xbe52f380	-0.206007
78	0x3e0f9cdd	0.14024682
79	0xbdbc7575	-0.09202091
80	0x3eeba414	0.4602362
81	0x3eab8e66	0.3350708
82	0xbe9fba50	-0.31196833
83	0x3e366eaf	0.1781566
84	0x3e27dc14	0.16392547
85	0xbbb1165b	-0.0054042763
86	0xbe9ed0b4	-0.31018603
87	0xbea4e73f	-0.32207677
88	0x3da0d64a	0.078533724
89	0xbed3dfce	-0.41381687
90	0x3ea021ed	0.31275883
91	0xbed3429c	-0.41261756
92	0x3ed1285c	0.40851104
93	0xbd8bb684	-0.068219215
94	0x3f1bcc78	0.6085887
95	0xbf0d86b2	-0.55283654
96	0x3caebcd9	0.021330284
97	0x3ef5673b	0.4793032
98	0x3e486961	0.19571449
99	0xbe07e74d	-0.13271828
100	0xbece6dc1	-0.4031811
101	0xbebd5704	-0.3698045
102	0x3d542c76	0.051800214
103	0x3e997ea9	0.29979447
104	0x3dfd636b	0.12372478
105	0x3e6a9ce3	0.2291141
106	0xbe9b196c	-0.30292833
107	0x3eb9bcd5	0.3627688
108	0xbed2c7da	-0.411681
109	0x3ebc7699	0.36809233
110	0xbe88947b	-0.26675782
111	0x3e4a175c	0.19735473
112	0xbeaed389	-0.34145764
113	0x3ea872f6	0.32900208
114	0xbe145834	-0.14486772
115	0xbd303a5e	-0.043024413
116	0xbe364143	-0.17798333
117	0xbec25873	-0.37958106
118	0xbea2a136	-0.3176362
119	0x3deee561	0.11664844
120	0x3e5dfe5e	0.21679065
121	0x3e46f4e7	0.1942936
122	0x3ec597df	0.3859243
123	0x3f179515	0.59211856
124	0x3ed3a64c	0.41337812
125	0xbd8a6143	-0.067568325
126	0xbdb13cfe	-0.086542115
127	0x3edadf86	0.4274866

2.weight f4 [128, 128]
0	0x3d202a5f	0.03910291
1	0x3e0812cf	0.13288425
2	0x3d133128	0.03593555
3	0x3daa7e7f	0.083249085
4	0x3dafb015	0.08578507
5	0x3c317791	0.0108317295
6	0xbd363142	-0.04448057
7	0x3dcf0b99	0.10109634
8	0x3d3818b3	0.04494543
9	0x3cb56454	0.022142567
10	0x3dfd4d40	0.1236825
11	0xbdaaf0a6	-0.08346681
12	0xbd0febe6	-0.03513708
13	0x3d03f59e	0.03221666
14	0xbd98f991	-0.07469476
15	0x3cc385e8	0.023867562
16	0x3d31d80f	0.04341894
17	0xbd73247f	-0.059360977
18	0x3e2414ac	0.1602351
19	0x3d8164f9	0.06318087
20	0xbd7f52b5	-0.062334735
21	0x3d244169	0.040101442
22	0xbd2bbecc	-0.041930005
23	0xbda74dde	-0.08169149
24	0xbd118901	-0.035531048
25	0xbddd9659	-0.10819692
26	0xbd9f573d	-0.07780311
27	0x3d636924	0.05552019
28	0xbcec66ef	-0.028857676
29	0x3e06dd98	0.13170469
30	0x3da5289d	0.08064387
31	0xbc16be5a	-0.009200657
32	0xbc45b555	-0.012067159
33	0xbcbf2441	-0.023332717
34	0xbd144d7b	-0.036206704
35	0x3d26609f	0.04061949
36	0x3cd6b3ba	0.026208747
37	0x3e2f1b6d	0.17100306
38	0x3dd66988	0.10469347
39	0xbda241b0	-0.07922685
40	0x3ba31b2f	0.004977606
41	0x3c38740f	0.011258139
42	0x3dbbb319	0.091650195
43	0xbc34525c	-0.011005964
44	0xbc9ff41b	-0.019525578
45	0xbd9e2584	-0.07721999
46	0xbd0f0a9c	-0.034922227
47	0x3e2cd2c8	0.16877282
48	0x3da22316	0.07916848
49	0x3ba2c19f	0.004966929
50	0xbcf97aca	-0.030454058
51	0xbd7caff9	-0.061691258
52	0xbd264c0f	-0.04059988
53	0xbc60abc0	-0.013712823
54	0xbcd0a242	-0.025467996
55	0xbd16e6a8	-0.036841065
56	0xbdec4fb7	-0.11538642
57	0xbce5b2b4	-0.028039314
58	0xbcdac9ba	-0.026707519
59	0xbd111c82	-0.035427578
60	0x3d4953b0	0.049152076
61	0xbcdbff12	-0.026855025
62	0xbc13439d	-0.008988288
63	0xbbf073e4	-0.007338034
64	0xbd3c6be0	-0.046001315
65	0x3d943279	0.072361894
66	0xbda68920	-0.08131623
67	0x3d74eb7a	0.05979488
68	0xbd905811	-0.07048047
69	0xbda2b05d	-0.07943795
70	0x3e1076d3	0.14107828
71	0xbb00736c	-0.0019600047
72	0x3a53d434	0.0008080632
73	0xba133b9f	-0.0005616489
74	0xbc7588ab	-0.014986197
75	0xbd16cc0c	-0.036815688
76	0xbd8c5654	-0.06852403
77	0xbd404830	-0.046943843
78	0x3d8598fe	0.065233216
79	0xbc84cfa3	-0.01621229
80	0x3e1ca10d	0.15295811
81	0xbdf6dba7	-0.12053614
82	0xbd74a5ce	-0.059728436
83	0xbc8e5722	-0.017375533
84	0x3b9ac9c5	0.00472376
85	0xbd8f4c55	-0.06996981
86	0x3cfe4232	0.031037424
87	0xbc2d4349	-0.010575124
88	0x3c647185	0.013943081
89	0xbd4459c7	-0.04793718
90	0x3d6d8628	0.05798927
91	0xbc0d706b	-0.00863276
92	0x3d3362bc	0.043795332
93	0x3dadab68	0.08479959
94	0x3dcd73e9	0.10031874
95	0x3d1ce89a	0.038307764
96	0x390e7b92	0.00013588209
97	0x3db2ad26	0.08724432
98	0xbcd798ff	-0.026318071
99	0xbd899255	-0.06717364
100	0x3d280544	0.041020647
101	0xbd81c7d5	-0.06336943
102	0x3d16ab2c	0.036784336
103	0x3d5bcd1d	0.05366241
104	0xbdb9d9e1	-0.0907476
105	0x3dc6ee29	0.09713394
106	0xbc8f7435	-0.017511467
107	0xbdae4629	-0.08509476
108	0xbd6205cf	-0.05518132
109	0x3e1255b5	0.14290507
110	0x3d12583f	0.03572869
111	0x3d5258eb	0.05135433
112	0x3db4226a	0.087956265
113	0x3d1e1af2	0.038599916
114	0x3df6c421	0.12049127
115	0xbcfa82f6	-0.030580025
116	0xbdad6de6	-0.08468227
117	0xbd145216	-0.036211096
118	0x3d21ea12	0.039529867
119	0xba7eb0e7	-0.00097156916
120	0xbd2720ee	-0.04080289
121	0x3d91af69	0.07113535
122	0xbdce07a8	-0.10060054
123	0x3e4beb9b	0.19914095
124	0x3da471bc	0.080295056
125	0x3c185c56	0.009299358
126	0xbd344a19	-0.044015978
127	0xba9fab44	-0.0012181778
128	0xbcc510e3	-0.024055904
129	0xbda5e024	-0.08099392
130	0x3d1689b5	0.03675242
131	0xbd6695bd	-0.056295145
132	0xba1d6b44	-0.00060050585
133	0xbd60be46	-0.05486896
134	0xbd26c10f	-0.04071146
135	0xbc219c99	-0.009863996
136	0x3d62517d	0.055253495
137	0xbd1b4047	-0.037903097
138	0xbd30b1e3	-0.043138396
139	0xbd989cfb	-0.07451817
140	0x3c6f6e92	0.014613764
141	0x3d8b7f2e	0.06811367
142	0xbafbbfd5	-0.0019206951
143	0xbe1a6bad	-0.15080138
144	0x3c9d57a1	0.019206824
145	0x3d7cf662	0.061758406
146	0x3d2276cb	0.03966407
147	0xbd8823c2	-0.06647445
148	0x3d9f4e68	0.07778627
149	0xbd0239a7	-0.031793263
150	0x3c0bea66	0.008539772
151	0xbc97b878	-0.018520579
152	0x399badf4	0.0002969351
153	0xbcf41ed9	-0.029799866
154	0x3c21766a	0.009854892
155	0x3be257dd	0.006907447
156	0xbdcc8168	-0.0998562
157	0x3cc9bb13	0.024625337
158	0xbd52f59c	-0.051503763
159	0xbd2a7395	-0.041614134
160	0x3d845d9d	0.06463168
161	0x3da304e4	0.07959917
162	0x3d5c13a6	0.053729676
163	0xbd284ba9	-0.04108778
164	0xbdacacf7	-0.08431428
165	0x3d309887	0.04311421
166	0x3c187e7c	0.0093075
167	0xbd893c37	-0.06700938
168	0xbbff72a6	-0.0077956496
169	0xbc97440a	-0.01846506
170	0xbd75b87a	-0.059990384
171	0xbbe1e98e	-0.006894297
172	0x3d8c5dc9	0.068538256
173	0xbcece610	-0.028918296
174	0xbc68d131	-0.014210031
175	0xbd9b798d	-0.07591543
176	0x3db08478	0.086190164
177	0x3d0092d4	0.031390026
178	0xbd879341	-0.06619883
179	0xbd8b62a0	-0.068059206
180	0xbd5e18c9	-0.054222856
181	0xbdfcca93	-0.123433255
182	0x3d2aeee4	0.04173173
183	0xbcbf41e7	-0.023346854
184	0xbc883183	-0.016625172
185	0xbd91ad74	-0.07113162
186	0x3d3b4946	0.045724176
187	0xbcc2a20d	-0.023758912
188	0xbcb14aaa	-0.021642048
189	0x3d3bdead	0.045866657
190	0xbd4465b6	-0.04794856
191	0x3c0a6cd4	0.008448798
192	0x3da16816	0.07881181
193	0xbc16ced8	-0.009204589
194	0xbd8a1664	-0.06742552
195	0xbd6d736b	-0.0579714
196	0x3d79312c	0.06083791
197	0xbd9a15c1	-0.075236805
198	0x3c59d4df	0.013295381
199	0xbd592dd6	-0.05302223
200	0xbd733f1c	-0.059386358
201	0xbcc948fe	-0.024570938
202	0x3d059fb1	0.032622997
203	0x3d544acf	0.051829156
204	0x3ca2a859	0.019855665
205	0xbd93552b	-0.07193979
206	0x3b04e1e3	0.002027624
207	0x3daeb0f8	0.08529848
208	0xbd58b81b	-0.05290995
209	0xbd841550	-0.064493775
210	0x3c04a0a9	0.008094945
211	0xbd9101b4	-0.07080403
212	0x3d38a9a3	0.045083653
213	0x3d95db21	0.07317186
214	0xbbe78ca9	-0.0070663285
215	0xbda3b832	-0.07994117
216	0x3bca7d3a	0.006179479
217	0xbd92e03b	-0.07171675
218	0xbd399a2b	-0.04531304
219	0x3d696bd9	0.056987617
220	0xbd85378a	-0.06504734
221	0xbde91d38	-0.11382526
222	0xbdd2c982	-0.10292341
223	0x3cedb35b	0.029016187
224	0xbdeb6590	-0.11493981
225	0x3d0649a8	0.032785088
226	0xbbeeaa17	-0.00728346
227	0x3cc4a65b	0.024005106
228	0x3d7077c1	0.058707956
229	0xbd8128c8	-0.063066065
230	0xbd8b035e	-0.067877516
231	0xbc8b159c	-0.016978078
232	0xbd166256	-0.036714874
233	0xbd7b3165	-0.061326403
234	0xbd0cee52	-0.034406967
235	0xbd5e891e	-0.054329984
236	0xbd71c26e	-0.059023313
237	0x3c6d9687	0.014501221
238	0x3cc7842d	0.024355019
239	0xbd31b5b7	-0.043386187
240	0x3c0b1e18	0.008491062
241	0xbd33526c	-0.043779776
242	0xbd30bcd3	-0.043148827
243	0xbca095ae	-0.019602623
244	0xbd2b33d9	-0.041797493
245	0xbdaf2e91	-0.08553804
246	0x3c5405b7	0.012940816
247	0x3c789bb8	0.015173845
248	0xbda31bf7	-0.07964318
249	0xbd82a9a1	-0.063800104
250	0x3d365467	0.044514086
251	0xbd4e3ac2	-0.050349005
252	0x3d82e6c2	0.0639167
253	0xbd953cd5	-0.072869934
254	0x3be35dbe	0.006938665
255	0xbdb167f4	-0.086624056

2.bias f4 [128]
0	0x3d2fa654	0.042883232
1	0xbd0ab79e	-0.033866517
2	0xbe04162e	-0.12899086
3	0x3ce7f385	0.028314361
4	0xbc8ba2c5	-0.017045388
5	0xbd820a4b	-0.063496195
6	0x3d964134	0.07336655
7	0xbc881e33	-0.016615963
8	0x3c4257dd	0.011861769
9	0x3b84efa5	0.004056888
10	0x3c8e443c	0.017366521
11	0xbd40b157	-0.047044124
12	0xbdc4418f	-0.09582817
13	0xbd380a64	-0.044931784
14	0xbdb68d01	-0.08913613
15	0x3ca4e42b	0.02012833
16	0x3db58baf	0.08864533
17	0xbde6ba2c	-0.11265978
18	0xbd9d74ae	-0.076882705
19	0xbd21ba15	-0.039484102
20	0x3b829210	0.003984697
21	0xbd9e75fb	-0.07737347
22	0xbd185786	-0.037192844
23	0x3d6e0465	0.05810966
24	0x3d48f63d	0.049062956
25	0x3cc2d15f	0.023781477
26	0xbd962a38	-0.07332271
27	0x3d069360	0.03285539
28	0xbd90fdfc	-0.07079694
29	0xbd6e6d3f	-0.058209654
30	0xbde726b9	-0.11286683
31	0x3cc1a5ee	0.023638692
32	0xbcb89de5	-0.022536227
33	0xbc062cf5	-0.0081894295
34	0x3b650c4a	0.0034949952
35	0xbd9b29d1	-0.07576335
36	0x3d20e0eb	0.039277
37	0xbca95653	-0.020671045
38	0xbdf4e095	-0.11956898
39	0xbadd5c8e	-0.0016888545
40	0xbd863460	-0.065529585
41	0xbc1cc5a8	-0.009568609
42	0x3e142330	0.14466548
43	0xbdc58b41	-0.09645701
44	0xbdaf1a36	-0.08549921
45	0x3c700bd2	0.014651256
46	0xbcfa717f	-0.030571697
47	0xbde93087	-0.11386209
48	0xbdaabf1e	-0.08337234
49	0x3e0df84b	0.13864248
50	0x3e1100c4	0.14160448
51	0xbca5b371	-0.020227166
52	0x3e67eb44	0.2264834
53	0xbb6528db	-0.0034966979
54	0xbc6a9a5c	-0.014319029
55	0x3d9831cd	0.07431374
56	0xbb3787d1	-0.0028004537
57	0xbd3850fc	-0.044999108
58	0x3e51dbed	0.20494051
59	0x3d1cc074	0.038269475
60	0xbcf30b5d	-0.029668504
61	0x3d9c1621	0.07621408
62	0x3e415897	0.1888145
63	0x3cfe5ab9	0.03104912
64	0xbcbc69b8	-0.02299963
65	0xbd7e7c51	-0.062130276
66	0xbd86f0b5	-0.0658888
67	0x3ce2f651	0.027705343
68	0x3d07f022	0.033187993
69	0xbd81a703	-0.06330683
70	0x3df730db	0.12069865
71	0x3c44a918	0.012003206
72	0x3d1d14d3	0.038349938
73	0x3ea3fdab	0.3202947
74	0x3d4a5d11	0.04940516
75	0xbd23fbcf	-0.040035065
76	0x3e57e16f	0.2108209
77	0xbd1ac8ed	-0.037789274
78	0xbca8c6fc	-0.020602696
79	0x3d4cfd5c	0.05004631
80	0x3d443eed	0.047911573
81	0x3e216cd4	0.15764171
82	0x3e97d09c	0.29651344
83	0xbdb3f96e	-0.08787809
84	0xbd37d0e7	-0.04487696
85	0xbb70abcb	-0.003672349
86	0x3e40b905	0.1882058
87	0xbcb3e8e2	-0.021961633
88	0x3e723663	0.2365356
89	0x3d44f148	0.048081666
90	0xbd4429bb	-0.04789136
91	0x3d2b54f9	0.041829083
92	0x3d7dba00	0.06194496
93	0xbdeb0e0a	-0.11477287
94	0xba96efa3	-0.0011515509
95	0x3b628fd1	0.0034570585
96	0xbdc72334	-0.09723511
97	0x3e3a371b	0.18185084
98	0xbd7cf4dd	-0.061756957
99	0xbdadf9da	-0.08494921
100	0xbd754351	-0.05987865
101	0x3ddd3803	0.10801699
102	0xbd66f7f1	-0.0563888
103	0x3e223a92	0.15842655
104	0xbe17fef1	-0.14843346
105	0xbd74b994	-0.059747294
106	0x3e0f3118	0.13983572
107	0x3daca973	0.084307574
108	0xbda1dd00	-0.079034805
109	0x3dd47830	0.103744864
110	0xba25990b	-0.00063170557
111	0xbcd5285f	-0.026020227
112	0xbd6fea1d	-0.058572877
113	0xbd8b952c	-0.06815562
114	0xbd9f71d6	-0.07785384
115	0xbd23c497	-0.039982405
116	0x3cc755af	0.02433285
117	0xbc82784f	-0.015926508
118	0x3e205675	0.1565798
119	0x3e0bff80	0.13671684
120	0xbdad7a04	-0.08470538
121	0xbdaaa534	-0.08332291
122	0x3b9abb77	0.0047220546
123	0x3cf82a02	0.030293468
124	0x3c92b336	0.01790772
125	0xbd901f2a	-0.07037194
126	0x3da30970	0.079607844
127	0xbdbc7e69	-0.09203798

4.weight f4 [8, 128]
0	0xbdfe1d30	-0.12407911
1	0x3d8325b6	0.06403677
2	0x3cefbd05	0.029264936
3	0x3d28cea6	0.0412127
4	0xbcbc64b2	-0.022997234
5	0x3ca34e95	0.019934932
6	0xbe4e1aed	-0.20127459
7	0xbdafe997	-0.085894756
8	0xbd68ea34	-0.05686398
9	0xbd26a47b	-0.040684205
10	0x3ce5607f	0.028000114
11	0xbba58012	-0.0050506676
12	0xbcfd9f9a	-0.030959893
13	0x3c42b9e9	0.011885145
14	0xbd8462ea	-0.06464179
15	0x3c6337a8	0.01386825
16	0xbd7cb4c5	-0.061695833
17	0xbba7fdb5	-0.00512668
18	0xbcb5f772	-0.022212718
19	0x3cb07995	0.02154235
20	0x3cd3c29f	0.025849639
21	0xbd19d253	-0.037554096
22	0x3d4e303a	0.05033896
23	0x3c304121	0.010757715
24	0x3a58a2b7	0.00082639925
25	0x3d89a685	0.06721214
26	0xbd8175bf	-0.063212864
27	0x3de05602	0.10953905
28	0xbde09bd9	-0.109672256
29	0x3c920009	0.017822282
30	0x3d2135aa	0.03935782
31	0xbd60c9ad	-0.054879833
32	0xbda41ae4	-0.080129415
33	0xbd7a79d2	-0.061151333
34	0xbd45f175	-0.048325974
35	0x3d2e3ea6	0.042540215
36	0x3c63fe9a	0.013915682
37	0x3c60fac4	0.013731662
38	0x3d8bec5d	0.06832192
39	0x3cb4f40a	0.022089023
40	0x3c1ae2b4	0.009453464
41	0xbb91711f	-0.004438534
42	0xbd34e881	-0.044167046
43	0xbc46e227	-0.01213888
44	0xbd391d42	-0.045193918
45	0xbdc5b93e	-0.09654473
46	0xbc37694e	-0.01119454
47	0xbe10b187	-0.14130221
48	0xbd7bb9a5	-0.06145634
49	0xbd8baeb4	-0.06820431
50	0xbe38d7f8	-0.18051136
51	0xbcdfb949	-0.02731003
52	0xbdf32bc1	-0.1187358
53	0xb9c20ec9	-0.0003701358
54	0xbd6a34c3	-0.057179224
55	0xbd2920b6	-0.04129096
56	0xbcb6afec	-0.022300683
57	0xbdbca676	-0.092114374
58	0xbe2d3fbb	-0.16918842
59	0x3bf38a7d	0.0074322806
60	0x3c82fd42	0.015989903
61	0x3d9dc797	0.07704084
62	0xbe42fc8b	-0.1904165
63	0xbc1b177f	-0.009466051
64	0xba71402d	-0.00092029833
65	0x3da0c049	0.078491755
66	0x3d8bcc2c	0.06826052
67	0x3d8463c9	0.06464345
68	0x3d3f97fa	0.046775796
69	0xbbd295bb	-0.0064265407
70	0x3ca58277	0.020203812
71	0xbe137d7a	-0.14403334
72	0xbe3483bf	-0.17628382
73	0xbe36c29b	-0.17847674
74	0x3d99863d	0.07496307
75	0x3db1e9dd	0.08687184
76	0xbe34fb9f	-0.17674111
77	0x3d2c6f92	0.04209859
78	0x3da06aa1	0.07832838
79	0x3d14607e	0.036224835
80	0xbd946f8c	-0.072478384
81	0xbe1fee25	-0.15618189
82	0xbe6d0ece	-0.23150179
83	0x3c406816	0.011743566
84	0xbe585397	-0.21125637
85	0x3c0db2cb	0.008648585
86	0xbe5f7c8d	-0.21824856
87	0xbd8c5b82	-0.06853391
88	0xbe155739	-0.14584054
89	0xbd7d772b	-0.061881226
90	0x3d07cef8	0.033156365
91	0x3d07712b	0.03306691
92	0xbd1af5ee	-0.037832193
93	0x3d94bcd7	0.07262581
94	0xbe13ff15	-0.14452775
95	0xbc8bae9d	-0.017051036
96	0x3d97ec9e	0.07418178
97	0xbe436a57	-0.19083534
98	0xbd7e214f	-0.062043484
99	0x3d2f8fb1	0.042861644
100	0x3d1e0bc7	0.03858545
101	0xbca375b0	-0.019953579
102	0xbceedf09	-0.029159086
103	0xbe74baed	-0.23899432
104	0xbd037154	-0.0320905
105	0xbc196977	-0.009363524
106	0xbd8940a6	-0.06701784
107	0xbd84951a	-0.06473751
108	0xbda8640f	-0.0822221
109	0xbdd55347	-0.104162745
110	0x3d9fa2be	0.077947125
111	0xbd86e3da	-0.06586428
112	0xbbbb8958	-0.0057231598
113	0x3c98440d	0.018587137
114	0xbcc05b3b	-0.023481002
115	0x3d753f4b	0.059874814
116	0xbd8625b9	-0.06550164
117	0xbcf00db0	-0.029303402
118	0xbe4a1cab	-0.19737498
119	0xbe403dc3	-0.1877356
120	0xbd754e89	-0.05988935
121	0x3cc2d12f	0.023781387
122	0x3c6277ca	0.013822505
123	0x3d19a8f5	0.037514646
124	0xbdaae178	-0.08343786
125	0x3d4352e6	0.04768648
126	0xbdc57061	-0.09640575
127	0xbd68fdf7	-0.056882825
128	0xbe306a59	-0.17228068
129	0x3d6e71f2	0.058214135
130	0xbd6138e6	-0.054985903
131	0xbe76cf25	-0.24102457
132	0x3d89ff5e	0.067381606
133	0xbc0b8922	-0.008516582
134	0x3c081979	0.008306854
135	0xbd703f68	-0.05865422
136	0xbde38dad	-0.11111007
137	0xbbfaae18	-0.007650148
138	0x3e3de2f9	0.18543614
139	0xbe0ae645	-0.13564403
140	0xbd7f3401	-0.062305454
141	0xbe1ed48f	-0.15510772
142	0x3d974486	0.07386117
143	0x3ce404dd	0.02783435
144	0xbe8c2802	-0.27374274
145	0x3de4bf45	0.11169294
146	0xbb7fca07	-0.003903033
147	0xbce542fd	-0.027986044
148	0xbd0b76a0	-0.034048676
149	0xbd83d309	-0.06436736
150	0xbd19408d	-0.037415076
151	0xbe28138d	-0.16413708
152	0x3d74ce44	0.059767023
153	0xbcd63018	-0.02614598
154	0xbd8e2ccd	-0.06942139
155	0xbd39465e	-0.045233123
156	0xbc0ea6c5	-0.008706753
157	0x3cb503b5	0.022096494
158	0xbd3a24ea	-0.04544536
159	0x3d59dd77	0.05318972
160	0x3cc10a91	0.023564609
161	0xbd5506ba	-0.052008368
162	0xbd9f4f25	-0.077787675
163	0x3da286b3	0.07935848
164	0xbe89dfd8	-0.26928592
165	0xbc0b5c48	-0.008505888
166	0x3d473e2f	0.048643287
167	0xbd1bbfd8	-0.038024753
168	0xbe5e33dc	-0.2169947
169	0x3c48d53e	0.012257872
170	0xbd7a372c	-0.061087772
171	0xbca4b449	-0.020105498
172	0x3d0fbf08	0.03509429
173	0xbc7ce46c	-0.015435319
174	0x3d850da7	0.064967446
175	0xbc9aa138	-0.018875703
176	0x3da69436	0.08133738
177	0xbde1d45f	-0.11026835
178	0xbd345337	-0.044024672
179	0xbcc55e0c	-0.024092697
180	0xbe129201	-0.14313509
181	0x3c222119	0.009895586
182	0xbe2f9b02	-0.17148975
183	0xbe6540b9	-0.22387971
184	0xbc8c33b8	-0.017114505
185	0x3b971d78	0.0046116672
186	0xbe13c074	-0.14428884
187	0xbda0e838	-0.07856792
188	0x3d1bd2a5	0.038042683
189	0x3ae0bf93	0.0017146937
190	0xbdc0f99e	-0.09422611
191	0x3c056e70	0.008144006
192	0x3c37ad3a	0.011210734
193	0x3ab92b21	0.0014127233
194	0xbd8b83a1	-0.068122156
195	0xbc9f9dd8	-0.019484445
196	0xbd41b71a	-0.04729376
197	0x3adbba08	0.0016763816
198	0xbe17846f	-0.14796613
199	0xbe10503d	-0.14093108
200	0xbce5beb3	-0.028045034
201	0xbe07e104	-0.1326943
202	0xb909eb41	-0.00013152977
203	0x3cf58341	0.029969813
204	0xbe5d3afb	-0.2160453
205	0xbd1d79ba	-0.038446166
206	0x3d377be9	0.044795904
207	0x3c8a7a65	0.016904065
208	0x3e004279	0.12525357
209	0x3d0cf1f4	0.034410432
210	0xbdea9fa7	-0.114562325
211	0x3d47bedd	0.048766006
212	0xbcbd5015	-0.023109475
213	0xbcd15958	-0.025555298
214	0xbd4d88e7	-0.05017939
215	0x3d1fbf81	0.03900099
216	0xbde58d6f	-0.11208617
217	0xbe135d8d	-0.14391156
218	0xbda4eb91	-0.08052743
219	0x3d9c64b5	0.07636396
220	0x3c16ae7e	0.009196876
221	0x3c416652	0.01180418
222	0x3ce00787	0.02734734
223	0xbb65c266	-0.0035058497
224	0x3d3efed4	0.04662974
225	0x3cd33c32	0.02578554
226	0x3d17b0f0	0.037033975
227	0x3d27392e	0.040826015
228	0xbcc76b41	-0.024343135
229	0xbe53dcca	-0.20689693
230	0x3d7bbe34	0.06146069
231	0xbd451d39	-0.048123572
232	0xbbd20484	-0.0064092297
233	0xbd080ef3	-0.03321738
234	0xbef02620	-0.46904087
235	0xbd26bf18	-0.040709585
236	0xbc9705f2	-0.018435452
237	0xbe39f342	-0.18159202
238	0xbd6cae6c	-0.05778353
239	0x3d1e6221	0.0386678
240	0x3c996d13	0.018728768
241	0xbd29491a	-0.04132948
242	0x3cc54509	0.02408077
243	0xbc63e732	-0.013910102
244	0x3d94d11b	0.07266446
245	0x3d89e83c	0.06733748
246	0xbe1ccd8e	-0.15312788
247	0xbdc664f4	-0.09687224
248	0x3c220604	0.00988913
249	0x3d1de3a4	0.038547173
250	0x3c618eb2	0.013766931
251	0xbe936fd7	-0.28796265
252	0xbd9a6a74	-0.075398356
253	0xbdbfa251	-0.09357131
254	0x3d6404f9	0.055668805
255	0x3d615ce6	0.055020235

4.bias f4 [8]
0	0xbe195bba	-0.14976397
1	0xbe40a6cc	-0.18813628
2	0xbe443380	-0.1916027
3	0xbe5dfa4c	-0.21677512
4	0xbe0d536b	-0.13801353
5	0xbde0e6f8	-0.10981554
6	0xbe65c20d	-0.22437306
7	0xbe6784c4	-0.2260924
