ddqn/service-rate/2/final_double_dqn_model.pth (torch, 76062 bytes, 6 tensors)

0.weight f4 [128, 5]
00000000: 696a cf3e 40b6 dbbd 9466 c1be 603f 63be
00000010: d800 9b3e 0dd5 e2be 7eed 173d e98d df3d
00000020: af58 a83e 7403 a93e 92d6 d8be f433 95bd
00000030: 22ec c5be ed22 1abe 4e69 01bd 830b 87bd
00000040: 9b88 8c3e 49bd aebe 3473 23be 25fd 4abe
00000050: ebab a43d 3d1f d0be 4903 b0be cd21 db3d
00000060: 60e4 c13d b153 783d f85f 553e bc7e d5be
00000070: 8500 c7be 8199 553e ac6e c73e 7208 b2be
00000080: f35d 86be 3599 a8be 524a 473e 62b9 bebe
00000090: 3a11 d63e 790d 60be 1226 8a3d ac12 03bf
000000a0: 4280 333d 3f7e c3be 1913 05be 87ff de3c
000000b0: e64d 09bf 5d77 c33e 4aa2 323f 61e4 4ebe
000000c0: e60a 26be f0cb 623e fd09 c5be 015a c9be
000000d0: 4ecc 59be b668 533e f3fd f93e eae8 a1be
000000e0: d8d2 f3be 6df6 ec3e 8ac9 9e3e aabf 9ebe
000000f0: 51ee 3c3e e155 c43e 8a75 3e3e 2f06 043e
00000100: ddfa 8bbd e3d3 d8be 80a1 bb3e f1b6 8abe
00000110: ee92 743e 12f0 f03e e85f ab3d c221 ba3e
00000120: e177 13be db38 b63e 2dd1 653e 9883 d63b
00000130: 28da 7fbe 8264 4f3d cfe4 453e 2f97 063f
00000140: b85b 1f3e 4119 003f a525 533e 6cc6 7cbd
00000150: 1cf6 083f 8214 61be 09ac b73c 48c4 ccbe
00000160: 5733 52be 3e88 9ebe b6f6 7ebd 37e6 5c3d
00000170: 54e9 25bd 0e42 e83c 7038 d83d f358 f93d
00000180: eeb9 563e 3b72 853c d59b 52bd aa42 13bd
00000190: d4f5 c63c 428d cc3e 3be3 603e 7bc0 a83e
000001a0: 26d5 053e dd2c c7bd 9bde 1dbe 6713 143d
000001b0: 43e0 453e 6f8a 863e 2a4c e43d 18f9 963d
000001c0: d725 d3be 4456 fa3d 19c0 c23d d4bc 68be
000001d0: cf82 59be d95d 053d 11a4 7bbd 9d9d b73e
000001e0: b554 47be 41d6 cf3e cb03 c83e cca0 e8be
000001f0: 734a 643e 2fc4 9bbe 96ef d3be 2eaa 26bc
00000200: 067a b53b d4d0 f0bd 9b96 f8bc 1fcc 183d
00000210: 544b 14bc 0009 37be fa86 1a3f af1d 74bd
00000220: fe49 c2be f6af fabd e5d8 0fbe a826 e1be
00000230: e13c 313e 96e3 c4be fd05 d6bd d63b 813e
00000240: fa09 1abe 1af8 72be 6a43 273d 4d0b bcbd
00000250: 25bc 89be 00bf bdbc ebcf 24ba 921b 3e3e
00000260: 9c25 edbd 1273 4cbe 8d32 113e 030e bc3e
00000270: 30fa 89bd 39fc 4cbe 75b1 18be 830c b1be
00000280: c304 10be 1665 d2be 78e5 cbbe a675 683d
00000290: 538b e03d 8dd0 f93d 1c7f 66be 5b77 e83d
000002a0: f8b3 dbbd 525b f6be b450 633e 299d 85bd
000002b0: 9b13 ddbe 18df 77be d069 e3be ee60 cdbe
000002c0: 0a82 47be 9bd5 af3e a6e7 43be 6f59 5d3e
000002d0: 0fee 9abe 081e 1ebf 5606 933e 4f5b a1be
000002e0: c857 073e 9dff dc3e 0f43 d9be ff8e abbe
000002f0: e052 28be c4f0 a7be 0fba 6fbe 730d a23e
00000300: e2c4 b63c becc 76be e009 533e a047 0abe
00000310: 1d77 003c 75c1 eebc 04a7 c03d 43c0 9ebe
00000320: 6e84 893e d578 123c d8aa cd3d 846d 683e
00000330: a7c3 67be df00 d53e ab16 203e 555a d4bd
00000340: f601 90be b7cd 363e 34a4 853d dd4c 5dbe
00000350: 89a6 94bd bec2 513e b7f9 56be 87d4 123d
00000360: c38c a9be d5c1 debe cef9 253e 4696 83be
00000370: 0da1 e33c a378 6cbc eabb 893d b66d 90be
00000380: 2f34 3f3c 3af2 c23e 090c ad3d 9fdd 13be
00000390: d8c7 8b3e bc24 c7bd 0f82 c13e 953c 023e
000003a0: 0f1c babe 4013 cebe e172 89bd 5c75 923e
000003b0: 4d66 a23d b44e 633e 3cb1 f73d 452b 19be
000003c0: 113a babe fd84 f03e fc8c 3d3d 444f d9be
000003d0: de6f da3e 5171 d8be 93fd 3bbe 8a26 0c3e
000003e0: 5c8c 44be 5367 6e3e 3f49 653e 52f3 783e
000003f0: cd56 013e a8ec e1be dbc8 bf3c a127 de3e
0.40510872 -0.10728121 -0.37773573 -0.22192144 0.3027408 -0.4430317 0.037091725 0.10915739
0.3288016 0.33010447 -0.42351204 -0.072853 -0.38656718 -0.15052386 -0.031594567 -0.065939926
0.27447972 -0.34128788 -0.15961915 -0.1982313 0.08040603 -0.40648833 -0.34377506 0.10699806
0.09467387 0.06062669 0.2083739 -0.41698253 -0.38867584 0.20859338 0.38951623 -0.34772068
-0.26243553 -0.32929388 0.19461945 -0.3725081 0.41810018 -0.2188014 0.067455426 -0.51200366
0.043823488 -0.38182256 -0.12995566 0.027221454 -0.5363449 0.38177004 0.69778883 -0.20204307
-0.16215095 0.22148108 -0.38484183 -0.3932648 -0.21269342 0.20645413 0.4882656 -0.31623012
-0.476218 0.46281758 0.31013137 -0.31005603 0.18450285 0.3834677 0.18599525 0.12892984
-0.06834958 -0.42349157 0.36646652 -0.27092698 0.23884174 0.4705816 0.08367902 0.3635388
-0.14401199 0.35590252 0.22443075 0.006546449 -0.24985564 0.05063296 0.19325565 0.5257444
0.15562332 0.50038534 0.20619829 -0.061712667 0.53500533 -0.2198048 0.0224209 -0.399935
-0.20527397 -0.3096332 -0.062247 0.053930487 -0.040505722 0.02835181 0.105576396 0.12175169
0.20969364 0.01628982 -0.051418144 -0.035952248 0.024287142 0.3995152 0.21961682 0.3295935
0.13069591 -0.09725354 -0.15416948 0.036151316 0.1932383 0.2627749 0.1114734 0.073717296
-0.41239807 0.12223485 0.09509296 -0.22728282 -0.21241306 0.032560203 -0.061435763 0.35862437
-0.19465907 0.4059315 0.39065394 -0.45435178 0.22294025 -0.30423114 -0.41393727 -0.01017241
0.005538228 -0.11758581 -0.030345252 0.03730404 -0.009051163 -0.17874527 0.6036221 -0.05959862
-0.37947077 -0.12240593 -0.14047582 -0.43974805 0.1730838 -0.38454884 -0.10450361 0.25240964
-0.15042868 -0.23727456 0.040835775 -0.09181843 -0.26901355 -0.023162365 -0.00062870857 0.18565205
-0.11579439 -0.19965771 0.1417944 0.3672944 -0.067371726 -0.2001809 -0.14911444 -0.34579858
-0.14064316 -0.41092747 -0.39823508 0.056752823 0.10964074 0.12197981 -0.22509426 0.1135089
-0.10727686 -0.48116547 0.22198755 -0.065241165 -0.4317902 -0.24206197 -0.44416666 -0.40113014
-0.194832 0.34342656 -0.19131336 0.21616147 -0.3025975 -0.61764574 0.2871577 -0.31514975
0.1321708 0.43163767 -0.42433974 -0.33507535 -0.16437864 -0.32800877 -0.2341082 0.31650886
0.022310678 -0.2410154 0.20609236 -0.13503885 0.007840899 -0.029144982 0.09406856 -0.3100606
0.26858848 0.008939941 0.100423515 0.22698027 -0.22633229 0.41602227 0.15633647 -0.10368792
-0.28126496 0.17851911 0.0652546 -0.21611352 -0.072583266 0.20484444 -0.20993696 0.035847213
-0.33115205 -0.43507257 0.16208574 -0.25700587 0.027786756 -0.014433059 0.06725295 -0.28208703
0.011670156 0.3807543 0.08449561 -0.1444001 0.27300906 -0.097238034 0.3779454 0.12718423
-0.36349532 -0.40249062 -0.067113645 0.28605163 0.079296686 0.22197992 0.12094352 -0.14957912
-0.36372426 0.46976462 0.04627703 -0.42443287 0.42663473 -0.42273954 -0.1835845 0.13686576
-0.19194168 0.23281603 0.22391222 0.2431157 0.12630768 -0.44125867 0.023411205 0.4338961

0.bias f4 [128]
00000000: f408 4b38 fe64 99bd 7c15 aebe 2f98 6fbe
00000010: 8b26 cabe 9e03 2f3e fdea 823e 57d7 0c3e
00000020: 0f99 f63e 4db9 0a3f c966 73bd bcd0 8dbd
00000030: e95b e03e 2dd7 123e 270c a43e 62e3 e53c
00000040: 1a68 0d3f d022 ddbd 5abf 99be e891 56be
00000050: 0f07 3b3e 2006 a23e 9762 cabc 5d2a 233f
00000060: f504 1b3d ed7d 1b3d 2fbf d93e 1ef2 8ebe
00000070: e162 c7be 764a ddbe 91c3 b0be 7e8b 9fbe
00000080: f80d e2bd 9816 afbd 10e5 243e 8c20 85be
00000090: 3b6e 1a3e f060 683e cfac a43e f1b4 acba
000000a0: bbc1 31be 1376 d4be b94f 95be 917f 9cbe
000000b0: 8d6a 323f 4f0b c3be 6d9d 4a3e 8f81 9dbe
000000c0: 444c 1c3f b309 f6be 8672 80be 5af8 a93e
000000d0: 78c1 203e 05cd 0b3e ea3d 0cbe 9299 b73e
000000e0: 22b4 0bbf fe70 5dbe 9d50 0f3f bf3f 1abe
000000f0: b6cc babe 3325 6a3e b24d 9f3e 7e12 0f3f
00000100: f9c3 9f3d 20a3 243e dbca 5b3e e570 e93e
00000110: 290a de3e 0c2b 823e a8f3 023f 7c05 5f3e
00000120: 8fa5 b8be e684 093e b910 1d3f f67d 19be
00000130: 2646 c83e 335a 41bb 29fe babd 2410 3ebe
00000140: e9ea 84be 8c4e 8bbe 15d7 bb3e daa9 d23d
00000150: b4e3 99be 5cb0 ccbe 8e28 54be 3462 3dbc
00000160: 4009 debd bb0e e6be ac06 65bd 44a0 c23d
00000170: c704 74be 8d53 2a3e 300f e43e 9296 37be
00000180: 9655 203e a7a8 f53e 2dd2 283f c9e8 123f
00000190: 5377 58be 3a9b debe 7d66 a33e fcd2 a93e
000001a0: 8c5e 0abf 23b4 1b3f 8012 383f 9255 ae3c
000001b0: 7fde 1e3f 1c77 4cbd 968d 223e c91c 9abe
000001c0: 7cd8 033f 534c d5be 6cfe e1be 73a0 61be
000001d0: 13f2 e13e 3844 f63e 4a86 993c e028 72be
000001e0: fc51 243f 59fc 9dbd 146b f9bc cee0 17be
000001f0: 4a6e 8cbe 57e4 5b3c 37ba 9f3e 222b 1cbe
4.840731e-05 -0.07489966 -0.34000766 -0.23397897 -0.3948253 0.17091224 0.25569907 0.1375402
0.4816365 0.54188997 -0.059424195 -0.069245785 0.43820122 0.14339896 0.32040522 0.028062526
0.5523697 -0.107976556 -0.30028802 -0.20954096 0.18264411 0.31645298 -0.024705214 0.63736516
0.037846524 0.03796189 0.42528674 -0.27919096 -0.38942626 -0.43220872 -0.34524205 -0.31161112
-0.110378206 -0.08549231 0.16103005 -0.26001394 0.15081112 0.22693229 0.32163092 -0.0013176483
-0.17359059 -0.41496333 -0.29162386 -0.30566075 0.69693834 -0.38094565 0.19786616 -0.30762908
0.6105387 -0.48054275 -0.25087374 0.3319729 0.15698802 0.13652427 -0.13695493 0.35859352
-0.54571736 -0.21625134 0.5598238 -0.1506338 -0.36484307 0.22865753 0.31113964 0.5588759
0.07801051 0.16077852 0.21464102 0.45593944 0.43367127 0.25423467 0.5115304 0.21779436
-0.3606381 0.13429603 0.6135364 -0.14989457 0.3911602 -0.0029503226 -0.091305085 -0.18560845
-0.25960472 -0.27208364 0.36687532 0.10286303 -0.30056536 -0.39978302 -0.20718595 -0.011559058
-0.10841608 -0.44933113 -0.055914566 0.095032245 -0.23829947 0.16633435 0.44542837 -0.17928532
0.15657648 0.47980234 0.659457 0.5738645 -0.21139269 -0.43477803 0.3191413 0.3316878
-0.5405052 0.6082174 0.7190323 0.021281037 0.6205825 -0.04991828 0.15874323 -0.30100086
0.51502204 -0.41659793 -0.4413942 -0.22033863 0.4413 0.48098922 0.018740792 -0.23648405
0.641876 -0.07714147 -0.030446567 -0.1483185 -0.27427894 0.01342114 0.31196758 -0.15250829

2.weight f4 [128, 128]
00000000: 5aef 933d ea63 ce3b bb41 8bbd 1a42 6abd
00000010: 2a15 64bb 75d9 b33d 0737 fbbc c456 74be
00000020: 64c4 943d 41d9 8b3e e16d aabe 21e3 54be
00000030: c435 683d 5152 153e 139e ad3d f295 f23d
00000040: d0ee 0f3e a5b7 7d3d 6dab b13c ff46 083d
00000050: 758c 3e3d 6451 f73d c0bf a9bd 588d 3c3e
00000060: 91de 81bb 66a1 2c3d 023c 823e 8233 633d
00000070: e6d2 313d db44 743d e86f debc 9f49 9d3d
00000080: 20f2 8ebd 90f8 11be 8c5f 873d 5e96 e6be
00000090: 3b3a 82be 8fc9 0d3b d331 343e e0fc 363d
000000a0: 8b8b 47be 68ac 1dbd 527f d9bd 7d61 a5bc
000000b0: f2e3 2b3e 9996 36bd 36e6 1dbd ba74 60be
000000c0: 2e71 833e b522 42be c5f6 ccbb ea19 af3d
000000d0: a45d 0bbd bc2c 193e 0272 8bbd b352 51bd
000000e0: 31dc 9ebc 5d62 8ebd 20ea a43d d60c c5be
000000f0: 4017 30bd d5ec e4be 51f5 103c 463c 163d
00000100: 45cc 56bd 7d49 60be 1204 563e edc0 db3d
00000110: ab55 07bc 60be 383e a571 e23d 5cba 81bd
00000120: 4479 3ebe bfc0 b63d 4a76 813e eb50 53be
00000130: 7521 393e 3a89 233d ed6e 2bbd ced5 603d
00000140: 82b6 463d 6a48 93be ab21 1dbe 9916 2e3c
00000150: d554 c0be fcd0 00bc 0637 193d f7b8 263c
00000160: 1b9f be3b f61a 39be d2e6 cd3b 6423 85bd
00000170: 3ca1 19bc 5425 643d 5127 083e a2ff b23c
00000180: 78b9 123c f3b1 1bbd 2f8d 3c3e 6790 bd3d
00000190: 5322 d1bc 04fe b13d 33f3 0e3e e5bf ca3d
000001a0: e1da cfbb 4437 843e 5773 4d3e a98a a0bd
000001b0: 25df 073e d7ab a5bd ada5 f0bc ea81 1b3d
000001c0: 970e eebd 9c25 b3be c937 0f3d 4f8e 9abe
000001d0: 26ab efbc 79c6 fd3d 3f00 b2be d3fa 80be
000001e0: 6117 793e e1bd 563d e189 c7be dc03 b0bd
000001f0: 5867 f3bd a4ac 273d c63a 983d a4f3 20bc
00000200: f28f 32bd 6c1c 8e3d 66c3 233d f757 833c
00000210: c035 91bb d607 80bc d89d 4bbd fa2b 90bd
00000220: 92d6 1b3c 0f3f abbd ae95 e6bb 1936 f2bc
00000230: 52db 46bd 3cd4 04be cce2 803d 9716 a83a
00000240: 192a bebd ea24 4c3d 5183 8c3b bfc8 5d3c
00000250: 6a6b babb eefa 3c3d a322 4a3d f332 d13b
00000260: 3a03 5b3d 29f5 8cba a6fb 1dbd 7154 ab3d
00000270: 06f4 24bc 4255 81bd 3336 a73d 659a ac3b
00000280: 29f3 2a3d 5f05 91bd 7179 2dbc c6d3 52bc
00000290: 403e 4e3c 32b8 363d 1b43 a1bd 046d 8fbd
000002a0: 5df8 16bd 5a00 7f3d a682 563d 6477 20bd
000002b0: c76d b33d ca15 0e3c 6bf8 883d bf6c d3bc
000002c0: 9d71 893d 09bf fabc fa8f 2c3d df6d b7bd
000002d0: 76c2 50bd 5cb7 c7bd 976d 763d 3c91 be3c
000002e0: d18b 913d a988 c8bc 0092 bfbd b440 563c
000002f0: fa8f bf3a e01f 97bd 3ed1 1bbd b75d 3b3c
00000300: aa88 1cbc a1f9 c1bd 1328 27bc 9ad7 0f3d
00000310: f226 b0bd 5f5e 8b3d 6898 2e3d 6513 ddbc
00000320: 70d4 f83c 6fdd cabd f469 6cbd 86e4 c8bc
00000330: e3a6 5e3d e892 97bd 921f 8e3d c095 a43c
00000340: 68dd b03d 8b7c 743d e6c1 7fbd c168 65bb
00000350: 67f3 89bd 8a5e 62bd 0a29 9bbd 8d58 403d
00000360: 7a45 f2bc c9c4 73bc 1a4e 583d a8f9 5b39
00000370: 2645 a73c 4edc b8bd 2c30 8a3b d40d 833c
00000380: 4fc1 9f3c 4343 c1bd 189c ad3b 534c 45bd
00000390: edcf 8b3d f213 413d b91e 2e3c 7fd3 893d
000003a0: 3b75 023d 950e 56bc a937 f73b 9655 84bd
000003b0: 11f1 dfbc 852e b13d 1e65 153d de8a 72bc
000003c0: 0b88 02bd ffaf 3b3d 2265 30bd 2ad5 7dbd
000003d0: 2a47 013d 0bae b7bd 3f3b 1c3d 4407 57bc
000003e0: 4ba5 de3d fa75 853d 1d1c 90bd 170c 9bbd
000003f0: 1bdc 50bc ef42 a43c 9c0a 4a3d 6806 1cbd
0.07223387 0.006298532 -0.067996465 -0.057191946 -0.0034802654 0.08781711 -0.030665888 -0.23861223
0.07264021 0.2731419 -0.33286956 -0.20789768 0.0566919 0.14582182 0.08477416 0.11845006
0.14055943 0.061942715 0.021688187 0.033270832 0.04652067 0.12076071 -0.082885265 0.18413293
-0.0039632996 0.04214611 0.25436407 0.055469044 0.04341402 0.05963598 -0.02715297 0.07680058
-0.069797754 -0.14254975 0.06610021 -0.45036596 -0.2543505 0.002163503 0.17597131 0.044674754
-0.19486825 -0.038494498 -0.106199875 -0.020188088 0.16786173 -0.044577215 -0.038549624 -0.21919528
0.25672287 -0.18958552 -0.006255003 0.085498646 -0.03402485 0.14958471 -0.06808855 -0.05110426
-0.019392105 -0.06952355 0.08052468 -0.38486356 -0.042990923 -0.44711939 0.0088475505 0.036678575
-0.0524409 -0.21903034 0.2089999 0.10730157 -0.008260171 0.18041372 0.11056832 -0.06334373
-0.18600947 0.08923482 0.2528556 -0.20636337 0.18079169 0.03992579 -0.041853834 0.0548914
0.048513897 -0.28766185 -0.15344875 0.010625505 -0.37564722 -0.007862326 0.03740599 0.010175935
0.0058173067 -0.18076691 0.0062836194 -0.06500891 -0.00937682 0.05569966 0.13296248 0.02185041
0.008955352 -0.038011502 0.18413232 0.09256058 -0.025529062 0.08691028 0.1395996 0.09899882
-0.006343231 0.25823414 0.2006353 -0.07838947 0.13268717 -0.080894165 -0.029375875 0.037965693
-0.116238765 -0.3498963 0.03496531 -0.30186698 -0.029256415 0.12391371 -0.34765813 -0.25191364
0.24325325 0.052427176 -0.3897238 -0.08594486 -0.11884946 0.040936127 0.07433085 -0.009823713
-0.04359431 0.06939015 0.03998127 0.016033156 -0.0044314563 -0.015628736 -0.04971108 -0.07039638
0.009511607 -0.08361637 -0.007036886 -0.029566811 -0.048549004 -0.12971586 0.06293258 0.0012824115
-0.09285373 0.04983989 0.004288115 0.013536631 -0.0056890743 0.046137743 0.04934944 0.0063842474
0.053469874 -0.0010754216 -0.03857007 0.08365715 -0.010067945 -0.0631509 0.081646346 0.0052674287
0.0417358 -0.070811026 -0.010588036 -0.012867874 0.012588084 0.044609256 -0.078741275 -0.07003215
-0.03685795 0.062256195 0.05237069 -0.03917636 0.08761173 0.008672187 0.06688007 -0.02580869
0.06711123 -0.03060867 0.042129494 -0.08956503 -0.050966702 -0.0975177 0.060163107 0.023262613
0.07106746 -0.024479227 -0.09354019 0.01307695 0.0014615052 -0.073791265 -0.038041346 0.011435918
-0.009554068 -0.09471441 -0.0102024255 0.035117723 -0.08601178 0.06805109 0.042625815 -0.026986787
0.030374736 -0.09905516 -0.057718232 -0.024523031 0.054358374 -0.07401067 0.06939615 0.020090938
0.0863598 0.059689086 -0.062440775 -0.0035005065 -0.067358784 -0.05526594 -0.07576187 0.04695945
-0.029574145 -0.01487846 0.05280886 0.00020978472 0.020418715 -0.09026395 0.0042171683 0.015997805
0.019501356 -0.09436657 0.005298149 -0.04816849 0.06826768 0.047138162 0.010627442 0.06729793
0.03185008 -0.013065 0.007544477 -0.06461637 -0.02733663 0.08651451 0.036473386 -0.014803616
-0.031868022 0.04582214 -0.043065198 -0.061970867 0.031562008 -0.08968743 0.03814244 -0.013124291
0.10871371 0.06516643 -0.07036612 -0.07570665 -0.01274779 0.020051448 0.049326524 -0.038092047

2.bias f4 [128]
00000000: 2b93 453d 696a a43c aa5e 83bb 578d 203e
00000010: 4312 33bd 10be a3bc 3553 95bd 8801 5e3e
00000020: a0c9 993d df77 6bbd 7f6d 683c 9f8a 9fbd
00000030: be4b 8d3e 0814 adbb 4ee4 14bd c520 583c
00000040: 618e 663d 798a 603e 904a 34bd cf49 debc
00000050: e516 6d3d b26d c4bd a459 bd3d 9326 99bc
00000060: ce15 8fbc 532e 8dbd 70cf 82bc 9952 453d
00000070: 63e8 bcbd 599f 8b3d fb67 57bc b7a8 9dbd
00000080: 239f 30bd 75ae e23c c568 15bb cc6c 653d
00000090: f8a9 5cbd 2c3e a7bd 2be5 64bc 8de8 82bd
000000a0: c0ce c13c 07df 0b3d 7534 e93c 9677 b33d
000000b0: e84c 2dbd d854 a83c df5d c53c a35c 433e
000000c0: 4d04 97bc 5f28 afbd cc8b bbbc 5b95 68bd
000000d0: 8238 9cbc 3858 82bd 4e4a c9bd df72 62bb
000000e0: 83c1 e6bb 757d a0bd 7235 85bd 08c4 efbc
000000f0: 6d40 4a3d 569f 2d3d dd53 013c 61b8 713d
00000100: e531 1c3e e4d3 943e dd0a 07bd 2cd8 7c3d
00000110: beb6 4f3d 9ca7 cbbd 2fec b1bd 2b7f 153e
00000120: 82e6 4abd 1433 8bbd c92a 883e f10b c83b
00000130: 7541 743e 9148 1cbd cf43 563c 10f3 86bd
00000140: 1003 a33b 59f9 e1bd 719f 21bd eb8c 8d3d
00000150: 94c1 723d d983 e83d 67cb 913b f366 1ebd
00000160: f4ce 9c3d b337 8b3d c640 e2bc a9fa 20bd
00000170: ce80 3f3c 55f4 583a 1c61 b63d 6d52 d2bc
00000180: 9396 963e 705f 75bd 306b c2bd dea6 713c
00000190: 7ddf ca3b 0b96 ccbb 3841 0dbc 7f84 77bd
000001a0: 5511 253c c1d4 003c 038a e4bd abd4 813c
000001b0: d397 8f3d f490 84bc c3cf 373c 69ad d9bd
000001c0: 2fc7 ee3c 392f a0bd 6580 afbc 186b a4bd
000001d0: 96db 63bd 8965 073c 7080 8d3d 8a51 edbc
000001e0: bcfa e53c 6242 593e 9155 8e3c 923b 5f3a
000001f0: e625 d23c a1ee 783d 2d0e 693e c3db b43e
0.048236053 0.020070272 -0.0040090876 0.15678917 -0.043718588 -0.01998809 -0.07291261 0.21680272
0.0750916 -0.057487365 0.014186262 -0.07790112 0.2759685 -0.005281929 -0.03635054 0.013191407
0.056288127 0.21927823 -0.04401642 -0.027134804 0.057883162 -0.09591235 0.09245613 -0.018695151
-0.017466452 -0.06893601 -0.015968055 0.048174474 -0.09224012 0.068175025 -0.0131473495 -0.076981954
-0.043120515 0.027671078 -0.0022798043 0.05601196 -0.053873032 -0.08166155 -0.0139706535 -0.06392012
0.023658156 0.034148242 0.028467396 0.087630436 -0.04230967 0.02054827 0.024092613 0.19078307
-0.018434668 -0.08552622 -0.022893809 -0.05678306 -0.019069914 -0.06364483 -0.098286256 -0.0034553332
-0.0070421114 -0.07836429 -0.065043345 -0.02926828 0.049377847 0.042388283 0.00789353 0.059013728
0.15253408 0.2906791 -0.032969344 0.061729595 0.050711386 -0.09944078 -0.086876266 0.14599292
-0.049536236 -0.06796852 0.26595142 0.006104939 0.23853095 -0.038155142 0.01307769 -0.06589329
0.0049747303 -0.110338874 -0.039458696 0.069116436 0.05926664 0.11353273 0.0044492963 -0.0386724
0.07656661 0.06797733 -0.027618777 -0.03930155 0.011688424 0.00082761544 0.08905241 -0.02567407
0.29411754 -0.05990547 -0.09493101 0.014749257 0.0061911927 -0.0062434725 -0.008621506 -0.060429092
0.010074933 0.0078632245 -0.11159136 0.015848478 0.0701138 -0.0161824 0.011218968 -0.106287785
0.029147713 -0.07821507 -0.021423528 -0.08028239 -0.055629335 0.008263954 0.06909263 -0.028969545
0.028073661 0.2121673 0.017374786 0.00085156516 0.025652837 0.06077445 0.22759314 0.35323915

4.weight f4 [8, 128]
00000000: 6bb2 3fbd 92e5 9e3c 58ec 783d 5043 e1bd
00000010: 9139 b7bd ef51 ad3d 0115 10be 931d 82bc
00000020: 789f 5fbd ea50 f43c 9772 5f3c 3d4d 243c
00000030: a1b6 49be 16d2 873c d2fc 533d 9b2a e9bc
00000040: fbb2 3b3c 67de 37be 14bc d73d daeb 05bd
00000050: b6d1 913c 447b 793d b848 bbbd 883b 743c
00000060: e3ea b3bd 9d74 24bc 39f3 0a3d f336 d7bd
00000070: 1aa9 493c 9868 59bd 898b a5bd f73c d73c
00000080: 1bbc ed3c 1783 8e3d b629 043d 7095 b5bd
00000090: 8efb 5e3c 8505 83bd 31b2 27bd 103c 41bd
000000a0: 79ad 9ebc 7c6a 903d fd9f 173d ca30 d7bd
000000b0: 577a 9e3b c275 833d 4e3d e23c b4c8 eabd
000000c0: c588 483c cd76 8ebb 67af 8d3d 3f86 8c3d
000000d0: e04b 263d 527e a8bc 9721 8dbd 177b 8dbc
000000e0: 359b 8fbd d47b ac3d 389a 5c3d 6dc5 8abd
000000f0: 7808 90bd ca1a 8ebd 023a a5bc 4615 cabd
00000100: ce29 90bd 63b6 c4bd 9139 263c 04d3 4b3d
00000110: dd6c 2bbc 278d 94bd 8845 0a3d 6304 77be
00000120: abef a8bd b9a7 753d 8680 59be 6000 9c3d
00000130: a608 44be 922f 1fbe 7116 14bc d968 503d
00000140: 3721 07bd 1338 1fbd 5d5f 06be 4dfa e63b
00000150: fa17 85bd df20 b6bd e322 373c 0ae2 8d3d
00000160: 2fc0 26be 9585 b0bc f183 74bd 6785 c53c
00000170: 4f72 0c3c 1d76 6c3d f4f6 c0bc 1b52 043d
00000180: ee72 11be ec12 f53c 85d0 723b 5999 dc3b
00000190: 1ca5 353c b121 02be 5165 873d 0dc7 e0bd
000001a0: c94d 82bd 4a49 253d 499a 7abc 8d13 1dbd
000001b0: 2d41 963d f57d 013d 47a6 9d3d c69c 8d3d
000001c0: 54e1 863d 22e1 96bd 336b b43c 9a9c d8bc
000001d0: 132e 833d ee35 e9bc 5d55 783c 1ae2 efbc
000001e0: 1f12 1bbd 9ba3 013d 0953 cfbc 13c9 64bd
000001f0: d406 31bb 4011 afbd 6c4b 00be e898 07be
00000200: 55a0 90bc 96ca 0abc d032 6c3c 46cc a6bd
00000210: 175b 493d 1551 b0bd 5cf9 b8bc d6e2 21be
00000220: 9636 d3bd 8976 83bd d40a 55bd f16d 713d
00000230: ffe1 5cbe 1dbf 153d 60c6 8dbc a696 003c
00000240: 515b 27bd 9995 36be 27ff 2dbc e860 b2bd
00000250: b515 94bc b8ec 913d 6368 97bd dc20 3b3d
00000260: 9ed3 153d 30e7 a33c 448e 6b3d 267f 51bb
00000270: a4bc 8d3d 6689 4a3d 92ef fdbd ccd1 23bb
00000280: 81d6 44bd b155 0bbd a707 523d 7017 01be
00000290: af25 7abc b345 58bd b3c2 debd d971 5abd
000002a0: a0ee 05bd 2659 1b3d 0903 8d3d 9ea6 3ebd
000002b0: c8a4 15bd dcdd 253a 0487 85bd 8b36 38be
000002c0: a737 f3bc 5d38 47bd e7a0 adbd 6e2e 3fbd
000002d0: bf66 ccbd 4059 cbbd 4796 513d c4f8 903d
000002e0: d5a1 6d3b 9340 403c 9ed6 09bd cbf6 ffbd
000002f0: 5b86 2dbd 2879 a8bc 21cc e4bb 4053 e2bd
00000300: 6bc1 28bd 30ad 77bd 8e8e 13bd a9bb b3bd
00000310: 52c3 bb3d f59b e43c cb76 e33c d9bc b6bd
00000320: 53c8 173d e45b a13d 9cdb 17be ddbb 0cbd
00000330: 36b4 16be a922 2abd 0461 a5bd 09c2 a73d
00000340: efd5 743d c60b 04bd 6a84 0abc 9843 463c
00000350: 7b63 c93c 7555 84bd ab1f 4a3d d621 cdbb
00000360: e322 92bd 65df 9dbd 09ae 1a3d 0a25 823d
00000370: bf10 8c3d bc2a 743c 342d 6bbd 0de7 6d3d
00000380: 6953 30be 4cd1 9b3d 8494 96bd b949 1bbd
00000390: f66c 803d 3c0b a6bd f890 913b 3082 39bd
000003a0: 4a34 bcbd f9f0 21bd c012 b0bd 9083 31bd
000003b0: 5896 203c 9407 1cbd a92d 683d 78f5 353d
000003c0: cc95 52bd cfb4 953c 04cc e0bc 7b29 5fbd
000003d0: fa75 b83c 9656 eebc 8c8a 0b3d 735f 54bd
000003e0: 2108 88bd 51eb 90bd b977 2abd 3d54 c4bd
000003f0: c885 8c3d fdbb ad3d ca3a 28be 6592 31be
-0.046801012 0.019396577 0.06077227 -0.10999167 -0.08946527 0.08462893 -0.14070512 -0.015883243
-0.05459544 0.02982374 0.01363816 0.010028181 -0.19698574 0.016579669 0.05175478 -0.028462699
0.0114562465 -0.17955934 0.1053392 -0.03269563 0.017800193 0.06090857 -0.091447294 0.0149067715
-0.087850355 -0.010037568 0.03392336 -0.105085276 0.012308383 -0.053078264 -0.08083255 0.026274187
0.02902036 0.06958597 0.03226634 -0.088663936 0.01360978 -0.06397537 -0.04094142 -0.04717642
-0.019369828 0.0705156 0.03701781 -0.10507353 0.0048363614 0.06418945 0.027617123 -0.11464062
0.01223964 -0.0043476583 0.06918221 0.06861543 0.040599704 -0.020568047 -0.068911724 -0.017270608
-0.07012025 0.08422056 0.053858012 -0.06775937 -0.07032865 -0.06938703 -0.020169262 -0.09867339
-0.070392236 -0.096051 0.010145561 0.049761787 -0.010462967 -0.07253485 0.033757716 -0.24122767
-0.08248838 0.059974406 -0.21240434 0.07617259 -0.19143924 -0.1554549 -0.009038554 0.05088124
-0.03299066 -0.038871836 -0.13122316 0.007048881 -0.06498714 -0.088929884 0.011177751 0.06927879
-0.1628425 -0.021548072 -0.05969614 0.024111463 0.008572175 0.05772983 -0.023555256 0.032304864
-0.14203998 0.02991625 0.0037050557 0.0067321477 0.011086728 -0.12708165 0.066111214 -0.10975466
-0.063624926 0.040353097 -0.0152955735 -0.038348723 0.0733665 0.031614263 0.076977305 0.06914668
0.06585947 -0.073671594 0.022023773 -0.026441861 0.06405272 -0.028468098 0.015157071 -0.029282618
-0.03785908 0.031650167 -0.025308149 -0.05585582 -0.0027012127 -0.08548212 -0.12528771 -0.13241923
-0.017654577 -0.008471152 0.0144164115 -0.08144431 0.049159136 -0.08609215 -0.022579841 -0.15809187
-0.10313146 -0.06419093 -0.05201228 0.05894274 -0.21570586 0.036559213 -0.017306507 0.007848417
-0.04085857 -0.17830504 -0.010619915 -0.0870989 -0.018076757 0.07125229 -0.07392957 0.045685634
0.036578767 0.0200077 0.057508722 -0.0031966656 0.06920746 0.04944744 -0.1239921 -0.0024996875
-0.04805613 -0.03401727 0.05127683 -0.12606597 -0.0152677735 -0.052800845 -0.1087698 -0.05333123
-0.032698274 0.037926815 0.068853445 -0.046545617 -0.0365341 0.000632731 -0.06519893 -0.17989556
-0.029689623 -0.048637737 -0.08477955 -0.04667514 -0.09980535 -0.099291325 0.051168706 0.07078698
0.003625979 0.011734146 -0.03365194 -0.12498244 -0.04236446 -0.020565584 -0.006982342 -0.11051035
-0.041200083 -0.0604679 -0.036024623 -0.08776028 0.09168114 0.027906397 0.027766606 -0.089227386
0.03705628 0.07878855 -0.14829868 -0.034358848 -0.14717183 -0.04153696 -0.08075145 0.08191306
0.059774335 -0.03223779 -0.008454422 0.012101077 0.024583569 -0.06461612 0.049346607 -0.006260137
-0.0713556 -0.07708625 0.03776363 0.06354721 0.068391316 0.014902767 -0.057416156 0.058081675
-0.17219318 0.076082796 -0.07352546 -0.037912104 0.06270783 -0.081076115 0.0044423304 -0.045290172
-0.09189661 -0.03953645 -0.08597326 -0.04333836 0.00980147 -0.038093165 0.05668417 0.04442355
-0.05141239 0.018274693 -0.027441032 -0.05448292 0.022517193 -0.029094022 0.034067675 -0.05184884
-0.066421755 -0.07076133 -0.041618083 -0.0958638 0.06861454 0.084831215 -0.16428676 -0.17341001

4.bias f4 [8]
00000000: e0e9 5dbe fe49 a7bd eaa5 34be 0128 21be
00000010: 2edd 2dbe caec 63be 7cfc 7ebe 07c3 a7be
-0.21671247 -0.0816841 -0.17641416 -0.15737917 -0.16978905 -0.22258297 -0.24901003 -0.32765982
