ddqn/service-rate/new-config/final_double_dqn_model-rate=6-1.pth (torch, 76062 bytes, 6 tensors)

0.weight f4 [128, 5]
00000000: 8d8f 073d fd37 d3be 26b0 38be 5396 84be
00000010: 4337 c9bd 3036 b33e c1ad f63e 500f 72be
00000020: 89f3 97be 592b b43d 1d66 8fbd 8a37 9abd
00000030: 91fe b2be 1d8c 8bbe eac1 33be b125 91bd
00000040: a35b 843e a5ea 9a3b 31d8 d7bd 1d70 33bd
00000050: e83b 9d3b d9a4 863e 3677 a8be 4fd4 ccbe
00000060: 57e0 cdbe c26b 16be 7da5 8cbb 5ab0 5dbe
00000070: 1414 933d 4bbe a63e aedf 1bbe add5 2c3e
00000080: 5e48 d8be 63fa 29be 7c95 9a3d e731 7bbe
00000090: 269b 09be 4e08 8fbd f471 df3d 64aa 9d3d
000000a0: ad2d e73c 561d c7be 0ae6 a9bd 24bf e4be
000000b0: 43bc 1f3e cdb7 353e e79f bb3e 5ed7 e9bc
000000c0: 0d42 2b3d 0e1f 49be af83 863e 1fb4 783e
000000d0: 7a45 9cbe 10e0 0ebe a468 b4bb ed0e 56bd
000000e0: a2ef 713e 3ecb ccbe ad39 d53e 57c5 fa3e
000000f0: efab bf3e 588a abbd 7ff9 a43e a06e 573e
00000100: ef77 883e 81d5 e33e 47c9 8f3e e6c6 a13e
00000110: 2668 fabe d56f 10bf 3311 dabd 3db5 bcbe
00000120: 9f21 7f3e 09a1 e5be 3258 b53e 8b2c 323e
00000130: 76f1 d63e 0d80 dabe 5411 a93e f685 7bbe
00000140: 1bb4 c2bd d04c 26bd 8fb6 5bbd a86a 003e
00000150: 8947 9f3e f291 a7be 81bf fd3e 1ae3 b6be
00000160: f6b7 3e3e 76c4 513e 1d82 a2be 5f57 7bbe
00000170: 1b8e 8b3b 9c8e 67bc c5f9 b73d 2c17 66be
00000180: 7669 ea3e 9380 d5be 2409 5b3e be3c 673e
00000190: 98b1 16be 2caa 1d3e c1f1 43be d785 0fbd
000001a0: 8193 adbe 0d7f 013a e902 f93e 04c3 acbe
000001b0: e511 b43d 9f8f 3dbd 14e6 3f3d 0a6d 933e
000001c0: 115b aebe f453 d4be 7a5a e5bd a2c6 3ebc
000001d0: 6234 083f 4745 d1be 72db 703e f0e3 f03e
000001e0: 4587 303d 8c1e 043f c708 f63d 5b34 e4be
000001f0: 3230 b43e 39ca f33c 700a efbd 220d 603e
00000200: 3eff 203e f6ca 87be be56 e4be dc1b 563e
00000210: f201 3fbe b87b 6abc 7945 043f 0c1f a43e
00000220: 61ec 50bd e56a 9b3e bfd5 d3be 9a33 e03e
00000230: 29de 793e 10b1 0e3e 2617 3abe d0e6 343d
00000240: e746 0cbe 60eb cfbe 744d b1be ed33 c7be
00000250: 61a0 72bd 42a0 fdbd 8605 c1ba c362 f13e
00000260: cf98 11be eacc 4a3e f784 313e 270f b5be
00000270: a260 1e3f 1c6d 053e ba5b 073e dfe5 413e
00000280: 8f3b 833e 13d2 df3e ef0f c23e 17a8 0dbf
00000290: 4507 81be 773c a93e 06f7 e33d a744 94be
000002a0: 74b0 123e a5ec 7e3e 8f4d b43e 1fa0 663e
000002b0: 6264 bc3d 7979 dbbe f7e9 e03e 3988 88be
000002c0: 2cd8 8abd 7d4e dcbe c323 3f3d f973 9bbc
000002d0: 6cbd 3e3e 1061 f7be d326 6ebd 768b 053e
000002e0: bd6c d9be 68c8 a73c 0cc8 9fbe 53cf d1be
000002f0: e46b c43e 8169 c5be 2101 afbe b31a 98be
00000300: b232 bfbe 1235 06be ad46 223e 9089 84bd
00000310: ee73 3f3e 467e 9bbe f1e0 273e 9f01 1ebb
00000320: c43c b8bd c2e8 90be d4f7 b9be 20ba 01be
00000330: 365d a83e f9ae 57be 55b5 823e b915 cfbd
00000340: 2f1f 46bd af66 1cbd 4abf d6be 19e4 843c
00000350: 47b7 b9bc d702 b9be f2a8 3cbd d65d 59bd
00000360: 8a64 943e 8650 3fbe d516 503e 2c2e d53d
00000370: d7dc c63e 958f 8bbc c6ad be3d 9418 7ebd
00000380: e92e e8bb be3e 0d3e 062c fbbd e874 8abe
00000390: 132c bc3e 0814 55be 9c5f 88be 852b 00be
000003a0: 0b02 ac3e 00b8 55be 7079 c33e c59f b83b
000003b0: fff5 683e 16d8 aa3e 4ae6 f9be 57ce 673e
000003c0: 90b1 ce3e 21e0 85be c769 01be a014 e3be
000003d0: 276a c4be 7b3d 033e 5479 b6be 87d3 9a3e
000003e0: 0e79 82be b295 913e 09d7 9dbd 7e4a d73c
000003f0: c994 cdbe fb69 32bd 1705 ccbe c6bf a93e
0.033095885 -0.41253653 -0.18035945 -0.25895938 -0.098249935 0.3500228 0.4817944 -0.23638654
-0.2967799 0.087973304 -0.070018984 -0.075301245 -0.34959844 -0.27255335 -0.17554441 -0.07087267
0.25851163 0.004727679 -0.10539282 -0.04380809 0.004798401 0.26297644 -0.3290345 -0.4000573
-0.4021022 -0.14689544 -0.0042921887 -0.21649304 0.07181564 0.32567057 -0.15222046 0.16878386
-0.42242712 -0.16599421 0.07548043 -0.24530755 -0.1343809 -0.06984006 0.10910407 0.07698515
0.028220022 -0.3888957 -0.082958296 -0.4467708 0.1559916 0.17745896 0.36645433 -0.028545078
0.041811038 -0.19640753 0.26272342 0.2428746 -0.30521756 -0.1395266 -0.005505638 -0.052260328
0.23626569 -0.3999881 0.41645566 0.48978683 0.37435862 -0.08375996 0.322216 0.21038294
0.26654002 0.44498828 0.2808325 0.3159706 -0.48907584 -0.5642064 -0.10647812 -0.36857024
0.24915169 -0.44849423 0.3541885 0.17399804 0.41981095 -0.4267582 0.33021033 -0.24562821
-0.09507009 -0.040600598 -0.0536409 0.12540686 0.31109264 -0.32728535 0.49560168 -0.3572014
0.18624863 0.204851 -0.31739894 -0.24545048 0.0042588837 -0.014133122 0.08983187 -0.22469777
0.45783585 -0.41699657 0.21390206 0.22581765 -0.14716184 0.15396947 -0.1913519 -0.03503975
-0.339016 0.00049398915 0.48635033 -0.33742535 0.087924756 -0.046279546 0.04685028 0.28794128
-0.34053853 -0.414703 -0.11198898 -0.011644037 0.5320493 -0.40873167 0.23521212 0.47048903
0.043097753 0.5160911 0.12013393 -0.44571194 0.3519302 0.029759513 -0.11671913 0.2188001
0.15722367 -0.26522034 -0.4459743 0.20909065 -0.18653086 -0.014311723 0.51668507 0.32054937
-0.05100668 0.30354992 -0.41374013 0.4378937 0.24401154 0.13934731 -0.18172893 0.044165432
-0.13698922 -0.40609264 -0.34629405 -0.38906804 -0.05923498 -0.123840824 -0.0014726378 0.47145662
-0.14218448 0.19804731 0.17335878 -0.35363123 0.618662 0.13029903 0.13218585 0.18935345
0.25631377 0.4371496 0.3790278 -0.5533461 -0.2520086 0.33053944 0.111311 -0.28958628
0.14325124 0.2489496 0.35215423 0.22522019 0.09198834 -0.42866114 0.439285 -0.2666643
-0.06779513 -0.43028632 0.046664964 -0.018976199 0.18626946 -0.4831624 -0.058142494 0.13041481
-0.42465773 0.020481303 -0.3120731 -0.40978488 0.38363564 -0.38557056 -0.3418055 -0.2970787
-0.37343365 -0.13106182 0.15847273 -0.064715505 0.18696567 -0.30369776 0.16394402 -0.0024109853
-0.08995965 -0.2830258 -0.3632189 -0.12668657 0.32883614 -0.2106284 0.2552897 -0.10111565
-0.048369583 -0.038183864 -0.41942817 0.016222047 -0.022670401 -0.3613498 -0.046059556 -0.053068005
0.28982955 -0.18683061 0.2032121 0.10409197 0.38840362 -0.017036239 0.093104884 -0.06203516
-0.0070856703 0.13793465 -0.12264256 -0.27042317 0.36752376 -0.20808423 -0.26635444 -0.12516601
0.3359531 -0.20870972 0.38178587 0.0056342804 0.2275009 0.33367985 -0.4880851 0.22637306
0.40369844 -0.2614756 -0.12638007 -0.44351673 -0.38362238 0.12816422 -0.3563944 0.30239508
-0.25482982 0.2843452 -0.0770703 0.026280638 -0.40152577 -0.043558102 -0.39847633 0.33154124

0.bias f4 [128]
00000000: 51c2 023e dd64 d73e 9070 683e 6ad4 f13d
00000010: 631b 343e ec87 833e 9ad3 af3d 95c1 57be
00000020: d2aa 17be 3e22 83be 061f a63d 0da2 983e
00000030: 815d b83d 5990 4a3e 1880 b13e f9e3 e03e
00000040: d710 8f3c 426b a7bc deb5 9bbe a962 ca3e
00000050: 2b5b 233d 9c28 c63e 98d7 8ebe f961 fcbd
00000060: 2c19 223e ac4d b9be 06b4 983d a13b 753e
00000070: 3507 8fbe 18f4 643e d598 87be de4e 81be
00000080: 73e7 5bbe f753 983e 7d36 ed3e 353b 4b3e
00000090: 0d18 2f3d 0c36 e0be 154b f8bd 10fa d13e
000000a0: 820f 253e f802 383e 40e2 9abe 6c7e 3dbe
000000b0: 07aa f3be 6530 093b f456 8d3e 93e9 49be
000000c0: d31b 863e 4303 e63e 489e d43d 3120 c2bd
000000d0: 15d3 a5be 0daa d5be 7230 093f d10f d43e
000000e0: 7cc8 13bc fd06 833e daa5 2fbe ec8f cdbe
000000f0: 72dc f8be 6963 003f 1b4c a5bd 2b4d fcbe
00000100: da47 b6be b762 ea3e 1a2a 383e e0a0 aebe
00000110: bc75 a0be 50f4 0b3d 0201 79bd 8549 05bf
00000120: a728 f23e 971f 643e 252e b8be acfb 6fbe
00000130: 1b68 f13e 9464 d63e 0b3f b83e f82c 09bd
00000140: 001f 0b3f 452f c2be 5d1b 473e 474f 9ebe
00000150: 0c3b ae3d 3ba3 0a3f 78d7 e73d ac7f 2bbe
00000160: a124 cebd ec4f 88be 95ff bebe 9e60 c4be
00000170: 3480 c83e 122b 94be 6e3a 123f 5eab 313e
00000180: 45e4 66be 74e6 b7bd e670 f93e 3f21 1c3f
00000190: 58e8 c6bd cc36 a23e f1b2 e2be f2c0 193e
000001a0: da01 0b3f cca9 093f 440e fc3e b91c 4a3e
000001b0: 76cc ddbe 238c 253e 0dfc afbe 20c7 b83e
000001c0: 170e 803e 965c 713b 0d2e 943e 9c1e b63e
000001d0: 1d6b 8d3e 2375 e13d 33f6 063e 6d45 3fbd
000001e0: f197 ccbe b604 76be 5007 293d 6fed b4be
000001f0: 2ed0 11be 5a75 26be f8b3 fb3e 3f40 293e
0.12769438 0.4206914 0.22699189 0.11808093 0.17588572 0.25689638 0.08585282 -0.2106994
-0.14811257 -0.25612062 0.08111386 0.29811135 0.090022095 0.19781627 0.3466804 0.4392393
0.017464085 -0.020436887 -0.3041219 0.39528397 0.039881866 0.38702857 -0.2789886 -0.12323374
0.15829915 -0.3619207 0.07456212 0.23948528 -0.27935186 0.2235874 -0.2648379 -0.25255483
-0.2147501 0.2975156 0.46330634 0.19846804 0.042747546 -0.43791234 -0.12123696 0.41011095
0.16119197 0.17969882 -0.3025074 -0.18505257 -0.47590658 0.0020933386 0.27605402 -0.19718008
0.26193103 0.44924363 0.10381752 -0.09478796 -0.32387605 -0.417313 0.53589547 0.41418317
-0.009019967 0.2559127 -0.17153111 -0.40148866 -0.48605686 0.5015169 -0.080711566 -0.49277624
-0.35601693 0.45778438 0.1798481 -0.34107113 -0.31339824 0.03416854 -0.060791977 -0.52065307
0.4729664 0.22277676 -0.35972705 -0.23435849 0.4714974 0.4187361 0.35985598 -0.03349015
0.5434418 -0.3792669 0.19444032 -0.3091986 0.08507356 0.5415532 0.11320394 -0.16747922
-0.1006558 -0.26623476 -0.3730437 -0.38354963 0.3916031 -0.2893911 0.57120407 0.17350528
-0.22548015 -0.08979502 0.48718947 0.6098823 -0.09712285 0.31682432 -0.44277146 0.15015009
0.542997 0.53774714 0.49229634 0.1973752 -0.43320054 0.16166739 -0.34371987 0.3608942
0.2501075 0.0036828867 0.28941384 0.35570228 0.27620783 0.1100867 0.13179855 -0.04669707
-0.39959672 -0.24025235 0.04126674 -0.35337397 -0.1423957 -0.16255704 0.49160743 0.16528414

2.weight f4 [128, 128]
00000000: 8cf5 9b3c 2ba9 ae3d 15c7 98bd 2431 833c
00000010: d0c4 e0bc 8cda 36bd 1ade 5c3d a275 6cbd
00000020: c8c2 3e3d fea5 7cbd 351a 263d 0fc5 55bc
00000030: 6be8 36bd 4b04 81bd 47c1 943d 4da5 02bd
00000040: 6e3d 89bd b949 d5bb f95c afbc d1fb 723d
00000050: da4c 55bd 4d80 12bd 87c8 59bd 9703 243d
00000060: a994 adbd d443 413d a1d7 a23d 6631 a2bd
00000070: 9bcb ac3d fc05 a53c 5a45 7ebc d3a1 1d3d
00000080: f5d8 44bd a8bf 86bd 74f7 e13c fbf6 0f3d
00000090: 7c0b aabd e16f 0fbd 525d a4bd ed39 723d
000000a0: 6f31 6b3c ab2e 4e3d ac6a 42bd 90de e4bd
000000b0: ee9b 783d c346 ff3c aaac 86bd d3e5 873d
000000c0: 29e5 afbd 6574 d0bd 3fb2 11bc 99d6 cc3c
000000d0: 8c08 81bd 281a 73bd 04d5 2dbd f94c 923c
000000e0: 7f77 77bd 6768 61bd c520 283d f63e 573d
000000f0: 87a4 1d3d 3bd5 50bc 83ac 8dbc cf5c 6f3d
00000100: d0e1 a43c 3f34 a73d ab6f d8bd de6c 8dbd
00000110: a4fe cabd 2a7e febc 5339 3bbd d45b 433d
00000120: e016 47bd 02aa 6f3d 8328 4f3d d454 a9ba
00000130: 8048 96bd 4ba6 a93d 761e a5bc c62b 493d
00000140: 110c 2cbd 2958 2a3c 6eff 6ebd 9c29 763d
00000150: 5304 b5bd 595d 96bc 86b0 bb3c 5022 05bd
00000160: 9210 2d3d 4bf1 e93b cdcb 05bd 2a1e 6a3d
00000170: e877 413d 0e43 e93c f17b 8b3d 872e 9bbd
00000180: 794d 073d 7ace 223d f63c 82bd 401b eb3b
00000190: 512e cdbd 01cf 093d acae a93c 0868 e93c
000001a0: 6fb8 a23c 5639 a4bd 0cb7 963c f4b9 c1bb
000001b0: 4ef6 b3bc 3948 78bd a0e3 ebbb ec8d 3d3b
000001c0: b7ad e1bb 8f72 82bd 0314 7e3d 45a8 0bbd
000001d0: 2f82 c4bd ebbc 59bd eead de3c 36be 2c3c
000001e0: 2939 ebbd b9b8 3abd 3934 26bd 6314 dabd
000001f0: f447 663c b7ec f8bc 3c49 c6bd 5398 9ebc
00000200: 9a99 23bd 4402 42bc 12c0 063d b8a8 8b3d
00000210: ba6b a83d e3e5 a1bd a428 f33b e4d4 f7bb
00000220: f9df 9abd 5454 b5bc 2397 963d 444e 083d
00000230: 871b 22bd 44f3 be3b 0c27 233d 0d59 723d
00000240: c9cf 8fbd 74e2 043d 833c c8bc eac2 65bd
00000250: b358 763d c0e0 3c3d 4647 763c d8cf 0c3d
00000260: b10d 233d fbe5 a5bd ad17 bf3c e176 223d
00000270: 3299 3cbd 6bcc 07bc 750e bfbd f602 40bd
00000280: 210e 0f3d db0a b2bd 7257 8fbd 8d26 92bd
00000290: a0d4 16bb 9109 8f3d 7401 92bd 11a7 153d
000002a0: 2ca8 39bd d337 343c f991 7f3d 0a27 ed3c
000002b0: 50ce 56bd 5b0e 473d 8886 24bd 06a0 013d
000002c0: 7e65 78bd 6a53 4dbd 20a9 06bd 761f 923d
000002d0: cb44 4bbc b2ab 20ba 08d5 9abd da1f b0bd
000002e0: 41c9 86bc 1779 83bd 9379 093d ddba 443d
000002f0: a22f 0abd 4fc0 7bbd 8057 a7bd 712a 0abd
00000300: 2c52 c4bc 02ec 14bd 7dca 84bd c21b 1bbd
00000310: 1141 f4bc 8aa5 903d d1f7 f43c c109 853c
00000320: 749b a13d 11d5 623d 1631 79bd 0021 723d
00000330: de66 973b 3479 4a3d 1eb3 543d 53d8 f33b
00000340: 8903 4cbc aff5 46bd 48b8 91bd 3f4a 78bd
00000350: bef6 8a3d 330b 7dbd 4eb4 9ebd 0d9a 003c
00000360: 2bbb 3ebd 1336 fcbc f2e0 9bbd ab5b a2bd
00000370: f206 67bd 5b63 bcbc 84e6 25bd 2bff 84bd
00000380: 4f53 783d de94 8bbd 727f b5bd 2c3c a23d
00000390: 4104 cdbd a578 1f3a f8a7 2b3d b88f 993d
000003a0: 9297 60bd 4b96 c6bc 76e7 753c 635a 08bd
000003b0: cf02 9dbd 661c 093c cd6f 263d ea82 113d
000003c0: 02c1 95bd bdbe 18bd 19d2 58bd 045b 35bd
000003d0: 192f 803d 0ffd 173c 59fd 043d f946 233d
000003e0: 4f11 563b 6919 203d fd1f 5dbd 9179 93bd
000003f0: 8e64 85bd c3ce a7bd 48cc 4d3d 1b41 82bd
0.019037984 0.0852836 -0.07459847 0.016014643 -0.027437598 -0.044642016 0.05392275 -0.05772937
0.046572477 -0.06168174 0.040552337 -0.013047471 -0.044655245 -0.06299647 0.07263427 -0.031895924
-0.0670117 -0.0065090326 -0.021406638 0.059322182 -0.052075244 -0.03576689 -0.053169753 0.040042486
-0.0847562 0.047183827 0.07951284 -0.07919578 0.08437272 0.020144455 -0.015519464 0.038484406
-0.04805847 -0.06579524 0.027583815 0.03514765 -0.08302972 -0.035018805 -0.08025612 0.059137274
0.014355048 0.050337475 -0.04746501 -0.11175263 0.06069558 0.031161672 -0.06575902 0.06635632
-0.08588631 -0.101784505 -0.008892595 0.025004672 -0.06300458 -0.059351116 -0.042439476 0.017858969
-0.060416695 -0.055031206 0.041046876 0.05255028 0.038486984 -0.012746151 -0.017294174 0.05843812
0.020127207 0.08164262 -0.10568174 -0.069055304 -0.0991185 -0.03106602 -0.045708966 0.047694996
-0.0486058 0.05851174 0.050575744 -0.0012918958 -0.07338047 0.08283671 -0.020156126 0.04911401
-0.042003695 0.010396996 -0.058349065 0.060098276 -0.088387154 -0.018355059 0.022911321 -0.032503426
0.04225213 0.00713936 -0.032665063 0.057157673 0.047233492 0.028474357 0.06810749 -0.07577234
0.033032868 0.039747693 -0.063592836 0.0071748793 -0.100186 0.03364468 0.020713173 0.028491989
0.019863335 -0.080187485 0.01839783 -0.00591206 -0.021968033 -0.060615752 -0.007198766 0.0028923703
-0.0068871635 -0.063695066 0.062030803 -0.03409602 -0.09595143 -0.05315868 0.027182546 0.010543397
-0.11485512 -0.04558632 -0.040577147 -0.1064842 0.014055241 -0.030386312 -0.09681937 -0.019359743
-0.039941408 -0.0118413605 0.032898016 0.0681929 0.08223672 -0.079051755 0.007420616 -0.0075632203
-0.07562251 -0.022134937 0.07353046 0.033277765 -0.039577033 0.0058273394 0.03983216 0.059166957
-0.07022054 0.032442525 -0.024442917 -0.056094088 0.060143184 0.046112776 0.015031641 0.034377903
0.03980798 -0.08100506 0.02332672 0.039664153 -0.046044536 -0.008288483 -0.09328929 -0.046877824
0.034925584 -0.08693477 -0.06999101 -0.07136259 -0.0023014918 0.069842465 -0.071291834 0.03653628
-0.045326397 0.010999638 0.06239507 0.02894928 -0.05244285 0.048597675 -0.04016736 0.03164675
-0.060643665 -0.050128378 -0.032876134 0.07134907 -0.012406538 -0.00061291 -0.07560164 -0.08599825
-0.016453387 -0.064195804 0.033563208 0.04802977 -0.033736832 -0.061462697 -0.08170986 -0.03373188
-0.023964964 -0.036357887 -0.06483934 -0.03786827 -0.029816182 0.07062824 0.029903324 0.016240003
0.078909785 0.055378977 -0.060837828 0.059113503 0.004620417 0.049431995 0.051928632 0.0074415593
-0.012452015 -0.048574146 -0.07115227 -0.06061768 0.067853436 -0.06177826 -0.07749234 0.007849229
-0.046565216 -0.030787503 -0.07611264 -0.079276405 -0.056403108 -0.022996595 -0.04050304 -0.06493982
0.060626324 -0.068155035 -0.08862199 0.07921633 -0.10010577 0.0006083346 0.041908234 0.07498115
-0.05483205 -0.024241587 0.015008798 -0.033289324 -0.07666551 0.008368587 0.040633965 0.03552524
-0.07312204 -0.037291277 -0.05293474 -0.044276252 0.06258983 0.009276642 0.032468174 0.039862607
0.0032664125 0.039086733 -0.053985585 -0.07200921 -0.0651332 -0.081937335 0.050243646 -0.06360074

2.bias f4 [128]
00000000: 8081 e83b e09a 50bd 3aa6 33bc c9ef adbd
00000010: fa39 233e 2e35 dbbd f31a 983c 05a6 eabb
00000020: 3871 2cbd c8de 083e 4c29 f13c 532c 103e
00000030: 675a 2c3c a596 2fbc 6af4 0fbd caf9 67bd
00000040: 000c 0c3c a749 4d3d 0385 493d 0fd3 78bd
00000050: 7392 15bd a794 f73c b476 c9bc bedd 72bd
00000060: b460 aabd 01f2 79bd b42e 4c3c 5b36 74bd
00000070: 360b 97bd e702 4b3e ad19 cd3c 12a7 8b3c
00000080: 08b2 543d a819 203d e12b a6bc 21fe c1b9
00000090: 7fd7 71bd 003e efbd 68bd 463e f123 8cbd
000000a0: a194 233d 6aa7 e23c a7d8 88bd 84af fe3b
000000b0: fb0e 193e e603 643d 7c60 ab3c e3b8 d73d
000000c0: c814 9f3c 4488 83bd a800 1c3d 84be 6f3c
000000d0: c1c4 9c3d 8b4e de3d 4ef2 ff3c 2e2d a53d
000000e0: eb3d b03d 3580 99bd 5114 053c f1a1 bebc
000000f0: 436b 5a3c c418 8dbc 63cf 393d b167 173d
00000100: 176f 0c3e 2fca 84bd 9674 93bd f9a0 3f3d
00000110: b6f5 fb3c 898a ac3c b09c 8fbc 8aed 8a3d
00000120: 259c 103d ab55 083e 95e5 8fbd 3000 ddbd
00000130: e4a2 9c3d adad 543d ea48 083d 8fc1 b8bd
00000140: 2d78 df3c 8233 e63c b09b 90bd 6b28 023d
00000150: 1d37 523d a13b 543e 3477 8cbd 6791 5abd
00000160: a55c d7bd a193 6abd 1955 913c 40e7 4cbb
00000170: 17f7 26bd b2a8 51bd cca1 c5bd 2b75 c5bd
00000180: eb32 353e 5d4a bfbc 3222 0d3e 042d 2d3e
00000190: 1188 79bc 5bcd bc3d 4f43 70bd f07e 813d
000001a0: 3025 273d 445b a33c 9018 073d 51ff e0bc
000001b0: e3ff aabb 59cd 27bc d685 be3c 4c77 2e3b
000001c0: 6b29 23bd 3043 dcbd 6088 563d f74b 53bd
000001d0: 5c2e 7abd 57a8 febc ff33 7cbc 277b 90bd
000001e0: 1f03 9cbd 0885 8ebd 2788 babd 5881 7ebd
000001f0: fa8e 243c f72e 53bd 76ee a53d 1143 a4bd
0.0070955157 -0.05092895 -0.0109649245 -0.08493001 0.15940085 -0.107035026 0.018567538 -0.0071609044
-0.04210016 0.13366234 0.029438637 0.14079408 0.0105196005 -0.010717069 -0.0351452 -0.0566347
0.008547783 0.05011907 0.049199115 -0.060748156 -0.036516618 0.03022225 -0.024592735 -0.0592935
-0.08319226 -0.06102181 0.012462307 -0.05962215 -0.07375185 0.19825326 0.025036657 0.017047439
0.051927596 0.039086968 -0.020284595 -0.0003700117 -0.059043404 -0.116817474 0.1940819 -0.06842793
0.039936665 0.02766772 -0.06681948 0.007772388 0.14947121 0.05566778 0.02092003 0.10533311
0.019419089 -0.06422475 0.038086563 0.014632825 0.07654715 0.10854825 0.03124347 0.08065258
0.0860556 -0.07495157 0.00812252 -0.023270579 0.013331237 -0.017223723 0.045363795 0.036964122
0.13714252 -0.06483876 -0.071999714 0.046784375 0.030756813 0.021062152 -0.01753077 0.06783588
0.03530516 0.1331393 -0.07026211 -0.107910514 0.076482564 0.051923443 0.03327266 -0.09021293
0.027278984 0.028100733 -0.07060945 0.031776827 0.05132209 0.20725872 -0.06858674 -0.053361323
-0.105157174 -0.057269696 0.017740773 -0.0031265765 -0.040762987 -0.05118627 -0.09650001 -0.09641489
0.17695205 -0.023350889 0.13782576 0.16911703 -0.015230195 0.09218856 -0.05865794 0.063230395
0.04080695 0.01994098 0.03298241 -0.027465494 -0.0052184924 -0.01024183 0.023257177 0.00266214
-0.03983442 -0.107550025 0.05237615 -0.051586118 -0.061079368 -0.03108613 -0.015393256 -0.070547394
-0.07617783 -0.069589674 -0.09108 -0.06213507 0.010043854 -0.05155846 0.081021234 -0.080206044

4.weight f4 [8, 128]
00000000: 8ea6 963d 6ccc fcbc 5713 97bd d38f 94bc
00000010: 8008 2bbd 4449 b1bd 25a8 0d3d be94 28bd
00000020: 93d7 03bd 5620 0cbe 35ee a0bd f1dc 45bd
00000030: ac63 343d 4fd2 48bd d379 bbbc b62e 1abd
00000040: 6c86 623d cf37 6dbd 67d4 81bb 8406 283d
00000050: 8f80 cabb 83b0 09bd 817f 70bd 6202 01bd
00000060: be6f 803d 39b4 af3d 8fa0 a33d 5777 31bd
00000070: 791f 3b3b f7b4 b63c 19cf 793d 1336 823c
00000080: 2b1f dd3c 877b acbd c5a2 d7bc c41b 743d
00000090: 897f 24bd bfed 6c3c 60b7 40be 8873 a0bd
000000a0: ad77 18bc 73d4 05bd d547 21bd 8e8d c0bd
000000b0: 771a cbbd 6bd9 553d 15e3 72bc 3032 36be
000000c0: 27ff f4bd bf6f eabc 8219 803c 27bb f13d
000000d0: 82e8 56bd 73f6 f0bd ba13 f63c b34c 85bc
000000e0: 7f0f bcbc a27b 8abc 3251 09bc 9ee6 113c
000000f0: 131a 8f3c 8778 073d 699b 80bd e5c1 99bc
00000100: 3ec8 413d c33b dd3c 0a2f 21bc 9e6e 72bd
00000110: 6d29 8b3d f401 d13c 4b3a 46bd 413b e2bc
00000120: a707 ab3c ea56 20be ebe9 993d 02ae 843c
00000130: a7c1 e5bd 662a 98bd 8b3d 123c 2847 71bd
00000140: 94eb f43c cae6 6a3d e2f9 bc3b 4c01 cdbc
00000150: 31b1 d0bd 4b15 07be fd0b 7abc 5e09 2b3d
00000160: 5f83 893d 15d2 9e3d 0dbd 6bbe da8c d4bd
00000170: 8e50 253e 5ff7 9dbc 6ad9 edbb d77c 17bc
00000180: d5ab a2bd c17a 5fbd 7821 03bd c992 96bd
00000190: 6dfa b73c 8a90 13be a936 bfbc 4e57 943d
000001a0: afc1 87bc 63ec 4d3c 9cbd 4b3d 86f2 0dbe
000001b0: a9ec bc3c 4514 ce3d 1380 cf3b 3460 af3d
000001c0: e1e6 16bc fde3 0d3c 79dc 95bd 0f98 9e3d
000001d0: fd07 44bd 8289 8d3c 74c2 1b3d 3af1 2c3d
000001e0: 5fe4 033d 9fed 2f3d c442 00bd f4a2 8abd
000001f0: 0eb9 6fbd 73b5 4ebd 81e3 823d 10f2 a03d
00000200: 7b8c 7bbd e69f 373c 942f 3cbc 7018 8cbd
00000210: ed13 bebd 00ed eebb 6989 3c3c 79b7 1b3d
00000220: 4e06 8e3d 6dfb 3fbe c1b3 923d f537 7dbc
00000230: 8771 88bd b0dc ebbc d48b 873c 46ff c4bc
00000240: 45bb 0fb9 53bf 5bbc cabd e03c 5674 ae3d
00000250: df33 ddbc 3e79 353d 094e 103d 903a 4dbb
00000260: ca55 11b9 a5e1 a93d 4f68 a0bd 5d2f b63b
00000270: c9b7 393d 0881 febc 6aac 9f3c f5c9 9a3d
00000280: 3bd9 5ebd 5f8d 1dbd f1d5 61bd 9e78 9dbd
00000290: 7992 d8bc 2c72 8fbc 6026 10be 2481 1ebd
000002a0: 8db5 a83b 5820 0ebd 5628 a8bc 3f31 7d3c
000002b0: a73d acbd 7dff 643c a84f 403d 5d45 39be
000002c0: 1e6d d4bd 0096 83bd 4728 24bd 7ccb 37bd
000002d0: 54c0 683d 10d7 ecbc 1bbf 3b3d 3e6c ec3d
000002e0: 0866 fb3a 74e2 98bc 7ec6 0abd 694c f6bd
000002f0: 287b ab3c ed67 973d 3988 8c3d d091 edbc
00000300: e9a4 c33d c75c 263d ae49 d2bd 0c38 783d
00000310: 99e9 12bd 9c5e a23d 2d50 61bc f838 4e3c
00000320: 26dc cb3c 3f44 69be d707 553d 5118 70bd
00000330: 5dae 05be ca81 703c bfda 693d 819e 253c
00000340: 3f9d 1c3d b310 da3c 9dd9 6e3b 6bfa d8bd
00000350: f28a 14bd b852 d8bd 3d72 123d ea64 4f3d
00000360: e989 08bd ea4a 9cbd 52f1 adbe eca4 673c
00000370: 5cb9 a23d c4bb a43d 1c6a eb3c 6f70 71bd
00000380: e854 fcbd 4eab 813d fdab 2b3c 4193 08bd
00000390: 7c49 813d e35b 61bd 74fc 43bd 3dad f63b
000003a0: 57da 833d 7f06 80bd d553 8f3d 8667 94bc
000003b0: 9eb9 9ebd f1be 24bd 76a5 98bd 9e05 843d
000003c0: ce1b 633d 783f 813d 9428 de3d 68d3 7ebd
000003d0: f7f0 bfbc c210 fd3d 0d45 7bbd 0151 403d
000003e0: ce03 693d a0d6 57bd 6583 94bb 1b5a 213d
000003f0: c40b a4bd 5e27 543c ddbf 8c3b ab5a 343c
0.073559865 -0.030859195 -0.07376736 -0.018134987 -0.041756153 -0.086565524 0.034584183 -0.041157477
-0.03218801 -0.1368421 -0.078579344 -0.04830641 0.044040367 -0.04902869 -0.022885239 -0.037642203
0.055303976 -0.05791455 -0.003962088 0.04102184 -0.006179876 -0.0336156 -0.058715347 -0.031496413
0.06271313 0.085792966 0.079896085 -0.043326702 0.0028552695 0.022303088 0.06098852 0.015894925
0.026992401 -0.084219985 -0.026322732 0.059596792 -0.04016069 0.01446098 -0.18819952 -0.07834536
-0.009305877 -0.03267331 -0.039375145 -0.094019994 -0.09917157 0.0522093 -0.014824648 -0.17792583
-0.11962729 -0.028617738 0.015637163 0.118032746 -0.05246783 -0.117657565 0.030038703 -0.016271925
-0.022956608 -0.016904656 -0.008381175 0.008905081 0.017468488 0.03307393 -0.06279642 -0.018769214
0.047310106 0.027006036 -0.009837875 -0.059187524 0.06795011 0.025513627 -0.048395436 -0.027616145
0.020877672 -0.15658155 0.075153194 0.016196255 -0.11218577 -0.07429962 0.008925806 -0.05890575
0.029897489 0.057349004 0.005767093 -0.025025032 -0.101900466 -0.13191716 -0.015261647 0.04175698
0.0671451 0.07754914 -0.23021336 -0.10378428 0.1614401 -0.019282995 -0.007258584 -0.009246073
-0.079429306 -0.054560427 -0.03201434 -0.07352216 0.02245828 -0.14410606 -0.023341494 0.072432145
-0.016571848 0.012568566 0.049741372 -0.13862047 0.023062067 0.1006246 0.0063324063 0.08563271
-0.009210319 0.008660314 -0.073174424 0.077438466 -0.04785918 0.017277483 0.03802724 0.04222224
0.032200214 0.042951223 -0.031313673 -0.06769362 -0.05852609 -0.050466012 0.06391049 0.0785867
-0.06141327 0.011207556 -0.011485953 -0.068405986 -0.09281144 -0.007291436 0.0115073705 0.03801677
0.06934796 -0.18748255 0.071631916 -0.015455236 -0.066622786 -0.028791755 0.016546167 -0.024047505
-0.00013707306 -0.0134123145 0.027434248 0.08518283 -0.027002273 0.04430508 0.03523067 -0.0031315424
-0.00013860237 0.082949914 -0.07832395 0.0055598454 0.045341287 -0.031067386 0.019491393 0.075580515
-0.054406386 -0.0384649 -0.05513567 -0.076890215 -0.026437031 -0.017510496 -0.14077139 -0.038697377
0.0051485957 -0.034698814 -0.020527046 0.015453636 -0.08410197 0.013976929 0.046950966 -0.18092866
-0.10372375 -0.064250946 -0.040077474 -0.044871792 0.056824043 -0.028911144 0.04583655 0.11544083
0.0019180188 -0.018662669 -0.033880703 -0.12026293 0.020932749 0.07392869 0.0686192 -0.029000193
0.095529385 0.040615823 -0.102679595 0.060600325 -0.035867307 0.079282016 -0.013752026 0.012586825
0.024885248 -0.2277994 0.05200943 -0.05861694 -0.13054796 0.014679382 0.05709338 0.010108591
0.0382359 0.026619291 0.0036445626 -0.105946384 -0.03626532 -0.10562652 0.035753477 0.05063335
-0.033334646 -0.07631476 -0.33973175 0.0141384415 0.07945511 0.08043626 0.02873712 -0.058945116
-0.12320882 0.06331502 0.010478017 -0.033343557 0.06312844 -0.05501927 -0.04784818 0.007527976
0.064381294 -0.06251239 0.069984116 -0.01811577 -0.077502474 -0.04022116 -0.07453434 0.06446384
0.05544644 0.06310934 0.108475834 -0.06221333 -0.02343033 0.12356712 -0.06134515 0.04695225
0.056888394 -0.052694917 -0.004532265 0.039392572 -0.080100566 0.012948839 0.004295333 0.011007945

4.bias f4 [8]
00000000: 5718 34be 7c25 f2bd 4510 7bbe bddf 96bd
00000010: 184d c5bd fa92 56be 4bbb 85be 11aa 5abe
-0.1758741 -0.11823556 -0.24517925 -0.073668934 -0.09633845 -0.20954505 -0.26119456 -0.21353938
