ddqn/service-rate/new-config/final_double_dqn_model-rate=5-2.pth (torch, 76112 bytes, 6 tensors)

0.weight f4 [128, 5]
00000000: 6315 0c3c e874 553e 8da6 b43e 791c cabe
00000010: e04b a6be a06a a4bc 909f cc3e ee5a 80be
00000020: deb7 f0bc afc7 873e 0124 f6bd 42a8 debe
00000030: bced c2be 939d 8bbe 48f1 adbd aac5 e3be
00000040: 36c9 a0be 9567 213d 743e 57bb 6326 9fbe
00000050: 51c2 b83d 79f1 a7be d13e fbbc 7b8d 81be
00000060: 5844 b6be d023 cbbd 11b6 29bf 1894 2dbe
00000070: 8cd8 743e 8c23 0f3e 2375 963e 01a4 f5bd
00000080: d7ea 103e 8f39 e33e 296c 0fbf 727b a9be
00000090: c776 32bf 001f 413e a1da 9dbe a583 793d
000000a0: 9ec8 12be d822 8e3e 4137 e2be da78 5a3e
000000b0: 1e08 eb3b 7aa5 de3e f785 0b3f fb76 a3be
000000c0: 8d1a 4bbe ca1a a43e ac69 cc3e ceed 32bf
000000d0: d609 82bd 7021 b23e 02c6 b43d 21ed d3be
000000e0: 9a60 4fbe 3101 a13d a5b0 f0bd 4909 ccbe
000000f0: 42c1 68be 80a6 bd3e c7bf d5bd b888 b9be
00000100: 7a4a 793e 1c7f 5f3e 699c 933d c33b 373e
00000110: 827a 94be c340 8dbe 5f70 9e3e 6dc0 5cbe
00000120: 172a a3be 1a9a 4bbe 6662 dc3d 5135 5dbe
00000130: 754a 0c3d e793 923e 8187 86be f5b5 11bf
00000140: 2850 8a3e 5d1f 133f a505 153d 4db7 f3be
00000150: 10f8 abbe 5869 0f3e 7470 68be 0164 f2bc
00000160: 68ed 7f3d 64a5 99be 78cb 03be 0047 b33e
00000170: 55f6 3ebe 2ba0 8f3d 103a 80be 42f8 d63d
00000180: 1893 1e3e fadf 823e 8485 24be 6c03 00bf
00000190: b499 c73e 0dcf cd3e cfe0 7bbe 80f0 9ebc
000001a0: 9a45 9c3c 341a 01bc 5ea4 5abe cf17 343d
000001b0: 0d56 9bbd 9c7f 0bbe f5dc 9f3e 3e67 39be
000001c0: 7b62 b33e 12c2 afbe 03bf 993d 7201 43bd
000001d0: 2fff 89be 268f 543e 4b30 d33e 920e 133e
000001e0: c598 42be e029 8ebe 2602 7ebe a73f a33e
000001f0: 34d3 bc3e 15eb 113e cecf 1c3e dfe4 dcbe
00000200: 6d5d e1be 8764 6fbe d8e0 9dbe 8b2e 91be
00000210: a481 67bb 29e7 68be 5ad0 89be f2bb a23e
00000220: dd45 91bd 30ea 5ebd 19ee c9be d742 3dbd
00000230: 4e1e 06be fb54 c43e 2c6e 59be 7348 3b3e
00000240: bd81 0f3f 93be 4abe a661 1bbf 1e07 803e
00000250: 7851 4f3e 2d97 dfbb 7855 d3be 456f 33bf
00000260: 29ea 9a3e a2d3 b7be 6268 0abe 41a2 4dbe
00000270: 8be7 03bd a62b 50be 2d53 b73d da98 9e3e
00000280: 9d9a 573e 9cb6 09bf 6494 503c 2868 b93c
00000290: 49f8 2a3c 6afc b93e 8d32 a5be d7b9 863d
000002a0: 11ea e0be d187 673e e343 86bd 7ed0 cf3e
000002b0: 74e9 33be 7e1e e3be b3dd 9cbe 1cf7 bdbe
000002c0: f0ab 0abd 8341 713d cb61 8e3e c73d a3be
000002d0: c2a5 863e ede6 28be 4b86 c93e fcdc b73e
000002e0: 7acd ca3e af44 9abe 0a16 54bf b5a9 2ebe
000002f0: a614 a03d db9a d73e 2789 c1be a4c7 0a3e
00000300: 4121 afbe 1dea b23e 2f80 4f3e 1631 b13e
00000310: bb53 03be d1fd 353c edf2 f73c 7031 68be
00000320: fb09 9abd a2cb adbe c53e 85be 6811 333e
00000330: 76ee 59bd 6685 58be 45c2 b8bc d982 663e
00000340: 03e4 1dbe 9c56 debe 8ba1 ee3d f20f a13d
00000350: c47f dbbe 02c9 093e e089 bbbe 8aba c3be
00000360: 7695 03bf e9ad 9a3d bcc8 21be 7d15 90be
00000370: 5b70 343e f6b6 063f 939f a1be 1af8 943d
00000380: 3c0e 9abd dc00 053e 0d43 fdbe 6041 833e
00000390: 933c bd3d 9332 e83e cef0 9ebd 4236 afbe
000003a0: 8069 acbe c033 ce3e dca6 b7be 86ae 273e
000003b0: 698b d1bd d5e5 c2be 8f57 a23c 578f b0be
000003c0: fb11 c33e ee11 fb3d aa89 cc3d 8ef0 c9be
000003d0: 3a0f 2cbe 85e9 94bd 86ac 01be d4bb c3bd
000003e0: 3701 72be f76b 503e 8af6 973e 26f7 953e
000003f0: 2bf6 1a3d 472d 61bd 290d 813a 3e29 5dba
0.008550021 0.20845377 0.35283318 -0.39474848 -0.32479763 -0.020070374 0.39965487 -0.25069374
-0.02938455 0.26519534 -0.12018586 -0.43487746 -0.38072002 -0.27268657 -0.08493286 -0.44486743
-0.31403512 0.039405424 -0.0032843621 -0.31083974 0.09021438 -0.32801417 -0.030669602 -0.25303254
-0.35599017 -0.0991894 -0.66293436 -0.16951025 0.23910731 0.13978404 0.29386243 -0.11994172
0.14152084 0.4437985 -0.56024414 -0.33101994 -0.6971249 0.18859482 -0.30830863 0.06091656
-0.14334342 0.2776096 -0.4418278 0.21335164 0.0071725985 0.43485624 0.5450129 -0.31926712
-0.19834347 0.32051688 0.3992437 -0.6989411 -0.06349532 0.34791136 0.088268295 -0.41391852
-0.20251694 0.07861555 -0.11752442 -0.39850834 -0.22729972 0.37041092 -0.10436969 -0.3623712
0.24344817 0.21825832 0.07207567 0.17893891 -0.28999716 -0.27588472 0.30945107 -0.2155778
-0.3186805 -0.19883004 0.107609555 -0.2160237 0.034250695 0.28628466 -0.26275256 -0.5691827
0.2701428 0.5746973 0.036382336 -0.47600785 -0.33587694 0.14005029 -0.22699147 -0.029588701
0.062482268 -0.30008996 -0.12870586 0.35015106 -0.18648656 0.070129715 -0.25044298 0.1049657
0.154858 0.25561506 -0.16066557 -0.5000522 0.38984454 0.4019703 -0.24597476 -0.019401789
0.019076157 -0.0078797825 -0.21351764 0.04396802 -0.07584772 -0.13622898 0.31223264 -0.1810579
0.35036072 -0.3432775 0.07507136 -0.0476088 -0.26952502 0.20757732 0.41247782 0.14361027
-0.1900359 -0.27766323 -0.24805507 0.318845 0.36879885 0.14249833 0.15313646 -0.43143365
-0.4401659 -0.23378192 -0.30835605 -0.28355822 -0.0035325075 -0.2274443 -0.26916772 0.31784016
-0.070934035 -0.054422557 -0.39439467 -0.04620632 -0.13097498 0.38346085 -0.21233433 0.18289356
0.5605734 -0.19799261 -0.60695875 0.2500543 0.20245922 -0.0068234415 -0.41276145 -0.7009166
0.30256775 -0.3590365 -0.13516381 -0.20081426 -0.03220324 -0.2032915 0.089514114 0.3097599
0.21055074 -0.53794265 0.012730692 0.022632673 0.010435172 0.3632539 -0.3226513 0.06578415
-0.43928578 0.22610404 -0.06555917 0.40588754 -0.17569524 -0.443592 -0.30637893 -0.37102592
-0.03385538 0.058900367 0.27808985 -0.3188307 0.26298338 -0.16494341 0.3936027 0.35910785
0.3960989 -0.30130526 -0.8284613 -0.17056926 0.078164384 0.42110333 -0.3779995 0.1355272
-0.34205058 0.3494424 0.20263742 0.34607762 -0.1282491 0.011107878 0.030267203 -0.22675109
-0.07521435 -0.33944422 -0.26024452 0.17487109 -0.05320593 -0.21144637 -0.022553572 0.22510852
-0.15419011 -0.43425453 0.116519056 0.078643695 -0.42870915 0.13455585 -0.36628628 -0.38228256
-0.51399934 0.07552702 -0.1579923 -0.28141394 0.17620985 0.52622926 -0.31567058 0.07273884
-0.07522246 0.12988609 -0.49465218 0.25635815 0.09240069 0.45351085 -0.077607736 -0.34221083
-0.3367424 0.40273857 -0.3586949 0.16375169 -0.102316685 -0.38065973 0.019817142 -0.3448436
0.38099656 0.12259279 0.09987195 -0.3944134 -0.16802683 -0.07271103 -0.12663469 -0.0955731
-0.23633276 0.20353685 0.29680282 0.29290122 0.03783242 -0.05497482 0.0009845841 -0.00084366265

0.bias f4 [128]
00000000: 210c c73e eda3 d63e 420b debe c798 d9bd
00000010: 9a0a e3be 2500 68be f488 01bd 43ae 543d
00000020: 8cf9 d7be b377 2d3f 711a 63be 4d08 f13e
00000030: 7046 523e edeb ebbe 0c6b 34bd 5171 aa3e
00000040: d9ef 833e 2fd9 80be 63e7 8b3e 5f19 983e
00000050: 99a6 c2be 6bdd 2abe dec0 7f3e ca40 243e
00000060: 707e adbe e5a0 1e3d 2990 ff3d 62a6 b23d
00000070: b2c2 51be 1dcf db3d ae8b 53be da38 0c3f
00000080: c326 32be d449 53be b124 b6be d918 55bd
00000090: 6392 65be 0fd4 123f 5e72 c9be ec77 2fbd
000000a0: cac2 023e 1a20 acbd 8525 ae3d a794 83bd
000000b0: 68c7 163f 4c9f a93e ff82 84be 0b52 debe
000000c0: 810a 593e bba2 143f 1969 debe 3a9d b8be
000000d0: b68d 21be 24e4 153e d052 2c3f 3ddd a1bd
000000e0: ab50 3cbd 695b 3dbe a6a4 8a3e ca46 c03e
000000f0: dfe4 45be 78c2 fe3e 8b00 a7be 5476 93be
00000100: b4ef 3d3e 6fd4 0c3f fa0c ec3e 1e54 96be
00000110: e5e2 123d 4022 9abc ddd0 fcbc 39b0 4c3d
00000120: 792b 30be 98ba 71be 75d5 143f 02e3 a8be
00000130: 8aa4 5b3e 78ea 833e 5f76 93be 0e39 f9bd
00000140: 19e1 763e 3176 3d3e 9a82 22be ec98 fc3d
00000150: 71c0 5dbe 767f be3e b721 af3e ed39 f6be
00000160: 5672 923d d2a5 0f3d f5ef 303f 5a10 bfbd
00000170: 4223 aabe 60f5 1d3f 39ed 00be bed2 ce3e
00000180: f0ec a9bc fe38 2fbe 5f89 233f 964f 653e
00000190: aa62 493e 3970 fcbe cf2b 8ebc 2fd3 b03c
000001a0: d5e0 083e 88a1 85be cc29 0d3f fdc7 c93e
000001b0: b7eb b53d 85cb b03e 0394 5dbd e0d6 bd3e
000001c0: 1ae4 d13e 878f f93e 1731 b13e 6ad6 013f
000001d0: e025 96be 94a4 023c 7986 86be d968 f43e
000001e0: 8090 ff3e eba2 cbbe c0f9 023e 6cfe 063f
000001f0: 0ffa 14be 4887 8f3e c953 c8be 906a 073d
0.3887644 0.4192194 -0.43367964 -0.10624843 -0.44344026 -0.22656305 -0.03162475 0.051924
-0.42182577 0.6776077 -0.22178055 0.47076645 0.20534682 -0.46078435 -0.0440474 0.3328958
0.25768927 -0.25165698 0.27324972 0.29706857 -0.3801773 -0.16686027 0.24975917 0.1604034
-0.33885527 0.03872766 0.12478668 0.08723141 -0.20484427 0.10732863 -0.20658752 0.5477425
-0.17397599 -0.20633632 -0.35574868 -0.05202565 -0.22419123 0.57354826 -0.39345068 -0.042838976
0.12769619 -0.084045604 0.0850325 -0.064248376 0.5889802 0.33129346 -0.25881192 -0.4342197
0.21195413 0.58060807 -0.43439558 -0.36057454 -0.15776715 0.1463781 0.6731386 -0.07903526
-0.04597537 -0.18491901 0.27078742 0.37554008 -0.19325589 0.49757743 -0.32617602 -0.28801215
0.1854847 0.5501165 0.4610365 -0.2936105 0.035860915 -0.01881516 -0.030861313 0.049972747
-0.17204084 -0.23606336 0.5813821 -0.32985693 0.21449485 0.25764823 -0.28801247 -0.121690854
0.24109305 0.18502118 -0.15870133 0.12333855 -0.21655442 0.3720662 0.3420541 -0.4809107
0.07150714 0.035070248 0.69116145 -0.09329291 -0.33230025 0.6170254 -0.12590493 0.4039516
-0.020742863 -0.17111585 0.63881487 0.22393641 0.19666544 -0.4930437 -0.017354874 0.021585075
0.13367017 -0.260998 0.551419 0.3941039 0.0888285 0.34530273 -0.054096233 0.37078
0.4099434 0.48742315 0.34607765 0.50717795 -0.2932577 0.007973809 -0.2627447 0.47736242
0.49914932 -0.39772734 0.12790585 0.52731967 -0.14548515 0.280329 -0.39126423 0.03306061

2.weight f4 [128, 128]
00000000: 24a1 93bd 74e1 3abd 8f49 683c 1215 52bd
00000010: 75b5 5e3d d09b cdbc c2da 2d3c 4df9 4c3d
00000020: 6a32 1c3d c603 3c3d 647c 10bd c303 b03d
00000030: 3a16 9abd 3717 85bd fbca 963d 995f dabb
00000040: e066 91bc 10ce 8ebc e273 3abd 587a aa3c
00000050: a45e 553d e1cb 913d 6df3 1bbc c4f8 baba
00000060: bf98 0f3d 353c ab3d 83ab 5e3d 55d9 253d
00000070: a38d 953d 5a28 5abd 0023 dbbc 927a 01bd
00000080: 4622 e33c e596 a33d 0976 a93d 4fc2 443d
00000090: 5d95 20bd 4d15 703d a290 d13c 4327 75bc
000000a0: 123c 2fbd 6b86 8f3b 7cd5 deba 19d8 9c3d
000000b0: 0375 91bd 4e09 74bd 7417 f73c a002 963d
000000c0: 54d1 2cbc 4634 9cbd 4430 8a3c ca6d 243d
000000d0: a32d 273c 11bc b2bd 1e64 5ebd 5eba a6bd
000000e0: 6198 a73d 4bd4 493b be0b c03c 362d 28bd
000000f0: 9f7a 41bc 23fb 023c 32f3 a9bd b665 353d
00000100: face acbd baa5 74bc 91b4 a7bd ed29 f7bc
00000110: f9e3 5bbd c28e bb3b aa80 34bd e705 93bd
00000120: 6d3f 77bc bd2e 9a3d b990 f23c 7ef1 193d
00000130: 84da 51bd 3a6b 7a3d 64bc 4cbc cd25 83bd
00000140: d3df 7c3d 933e 5cbd c2ff 36bd b925 c1bc
00000150: 2b4d 36bd 0421 32bd d486 a6bd e8ac 79bd
00000160: 7dd5 83bd 437e f4bc 9755 403d c40c 5cbc
00000170: b9d8 95bd 24c1 7a3d b951 a73d ac97 82bd
00000180: 4ffb 373d c4bf 81bc 390f 79bd 1222 88bd
00000190: fcdb c03c 1a94 98bd f50d 95ba 54ea 933d
000001a0: aeb2 6d3d 0baf fe3b a91f 8f3d cc14 733d
000001b0: 6b95 af3d 639f f83c f31f d3bc 29b5 f73c
000001c0: 98f4 02bc f8e4 ad3d cd6c aabd 1c06 913b
000001d0: 09fb 8dbd b977 7c3c b2a6 aabd 1d88 183d
000001e0: 56eb 303c 14d4 bf3c 3098 a4bd 601c 843d
000001f0: ccc3 8bbd c5fc 393d 2220 04bd 1b18 42bd
00000200: 5336 70bd bf88 0bbc 0944 83bc 608f 04bd
00000210: f719 983d e04b 603c 9858 453d b451 cbbd
00000220: d3fb 143d c6c1 1abc 5792 643d 9b30 81bc
00000230: 6e44 cdbd 4dfc bb3b e4ce a8bd f587 17bd
00000240: 0777 c9bc 6c62 a9bd 50c1 c33b bb1f 1d3d
00000250: 1e37 143d aba8 b13c ee89 563d ece3 d4bc
00000260: 4d50 a4bd cd5f 83bd ed2b 873c 247d 8e3c
00000270: f778 2e3d 61cf 803c 99d7 84bd f122 c63c
00000280: 08cf 963d 08d3 8d3d ce26 98bd 4117 e6ba
00000290: 2fea 873c bcfc 19bc 57c0 38bc 6147 a73d
000002a0: 6abe eabb 56cf 33bd 3e9a 8ebc bf96 f9ba
000002b0: c782 3abd dd3a 023d 3bb3 a43c 8224 acbc
000002c0: 3946 1e3d 9c99 bdbd 4744 893d cc78 ddbd
000002d0: a685 b6bd 1e56 3dbd bfec 97bb da8f 273c
000002e0: 6150 29bb df18 fabc b942 eabc 296c 1f3d
000002f0: 75e7 7a3b d0de a9bd 2698 ff3c cfed 533d
00000300: 41b2 a53d 131e 93bd 4023 80bd 868b 33bc
00000310: 1f4b 2abc af88 c3bd 81fd e23c 97b5 9f3c
00000320: 7404 213d d7e6 3d3d 7366 dabc cdba 3fbc
00000330: 223a 8bbd 9a89 78bd 092b 57bd 51c3 703d
00000340: 8d9e 13bd 6cbc 213d cea3 613d 34d6 bdbd
00000350: 5747 cd3c 35c1 233c e9aa 24bc a26c 37bd
00000360: b084 b6bc f3eb 973b 1fd4 3a3d 71f6 81bc
00000370: 4fbe 87bd 0844 043d 09cb 833c b868 803d
00000380: 64e6 5b3d dbc9 adbc cc2c f13c a697 e0bc
00000390: ddec 1cbc 115a 81bc 3b31 5f3d e1a7 443c
000003a0: c19b c33c 7bb3 40bd 8376 5b3c 0227 bcbd
000003b0: bb85 3b3d 2f38 7bbd a398 76bc 679c debd
000003c0: 0124 a5bc 259b 0d3c 47ac 123c e801 543d
000003d0: 7029 5cbd ed14 f7bc 610a c33c 2a89 53bd
000003e0: 387d a1bd 6825 cb3c e089 633c b958 b53c
000003f0: 5615 a7bd ce40 bcbd b087 373d fb90 eb3c
-0.072084695 -0.045625165 0.014177694 -0.051289625 0.05437227 -0.025098711 0.010611238 0.05004244
0.038134016 0.045902036 -0.03527488 0.085944675 -0.07523771 -0.064985685 0.07362934 -0.006664228
-0.01774925 -0.017432243 -0.04552067 0.020810291 0.05209221 0.07118965 -0.009518486 -0.0014264812
0.03505778 0.08361093 0.054362785 0.040490467 0.07302406 -0.05326114 -0.026750088 -0.031611033
0.027726304 0.07987765 0.082744665 0.04803687 -0.039204944 0.058614064 0.025581662 -0.014962974
-0.042781897 0.0043800375 -0.0017000879 0.07658405 -0.07102396 -0.059579186 0.03016255 0.073247194
-0.010547955 -0.07627158 0.016868718 0.040143766 0.010203752 -0.08727277 -0.054294698 -0.081410155
0.08183361 0.0030796702 0.0234431 -0.04105874 -0.01180902 0.007994446 -0.08298339 0.044286452
-0.08437915 -0.01493209 -0.08188737 -0.030171359 -0.05368421 0.005723805 -0.044068016 -0.0717886
-0.0150908055 0.07528446 0.029610025 0.03758382 -0.051233783 0.061137415 -0.012496088 -0.06403694
0.061736893 -0.053770613 -0.044677503 -0.023577558 -0.044507187 -0.043488517 -0.08131185 -0.060955912
-0.06437204 -0.029845363 0.046956625 -0.013430778 -0.07316727 0.06121935 0.08169884 -0.06376585
0.0449174 -0.015838511 -0.060805533 -0.066471234 0.023542397 -0.07450123 -0.0011371957 0.07222429
0.05803173 0.0077723316 0.069884606 0.059346005 0.08573421 0.030349439 -0.02577207 0.030237751
-0.007992886 0.08490938 -0.08321533 0.004425777 -0.06932647 0.0154094035 -0.08332576 0.037239183
0.010798296 0.023416556 -0.0803684 0.064507246 -0.06824455 0.045407075 -0.032257207 -0.04738627
-0.058645558 -0.0085164895 -0.016023653 -0.032363296 0.074268274 0.013689965 0.048180193 -0.09927693
0.03637297 -0.009445613 0.055803623 -0.015770247 -0.100228176 0.0057368637 -0.08242586 -0.036994893
-0.02459289 -0.082707256 0.0059739724 0.03836034 0.036185376 0.021686872 0.052377634 -0.025987588
-0.08023129 -0.06414757 0.016500438 0.017393656 0.04259583 0.015723886 -0.064864345 0.024186583
0.07363707 0.06925017 -0.074292764 -0.0017554538 0.01659116 -0.0093986355 -0.011276326 0.08167911
-0.0071638124 -0.043898903 -0.017407533 -0.0019042118 -0.045534875 0.031794418 0.020104995 -0.021013502
0.03864119 -0.09257814 0.06702476 -0.10814056 -0.0891221 -0.046224706 -0.0046363766 0.010227168
-0.0025835263 -0.030529438 -0.028596269 0.03892151 0.0038284932 -0.08294451 0.03120048 0.051740464
0.0809064 -0.071834706 -0.062567234 -0.010958558 -0.010393887 -0.09547555 0.02770877 0.019495768
0.039310887 0.046362724 -0.02666018 -0.011702252 -0.06798197 -0.060678102 -0.052531276 0.05878002
-0.036039878 0.039486334 0.055087857 -0.09269372 0.025058432 0.009994795 -0.010050514 -0.044781335
-0.022280067 0.0046362816 0.04561245 -0.015864583 -0.06628095 0.032291442 0.016088026 0.062699735
0.053686514 -0.021214416 0.029440306 -0.027416062 -0.009577957 -0.015790017 0.05449031 0.012002916
0.02387798 -0.047046166 0.013394955 -0.09187128 0.045781832 -0.061332878 -0.01505104 -0.10869675
-0.02015877 0.008642946 0.008952207 0.05175963 -0.053750455 -0.030161345 0.02380866 -0.05164448
-0.07885212 0.02479811 0.013887852 0.022137033 -0.081583664 -0.09192048 0.044807136 0.028755656

2.bias f4 [128]
00000000: b296 883c 8864 a53c 22c7 c93d 077a f5bd
00000010: 56f6 14bb 0e47 ea3c ffd5 413e 5890 543d
00000020: 203d 103c 818d 9b3d 8611 f7ba 005c 7cbd
00000030: 0b3b 733e 5f45 823e 8209 163e a19b 5a3d
00000040: 1f37 9dbd ae5a 6bbd 71eb 0f3d 55b8 59bd
00000050: 9037 3a3d 00c2 db3d abe1 823d 8b16 703e
00000060: bda1 59bd b2da 5b3e 0e97 f93d 0ab7 203d
00000070: 36a9 78bd bfbd 853c 2882 793d 5f1c 9fbd
00000080: 8d44 1b3d 4546 203e d9d6 8c3d 9acb 993d
00000090: 6dcc 293e 9187 2d3c 1516 eabc 4c10 363d
000000a0: 6cec 6a3d b283 8abd 471c 893d 9414 783e
000000b0: 8818 483c 5a25 4fbd 3f00 883d 6c75 abbd
000000c0: cc74 dc3d 7520 273c 530e d33c c353 123e
000000d0: a736 cbbb 26dc 303d 6b91 b6bd dc77 a53d
000000e0: fdf7 2b3e c2ad d5bc 748f 31bd 6ddf cabb
000000f0: fc67 fd3d 11c5 353e b97a ff3c ef5b 853d
00000100: d1a5 8f3e 33a9 87bd d0b9 62b7 1a55 3dbc
00000110: 479b 673e ab54 913d bba1 0e3e e6d7 8cbd
00000120: c5e9 56bc efe4 1a3e 5764 87bd 588b f0bd
00000130: 5b68 d7bd 1fcb 293b b674 093d 3535 7939
00000140: dbeb 713b 57f9 57bc 758e aabd 50e3 e83d
00000150: 8032 dd3d 96a4 083e ec51 763d 8416 ee3d
00000160: 697c 1fbd 69e9 83bb e217 203e b2de dbbb
00000170: 6572 2f3e 082e 21bd fead b03d 4aca 7a3b
00000180: 4104 b6bd 11c0 073d b1fb c1bd b560 bdbd
00000190: 95c6 823d 1b33 8dbd 3446 96bd 0cb4 cebd
000001a0: ef1a 98bc 9e54 9cbd b340 abbd 375e 0bbd
000001b0: 4d1b 9bbd 9ea7 8cbd cbe9 c23d 7811 eabd
000001c0: 3144 103d e69c 56bd 7bd4 093e 239d eb3d
000001d0: 92ad 483e 8872 69bd 5b6d 1f3e 2e2f 153e
000001e0: 4511 d639 f8a1 453e f847 5ebc 975f e83d
000001f0: f785 37bd f1ab 9fbd 0fb5 2f3e 02da f43d
0.01667342 0.020189539 0.09852435 -0.119861655 -0.0022729835 0.028598335 0.1892929 0.05189547
0.008803636 0.07595349 -0.0018849827 -0.061611176 0.23752992 0.2544355 0.14652064 0.053371076
-0.07676529 -0.057459526 0.035136644 -0.05315431 0.045463145 0.10730362 0.06390699 0.234461
-0.05313276 0.21470144 0.121870145 0.03923706 -0.060708247 0.01632583 0.060915142 -0.07769083
0.037907172 0.15651806 0.068769164 0.07509537 0.16581888 0.010591404 -0.028574983 0.044449136
0.057354376 -0.067634 0.066948466 0.242266 0.01221288 -0.05057273 0.06640672 -0.08372006
0.10764465 0.010200609 0.025763666 0.14289765 -0.0062015834 0.0431787 -0.08914455 0.08079502
0.16793819 -0.02608383 -0.0433497 -0.006191185 0.12373349 0.17750956 0.031186448 0.065116756
0.28056195 -0.06624069 -1.3513913e-05 -0.011555934 0.22617827 0.07096227 0.13928883 -0.06877117
-0.013117258 0.15126394 -0.06610935 -0.11745328 -0.10517951 0.0025908423 0.03355857 0.00023766312
0.0036914262 -0.013182006 -0.08327953 0.113714814 0.10800648 0.13344035 0.06013672 0.11625388
-0.038937006 -0.0040256274 0.1563411 -0.006709897 0.17133482 -0.03935054 0.086269364 0.0038267546
-0.0888753 0.033142153 -0.094718345 -0.09246961 0.06385533 -0.06894513 -0.07337609 -0.10092935
-0.01856753 -0.07633327 -0.0836195 -0.034025397 -0.075735666 -0.06867908 0.09517249 -0.11429113
0.035221282 -0.052395724 0.13459961 0.11504581 0.19597462 -0.05699399 0.1556906 0.14568779
0.00040830128 0.19300067 -0.013566963 0.11346357 -0.044805493 -0.07796467 0.17158912 0.11955644

4.weight f4 [8, 128]
00000000: 6e02 87bd be03 c53c 0a1b 40be 51f1 b4bd
00000010: 7a85 8c3d 6540 763d e6e7 e0bc cb84 213d
00000020: 8b8b a43c b807 6fbe d7cd bbbd 8186 973c
00000030: 45b0 7ebe a4b3 5fbe b358 3fbe 33c6 8dbd
00000040: 51db 863d 2fb9 9e3d b3f7 17be 629c 9d3d
00000050: 3777 313d ecc8 0cbe cd99 52bd b6ee a8be
00000060: b8af 933d bad0 61be 859c 73be e95b a83b
00000070: d9e7 873d c902 6abd ce2d 45bd 400c 94bd
00000080: dc70 5d3c 35f4 6cbe 56f4 763d 669e 41be
00000090: 383f 3cbe 03fe 943c 43fb adbc 2bed b03e
000000a0: 36a0 6b3d 6abb 193d a663 2c3d ebfe a1be
000000b0: ba82 b6bd e01f 5d3d e6d6 bb3c 6d9a 15bd
000000c0: 6895 12be 6849 20bd 2296 0a3d 46b4 39be
000000d0: f8a6 93bc fd77 5e3d b175 6e3c ae14 633e
000000e0: 61c5 a7be 84ac 493b c1da e7bd f16c be3b
000000f0: b7ef 36be c554 7abe 9618 843d 6a80 5ebe
00000100: e025 15be dd7e 653d 1432 3abd 5b5f 92bd
00000110: f669 40be e77c a0be fe71 83be df24 61be
00000120: 0677 c8bc 699a 27be 3373 3abe 141a 93bc
00000130: 9e7f 653b b319 423d c521 333d e20c 443d
00000140: 1ec0 103d f347 963d 9502 c03c 9885 d93d
00000150: bc01 7cbe bd92 07be bd7a 543d 50e9 f9bd
00000160: dffc 31ba 6241 f93c da88 94be 42a2 813d
00000170: 8bec 1dbd 5a83 823d d125 c13c 97e7 99bd
00000180: 6e37 c43b 7132 903d 32c3 113d 3a6e 21bd
00000190: 81ff a7bb 8bc2 87bb 87c3 93bd f4e0 583d
000001a0: 06ac 093c dd29 d0bc a88a 32bd 5481 a2bd
000001b0: a228 1a3d f3ea 5abc 00b0 a1be 1cce 9abc
000001c0: f562 013c b741 783c 55ac 71be bb5c aa3d
000001d0: f9d2 85be 9c37 243d a065 8abe e522 81be
000001e0: 1b07 15bc d92d 25be 60aa b3bd 36f3 6ebe
000001f0: 7ac7 ecba 20c7 9f3d 9bc3 35be 053a 973e
00000200: f677 8d3d a409 70bd d36d 66bd cdf2 663d
00000210: 4307 c83b 94fd 463d f91b febd adee 75bd
00000220: 8494 4a3d e669 ef3c 1859 603c b2d5 35bd
00000230: a9fe 993d 9d4c 1dbe cc6f 083d c097 c43c
00000240: 7965 a6bd e1a1 a93d 9882 813d 8aef 39bd
00000250: 0485 3b3d 8e33 c0bd 1172 b3bd 3061 c1bd
00000260: 652c 813d 2316 2fbd 4e3f 333d 9e36 053d
00000270: a4de f13c 4e57 e6bc fa2e 13be bac4 57bd
00000280: 2fcb 3e3d 2d60 153e 6005 16bd 09e7 f83d
00000290: 3f5c 683c 2af1 dbbb 6462 193c 0be9 b83c
000002a0: 81cb fe3c 170a 8ebd cf82 60bd 8c2c 34be
000002b0: 87bb 5d3d 7efa a23d 3c37 71bc e4d0 8e3c
000002c0: 2014 31be b87e 3dbc 29f0 4ebd 2ae4 cbbd
000002d0: a2e8 233d 418b 363d ede8 a03a 5c2b 943c
000002e0: f0b2 303e 7731 3d3d d078 8f3d 9af6 a9bd
000002f0: f311 c1bc 69ae 1fbe 9312 3b3c c650 803d
00000300: 28ec 25be 3ef1 b8bc 8bda d2bc 68bd 8fbd
00000310: feaf 07bd 571f 1d3e e466 65be 5f18 5dbd
00000320: 9c65 6a3c aaaf 85bd 6b67 563d 88fa 34bc
00000330: fa66 cfbd e2ba 9f3d c76b c13b 9ff1 7cbd
00000340: fc6c 06bd 27bb 52bd c3bf abbd 4e2d cfbd
00000350: 4f12 5939 acb7 b8bc f916 96bb e6c1 1fbd
00000360: 44c4 933d 91ad 6d3c 447f 70bd 3baa 2bbc
00000370: 2041 13bd 237d 2c3d bda4 4bbd b77a 373c
00000380: a54c 433d 3297 7f3b b3a9 6f3d 7d1e 913d
00000390: 29c0 8e3d 44f4 193d 53f3 843c bd30 1b3d
000003a0: f52a 75bd 1aaa 8bbd a705 38bc faf9 1fbd
000003b0: eeae 1ebd e08a fbba da7a 24be 4215 97bc
000003c0: ef7e 83bd 9142 c6bd cfd3 d1bd 33b2 a0bd
000003d0: 2deb 413c a4a5 413d ac1a a13c e24e 7f3c
000003e0: 95f0 a6bc 0399 17be feaf dd3b 82e0 2bbe
000003f0: 20ff c6bd a608 09bd 7c1e c6bd df01 c9bd
-0.0659226 0.024049636 -0.18760315 -0.0883509 0.06861396 0.060120005 -0.027454328 0.039433282
0.02008607 -0.23342788 -0.0917012 0.018496754 -0.24871929 -0.21845871 -0.1868618 -0.06922569
0.065848 0.07750165 -0.14840584 0.07695843 0.043326583 -0.1374852 -0.051416207 -0.32994622
0.0721125 -0.22052279 -0.23790176 0.0051379097 0.06636018 -0.057131562 -0.048139386 -0.07228899
0.013515677 -0.23140033 0.06029161 -0.1890808 -0.18383491 0.018187528 -0.021237975 0.34555945
0.057525836 0.037532248 0.04208722 -0.316398 -0.08911653 0.053985476 0.02292962 -0.036524225
-0.14314806 -0.039132506 0.033834584 -0.18135175 -0.018023953 0.05431365 0.014554427 0.22175857
-0.32767776 0.0030772993 -0.11321021 0.0058113267 -0.17864881 -0.244464 0.06450002 -0.21728674
-0.1456523 0.05602919 -0.045457914 -0.07147094 -0.18790421 -0.31345293 -0.25672907 -0.21986721
-0.024470817 -0.16367497 -0.18208008 -0.017956771 0.0035018693 0.04738779 0.043733377 0.04786385
0.035339467 0.07337942 0.023438731 0.10621184 -0.24610037 -0.1323957 0.051874865 -0.12202704
-0.0006789695 0.030426685 -0.2901066 0.06329776 -0.038555663 0.063727096 0.023577603 -0.075148754
0.005988053 0.07040871 0.035586543 -0.03941176 -0.005126894 -0.0041430644 -0.07215028 0.052948907
0.00840283 -0.025410587 -0.043589264 -0.07934824 0.037636407 -0.01336168 -0.3157959 -0.018897109
0.007897128 0.015152386 -0.23600896 0.08318468 -0.26137522 0.040092096 -0.2703066 -0.25221935
-0.009095932 -0.1613077 -0.08772731 -0.23334965 -0.001806482 0.07801652 -0.17750399 0.29536453
0.06907646 -0.058602944 -0.05625708 0.056383897 0.0061043813 0.048581675 -0.12407679 -0.060042072
0.04945804 0.029225301 0.013693117 -0.04439325 0.07519276 -0.15361257 0.033309743 0.023998141
-0.08124823 0.08282829 0.06323737 -0.045394458 0.04578115 -0.09384833 -0.08761991 -0.09442365
0.06307296 -0.04274572 0.043761544 0.03252279 0.029525109 -0.028117802 -0.14373389 -0.052677847
0.04658049 0.1458747 -0.03662622 0.121534415 0.014182149 -0.0067120986 0.009361837 0.022572061
0.031102898 -0.06935518 -0.05481225 -0.17595118 0.054133918 0.07957934 -0.014722642 0.017433591
-0.17292833 -0.011565857 -0.050522003 -0.09955628 0.040016778 0.044566397 0.0012276449 0.018087082
0.17255759 0.04618975 0.07005465 -0.08298989 -0.02356813 -0.15593876 0.011418003 0.06265406
-0.16203368 -0.02257597 -0.025738975 -0.07018548 -0.033126824 0.15343986 -0.22402531 -0.05397832
0.014306452 -0.06527646 0.05234472 -0.011046059 -0.10127063 0.07799317 0.0059027406 -0.061753865
-0.03281878 -0.051448014 -0.08386185 -0.10116063 0.00020701553 -0.02254852 -0.0045803753 -0.039003275
0.07215169 0.0145067135 -0.05871512 -0.010477598 -0.03595078 0.042111527 -0.049717654 0.011198691
0.047680516 0.0039000032 0.058511447 0.07085893 0.069702454 0.037586465 0.016229307 0.037888277
-0.05985542 -0.06819554 -0.011231816 -0.039056756 -0.038741045 -0.0019191168 -0.16062489 -0.018442754
-0.06420695 -0.09680665 -0.102454774 -0.07846489 0.011835855 0.047277108 0.019666038 0.015582772
-0.02037839 -0.14804463 0.0067653647 -0.16784862 -0.0971663 -0.033455513 -0.09673783 -0.0981481

4.bias f4 [8]
00000000: 421a 53be d2bd 07be 2f0f b2bd 40c7 8abe
00000010: c4cf c4bd bb38 4bbe b73c 32be b078 3abe
-0.20615485 -0.13256004 -0.08694302 -0.2710514 -0.09609941 -0.1984586 -0.17405973 -0.18210101
