ddqn/service-rate/new-config/final_double_dqn_model-rate=7-2.pth (torch, 76112 bytes, 6 tensors)

0.weight f4 [128, 5]
-0.095240526 0.45114714 -0.245632 0.09328485 0.12739472 0.058499914 -1.0439565 0.19185598
-0.27749863 -0.27116725 0.37587997 0.2778338 0.122107826 -0.03656995 -0.3401905 -0.3928757
-0.42867747 0.12138946 0.06978328 -0.3996256 -0.07768941 -1.5833113 0.28698063 -0.49702477
-0.26364297 -0.11089219 0.013746663 -0.32930347 0.2625998 0.28443587 -0.23466787 -1.2141939
0.17781398 -0.25517818 -0.26282117 -0.36262 -0.32393736 -0.029338876 -0.094612055 -0.2834224
-0.28319928 -0.21867149 0.29124442 -0.26224688 -0.27378747 -0.027118701 0.15582734 -0.4277774
-0.23474127 0.089611635 0.41469145 0.08867121 -0.4378176 0.15509307 0.08099279 -0.023939973
-0.38795468 -0.16003877 -0.37384522 -0.22684374 -0.3085211 -0.94722795 0.2768136 -0.19643661
-0.36639398 -0.33525944 -0.2773668 -0.21189804 0.2549322 -0.08199905 -0.42757878 0.53078616
-0.093599275 0.44917673 0.2562421 0.2777341 -1.0804521 0.12459413 -0.26372525 -0.36030373
-0.09023021 0.28876725 0.29521123 0.15191652 -0.61104995 0.04992606 0.56933177 0.008844346
0.3486311 -0.11486128 0.20639096 -0.55172664 0.33401433 0.17553915 0.3095063 -0.2827316
-0.33980855 -0.31657037 -0.23655543 -0.291032 -0.4433544 -0.76294065 -0.27312106 0.38640508
0.41068327 0.16939867 -0.054702286 -0.23215021 0.19505246 -0.15474932 -0.11168366 0.2263325
0.36696264 0.12217908 -0.4669978 0.19943172 0.19130602 0.28848484 -0.124332786 0.2860092
-0.22541775 -0.044950824 0.016502202 -0.20618299 -0.2102001 0.3781055 0.65616566 -0.103166305
0.15635611 0.542738 -0.1664577 0.24304754 -0.04923058 -0.24624553 0.491272 -0.109683074
-0.72508657 0.028665012 0.0011485032 -0.14325051 0.04566478 0.10473241 -0.43082526 0.33677408
0.004648541 0.25074074 0.6905161 0.11886177 0.35432255 -0.09355253 -0.025691433 -0.38963556
-0.19136481 -0.15243429 0.024990752 0.16588582 -0.45857805 0.2777494 -0.45836458 -0.3630428
0.19826168 -0.06493521 -0.09430592 0.038768336 0.34391287 0.012091751 -0.04435907 0.1781397
-0.07622791 -0.14502245 -0.22488415 -0.16303681 0.050560698 -0.4069423 -0.22150165 0.23889033
-0.3255269 -0.19815794 -0.2923513 -0.13408217 -0.107441835 -0.39211577 -0.3859752 -0.38752764
0.077410005 -0.003335946 0.36203703 0.23669277 0.102160215 -0.3675168 0.41049212 0.059582144
-0.10377234 -0.03872246 0.39669883 -0.14059141 -8.319296e-05 0.29835257 -0.33109778 -0.08562897
0.041665524 0.20697242 -0.032907575 -0.20946789 -0.29204756 0.17184313 -0.5389908 0.09478567
-0.16920319 -0.28001976 -0.15034617 0.013165641 -0.09897058 0.06834405 -0.36306596 -0.091370985
-0.23672447 0.18324205 0.19911332 -0.047596034 -0.2669995 0.42625925 0.16156298 -0.1397604
0.061903287 0.093307115 -0.029313345 -0.15435839 -0.35679168 -0.24245584 0.13593087 -0.9442412
0.19309342 -0.3504866 0.4044276 0.1745268 -0.6504401 0.25675943 -0.00579222 -0.23470102
0.23772702 -0.81408685 0.056746725 -0.048004907 -0.43773556 -0.07126713 -0.16007765 0.17901734
0.0628359 -0.019034086 -0.120954245 -0.40340802 -0.4321039 -0.15212594 0.17192405 -0.42453715
00000000: 770d c3bd c2fc e63e f486 7bbe 210c bf3d
00000010: c373 023e 9b9d 6f3d 5ea0 85bf e575 443e
00000020: 4d14 8ebe 6fd6 8abe 5773 c03e 3b40 8e3e
00000030: ab13 fa3d 5fca 15bd 732d aebe 0127 c9be
00000040: 9d7b dbbe 0a9b f83d 89ea 8e3d ba9b ccbe
00000050: a01b 9fbd f2a9 cabf 20ef 923e 087a febe
00000060: 36fc 86be 721b e3bd af39 613c 779a a8be
00000070: 7b73 863e 94a1 913e c64c 70be b56a 9bbf
00000080: de14 363e b7a6 82be 7f90 86be 54a9 b9be
00000090: 1edb a5be 1558 f0bc f7c3 c1bd be1c 91be
000000a0: 7fff 90be 6beb 5fbe fd1d 953e 3945 86be
000000b0: df2d 8cbe 0a28 debc 3491 1f3e a405 dbbe
000000c0: 0460 70be 4e86 b73d 7052 d43e 4099 b53d
000000d0: a129 e0be b8d0 1e3e 8cdf a53d c31d c4bc
000000e0: ffa1 c6be 34e1 23be a468 bfbe ba49 68be
000000f0: 7af6 9dbe 887d 72bf 83ba 8d3e ae26 49be
00000100: fe97 bbbe 20a7 abbe 0503 8ebe cdfb 58be
00000110: 7986 823e 1eef a7bd 9beb dabe 9ae1 073f
00000120: fab0 bfbd 7efa e53e 2a32 833e 2a33 8e3e
00000130: 414c 8abf 352b ff3d ff06 87be bb79 b8be
00000140: 9eca b8bd 4dd9 933e ed25 973e 0190 1b3e
00000150: c56d 1cbf 457f 4c3d babf 113f e0e7 103c
00000160: c77f b23e 643c ebbd 2758 533e f53d 0dbf
00000170: ed03 ab3e 89c0 333e 9c77 9e3e 32c2 90be
00000180: 63fb adbe 8315 a2be 963b 72be 2502 95be
00000190: 59ff e2be 1450 43bf 86d6 8bbe e3d6 c53e
000001a0: 1445 d23e d876 2d3e 810f 60bd c9b8 6dbe
000001b0: d5bb 473e 9b76 1ebe 67ba e4bd b5c3 673e
000001c0: 87e2 bb3e 0739 fa3d 561a efbe d437 4c3e
000001d0: bae5 433e 49b4 933e 30a2 febd cc6f 923e
000001e0: e9d3 66be 5b1e 38bd a02f 873c a221 53be
000001f0: b23e 57be 0b97 c13e 79fa 273f db48 d3bd
00000200: d11b 203e e1f0 0a3f e373 2abe 74e1 783e
00000210: 01a6 49bd ca27 7cbe 0188 fb3e 85a1 e0bd
00000220: 469f 39bf e3d2 ea3c 5f89 963a 43b0 12be
00000230: fe0a 3b3d f27d d63d 2195 dcbe a76d ac3e
00000240: ca52 983b 1761 803e aac5 303f cd6d f33d
00000250: c469 b53e 7898 bfbd d776 d2bc 507e c7be
00000260: 23f5 43be bc17 1cbe 68b9 cc3c f9dd 293e
00000270: beca eabe 2b35 8e3e c3ae eabe bfe0 b9be
00000280: 1c05 4b3e c0fc 84bd 7623 c1bd 8ccb 1e3d
00000290: 5915 b03e 7b1c 463c dbb1 35bd 416a 363e
000002a0: 611d 9cbd c480 14be 0848 66be 1ff3 26be
000002b0: bc18 4f3d be5a d0be 54d1 62be ab9f 743e
000002c0: 76ab a6be eae9 4abe 12af 95be d64c 09be
000002d0: 770a dcbd 66c3 c8be 8b9e c5be 066a c6be
000002e0: 2389 9e3d e39f 5abb eb5c b93e 975f 723e
000002f0: 6039 d13d 292b bcbe 062c d23e 680c 743d
00000300: 9886 d4bd 719b 1ebd 1c1c cb3e 32f7 0fbe
00000310: e177 aeb8 abc1 983e a685 a9be 3e5e afbd
00000320: 78a9 2a3d 94f0 533e 18ca 06bd c07e 56be
00000330: 4287 95be a5f7 2f3e 4dfb 09bf fd1e c23d
00000340: 9a43 2dbe c05e 8fbe 59f4 19be b3b4 573c
00000350: 16b1 cabd f7f7 8b3d c8e3 b9be b620 bbbd
00000360: e667 72be cea3 3b3e 5de4 4b3e 0ff4 42bd
00000370: 29b4 88be a73e da3e c470 253e 5a1d 0fbe
00000380: 4d8e 7d3d cd17 bf3d 8a22 f0bc 2010 1ebe
00000390: 66ad b6be 5846 78be 7631 0b3e cbb9 71bf
000003a0: 48ba 453e fb72 b3be 2211 cf3e 27b7 323e
000003b0: 3e83 26bf f975 833e aacc bdbb 7755 70be
000003c0: b66e 733e ff67 50bf 416f 683d cba0 44bd
000003d0: e01e e0be 80f4 91bd 65eb 23be 5250 373e
000003e0: 1cb0 803d 5fed 9bbc dcb6 f7bd 7f8b cebe
000003f0: b93c ddbe e7c6 1bbe dc0c 303e ef5c d9be

0.bias f4 [128]
0.3431487 -0.18931381 -0.23819236 -0.0874299 0.27496472 -0.27173474 0.12437695 0.40607053
0.37542096 -0.09338585 0.13470784 -0.37197787 -0.012815993 -0.2598065 0.11625582 0.421068
-0.21072085 0.22133896 0.11843926 -0.27884924 0.14388129 -0.19076084 0.38633254 -0.30266216
-0.00017459685 0.016087964 0.19029793 0.26947427 -0.30049035 -0.14660369 0.08715203 0.3492862
-0.3559303 -0.40130362 0.44695544 0.14506502 0.00701874 -0.17428735 0.49180412 -0.5151318
0.5326046 -0.11127147 0.53219604 -0.046763867 -0.1084013 -0.28741097 -0.26016432 -0.26522937
0.4768841 0.20116262 0.14679815 0.40439463 0.054067347 -0.21262869 -0.013245263 0.30370343
0.5471344 -0.029825246 0.12212535 0.40019208 0.45740092 -0.14192927 -0.41441667 0.4483858
-0.083784625 0.10322503 0.13069518 0.2655343 0.010815374 0.40798405 -0.013936507 -0.13278933
-0.43597314 0.50494784 -0.16329989 0.60277194 0.05638284 0.2809205 0.119361065 0.33981952
0.38492227 -0.21274793 0.43795675 -0.26569355 0.0362471 -0.42777646 0.6097728 0.20757444
0.29857472 0.5700726 -0.28847829 0.33898178 -0.042376257 0.1145182 0.59849226 0.22034696
-0.27093947 -0.098958716 0.520608 0.07017607 0.03844436 -0.07893313 -0.42530218 -0.317886
-0.11193511 0.018398637 -0.2070445 -0.17253846 0.22016859 0.25021505 -0.35673523 0.19252452
0.47213554 0.5711884 0.26262313 0.41681543 0.20322698 -0.31081226 -0.32118008 0.15637738
-0.20954973 -0.07730391 0.29481003 0.39472562 0.06451232 -0.3900225 -0.439459 0.41178137
00000000: 30b1 af3e 7bdb 41be b3e8 73be 730e b3bd
00000010: 2dc8 8c3e d120 8bbe 58b9 fe3d 7ae8 cf3e
00000020: 2d37 c03e 1541 bfbd daf0 093e e273 bebe
00000030: 2cfa 51bc 5c05 85be 8817 ee3d 3a96 d73e
00000040: 35c7 57be aea6 623e 4890 f23d 54c5 8ebe
00000050: 9e55 133e cf56 43be 61cd c53e 89f6 9abe
00000060: fc13 37b9 e8ca 833c 76dd 423e 88f8 893e
00000070: dfd9 99be 471f 16be c37c b23d a4d5 b23e
00000080: 7f3c b6be ab77 cdbe 58d7 e43e ed8b 143e
00000090: 75fd e53b 6278 32be c0cd fb3e addf 03bf
000000a0: c658 083f 4ce2 e3bd 003e 083f 788b 3fbd
000000b0: 8001 debd 8827 93be 4234 85be 25cc 87be
000000c0: 272a f43e 93fd 4d3e 4152 163e d00c cf3e
000000d0: b975 5d3d 56bb 59be a902 59bc 047f 9b3e
000000e0: 0011 0c3f 1354 f4bc db1c fa3d fae5 cc3e
000000f0: 7430 ea3e e855 11be 6c2e d4be d392 e53e
00000100: 4697 abbd a567 d33d f5d4 053e 1df4 873e
00000110: f732 313c 49e3 d03e f255 64bc edf9 07be
00000120: df37 dfbe 4344 013f 1638 27be 434f 1a3f
00000130: b1f1 663d d0d4 8f3e 9373 f43d d3fc ad3e
00000140: 8814 c53e 98da 59be de3b e03e fc08 88be
00000150: d777 143d 8405 dbbe 121a 1c3f 658e 543e
00000160: c9de 983e 47f0 113f 6db3 93be 058f ad3e
00000170: ba92 2dbd 8588 ea3d ca36 193f a2a2 613e
00000180: 94b8 8abe deaa cabd 9146 053f 79b8 8f3d
00000190: d577 1d3d b1a7 a1bd 35c1 d9be f4c1 a2be
000001a0: 3c3e e5bd bdb8 963c 7903 54be ecad 30be
000001b0: e073 613e 301c 803e 00a6 b6be 2625 453e
000001c0: c0bb f13e 6739 123f 8a76 863e d568 d53e
000001d0: bc1a 503e c922 9fbe b771 a4be 6421 203e
000001e0: 3494 56be 8351 9ebd 57f1 963e 7a19 ca3e
000001f0: 091f 843d 07b1 c7be c500 e1be 02d5 d23e

2.weight f4 [128, 128]
-0.054798767 -0.046922386 0.048141584 -0.09324507 0.056801397 0.03697034 0.11685692 -0.0032549293
-0.020651314 0.087247685 -0.05658781 -0.042644203 -0.015030483 0.004643434 -0.06351264 0.24845572
-0.07039684 0.0010522141 0.013490724 -0.06588827 -0.038625278 -0.07185507 -0.027689751 -0.0056322543
-0.04420095 -0.11444637 -0.05943296 -0.016941369 -0.08708415 -0.10558694 0.03247756 0.12977575
-0.078900166 -0.093555436 0.16829231 -0.01500589 -0.050911274 -0.10623898 -0.05177766 0.019643761
0.11631385 0.029330777 0.13542336 -0.032142285 -0.07335187 0.019242544 -0.042907633 -0.06774097
-0.058918018 -0.012398271 0.040166896 0.0041736444 -0.051248442 -0.122777134 -0.049727697 0.004848682
0.09177911 -0.08312831 -0.042815328 0.12751389 0.10397288 -0.004808871 -0.11517677 0.10013577
-0.0011122089 -0.33973745 0.021205846 0.060596477 -0.041520275 0.23712069 0.0022053232 -0.21715556
0.019620301 -0.023181098 -0.0043171933 0.058957774 0.0264048 0.026542874 0.053694073 0.066757426
0.059104875 -0.02979841 0.0066027143 -5.1852578e-05 -0.39704195 -0.04042701 0.2839785 0.04569755
-0.18230417 -0.07238339 0.051381666 -0.0073716957 0.03160591 0.04067783 0.15621229 0.018035397
0.039165676 -0.10026447 0.25761807 0.05581575 -0.0030822621 0.04418296 -0.02531029 -0.08236325
-0.03612233 0.039550617 0.012049578 -0.033622596 -0.23860136 0.10843516 -0.10700846 -0.045888793
0.10145369 0.19064756 -0.10332828 0.03135638 -0.0053064465 0.022635123 -0.085267454 -0.07453865
-0.07744395 0.024626724 -0.0030716795 0.035833217 0.053883143 -0.018912556 -0.07914111 0.071404465
-0.08898574 0.035850305 -0.08146823 -0.049946506 0.010280482 0.07962522 0.07547517 -0.04341853
-0.07450865 0.009400433 -0.02486881 -0.08084668 0.07035631 0.015712734 -0.083542176 -0.066540964
0.033988047 0.055342965 -0.0064401794 0.009651028 -0.0430009 -0.06397893 -0.0009067675 -0.008174468
-0.00087603275 -0.06188095 -0.16461259 0.023751004 -0.042057876 0.036860127 0.084549665 -0.08192701
-0.025863223 -0.0903444 0.002120553 -0.045780476 -0.03848088 0.038328547 0.030065319 0.00092893525
-0.05724374 -0.09766571 0.041122764 0.00797858 -0.06610603 -0.039972037 0.03527827 -0.038727283
0.04380787 -0.088184565 0.0810447 -0.06932016 -0.062058453 -0.058553334 -0.050713353 0.05096544
-0.08051907 0.013945422 -0.041573197 -0.0657227 0.05545667 0.08370963 0.050721914 0.058280345
0.058367893 -0.061285403 0.044853948 -0.050915025 0.01983001 -0.084400624 0.0834524 0.029588059
0.059132203 0.05244706 -0.02549856 -0.09883463 -0.04864468 0.023789797 -0.0673756 0.06307183
-0.06276936 0.015007596 -0.04470201 0.06320454 0.08615734 -0.031472065 -0.09986066 -0.072803035
-0.09870804 -0.01607518 -0.0006715257 -0.06903429 -0.08287297 0.0006974882 -0.013629026 -0.03291459
0.015881334 0.008522368 0.0542349 -0.09339853 -0.07047538 0.012705193 0.03196165 -0.007182402
0.049495954 -0.049212012 -0.023988903 0.060835484 0.05350571 -0.11031889 0.026872471 0.038207635
-0.0796578 0.0698587 -0.015933726 0.04856869 0.040309865 -0.08032674 0.06703232 0.059814226
0.06836653 -0.07321997 0.016274873 0.047036152 -0.059237853 -0.036138523 -0.05136152 0.029766385
00000000: ac74 60bd b031 40bd 1c30 453d 45f7 bebd
00000010: 95a8 683d 366e 173d ae52 ef3d a750 55bb
00000020: f22c a9bc eaae b23d 9fc8 67bd b0ab 2ebd
00000030: 6a42 76bc f327 983b ea12 82bd 2d6b 7e3e
00000040: 382c 90bd 72ea 893a 3308 5d3c 6ef0 86bd
00000050: 8a35 1ebd c028 93bd 9ed5 e2bc c68e b8bb
00000060: 0e0c 35bd dc62 eabd fa6f 73bd a0c8 8abc
00000070: 2d59 b2bd f73d d8bd 3107 053d efe3 043e
00000080: 6996 a1bd fe99 bfbd d254 2c3e 44db 75bc
00000090: 5788 50bd d393 d9bd d014 54bd f4eb a03c
000000a0: f535 ee3d 1947 f03c 6cac 0a3e a1a7 03bd
000000b0: 8139 96bd 8aa2 9d3c eabf 2fbd c7bb 8abd
000000c0: 0554 71bd 1e22 4bbc 0b86 243d 11c3 883b
000000d0: e3e9 51bd 9472 fbbd 45af 4bbd b1e1 9e3b
000000e0: b0f6 bb3d 2d3f aabd 205f 2fbd 0093 023e
000000f0: bcef d43d bc93 9dbb cce1 ebbd fc13 cd3d
00000100: 8ac7 91ba 11f2 adbe e2b7 ad3c 0334 783d
00000110: 2a11 2abd c4cf 723e 2f87 103b 075e 5ebe
00000120: c1ba a03c 49e6 bdbc 3e77 8dbb b57d 713d
00000130: e14e d83c 7170 d93c 51ee 5b3d 1eb8 883d
00000140: f417 723d cc1b f4bc 955b d83b 487c 59b8
00000150: 1549 cbbe cb96 25bd a165 913e 5b2d 3b3d
00000160: f2ad 3abe be3d 94bd 9575 523d 448e f1bb
00000170: 3375 013d cc9d 263d 1df6 1f3e f8be 933c
00000180: 306c 203d 7557 cdbd 84e6 833e 0e9f 643d
00000190: c7ff 49bb 31f9 343d 8657 cfbc 10ae a8bd
000001a0: 02f5 13bd d4ff 213d 986b 453c d9b7 09bd
000001b0: ea53 74be 4113 de3d 4027 dbbd e3f5 3bbd
000001c0: f4c6 cf3d 1d39 433e c79d d3bd 8c6f 003d
000001d0: b3e1 adbb 4b6d b93c b4a0 aebd b8a7 98bd
000001e0: ef9a 9ebd fcbd c93c 3b4e 49bb dac5 123d
000001f0: 92b4 5c3d 81ee 9abc bc14 a2bd 813c 923d
00000200: 283e b6bd c5d7 123d d1d8 a6bd b594 4cbd
00000210: 776f 283c 8c12 a33d ba92 9a3d a1d7 31bd
00000220: fe97 98bd 4604 1a3c adb9 cbbc f292 a5bd
00000230: f816 903d feb7 803c 2918 abbd a146 88bd
00000240: 0d37 0b3d 4eaf 623d 2408 d3bb 581f 1e3c
00000250: b621 30bd 6307 83bd 23b4 6dba 34ee 05bc
00000260: 90a5 65ba e176 7dbd 3490 28be 7791 c23c
00000270: e144 2cbd a5fa 163d 6028 ad3d 59c9 a7bd
00000280: 1cdf d3bc 7c06 b9bd faf8 0a3b 4f84 3bbd
00000290: 219e 1dbd 65fe 1c3d 8b4b f63c ca83 733a
000002a0: 6978 6abd f604 c8bd 5870 283d 97b8 023c
000002b0: 9962 87bd b8b9 23bd f27f 103d 80a0 1ebd
000002c0: e26f 333d 1c9a b4bd c4fa a53d baf7 8dbd
000002d0: 0131 7ebd 9fd5 6fbd ceb8 4fbd 23c1 503d
000002e0: 2fe7 a4bd 577b 643c a848 2abd 9f99 86bd
000002f0: 8826 633d f46f ab3d c8c1 4f3d 5fb7 6e3d
00000300: 2c13 6f3d 6706 7bbd c6b8 373d 468c 50bd
00000310: 8c72 a23c 3cda acbd 18e9 aa3d a862 f23c
00000320: 9c34 723d bad2 563d 5be2 d0bc cf69 cabd
00000330: a53f 47bd d2e2 c23c 38fc 89bd ce2b 813d
00000340: 398d 80bd 6ce2 753c 7419 37bd 6271 813d
00000350: 4273 b03d dae8 00bd bf83 ccbd c219 95bd
00000360: 7127 cabd 19b0 83bc 5409 30ba da61 8dbd
00000370: 4eb9 a9bd a4d7 363a 474c 5fbc 73d1 06bd
00000380: 9219 823c 67a1 0b3c 6a25 5e3d ba47 bfbd
00000390: 6555 90bd 7129 503c 38ea 023d 5b5a ebbb
000003a0: 45bc 4a3d 8992 49bd 6084 c4bc a12e 793d
000003b0: ce28 5b3d dfee e1bd a823 dc3c 9c7f 1c3d
000003c0: a123 a3bd 1412 8f3d 7287 82bc f6ef 463d
000003d0: f51b 253d 5982 a4bd 3e48 893d c3ff 743d
000003e0: c003 8c3d 5af4 95bd e252 853c fba8 403d
000003f0: 64a3 72bd fd05 14bd 7560 52bd a2d8 f33c

2.bias f4 [128]
0.0993409 0.04261289 -0.048210513 -0.06036197 -0.10228229 0.041075304 -0.124249086 0.040695146
0.060122542 0.02589353 -0.00292129 -0.07701385 0.014676902 -0.018854922 -0.0494387 0.080114044
-0.08377598 0.06551729 -0.05626605 -0.05629517 -0.022972107 -0.0007044846 -0.08718832 0.023682574
0.0033971602 -0.056461126 0.05925837 0.08047944 -0.11391718 -0.06798608 0.10534006 -0.025124859
0.011047073 0.13420054 -0.028581126 -0.0084583005 0.028225256 -0.049524497 0.012200423 -0.039512686
0.06869416 0.06500573 -0.0029301208 -0.057100464 -0.07147779 -0.058324315 0.04158988 -0.08369536
0.01795025 0.1549707 0.15268672 -0.027010469 -0.01910624 0.1785707 -0.08316835 0.013804418
0.08891208 0.009991581 0.026890853 -0.014761017 0.22188294 -0.115956225 -0.012583904 0.0044457773
-0.07334635 -0.027860086 -0.08951125 0.14804083 0.017895946 0.01338615 0.11529551 -0.0074212775
-0.071970455 -0.052262623 -0.030751636 0.16592619 0.043894824 -0.034304198 0.21007408 0.057244096
0.02758264 -0.049807772 -0.01372166 -0.057956897 0.05005223 -0.02610392 -0.05725076 0.07205203
0.056936745 0.068609826 0.06950975 -0.120237954 -0.07694335 0.011286591 -0.067673035 -0.05887494
-0.09992018 0.01894086 0.038828615 0.061277132 -0.030595277 -0.028361512 0.114072554 0.041505303
-0.05349378 0.05118751 0.029244287 0.018330865 -0.00014368305 0.104213074 -0.06995524 -0.06556356
0.13400096 0.062287215 0.011834955 -0.034047045 0.05370545 0.04093181 0.013285171 -0.08042485
0.033969957 -0.021938805 -0.04110257 -0.010793938 0.11129392 0.05086237 0.04407626 -0.05328448
00000000: 3e73 cb3d db8a 2e3d 6378 45bd 1d3e 77bd
00000010: 6179 d1bd 943e 283d 4e76 febd f4af 263d
00000020: 0e43 763d ab1e d43c 1d73 3fbb 70b9 9dbd
00000030: 6477 703c a375 9abc 3c80 4abd d512 a43d
00000040: be92 abbd ee2d 863d 3b77 66bd c495 66bd
00000050: 0030 bcbc 29ad 38ba ca8f b2bd f501 c23c
00000060: e4a2 5e3b c843 67bd e8b8 723d 68d2 a43d
00000070: 694d e9bd 493c 8bbd 88bc d73d a6d2 cdbc
00000080: c8fe 343c de6b 093e f722 eabc af94 0abc
00000090: a738 e73c 33da 4abd 48e4 473c 0ed8 21bd
000000a0: 86af 8c3d b921 853d 4507 40bb 2de2 69bd
000000b0: f362 92bd 7ae5 6ebd 265a 2a3d 7968 abbd
000000c0: 670c 933c a4b0 1e3e e859 1c3e 0f45 ddbc
000000d0: b084 9cbc 3ddb 363e 2b54 aabd ed2b 623c
000000e0: 8917 b63d bab3 233c 354a dc3c 31d8 71bc
000000f0: 4835 633e 757a edbd b82c 4ebc e2ad 913b
00000100: 9c36 96bd d63a e4bc ad51 b7bd 0498 173e
00000110: 859a 923c 9551 5b3c 0d20 ec3d 302e f3bb
00000120: 3f65 93bd 5511 56bd dbea fbbc 8ee8 293e
00000130: 0fcb 333d 8f82 0cbd a91d 573e c978 6a3d
00000140: fdf4 e13c 3c03 4cbd d0d0 60bc 3664 6dbd
00000150: 9103 4d3d e3d7 d5bc c67f 6abd 0490 933d
00000160: 8136 693d 4f83 8c3d 215b 8e3d 513f f6bd
00000170: 7a94 9dbd 65eb 383c 2998 8abd d926 71bd
00000180: f4a2 ccbd dd29 9b3c c10a 1f3d bbfd 7a3d
00000190: f2a2 fabc 6756 e8bc df9e e93d 7701 2a3d
000001a0: 4b1c 5bbd ffa9 513d b791 ef3c 9c2a 963c
000001b0: a0a9 16b9 aa6d d53d b144 8fbd 3046 86bd
000001c0: 8c37 093e e120 7f3d 66e7 413c ea74 0bbd
000001d0: 3ffa 5b3d 1da8 273d 0caa 593c c9b5 a4bd
000001e0: 1524 0b3d 02b9 b3bc 2b5b 28bd 0fd9 30bc
000001f0: 11ee e33d 0f55 503d 4f89 343d d440 5abd

4.weight f4 [8, 128]
-0.046751905 -0.022274677 0.00039177603 0.11295681 -0.078350335 -0.0124623645 -0.00014365844 0.06829942
0.03907723 0.084641874 0.027112804 -0.0018506049 0.061221372 -0.05456589 -0.038487185 0.0749099
-0.048482183 -0.085851304 -0.037903503 0.074667245 -0.047782075 -0.08077575 0.083613664 0.099690646
0.07498315 -0.03775853 0.018236686 -0.17536989 0.029739227 0.024414733 -0.12812552 -0.06394118
-0.08748018 0.0072749644 0.010329729 -0.05843593 -0.066111766 0.101233914 0.017238645 -0.025501007
0.01272489 -0.061668456 -0.15426263 -0.023490168 0.073430486 0.08379755 -0.06117636 -0.11241677
-0.010086864 -0.08958025 0.1030732 -0.09885459 0.034881152 -0.14460103 0.08731143 -0.046848226
-0.11526678 0.0032965164 -0.05199707 -0.08553187 -0.157204 0.0030968254 0.063563034 -0.07793522
0.07898253 0.076630436 0.045150343 0.033244073 0.05402041 -0.07692966 -0.058035377 0.057135653
-0.0003922022 -0.08145597 -0.080718055 -0.11827221 -0.23810263 0.06353577 -0.13975209 -0.07988772
-0.07993166 0.06447391 -0.048940677 0.0039373655 0.022590619 0.05755909 -0.050957948 0.01588225
-0.048229735 0.016060462 0.040307175 0.047631495 -0.029605947 0.02296463 0.064168416 0.06445543
0.033864766 -0.1727537 -0.08976213 -0.06802933 0.052381266 -0.011018672 0.07560259 -0.024310172
0.07218292 -0.05653464 -0.02397501 -0.067245066 0.08038574 -0.020288115 0.10418857 0.023048468
-0.1525168 -0.11577092 -0.05317546 -0.04310849 0.04394001 -0.008140531 -0.016273329 0.07561195
0.0432808 -0.04666211 0.01960833 -0.087686874 0.04675132 0.09191424 -0.09683802 -0.052508157
-0.05045174 0.08136836 -0.08546839 -0.029719448 -0.08442472 0.04711659 0.060595762 -0.0013451483
-0.016556926 -0.01990644 -0.011878035 0.06077822 -0.038367487 0.06253916 0.050480388 -0.12741032
0.023749486 0.009446368 0.07662855 -0.04497914 0.027469989 0.041747116 -0.030743998 -0.021785164
0.0066067786 0.05225388 0.012765267 -0.08898744 0.059490886 0.032526292 -0.19015846 0.01970438
-0.08643449 -0.040146444 0.024152977 -0.07312192 0.019891804 -0.07340253 0.02749513 -0.03358572
-0.03710446 0.050133284 -0.10706511 0.04529909 0.028219087 0.046148986 -0.09912535 -0.10082245
-0.11108215 -0.07077964 -0.11332352 -0.05633177 -0.029754268 -0.10630638 0.053569645 0.039957117
-0.05885175 0.008336141 0.074654624 -0.035621878 -0.11705753 -0.05407743 -0.07346011 -0.07469104
-0.041077897 -0.015918024 0.08613211 -0.00010140017 0.023368666 -0.05325101 -0.06433167 -0.05439834
-0.07832098 0.05272068 0.024742696 0.14140736 -0.15916863 -0.055192705 0.024458798 -0.03563475
-0.14725983 -0.06988196 0.04959462 -0.02682343 -0.05073161 -0.059461534 0.024155622 -0.005579372
0.06698164 -0.002544655 -0.13294894 0.10866018 0.043863006 -0.09722884 -0.0025127977 -0.045047216
0.010272873 0.04851655 -0.21160914 -0.06853891 0.01708627 -0.03957511 -0.031515226 -0.011033725
-0.086122856 0.018390892 0.03210176 0.027554894 -0.005749039 0.012869814 -0.011583714 0.055565234
-0.10868733 -0.056859758 0.014346772 0.03887029 -0.0997919 -0.0815993 -0.012673104 0.014363996
0.027883405 0.085958816 0.05359655 0.015250289 -0.095087856 0.048107054 0.04812677 0.014355364
00000000: ed7e 3fbd 6279 b6bc 4a67 cd39 e655 e73d
00000010: 2476 a0bd f22e 4cbc 05a3 16b9 91e0 8b3d
00000020: 720f 203d b858 ad3d ac1b de3c ff8f f2ba
00000030: 43c3 7a3d 7c80 5fbd bda4 1dbd 5d6a 993d
00000040: 4195 46bd cfd2 afbd b440 1bbd 24eb 983d
00000050: 23b7 43bd c26d a5bd a43d ab3d 9c2a cc3d
00000060: c490 993d b0a8 1abd 1a65 953c 2a94 33be
00000070: ae9f f33c 6801 c83c 5633 03be 98f3 82bd
00000080: cf28 b3bd d362 ee3b 063e 293c 845a 6fbd
00000090: 9b65 87bd ba53 cf3d 0f38 8d3c 7de7 d0bc
000000a0: 0f7c 503c 1098 7cbd 06f7 1dbe 746e c0bc
000000b0: b962 963d 0d9e ab3d 1094 7abd c33a e6bd
000000c0: 6043 25bc da75 b7bd 0b18 d33d 4674 cabd
000000d0: 8adf 0e3d 4b12 14be 56d0 b23d ede3 3fbd
000000e0: fd10 ecbd 5e0a 583b e1fa 54bd 552b afbd
000000f0: 16fa 20be 1cf4 4a3b 562d 823d 809c 9fbd
00000100: 98c1 a13d 6bf0 9c3d 91ef 383d f02a 083d
00000110: 8144 5d3d 4c8d 9dbd 81b6 6dbd 1307 6a3d
00000120: 7da0 cdb9 63d2 a6bd 824f a5bd b338 f2bd
00000130: 2dd1 73be 0b1f 823d 2c1b 0fbe 2c9c a3bd
00000140: 36b3 a3bd e60a 843d 0576 48bd 0405 813b
00000150: f60f b93c 15c3 6b3d 48b9 50bd 7e1b 823c
00000160: 8b8c 45bd 3b91 833c 2319 253d 3e19 433d
00000170: 2c88 f2bc 5220 bc3c bb6a 833d 3501 843d
00000180: c8b5 0a3d 59e6 30be 35d5 b7bd f652 8bbd
00000190: bd8d 563d a987 34bc 88d5 9a3d 2026 c7bc
000001a0: a4d4 933d de90 67bd 3d67 c4bc c8b7 89bd
000001b0: 47a1 a43d 4333 a6bc d160 d53d 24d0 bc3c
000001c0: 5d2d 1cbe 4e19 edbd 83ce 59bd 8792 30bd
000001d0: 71fa 333d dd5f 05bc a54f 85bc 70da 9a3d
000001e0: 3547 313d c520 3fbd a6a1 a03c 2d95 b3bd
000001f0: 507e 3f3d 883d bc3d 0353 c6bd cb12 57bd
00000200: 7ca6 4ebd 74a4 a63d 0d0a afbd 3376 f3bc
00000210: dee6 acbd 53fd 403d 4333 783d b04f b0ba
00000220: 64a2 87bc d512 a3bc 179c 42bc 95f2 783d
00000230: 3a27 1dbd 8814 803d 86c4 4e3d da77 02be
00000240: 488e c23c f0c4 1a3c 6eef 9c3d 0c3c 38bd
00000250: be08 e13c 06ff 2a3d d6da fbbc cd76 b2bc
00000260: ad7d d83b 2a08 563d 6925 513c 0c3f b6bd
00000270: b7ac 733d 4a3a 053d e6b8 42be 146b a13c
00000280: 9104 b1bd 9970 24bd 77dc c53c f2c0 95bd
00000290: 23f4 a23c 1154 96bd 783d e13c 2e91 09bd
000002a0: d9fa 17bd 8f58 4d3d f444 dbbd 8a8b 393d
000002b0: b72b e73c b806 3d3d 3b02 cbbd 007c cebd
000002c0: 0a7f e3bd eaf4 90bd 2916 e8bd 24bc 66bd
000002d0: 39bf f3bc 29b7 d9bd d86b 5b3d 13aa 233d
000002e0: 880e 71bd 4f94 083c 86e4 983d 3fe8 11bd
000002f0: dcbb efbd 4c80 5dbd 4172 96bd 9ef7 98bd
00000300: 4c41 28bd 8466 82bc 0866 b03d cda6 d4b8
00000310: a56f bf3c bb1d 5abd 53c0 83bd cbd0 5ebd
00000320: c066 a0bd a4f1 573d 32b1 ca3c 17cd 103e
00000330: 1afd 22be bf11 62bd d15d c83c bef5 11bd
00000340: 48cb 16be 461e 8fbd ba23 4b3d cfbc dbbc
00000350: f3cb 4fbd f08d 73bd 03e2 c53c 2ad3 b6bb
00000360: ac2d 893d 3ac4 26bb c423 08be 3a89 de3d
00000370: b2a9 333d ea1f c7bd c0ad 24bb 6e83 38bd
00000380: 8d4f 283c 4ab9 463d 11b0 58be 215e 8cbd
00000390: 81f8 8b3c 8319 22bd 1c16 01bd ccc6 34bc
000003a0: 2e61 b0bd 7fa8 963c 237d 033d cdba e13c
000003b0: 6f62 bcbb eadb 523c 9ec9 3dbc 5f98 633d
000003c0: 7697 debd c7e5 68bd b90e 6b3c 7436 1f3d
000003d0: b25f ccbd 891d a7bd daa2 4fbc f756 6b3c
000003e0: bd6b e43c 2d0b b03d 0e88 5b3d 59dc 793c
000003f0: 6cbd c2bd e70b 453d 9320 453d c332 6b3c

4.bias f4 [8]
-0.12540191 -0.18734738 -0.19522093 -0.08083738 -0.19914375 -0.21173204 -0.121851966 -0.06812559
00000000: 5c69 00be fed7 3fbe ffe7 47be 118e a5bd
00000010: 57ec 4bbe 49d0 58be 868d f9bd 6e85 8bbd
