ddqn/service-rate/new-config/final_double_dqn_model-rate=9-2.pth (torch, 76112 bytes, 6 tensors)

0.weight f4 [128, 5]
0.09168168 0.31957194 -0.31125325 -0.127385 -0.34976333 -0.23267063 0.37821895 0.32204038
-0.45428893 -0.043572232 0.13798925 -0.43676674 -0.09521652 -0.076428756 0.40254125 0.25084594
0.25262266 -0.012042234 -0.2031048 0.08038982 -0.12759623 -0.36366513 0.024555886 -0.16064562
0.020427352 -0.00073853135 -0.32804394 0.17277585 -0.37836766 -0.04679302 -0.08384103 0.001636006
-0.1627706 0.16056535 -0.23498262 -0.033053983 -0.74009115 -0.07589558 0.31103873 0.33019868
-0.035729073 0.18249673 0.22895274 0.18829642 -0.52250534 -0.044686876 -0.032742586 -0.29464477
0.3536513 0.26973838 -0.34485367 0.24690343 0.0378556 -0.4634733 -0.28721803 -0.26312375
0.11260265 -0.26665935 -0.08325199 -0.2830996 -0.28634304 -0.53762364 -0.18562682 0.3540552
-0.22927572 0.07306497 -0.19871734 0.1354754 -0.15733291 0.10397017 0.27950385 -0.6668624
0.19810481 -0.088930845 -0.51890934 0.4330051 0.04664364 -0.26162407 -0.17701215 -0.30515748
0.33717513 -0.4257855 -0.055894572 0.15314747 -0.63486964 -0.14357837 -0.74725026 0.1638206
-0.16454597 -0.020881822 0.22906046 -0.42177454 -0.09277036 0.18291596 0.069685966 -0.022382462
0.12347985 -0.09470874 -0.14286266 0.14223751 -0.34538263 -0.43806508 0.013874971 -0.1294326
-0.052256573 -0.27273616 0.14314723 0.22278975 -0.15285224 0.42526117 -0.19826306 0.008432735
-0.16329913 0.0784537 -0.3962713 0.31315473 -0.4420029 0.03357335 -0.15872246 0.28401437
0.44196215 -0.15719843 -0.16288103 0.10302767 -0.046380702 0.0942437 0.013058766 -0.13170616
0.10283472 -0.2763266 0.2012278 0.31078693 -0.34562042 -0.46214983 -0.32478175 -0.018060084
0.3515567 -0.09138254 0.3301907 -0.17120703 -0.29045847 -0.34368545 0.22506599 0.39121443
-0.4715556 -0.20261961 -0.3599994 0.14386147 0.15588884 -0.2796053 0.28257984 0.20559734
-0.23072846 0.1488347 0.099362694 -0.1572811 -1.051452 -0.21930294 0.38054663 0.27913195
-0.23987891 -0.11080822 -0.2354361 -0.057056915 -0.11378266 0.22401793 -0.19280748 -0.3782424
-0.29706845 -0.022670614 -0.062196087 0.15921585 -0.106280595 0.09424855 0.18993664 -0.0656868
0.10908908 0.13335411 0.17283984 0.01920505 -0.07850439 -0.11015825 0.10856785 -0.15883105
-0.087450124 -0.1774845 -0.04163311 -0.061961196 -0.04253627 0.069995955 0.25638527 -0.5187453
0.06761946 -0.21663707 0.0026851306 0.21674058 0.1345092 -0.02913575 0.015850706 -0.39738575
0.031651717 -0.13711232 0.08809298 -0.38062048 0.028797444 0.3584221 -0.053394936 -0.2280242
0.1651123 0.32782528 -0.28719085 -0.78098375 -0.08282475 0.13221218 0.35362962 -0.27515274
-0.3022984 0.16173539 -0.182134 -0.5003537 0.23543337 -0.16708624 -0.3557894 0.032583397
0.44129083 0.29978013 -0.5438318 -0.099233285 -0.29496306 0.38508964 0.23223385 0.10203888
0.3004753 -0.248281 -0.07431038 0.08981384 0.2008682 -0.027878985 0.09397522 -0.26258054
0.38751566 0.2633818 -0.43570256 0.31629848 -0.39133194 -0.19128111 0.3878227 -0.22105694
0.3599263 -0.35681355 -0.10387366 -0.6562475 -0.011367112 0.26619285 0.1029616 -0.10476941
00000000: 9bc3 bb3d ef9e a33e 965c 9fbe 3771 02be
00000010: 2e14 b3be 3641 6ebe eaa5 c13e 7ae2 a43e
00000020: 8f98 e8be cc78 32bd 0e4d 0d3e e49f dfbe
00000030: e100 c3bd ae86 9cbd e319 ce3e e16e 803e
00000040: c257 813e ca4c 45bc b4fa 4fbe 6ba3 a43d
00000050: 96a8 02be 5132 babe 6d29 c93c 4980 24be
00000060: 4357 a73c 009a 41ba 60f5 a7be 27ec 303e
00000070: 68b9 c1be 0aaa 3fbd d9b4 abbd 416f d63a
00000080: 56ad 26be 3e6b 243e 499f 70be 9d63 07bd
00000090: 9d76 3dbf 246f 9bbd 7840 9f3e cd0f a93e
000000a0: a658 12bd 6ce0 3a3e 9672 6a3e c7d0 403e
000000b0: e9c2 05bf 9609 37bd 171d 06bd aedb 96be
000000c0: c811 b53e 261b 8a3e a990 b0be 41d4 7c3e
000000d0: 790e 1b3d 5f4c edbe 3e0e 93be 28b8 86be
000000e0: 389c e63d 9387 88be 0580 aabd 6ef2 90be
000000f0: 8e9b 92be b4a1 09bf f514 3ebe b946 b53e
00000100: 41c7 6abe 16a3 953d 8f7c 4bbe 10ba 0a3e
00000110: e11b 21be 50ee d43d 211b 8f3e 7fb7 2abf
00000120: fddb 4a3e 6021 b6bd 3ed7 04bf d8b2 dd3e
00000130: 670d 3f3d 97f3 85be ac42 35be 9a3d 9cbe
00000140: 38a2 ac3e 8f00 dabe b5f1 64bd b1d2 1c3e
00000150: d186 22bf 3506 13be cb4b 3fbf 96c0 273e
00000160: bd7e 28be 5b10 abbc d38e 6a3e d5f2 d7be
00000170: 63fe bdbd 524e 3b3e 84b7 8e3d 6d5b b7bc
00000180: 01e3 fc3d a8f6 c1bd 974a 12be b6a6 113e
00000190: fed5 b0be 114a e0be d953 633c fb89 04be
000001a0: fd0a 56bd 13a4 8bbe 3095 123e ff22 643e
000001b0: 4c85 1cbe d5bb d93e 7905 4bbe 7429 0a3c
000001c0: e337 27be 55ac a03d 12e4 cabe d155 a03e
000001d0: 344e e2be 3684 093d 2488 22be 556a 913e
000001e0: dd48 e23e a0f8 20be 49ca 26be 2c00 d33d
000001f0: b1f9 3dbd d702 c13d 6ff4 553c fbdd 06be
00000200: 029b d23d ae7a 8dbe a90e 4e3e 771f 9f3e
00000210: 29f5 b0be e79e ecbe cb49 a6be bef2 93bc
00000220: 3dff b33e c526 bbbd c10e a93e e550 2fbe
00000230: f9b6 94be 8af7 afbe b377 663e 424d c83e
00000240: bc6f f1be 847b 4fbe d751 b8be 6c50 133e
00000250: 53a1 1f3e 6d28 8fbe 4eae 903e 1c88 523e
00000260: 1544 6cbe 2068 183e ab7e cb3d 4c0e 21be
00000270: fb95 86bf f390 60be 02d7 c23e 62ea 8e3e
00000280: d1a2 75be 6cef e2bd 2916 71be 83b4 69bd
00000290: e206 e9bd f564 653e 536f 45be fda8 c1be
000002a0: 5b19 98be b9b7 b9bc 53c1 7ebd 7b09 233e
000002b0: a4a9 d9bd 6205 c13d c07e 423e cd86 86bd
000002c0: 186a df3d fb8d 083e edfc 303e e953 9d3c
000002d0: e9c6 a0bd a69a e1bd d258 de3d 9ba4 22be
000002e0: 0d19 b3bd 7fbe 35be 7b87 2abd 06cb 7dbd
000002f0: 833a 2ebd 0a5a 8f3d ee44 833e 7ecc 04bf
00000300: 127c 8a3d 1cd6 5dbe 04f9 2f3b 3ef1 5d3e
00000310: c8bc 093e 19ae eebc 57d9 813c 2576 cbbe
00000320: 3ba5 013d 2c67 0cbe 186a b43d b0e0 c2be
00000330: 9ee8 eb3c 1a83 b73e a6b4 5abd 2d7f 69be
00000340: 3313 293e b7d8 a73e ae0a 93be 8dee 47bf
00000350: 06a0 a9bd a162 073e f10e b53e d2e0 8cbe
00000360: dbc6 9abe f69d 253e 5681 3abe 2e17 00bf
00000370: 7215 713e a818 2bbe 072a b6be 2b76 053d
00000380: dff0 e13e c87c 993e 9038 0bbf d23a cbbd
00000390: 6605 97be 782a c53e b6ce 6d3e c3f9 d03d
000003a0: e6d7 993e 603d 7ebe 0a30 98bd 52f0 b73d
000003b0: 65b0 4d3e 7862 e4bc 1576 c03d f570 86be
000003c0: 7468 c63e fbd9 863e 6814 dfbe e0f1 a13e
000003d0: a95c c8be 32df 43be b290 c63e c05c 62be
000003e0: 4348 b83e 44b0 b6be b7bb d4bd d6ff 27bf
000003f0: 203d 3abc 6e4a 883e 88dd d23d 5891 d6bd

0.bias f4 [128]
-0.11227628 0.24142289 0.21906063 0.16697653 -0.2795583 -0.09919848 0.3441067 -0.53407896
0.28428075 -0.21673764 0.39859557 -0.2450394 -0.46975854 -0.32011783 -0.34240994 0.12928563
-0.12043359 -0.09015825 0.14351556 -0.21801394 0.017408274 0.25784603 -0.3280085 0.27564397
0.55074364 0.38877165 0.26807317 0.24264625 -0.19520834 0.3761415 0.47008732 -0.20256932
-0.1055507 -0.30923006 -0.39477077 -0.5437668 0.055733643 -0.2430516 -0.06708844 -0.0121458005
-0.080114946 0.19336475 -0.24705513 0.40544412 -0.33777955 0.49058324 -0.34030107 -0.43517375
0.1882809 0.21590467 -0.486812 -0.2874368 -0.24937809 -0.013237418 0.008597347 -0.54423606
0.3722669 0.3709585 -0.39362282 -0.18454097 0.02985304 0.11878857 -0.16214056 0.40882355
-0.30109164 -0.43177962 0.23915704 0.1740689 0.2130524 -0.20318125 -0.23154715 -0.43527552
0.06650477 0.006403205 -0.101595275 -0.36566177 -0.015436471 0.29351717 0.14606644 0.49193627
-0.12922965 0.12894523 0.14281486 -0.22239813 0.55855787 0.12265551 0.0019675575 -0.288971
-0.43494862 -0.15129451 0.0073133814 0.00056455826 0.11359436 0.15478414 0.102170266 -0.011412952
-0.017361935 -0.25069925 -0.022439048 0.035890516 -0.41841966 -0.14381166 -0.31005728 -0.16984
-0.02768946 0.24122103 -0.21676755 0.23371394 0.45931235 0.448796 -0.18281645 -0.31889263
0.0023107694 -0.06598861 0.42095315 0.13457294 -0.0011183838 -0.17349996 -0.3878361 -0.2068697
0.05028498 -0.20551914 -0.03169422 0.5776247 0.38559872 0.37762636 -0.40526843 -0.36430338
00000000: 1bf1 e5bd 9037 773e 6e51 603e e5fb 2a3e
00000010: 4422 8fbe 9328 cbbd c12e b03e 66b9 08bf
00000020: 3f8d 913e 79f0 5dbe b814 cc3e 9ceb 7abe
00000030: 3184 f0be 7ce6 a3be 5b50 afbe 7463 043e
00000040: e3a5 f6bd e3a4 b8bd bef5 123e 0c3f 5fbe
00000050: cc9b 8e3c 6504 843e bbf0 a7be 3521 8d3e
00000060: 89fd 0c3f 140d c73e e340 893e 4278 783e
00000070: b2e4 47be 9e95 c03e 49af f03e 556e 4fbe
00000080: f72a d8bd 6753 9ebe 651f cabe 4d34 0bbf
00000090: f648 643d 85e2 78be aa65 89bd 2eff 46bc
000000a0: 4e13 a4bd 6901 463e 05fc 7cbe 5f96 cf3e
000000b0: 71f1 acbe ba2d fb3e f13b aebe 18cf debe
000000c0: b5cc 403e 1d16 5d3e 6c3f f9be eb2a 93be
000000d0: f85c 7fbe c1e1 58bc e3db 0c3c 0e53 0bbf
000000e0: c499 be3e 46ee bd3e ee88 c9be 4ff8 3cbe
000000f0: 5d8e f43c 6c47 f33d 2d08 26be 5251 d13e
00000100: af28 9abe 3812 ddbe 95e5 743e 1e3f 323e
00000110: 692a 5a3e bf0e 50be b21a 6dbe 6fdc debe
00000120: a733 883d fad1 d13b 2f11 d0bd 0538 bbbe
00000130: 41e9 7cbc e247 963e 7192 153e 12df fb3e
00000140: c754 04be 380a 043e 0f3e 123e 56bc 63be
00000150: a6fd 0e3f d032 fb3d 23f2 003b 02f4 93be
00000160: 96b1 debe f3ec 1abe 17a5 ef3b ddfe 133a
00000170: 29a4 e83d bc7f 1e3e a53e d13d 64fd 3abc
00000180: 9e3a 8ebc a75b 80be 18d2 b7bc ef01 133d
00000190: 1a3b d6be 5d43 13be d4bf 9ebe 89ea 2dbe
000001a0: 02d5 e2bc a502 773e 50f8 5dbe b552 6f3e
000001b0: fd2a eb3e 97c8 e53e 3c34 3bbe e545 a3be
000001c0: 4770 173b 0925 87bd 2c87 d73e 7dcd 093e
000001d0: bc96 92ba f9a9 31be 7492 c6be a7d5 53be
000001e0: a0f7 4d3d 9c73 52be ccd1 01bd 36df 133f
000001f0: 326d c53e 3e58 c13e 587f cfbe f985 babe

2.weight f4 [128, 128]
-0.07239891 0.07804997 0.008601846 0.020172773 0.03867793 -0.03975965 0.08173894 -0.041766927
-0.02211188 -0.028653735 0.05838489 0.030626502 -0.0031545814 -0.049129162 -0.098478235 -0.06562005
-0.062027067 -0.021581678 -0.0377515 -0.082207605 -0.01637 0.02915992 -0.084392406 0.098571375
0.116139084 0.05096594 0.044243325 0.0047349883 -0.048606455 -0.08220848 -0.03990617 -0.14496103
0.056165796 0.06935283 0.02650983 -0.066366486 0.013170331 0.0334181 0.06414157 0.039366826
0.06318747 -0.049769767 -0.012475341 0.12621059 -0.060725 0.16985059 -0.042851806 0.04867274
-0.04485093 -0.02854061 0.0037392473 -0.13465597 -0.075648524 -0.049664784 -0.081020944 -0.09182242
-0.02404893 0.062483206 -0.12207173 0.053719196 0.069157995 0.039489873 -0.01801683 -0.10245543
-0.11910407 0.024571268 -0.004776006 -0.06820756 0.05542721 0.045512084 -0.057929315 -0.054074902
-0.06637494 0.08709029 0.059347995 -0.030367384 -0.028595846 0.07980055 0.0754719 0.13436598
-0.06201183 0.034904648 -0.0041503496 0.05579682 0.070662916 -0.011664103 0.012565634 0.026305538
0.017088903 -0.10854433 -0.032169804 0.06564976 0.065700084 0.03402652 0.0635961 7.527976e-05
0.019682625 -0.02494716 -0.061101202 0.024401272 0.049263712 0.045939222 -0.009868579 -0.051842175
0.052295454 -0.043530844 -0.08641538 0.048695788 0.03321842 -0.027766688 -0.04566083 -0.033274397
-0.091045305 -0.13481864 0.027834656 0.016616497 -0.0967823 -0.029141659 0.018611912 -0.03680167
-0.014837512 -0.08592501 0.06194961 0.06160727 0.082072295 0.10095604 0.0068430705 0.00654373
-0.07510431 -0.07282295 0.0028206224 0.02211409 -0.008157638 -0.099943645 0.051229633 0.02700882
-0.04157272 0.0203401 0.02867042 0.013349624 0.031263057 -0.052799933 -0.0008687873 0.051631406
0.008434356 0.02951061 0.029952796 0.04663676 -0.07199633 -0.02465745 0.034478683 -0.03806055
0.022263855 -0.012126567 0.08087987 0.009504729 0.03809031 -0.103187665 -0.06545143 0.02812373
-0.08190344 0.017172186 -0.04985378 -0.08897971 0.044107523 0.03202997 0.055444837 -0.050571084
0.047780313 -0.029726684 -0.0423001 -0.0055973297 0.048934188 0.045987543 -0.05480988 0.036992647
0.03144005 0.072896115 -0.087361425 0.05659279 -0.044681054 -0.04613123 -0.012010586 0.014771473
-0.005753532 0.020331126 -0.010073305 -0.09127602 0.030441526 -0.100394726 -0.044817172 -0.04269435
-0.00603848 -0.055225372 0.04804476 0.017011426 -0.043946717 -0.02111278 -0.05848601 -0.0021733548
-0.018406497 -0.051271033 -0.041567296 0.06377514 -0.084263355 -0.02723876 -0.053042952 -0.048528597
-0.1210298 0.049875632 -0.037367858 0.06972726 0.06879031 -0.08245514 -0.029613258 -0.04304739
-0.067031324 0.0022535021 -0.088172756 -0.049685325 -0.024731845 0.021615757 -0.005414153 -0.02967313
-0.111394644 -0.02656403 -0.03432735 -0.06824663 -0.024237862 -0.018521031 0.03250735 0.009233453
0.010559693 -0.0483914 -0.053238068 -0.10678265 0.007722985 -0.0026185422 0.042403996 0.08287181
0.06609783 0.055108223 -0.048883326 -0.034100704 -0.052074347 0.03743595 0.050923727 -0.047015905
-0.076479994 0.052902266 -0.07181867 -0.02878121 -0.015020882 0.0001269296 0.0040260074 0.014808958
00000000: e145 94bd aad8 9f3d c2ee 0c3c 5f41 a53c
00000010: c06c 1e3d 04db 22bd bf66 a73d cc13 2bbd
00000020: f923 b5bc 3dbb eabc ff24 6f3d 6ee4 fa3c
00000030: 18bd 4ebb a93b 49bd f5ae c9bd ce63 86bd
00000040: 1810 7ebd 0fcc b0bc 51a1 1abd 765c a8bd
00000050: 611a 86bc c9e0 ee3c edd5 acbd cadf c93d
00000060: 54da ed3d a9c1 503d 7d38 353d f627 9b3b
00000070: 9017 47bd eb5c a8bd a774 23bd aa70 14be
00000080: 1b0e 663d db08 8e3d 252b d93c 27eb 87bd
00000090: 5fc8 573c 6be1 083d a85c 833d 1c3f 213d
000000a0: 6f68 813d 62db 4bbd 5f65 4cbc 593d 013e
000000b0: c7ba 78bd 50ed 2d3e 6085 2fbd 115d 473d
000000c0: 9cb5 37bd ffcd e9bc 290e 753b 41e3 09be
000000d0: 9ded 9abd 4d6d 4bbd 4fee a5bd 650d bcbd
000000e0: 4302 c5bc 64ee 7f3d be00 fabd a908 5c3d
000000f0: b5a2 8d3d 22c0 213d 0898 93bc 27d4 d1bd
00000100: d6ec f3bd af49 c93c 0b80 9cbb 68b0 8bbd
00000110: a407 633d e16a 3a3d 4a47 6dbd a57d 5dbd
00000120: 96ef 87bd 655c b23d e216 733d 05c5 f8bc
00000130: d641 eabc 796e a33d 0391 9a3d 3c97 093e
00000140: 1e00 7ebd 2df8 0e3d a8ff 87bb 358b 643d
00000150: b8b7 903d cb1a 3fbc 17e0 4d3c b67e d73c
00000160: 07fe 8b3c 7d4c debd 7cc4 03bd 6273 863d
00000170: c48d 863d 645f 0b3d ac3e 823d 83df 9d38
00000180: 753d a13c fd5d ccbc 4145 7abd 2de5 c73c
00000190: bfc8 493d c42a 3c3d d2af 21bc 7658 54bd
000001a0: c233 563d 664d 32bd 8cfa b0bd 3c75 473d
000001b0: 0a10 083d f776 e3bc da06 3bbd bc4a 08bd
000001c0: f675 babd e60d 0abe 8105 e43c 521f 883c
000001d0: cc35 c6bd 7dba eebc 0278 983c 59bd 16bd
000001e0: 0919 73bc 74f9 afbd e0be 7d3d e857 7c3d
000001f0: 8515 a83d 0ac2 ce3d d63b e03b c96c d63b
00000200: 4ad0 99bd 3324 95bd 31da 383b 9c28 b53c
00000210: 9da7 05bc 41af ccbd 2ad6 513d 9a41 dd3c
00000220: 2848 2abd 48a0 a63c 3bde ea3c 62b8 5a3c
00000230: b10d 003d be44 58bd 54bf 63ba 747b 533d
00000240: 4130 0a3c 3cc0 f13c 915f f53c 3006 3f3d
00000250: d072 93bd 6cfe c9bc 8539 0d3d 61e5 1bbd
00000260: b062 b63c 82ae 46bc 58a4 a53d b9b9 1b3c
00000270: 9604 1c3d 0e54 d3bd 660b 86bd bd63 e63c
00000280: febc a7bd afac 8c3c 7a33 4cbd ff3a b6bd
00000290: 17aa 343d dc31 033d 201a 633d a023 4fbd
000002a0: 4ab5 433d 6085 f3bc df42 2dbd ce69 b7bb
000002b0: 376f 483d 6f5d 3c3d 5380 60bd 9a85 173d
000002c0: 48c7 003d 8f4a 953d 8cea b2bd d7cd 673d
000002d0: 7b03 37bd 1af4 3cbd 0dc8 44bc 0c04 723c
000002e0: 2088 bcbb 768d a63c 810a 25bc ecee babd
000002f0: 8260 f93c c09b cdbd 3692 37bd 45e0 2ebd
00000300: 71de c5bb 0034 62bd 95ca 443d 8c5b 8b3c
00000310: 7901 34bd b5f4 acbc 078f 6fbd d86e 0ebb
00000320: 39c9 96bc 9301 52bd 7842 2abd 8a9c 823d
00000330: 4492 acbd d223 dfbc 9143 59bd ecc5 46bd
00000340: 79de f7bd 644a 4c3d 0a0f 19bd 2acd 8e3d
00000350: efe1 8c3d 3ede a8bd 8197 f2bc 7652 30bd
00000360: b847 89bd 7eaf 133b eb93 b4bd d782 4bbd
00000370: 709a cabc 8713 b13c 3569 b1bb 1015 f3bc
00000380: e022 e4bd cf9c d9bc d69a 0cbd e4c4 8bbd
00000390: 7b8e c6bc 6bb9 97bc 6d26 053d e947 173c
000003a0: 9002 2d3c 1036 46bd 2910 5abd ddb0 dabd
000003b0: 1811 fd3b d99b 2bbb d0af 2d3d b2b8 a93d
000003c0: 4d5e 873d 29b9 613d e239 48bd 2ead 0bbd
000003d0: e94b 55bd 7056 193d 6695 503d c093 40bd
000003e0: 8ba1 9cbd 0cb0 583d ab15 93bd 92c6 ebbc
000003f0: 251a 76bc 6818 0539 99ec 833b 46a1 723c

2.bias f4 [128]
0.022313615 -0.073031515 0.08815772 -0.1021223 -0.06115376 0.04724344 0.038833752 0.005508021
0.030361613 0.0071035395 0.07246054 -0.028422045 0.05617055 0.093812846 0.03931752 -0.09196174
-0.06835908 -0.030239996 -0.08151223 0.06337118 -0.0005678437 0.035580315 0.14578635 0.03497075
0.10830754 0.10515687 0.043602593 -0.03748527 0.026697734 0.03286527 -0.041165117 0.0050198287
0.015478114 0.03334427 -0.05432415 0.0935991 0.012699664 -0.026101798 -0.021142703 0.00041176096
0.009979535 -0.08018756 0.027342094 0.120748475 0.011086473 -0.037763387 0.19534096 -0.026366636
-0.017478485 -0.08735007 -0.06323928 0.045211896 0.08714596 0.0045558563 -0.026548116 -0.0834187
-0.018387375 0.031901818 -0.008950408 0.076064795 -0.041609794 0.098297216 -0.057810206 0.0038953386
-0.0036572348 -0.08491029 0.031433027 -0.07811066 -0.059675436 -0.102982335 -0.06185916 -0.040855587
0.15959036 -0.05612983 -0.027695375 -0.0014271116 0.0740821 -0.08638759 0.08199913 0.17360249
0.089603744 -0.092663445 -0.08129683 0.038499475 -0.026537005 -0.068110414 -0.036787596 0.005946065
0.01382817 -0.056257337 0.075458914 -0.07847229 0.18526597 -0.05062495 0.029072493 0.036898043
-0.067921445 -0.072972246 -0.067508794 0.072487004 -0.05156558 0.18476433 0.07951212 -0.024494315
-0.04558155 0.026898488 -0.029052341 0.051195208 -0.07930369 0.011161679 -0.011816342 -0.076247826
-0.041033134 -0.06417038 0.11729813 -0.0007437717 -0.04146405 0.043125987 0.033393554 0.032155033
-0.0516521 -0.047599196 -0.016971854 -0.037722033 0.090479575 0.001763812 -0.021989277 -0.018146463
00000000: 0bcb b63c 8c91 95bd 098c b43d 7f25 d1bd
00000010: 5d7c 7abd 5682 413d 2410 1f3d a17c b43b
00000020: ebb8 f83c cfc4 e83b 3166 943d 59d5 e8bc
00000030: 1713 663d f320 c03d 680b 213d 7056 bcbd
00000040: d8ff 8bbd deb9 f7bc e2ef a6bd c0c8 813d
00000050: 58db 14ba aabc 113d 0449 153e 7d3d 0f3d
00000060: 58d0 dd3d 7c5c d73d a298 323d 288a 19bd
00000070: 35b5 da3c bc9d 063d c19c 28bd 607d a43b
00000080: ea97 7d3c 0094 083d 0083 5ebd e3b0 bf3d
00000090: 4012 503c 70d3 d5bc 7633 adbc 9fe1 d739
000000a0: 3481 233c 6039 a4bd 87fc df3c fa4a f73d
000000b0: 0aa4 353c c8ad 1abd 7607 483e d8fe d7bc
000000c0: 0a2f 8fbc 98e4 b2bd 9883 81bd 1c30 393d
000000d0: 9579 b23d 4b49 953b 6f7b d9bc 6cd7 aabd
000000e0: 1fa1 96bc 7bab 023d bba4 12bc dcc7 9b3d
000000f0: 086f 2abd 0d50 c93d 65ca 6cbd f048 7f3b
00000100: 38ae 6fbb 72e5 adbd ebbf 003d 7bf8 9fbd
00000110: 3b6e 74bd 67e8 d2bd 0860 7dbd 3058 27bd
00000120: a86b 233e 65e8 65bd 69e1 e2bc eb0d bbba
00000130: 5bb8 973d faeb b0bd 29ef a73d dac4 313e
00000140: 2b82 b73d 55c6 bdbd f47e a6bd a0b1 1d3d
00000150: 2264 d9bc 797d 8bbd 97ae 16bd 35d7 c23b
00000160: 8c8f 623c 186e 66bd 348a 9a3d 14b6 a0bd
00000170: 5db6 3d3e 1c5c 4fbd 7029 ee3c 6722 173d
00000180: 661a 8bbd 7972 95bd 0d42 8abd 1174 943d
00000190: 6e36 53bd dc32 3d3e 40d7 a23d 4da8 c8bc
000001a0: b8b3 3abd 385a dc3c 2dff edbc 11b2 513d
000001b0: f969 a2bd 7adf 363c 5599 41bc d227 9cbd
000001c0: 5c12 28bd c36b 83bd 013a f03d adf9 42ba
000001d0: 35d6 29bd e0a4 303d aec7 083d ffb4 033d
000001e0: 2791 53bd 60f7 42bd 8f08 8bbc 6b82 1abd
000001f0: 5b4d b93d b62f e73a db22 b4bc e4a7 94bc

4.weight f4 [8, 128]
-0.07850769 0.018864747 0.08731457 0.026614903 -0.039176084 -0.006883688 -0.12625645 -0.053739965
0.06755245 0.06310147 -0.07619367 0.07856837 -0.07209127 -0.13984165 0.047091443 -0.013841132
0.0060471115 -0.05756055 0.07260924 0.043104205 0.038287286 -0.076245494 -0.0765784 0.018808523
-0.12402669 -0.09719411 0.017437126 -0.03341498 -0.0074559744 0.06206349 -0.06274025 -0.04104022
0.010984859 -0.050828006 0.07961646 -0.11693962 0.029784627 0.006659917 0.013100581 0.035342336
-0.06794625 0.049555887 0.06338171 -0.06820907 -0.04262015 -0.08611962 -0.1176893 0.00485186
-0.00087370764 -0.04778022 -0.059898056 0.05676632 -0.11933285 -0.049246896 0.038554396 0.036686942
0.050162915 0.07833401 0.024601588 -0.103365354 -0.00034340197 -0.089963906 0.07778383 -0.023061624
0.014216954 -0.079749055 -0.10313582 0.04266546 0.05690483 0.020056767 0.07161439 -0.046827614
-0.08045835 0.040550653 -0.023992443 -0.024587223 -0.06269246 -0.07512116 -0.049785446 -0.14923877
-0.0719639 -0.0113926465 0.033339307 -0.023037875 -0.01451667 -0.0015782973 0.07004374 0.02933294
-0.012377485 -0.018048324 -0.07440484 0.003453639 -0.17895196 0.038604196 0.038427904 -0.0798528
-0.0437817 -0.028686145 -0.06033118 0.040908244 0.026017882 -0.12450946 -0.1442943 -0.08427665
0.06550556 0.06355997 -0.043232422 0.013738607 0.042481937 -0.061285056 -0.060160924 0.08523224
0.05038707 -0.0672727 -0.13697775 -0.09684354 -0.10594924 0.005507541 -0.069928445 -0.017939236
0.02783773 -0.039458405 0.060392167 0.06909947 -0.13182586 -0.07508694 0.029423416 -0.038554914
-0.020563494 0.007206217 0.08243548 -0.0073621273 -0.07076091 0.015564399 -0.06305569 -0.08135632
-0.053197127 0.041336153 -0.07293076 0.012431089 -0.07514105 -0.03125181 0.059004 -0.041407768
0.06062245 0.09429322 0.024839919 0.018078418 0.06230604 -0.080060214 -0.13774925 0.045894466
-0.06618043 -0.053996813 -0.02839379 0.061268456 0.01908304 0.021795047 -0.064718395 0.055008013
-0.012263627 0.066653356 -0.0073061553 -0.014065765 0.033033274 0.060996264 -0.008820999 -0.057961073
0.017443275 -0.09749641 0.060594298 -0.091413535 -0.06604058 -0.0786842 -0.14369184 -0.0020464037
-0.008414885 -0.040194426 0.01693747 -0.012520872 9.807797e-05 0.0385647 -0.02506219 0.081136286
0.008086526 0.030413864 -0.08689834 0.0021939017 0.04535574 -0.099875934 0.001941183 -0.0887806
-0.0602535 0.074775346 -0.028814975 0.0682195 -0.0008503987 0.02624311 0.035253014 0.019704653
-0.08690554 0.037262704 0.027035456 -0.053293653 -0.002944044 0.031070443 0.005646488 -0.1764487
-0.09422637 0.04422013 -0.038105134 -0.06753587 -0.04937734 -0.07264618 -0.03580404 -0.052693877
-0.033343017 0.068902254 0.0073400917 -0.0025568912 -0.14669916 -0.02806665 0.0073800324 -0.07526728
0.07029954 0.0042599505 0.00824405 -0.00028980954 -0.07056672 -0.17965451 -0.008995445 0.009891737
-0.020059189 0.0647493 -0.010008874 0.005207144 -0.030853663 -0.00918107 0.048109785 0.02675781
-0.07460655 0.030851822 -0.123304866 -0.025758773 -0.103340484 -0.04727381 -0.024203105 0.0006449837
0.05373229 -0.08522387 -0.046745855 -0.018809503 -0.0013588538 -0.055400103 0.062442333 0.050166517
00000000: a4c8 a0bd 3e8a 9a3c fbd1 b23d 7f07 da3c
00000010: 1a77 20bd 8f90 e1bb 5f49 01be 701e 5cbd
00000020: f058 8a3d 583b 813d 6d0b 9cbd 74e8 a03d
00000030: 96a4 93bd a632 0fbe f5e2 403d eac5 62bc
00000040: d926 c63b 9cc4 6bbd 27b4 943d 098e 303d
00000050: 21d3 1c3d 9926 9cbd 23d5 9cbd 5514 9a3c
00000060: b501 febd b50d c7bd 4ed8 8e3c 25de 08bd
00000070: 3f51 f4bb 4936 7e3d f67d 80bd ca19 28bd
00000080: d7f9 333c 0731 50bd f40d a33d 0a7e efbd
00000090: e4fe f33c 6f3b da3b d2a3 563c 20c3 103d
000000a0: 6727 8bbd 1dfb 4a3d 45ce 813d 32b1 8bbd
000000b0: 7792 2ebd 7c5f b0bd 1607 f1bd 5afc 9e3b
000000c0: 8709 65ba 31b5 43bd aa57 75bd cd83 683d
000000d0: c864 f4bd 1db7 49bd 37eb 1d3d 0c45 163d
000000e0: a177 4d3d 956d a03d 4589 c93c 37b1 d3bd
000000f0: a20a b4b9 ff3e b8bd 214d 9f3d bbeb bcbc
00000100: 3aee 683c 7953 a3bd df38 d3bd fac1 2e3d
00000110: 0a15 693d 174e a43c 91aa 923d 50ce 3fbd
00000120: 59c7 a4bd 7118 263d cd8b c4bc 256b c9bc
00000130: e864 80bd 1fd9 99bd d3eb 4bbd 0cd2 18be
00000140: cf61 93bd 39a8 3abc cc8e 083d edb9 bcbc
00000150: 54d7 6dbc dfde ceba 1873 8f3d a24b f03c
00000160: efca 4abc 14da 93bc 9161 98bd 7356 623b
00000170: 2f3f 37be 6f1f 1e3d 9466 1d3d dd89 a3bd
00000180: 7154 33bd 35ff eabc d41d 77bd 678f 273d
00000190: 7423 d53c d1fe febd e3c1 13be 3c99 acbd
000001a0: c727 863d bb2b 823d 7b14 31bd e517 613c
000001b0: 8a01 2e3d 0a06 7bbd 4d6b 76bd 3e8e ae3d
000001c0: ac62 4e3d 45c6 89bd e543 0cbe e855 c6bd
000001d0: eafb d8bd 9a78 b43b a536 8fbd 4ef5 92bc
000001e0: f30b e43c 239f 21bd c75d 773d 0684 8d3d
000001f0: 5cfd 06be 2ec7 99bd 6009 f13c c2eb 1dbd
00000200: c674 a8bc 2122 ec3b efd3 a83d 003e f1bb
00000210: 19eb 90bd d201 7f3c 5723 81bd 249e a6bd
00000220: 3be5 59bd 1950 293d b95c 95bd c4ab 4b3c
00000230: 8de3 99bd e601 00bd 2eae 713d 319b 29bd
00000240: 3f4f 783d ce1c c13d 167d cb3c 3119 943c
00000250: 9e34 7f3d 9cf6 a3bd 240e 0dbe d6fb 3b3d
00000260: 9b89 87bd c32b 5dbd 189a e8bc a2f4 7a3d
00000270: 0954 9c3c 878b b23c 148b 84bd 1550 613d
00000280: 61ed 48bc 8e81 883d 7968 efbb 1874 66bc
00000290: e64d 073d 38d7 793d f485 10bc 9768 6dbd
000002a0: 33e5 8e3c 33ac c7bd ba31 783d 0537 bbbd
000002b0: 4940 87bd 2f25 a1bd f423 13be f51c 06bb
000002c0: 96de 09bc e9a2 24bd 73c0 8a3c 5824 4dbc
000002d0: 36af cd38 05f6 1d3d 394f cdbc c82a a63d
000002e0: 597d 043c 7f26 f93c c2f7 b1bd 90c7 0f3b
000002f0: f1c6 393d c18b ccbd 4b6f fe3a 9ad2 b5bd
00000300: 60cc 76bd d123 993d 620d ecbc aab6 8b3d
00000310: 4aed 5eba cafb d63c 7765 103d a76b a13c
00000320: 88fb b1bd c7a0 183d 7679 dd3c 724a 5abd
00000330: ddf0 40bb 7187 fe3c 2d06 b93b f8ae 34be
00000340: c1f9 c0bd 2b20 353d 2114 1cbd 3f50 8abd
00000350: e53f 4abd 85c7 94bd 42a7 12bd 89d5 57bd
00000360: b092 08bd a01c 8d3d 2785 f03b 8491 27bb
00000370: 4e38 16be 08ec e5bc 33d4 f13b bb25 9abd
00000380: 35f9 8f3d 0e97 8b3b 0d12 073c 94f1 97b9
00000390: 4985 90bd 5af7 37be a261 13bc f410 223c
000003a0: 2b53 a4bc 489b 843d 43fc 23bc b1a0 aa3b
000003b0: d2c0 fcbc 336c 16bc c40e 453d 3233 db3c
000003c0: 52cb 98bd f6bc fc3c 4387 fcbd 1004 d3bc
000003d0: 2da4 d3bd 2fa2 41bd 9745 c6bc 2014 293a
000003e0: 6416 5c3d da89 aebd 9578 3fbd 6316 9abc
000003f0: 911b b2ba 38eb 62bd 88c3 7f3d 687b 4d3d

4.bias f4 [8]
-0.21252342 -0.19884296 -0.14810492 -0.09252804 -0.1053567 -0.185856 -0.20976895 -0.13944909
00000000: bd9f 59be 7d9d 4bbe d1a8 17be 577f bdbd
00000010: 41c5 d7bd 0951 3ebe accd 56be becb 0ebe
