ddqn/service-rate/new-config/final_double_dqn_model-rate=8.pth (torch, 76062 bytes, 6 tensors)

0.weight f4 [128, 5]
000000 4c 39 3e 3e 4f 2d 74 3e 94 5f cf 3c 1f bf c0 3d
       0.18576545 0.23845409 0.02531413 0.094114535
000010 0e 89 b5 bd 77 7f 2d be 0f 28 eb 3e 67 36 2e 3d
       -0.08864032 -0.16943155 0.45929 0.04253235
000020 43 91 b3 3e 94 10 ec be 25 fa 36 3e 57 5e a5 3e
       0.35071763 -0.46106398 0.1786886 0.32298538
000030 d6 61 b3 bc 92 fa 93 3d ec 8b ab 3e 5f 7a aa bd
       -0.021897238 0.07225527 0.3350519 -0.08324122
000040 5e a6 92 3d 8e 2e 53 bd f7 54 2c be 24 28 ba 3e
       0.07160638 -0.05155807 -0.16829287 0.3635875
000050 7e 14 89 be 17 71 30 be 9e 15 96 3e 66 e0 38 3e
       -0.26773447 -0.1723064 0.29313368 0.18054351
000060 fa 68 da 3d 44 c4 bc be d7 90 dc bd fd d2 19 3e
       0.10664554 -0.3686849 -0.107698135 0.15021892
000070 36 b9 6f 3e 8f 0d f6 3e 6b f6 a7 be d0 db 86 be
       0.23410496 0.4805722 -0.3280519 -0.2633958
000080 d2 7b 84 be 31 6e eb bd 6d 5b 18 3e df 62 8b 3e
       -0.25875717 -0.11495627 0.14878626 0.2722387
000090 aa a1 96 be 84 ce d2 be f6 16 30 3d 58 1c 8b 3d
       -0.29420215 -0.41173184 0.042990647 0.067925155
0000a0 2c 7c a0 bc d9 f1 2c be 68 92 50 bd f6 15 bd bb
       -0.01959046 -0.16889133 -0.050920874 -0.00577044
0000b0 0b e2 d5 3d 19 79 2f 3d 8e 83 73 be 88 08 ca be
       0.10443505 0.042840097 -0.23780653 -0.39459634
0000c0 9a 70 b9 3e 2b d8 3e 3e e6 75 3f 3e af c0 68 be
       0.3621872 0.18637149 0.18697318 -0.22729753
0000d0 7e 64 25 be 0b 18 af be 3c df 70 be d8 40 54 3d
       -0.16151616 -0.3419803 -0.23522657 0.051819652
0000e0 77 ca 9e 3e 06 8c 22 be 28 c3 5f be f3 e8 cb bd
       0.31013843 -0.15873727 -0.2185179 -0.09956541
0000f0 f2 81 99 be 79 9c 81 3e 2a 9e b5 be 20 a2 cd bd
       -0.29981953 0.25314692 -0.35472232 -0.100406885
000100 fc 54 a4 be e7 e5 59 3e 7c b4 2e 3e d8 b7 8c 3e
       -0.32096088 0.21279107 0.17061037 0.27484012
000110 e6 b8 67 3e 0e f1 ac be fe 13 44 be f2 96 b2 be
       0.22629127 -0.3377766 -0.19148251 -0.34880787
000120 28 d9 77 3d c7 82 44 be 41 02 81 be 2f 10 46 3e
       0.06050983 -0.19190513 -0.25197032 0.19342111
000130 23 a1 92 3e 4d 0c ae bd 25 2c 08 bf 54 7d 19 be
       0.28638563 -0.0849844 -0.5319236 -0.14989215
000140 bf 24 42 bd cd b8 c1 be 43 54 d4 3d 2e 19 d0 be
       -0.047398325 -0.37836304 0.10367634 -0.4064421
000150 e1 a5 9d 3e 7e 8d d8 3e 26 48 af 3e 37 46 7b be
       0.30790618 0.4229545 0.34234732 -0.24538504
000160 a0 c8 cf 3d 41 f6 20 3e c5 f4 48 3c 06 4e be 3e
       0.10145688 0.15718938 0.012265389 0.37168902
000170 af 7d cb be d3 29 26 3e 4f 62 d4 be 40 47 c8 bb
       -0.39744326 0.16226892 -0.41481254 -0.0061120093
000180 ca c8 ef ba 0a 2a 41 be e0 b9 02 3e 60 50 dd be
       -0.0018294093 -0.18863693 0.12766218 -0.43225384
000190 6d db 0f 3e 39 26 ff be 12 39 53 3e 67 90 00 bf
       0.14048548 -0.4983385 0.2062724 -0.5022034
0001a0 2c db f9 be 85 38 88 3e c8 a9 80 3d 75 e6 65 3e
       -0.48800027 0.2660562 0.06282383 0.22451194
0001b0 1b 86 c5 be 16 55 0a be 7c 9a d5 3d d1 24 15 3d
       -0.38578877 -0.1350902 0.10429856 0.036412064
0001c0 4f 72 92 be f9 1c b0 3e d7 2d ca be d1 e7 e0 bd
       -0.28602836 0.34397104 -0.39488098 -0.109817155
0001d0 34 89 d1 be 09 fc cb bc 3e aa 95 3e 49 53 d9 bc
       -0.4092499 -0.024900453 0.29231447 -0.026528971
0001e0 b3 59 aa 3c 7e ff 42 bd 61 15 9f be ab fd 28 3e
       0.020794725 -0.047606938 -0.31070998 0.16503017
0001f0 98 61 a6 be d1 d2 cd 3c 0a a2 a0 be dd 18 e2 be
       -0.32496333 0.02512494 -0.31373626 -0.44159594
000200 61 9f d0 be 12 5a ed bd 0f bb 81 3d 76 e3 a1 3e
       -0.40746596 -0.11589445 0.06334507 0.3161885
000210 70 c4 c2 bd 58 95 17 be ef 91 e6 3e 0a 0d 91 3a
       -0.09510124 -0.14803064 0.45033213 0.0011066508
000220 3e 18 99 3e 21 62 06 3e 5d c4 8e be 2c a1 e6 3d
       0.29901308 0.1312337 -0.27884188 0.1126121
000230 7f 0d f2 3d 94 f8 a0 3e a3 2e b5 3e 8b 27 1f be
       0.118189804 0.3143965 0.35387143 -0.15542428
000240 eb 7a 6f be 20 31 db 3e 21 cd 2b bf 5f 61 7e 3e
       -0.23386733 0.42810917 -0.67109877 0.24841832
000250 d2 ec 85 be cd 28 03 be b3 0c 1e 3e 19 95 fc 3c
       -0.26157242 -0.12808533 0.15434532 0.030832814
000260 a3 55 88 3e 0f 82 87 bd 25 2a 26 3e ce 99 77 be
       0.26627836 -0.066166036 0.16227014 -0.24179766
000270 89 58 dd 3d c0 72 45 be cf 88 9e be ef 3b 92 be
       0.10807902 -0.19282055 -0.30963752 -0.2856135
000280 71 72 7b 3e 72 48 be be 8f d0 df 3b 68 57 0c be
       0.24555375 -0.37164646 0.006830282 -0.13705218
000290 fe b7 e0 bc 8d c6 75 3e 6d 1f e0 bd 21 47 a3 be
       -0.027431484 0.24001522 -0.10943494 -0.31890205
0002a0 ff 8b 76 3e c3 af 89 3e 93 73 54 be df 87 d9 3e
       0.24076842 0.26891908 -0.20747213 0.42486474
0002b0 a0 4d d9 3e b9 db d6 be ca 4f 82 3e 6d 81 8c be
       0.42442036 -0.4196451 0.254515 -0.27442494
0002c0 4c c9 80 be 47 fb c7 bd a7 8e a4 be 86 81 b0 be
       -0.25153577 -0.09764724 -0.32140085 -0.3447382
0002d0 68 d4 2c bc 42 94 bb 3d c8 fc 07 bd 22 6c c6 be
       -0.0105486885 0.09159137 -0.033200055 -0.38754374
0002e0 9c 82 96 3d 91 49 56 bd a9 23 8a be 05 6d 22 be
       0.073491305 -0.052316252 -0.26980332 -0.158619
0002f0 93 3f d7 3d 4f 3d 88 3e 1d bd a0 3e 94 0b 8f 3e
       0.10510173 0.26609275 0.31394282 0.2793852
000300 96 18 90 3d 5e 99 88 3e 21 13 d9 3e 44 24 7c 3e
       0.070359394 0.2667951 0.42397407 0.24623209
000310 f2 1c bc 3e d7 4e 1a 3b 50 0d 37 be 98 ac 55 3e
       0.36740834 0.0023545527 -0.17876172 0.2086662
000320 f8 bf 0a be 30 bb e5 3e 56 07 a4 bc a0 02 3f be
       -0.13549793 0.44869375 -0.02002303 -0.18653345
000330 6c d2 e0 be 3e 1c b2 3e 37 ef b1 3e 1d 9b 52 bd
       -0.4391054 0.34787172 0.3475282 -0.05141746
000340 77 57 9d 3d c3 2e d0 bd 7c 57 b3 3e f0 37 85 3e
       0.07682698 -0.10165169 0.35027683 0.2601924
000350 94 4e 12 3e 5c a4 34 be 40 0d 90 3d be 91 82 be
       0.14287788 -0.17640823 0.07033777 -0.25501817
000360 f3 1d dc be 08 0c 87 3d 51 f3 2d be a8 4f 6b 3d
       -0.429916 0.06594092 -0.16987349 0.057449013
000370 db bd 55 3e 44 20 bc 3d de a2 b0 3d e3 ad 9b 3d
       0.20873205 0.09185842 0.086248145 0.07601526
000380 39 d0 09 bf 9b 2a ce be 24 b9 6c 3e 60 f3 bd 3d
       -0.5383335 -0.4026688 0.231175 0.09274936
000390 8b 7f 8b be 64 7e 88 3e 55 31 d8 3e 54 49 83 be
       -0.27245745 0.26658928 0.42225137 -0.25641882
0003a0 0d 3e ee 3d f8 c1 4c be 5c 03 ec be 91 1b ce 3e
       0.11632929 -0.19995868 -0.46096313 0.40255406
0003b0 a7 d1 b6 be a3 76 f9 3c fa 36 a4 bd 4b 30 c3 3e
       -0.35706827 0.030452078 -0.080182984 0.38122782
0003c0 cd 73 5d 3e 20 cd c7 be 86 25 b0 bd 65 bd 55 be
       0.21626206 -0.39023685 -0.08600907 -0.2087303
0003d0 7b 17 d6 be b9 38 3d 3e 40 30 a0 3e b8 2d e4 be
       -0.4181479 0.18478669 0.31286812 -0.4456613
0003e0 9d 6a 8f 3d 69 b8 93 3d 83 ea d5 3e 3b c4 20 bf
       0.07002757 0.07212908 0.4178048 -0.62799424
0003f0 f2 9d 1c be 23 71 80 3e 5e 5e bf 3e dd 32 14 be
       -0.15294626 0.25086316 0.37376684 -0.14472528

0.bias f4 [128]
000000 16 18 db be 17 64 85 be a3 e7 c5 3e 7a f9 18 3f
       -0.42791814 -0.26052925 0.38653287 0.5975567
000010 be 3a b8 3e ae 54 a4 3e 6f ba 99 3d 74 f9 f1 3c
       0.35982317 0.32095855 0.075062625 0.029537894
000020 d6 66 ae 3e 64 99 c9 3e fb 51 9a 3d 22 f5 05 be
       0.34062833 0.3937484 0.07535168 -0.13081792
000030 48 97 35 be bd a6 b1 3e eb 18 de be 59 24 c2 3e
       -0.1773349 0.34697524 -0.43378386 0.37918356
000040 34 51 85 3e 3f 4a c1 3e 9f eb 97 3d c8 ba 80 3e
       0.26038516 0.37751958 0.07417988 0.25142503
000050 8a bd 50 be 26 77 13 bf 90 f9 84 3e 4c 49 39 be
       -0.20384803 -0.5760368 0.2597165 -0.18094367
000060 c5 d8 18 3e b0 79 12 bd 2c 0c 59 3e da 01 35 3e
       0.14926441 -0.03576058 0.2119605 0.17676488
000070 d1 56 8b be ea 08 07 be 0f 42 c7 3e a4 3b c6 be
       -0.27214673 -0.13186994 0.38917586 -0.38717377
000080 1e 61 a2 bd 0f 26 01 3f b2 2a 00 3f 10 c5 a6 be
       -0.0792868 0.504487 0.5006515 -0.32572222
000090 70 6f c6 bc 12 37 e9 3e e3 6a 72 3e 9c f3 03 3f
       -0.02422306 0.45549828 0.23673587 0.51543593
0000a0 26 87 51 3b 74 50 ba be 2a 4b e9 be 3d 1b a2 3c
       0.0031971424 -0.36389506 -0.45565158 0.019788379
0000b0 53 c8 1f be 13 d9 d0 be de 1b a7 bc ba 55 01 3e
       -0.15603761 -0.40790614 -0.02039903 0.12630358
0000c0 cf af 09 bd 58 5e d4 be fc f9 00 be 87 df 92 3e
       -0.03361493 -0.4147823 -0.12595361 0.28686163
0000d0 97 76 88 be 42 6d e7 3e 34 c7 55 3c 2a 83 b9 be
       -0.26652977 0.45200545 0.013047982 -0.36232883
0000e0 db d6 f3 bd d8 c6 00 be 55 24 4e be 31 c0 8a be
       -0.11906215 -0.12575853 -0.20131047 -0.27099755
0000f0 85 4a b0 3e 2b f6 84 3e b7 85 f4 be 1d a5 b1 be
       0.34431854 0.2596906 -0.47758266 -0.34696284
000100 80 17 b5 3e e1 54 d1 be c3 5d c0 bd 1a 7d 9f 3e
       0.35369492 -0.4088507 -0.09392884 0.31150132
000110 5c e1 dc be 21 fb d0 bd ab a4 86 be 7c 79 17 3b
       -0.43140686 -0.10204149 -0.26297507 0.0023113182
000120 8f 0d 61 be af 2a 1b 3f bd a4 c0 3e 1b fd 88 bd
       -0.21977828 0.60612005 0.37625685 -0.06688901
000130 11 42 fd 3e 60 df 70 be 43 8b f9 be 9a f3 84 3e
       0.49464467 -0.23522711 -0.4873906 0.25967103
000140 7d 96 74 be a5 61 81 be f9 12 0d 3f ec 88 1b 3f
       -0.23885532 -0.2526981 0.55107075 0.607558
000150 87 82 87 be b2 2c a4 be fb cd 7b 3d 5c f9 b9 bc
       -0.26466772 -0.3206535 0.061475735 -0.022701912
000160 ae b2 df bd 2d c2 19 be a4 48 cd be fc 81 80 3d
       -0.10922752 -0.15015478 -0.40094483 0.062747926
000170 2c 0f 30 be e8 d9 b0 be 7c 7b b2 be 58 d2 ab 3e
       -0.17193288 -0.3454125 -0.34859836 0.33558917
000180 fc 47 85 3e d5 0b 07 bf b4 68 75 be 0d 82 17 be
       0.26031482 -0.5275243 -0.23965722 -0.14795704
000190 c5 c5 a6 be 44 8e e7 3e 0d 33 6e 3e 54 9e d5 3e
       -0.3257276 0.45225728 0.23261662 0.41722357
0001a0 58 3d 15 be f6 d3 b5 3e b3 08 95 3e ef 66 f2 3e
       -0.14574182 0.35513276 0.291082 0.47344157
0001b0 f8 82 a3 3d 81 db e5 3e 0b 56 df 3e d4 6d d8 3e
       0.07983965 0.4489403 0.43620333 0.42271292
0001c0 fb 66 bc 3e d4 33 21 be 55 4a 6c bd f6 6d a8 3c
       0.36797318 -0.15742427 -0.057688076 0.020560246
0001d0 bb 8d 08 bf 6a d6 ab 3e 3f 5d 58 3d a5 fc 8e 3e
       -0.53341264 0.33562022 0.0528233 0.27927127
0001e0 78 50 c1 3e 40 61 07 3e 8a 2a 06 3e 4f 29 f2 be
       0.37756705 0.13220692 0.13102165 -0.4729714
0001f0 e1 5d 03 3e e4 f9 f1 be 69 84 03 3e 6c 74 bc 3d
       0.1282878 -0.47260964 0.12843479 0.09201893

2.weight f4 [128, 128]
000000 54 98 32 bc e8 d7 0a 3c 27 68 19 3d e7 59 75 bd
       -0.010900576 0.008474328 0.037452843 -0.05990019
000010 70 7b aa bd 0a 48 90 bd 38 42 b6 bc 96 9f a0 bc
       -0.08324325 -0.0704499 -0.022248372 -0.019607347
000020 86 81 84 bd b2 62 fd 3d ae 59 8d 3d 8d 0f 32 bc
       -0.06470017 0.1237234 0.06901871 -0.010867965
000030 d9 d1 a8 3d b4 17 8f bd 3e b2 40 3d e0 f8 db 3c
       0.0824315 -0.06986943 0.047044985 0.026852071
000040 6e 34 bf 3d 79 ee 50 bb 31 67 b4 3d eb 88 8b bd
       0.09336172 -0.0031880422 0.08808745 -0.068132244
000050 e5 a6 43 3d 82 d5 d0 bc a1 08 9f bd 2f 82 fa bc
       0.047766585 -0.025492433 -0.07765318 -0.030579654
000060 75 e0 b4 bd e9 b4 4e 3c 91 e6 e1 3c 80 a1 85 bc
       -0.08831874 0.0126163745 0.027575763 -0.01631236
000070 bd e5 86 bd d7 b4 b8 bd 3c 7c 55 bb a5 9d 04 3d
       -0.06586788 -0.090188675 -0.003257527 0.032376904
000080 9d 93 77 3d d8 d6 c1 3d 54 4f 6d bd be 60 52 bd
       0.06044351 0.09464806 -0.05793698 -0.05136179
000090 79 e6 65 3d 3d 19 a7 bd 6c 06 12 3d 2b c4 84 3d
       0.056128 -0.08159111 0.035650656 0.064827286
0000a0 75 a0 40 bd 49 bf 77 bd 6c 41 aa bc db a2 42 bd
       -0.047028024 -0.060485158 -0.020783149 -0.047518592
0000b0 bb e1 28 3d ff 6f 94 3d 5c 94 12 3d 9c e9 aa bd
       0.0412309 0.07247924 0.035786018 -0.08345339
0000c0 48 47 e0 bc 5c c6 62 bd 58 d9 d7 bd 74 b3 7b 3c
       -0.02737774 -0.05536495 -0.10539502 0.015362609
0000d0 c1 d4 0b bd 5c 28 1c 3d 70 28 c0 bd a9 3f 35 bd
       -0.034138445 0.038124427 -0.09382713 -0.044250164
0000e0 6f ca 82 3d 3b f1 7d bd 8b 45 6f 3d ec c2 52 bd
       0.063862674 -0.061997633 0.05841593 -0.051455423
0000f0 5d 9a 1e 3d f5 ac f1 3c 1f 9e 09 bd 00 63 14 3d
       0.03872143 0.029501418 -0.03359806 0.036227226
000100 27 90 79 bd 43 e3 a0 bd fa e2 a5 3d 8f d2 aa 3c
       -0.06092849 -0.07855847 0.08099933 0.020852355
000110 df f4 61 3d f5 ef 6b 3d 3c df 41 3c ba 96 b8 bd
       0.055165168 0.057601888 0.011833008 -0.09013124
000120 b7 3c 87 bd 0a 0d 27 bd c9 19 79 3d 7c d6 09 bc
       -0.06603377 -0.04078392 0.060815606 -0.0084129535
000130 39 41 9d 3d 52 5c 9d bd 1f 4b b1 bc 9d 6c 70 3c
       0.07678456 -0.07683624 -0.021642266 0.014674333
000140 b2 46 d1 3c 27 45 1c 3d 6a 81 7c 3d dd 7d 75 3d
       0.025546405 0.038151886 0.061646856 0.059934486
000150 14 73 68 3d 8a b7 90 3d 3f 35 13 bd 29 c3 b9 bd
       0.056750372 0.07066257 -0.03593945 -0.09070427
000160 33 92 ef 3a 53 c1 42 bd 2e a3 d9 bd 60 f1 00 bd
       0.0018277824 -0.04754765 -0.10626827 -0.031480193
000170 0c f0 a7 bd b1 ac d0 bd f7 7b 1b 3d 5b 35 42 bd
       -0.08200082 -0.10189188 0.03796002 -0.047414165
000180 81 51 e6 bc 4f 00 7a 3d 2b f0 e0 3c 1d 5d 27 bc
       -0.028115036 0.06103545 0.027458271 -0.010215071
000190 be 7c 9b bd 86 b0 ab bd fe f9 53 3d 4f 56 27 bd
       -0.07592152 -0.083832785 0.051752083 -0.040853795
0001a0 f3 d0 3a bc ff 8a c8 bc 3e a8 3b 3d 74 be 98 3d
       -0.011402356 -0.024480341 0.045814745 0.07458201
0001b0 ad d2 c1 bc 15 49 a6 bd fa 22 fa bc cf 53 44 bd
       -0.023660028 -0.08119408 -0.030534256 -0.04793149
0001c0 9d 17 75 bd 95 04 fe bd 3b b3 69 3d 45 e9 86 bd
       -0.059836973 -0.12403218 0.057055693 -0.065874614
0001d0 9d 6d 34 bd 84 9d 88 bd 80 40 55 3d b7 b8 00 bd
       -0.044049848 -0.06670669 0.052063465 -0.031426158
0001e0 19 4d f4 bc b3 d6 45 3d 9e 68 c4 bd 4d b0 97 bd
       -0.02982192 0.048300456 -0.09590267 -0.074066736
0001f0 32 fe 50 bd 2d 4f 26 3d 7d 68 5e 3c e6 15 9a bc
       -0.05102367 0.04060285 0.013574717 -0.01880927
000200 f9 a0 dd bd 70 95 df bd a7 f5 cb bd 95 e4 8e 3d
       -0.10821719 -0.10917175 -0.09958964 0.06977192
000210 59 3b f8 bd 40 9c 84 bd bd 02 6c bc a7 86 c7 3b
       -0.12120695 -0.06475115 -0.01440495 0.00608905
000220 42 5b 79 bd 8e 1e 16 3d 43 6c 97 3d 2d da 8a 3d
       -0.060878046 0.036650233 0.07393696 0.06779895
000230 d6 99 8f bd de 48 f6 bd ac 3a ae bd 65 3e 1b 3d
       -0.07011764 -0.12025617 -0.085072845 0.0379013
000240 eb cb da 3d dc 80 69 bd c1 b6 5d bb e7 f9 ac 3d
       0.106834255 -0.057007656 -0.0033830854 0.084461026
000250 59 cc d3 bd a0 c8 35 3d cd dc 92 bd c2 c6 ff 3c
       -0.103417106 0.044380784 -0.07171021 0.031222705
000260 50 4d 60 3c eb c4 5b bd 6c f6 0e bc 29 3d 00 be
       0.013690308 -0.053654592 -0.008725744 -0.12523331
000270 dc 96 19 bd e9 3f 99 3c 31 d6 89 3c 51 5d ab bd
       -0.037497386 0.018707233 0.016825767 -0.08367408
000280 67 07 89 bd 0c 3d 06 3c fb eb 52 bc c5 90 17 bd
       -0.06690865 0.008193266 -0.012873645 -0.037003297
000290 b8 13 31 3d 50 79 ed 3d ba 91 ff bc 1d 51 47 3c
       0.043231696 0.11595404 -0.031197418 0.012165335
0002a0 05 32 af bc 98 1a 28 bd 4e e1 02 bd 85 60 d9 bd
       -0.021386156 -0.041040987 -0.03195315 -0.10614113
0002b0 b9 9a 2a 3d 02 6d 90 3c 1d 33 6f 39 34 04 47 3d
       0.04165146 0.017630104 0.00022811857 0.048587993
0002c0 4e 94 9e bd 46 b1 91 bd 5f 4a cc bc 8e fa e1 3c
       -0.077431306 -0.0711389 -0.024937807 0.027585294
0002d0 c4 08 c1 bd 80 1b 04 3c c3 b1 4a bd 80 f5 98 3d
       -0.094255 0.008063197 -0.049485933 0.074687004
0002e0 06 cb e8 3c 82 82 c7 bd 3b ac 71 3d 33 4d 80 bd
       0.028417122 -0.09741689 0.059002142 -0.062647246
0002f0 31 a6 f4 3d ac 59 f1 3c 07 52 97 bc 79 52 22 3d
       0.11945761 0.029461704 -0.01847173 0.039629433
000300 c9 43 9c bd 78 95 b8 bd 6a 45 53 3d 2c 2e c3 3d
       -0.076301165 -0.09012884 0.05157987 0.09530291
000310 6b 1d 40 bd 53 70 a0 3d 32 43 3f bd 11 2f 4f bc
       -0.046903055 0.07833924 -0.04669494 -0.012645499
000320 71 13 9f 3c cd a2 f0 3c b0 51 2c 3c 56 aa ed bc
       0.01941845 0.029374504 0.010517523 -0.029011887
000330 97 8e 9e bd ce 11 01 3d bf 37 b8 bd 05 21 ec bc
       -0.077420406 0.03151112 -0.08995008 -0.028824339
000340 ac 96 1b 3d 00 29 8f 3d 12 12 c1 3c c2 96 15 3e
       0.03798549 0.06990242 0.023568187 0.14608291
000350 a8 82 81 bd 66 5b a5 3d 45 f2 4f 3d ee b2 55 bd
       -0.06323749 0.080740735 0.050768156 -0.052172594
000360 06 9c 95 3d 81 02 a4 bd 48 1a e6 3c 49 6f f0 bd
       0.0730515 -0.0800829 0.028088704 -0.11739976
000370 2b c8 58 bc 5d 57 a9 bc 82 c1 89 bd 84 37 12 bd
       -0.0132313175 -0.02067154 -0.06726362 -0.035697475
000380 2c c5 ec bc d0 ae 18 3d 14 f4 71 bc e3 d8 d1 bc
       -0.028902613 0.03727609 -0.014767665 -0.025616115
000390 6d 40 41 bd b1 b4 08 be 8b 25 7d 3d f2 ef 63 bd
       -0.04718058 -0.13350178 0.061803382 -0.05564875
0003a0 34 a4 93 bd 50 38 e6 bd 93 c2 ff 3c 04 f4 78 bd
       -0.07209054 -0.112412095 0.03122071 -0.060779586
0003b0 7a 55 9f bd 7b e5 c0 bc 7f 23 d5 3d ba 95 78 3d
       -0.07779975 -0.023546925 0.10407161 0.060689665
0003c0 e2 0e de bd 8c 72 bd bc b3 e0 9d 3c 85 9a 32 3d
       -0.108426824 -0.02312591 0.019272184 0.043604393
0003d0 fe a8 a5 bd dd 4a 56 bc d1 5a 01 bd 02 39 03 bd
       -0.08088873 -0.013079372 -0.03158075 -0.03203679
0003e0 1e 7c 42 3d 5a 3a f5 b9 72 55 91 bc e4 78 27 bd
       0.04748165 -0.00046773517 -0.017740939 -0.040886775
0003f0 ab e6 20 3d 72 7a 2d 3b 4e 55 35 3d 19 64 5e bd
       0.039282482 0.0026470688 0.044270806 -0.05429468

2.bias f4 [128]
000000 08 3f 53 3d 20 88 9d bc 4b 12 da 3d 98 49 2f bd
       0.051573783 -0.019229949 0.1064802 -0.042794794
000010 7f 1a 4b bd b8 6f 27 bd dc c6 38 bd 2b c1 69 3d
       -0.049585816 -0.040878028 -0.045111522 0.057068985
000020 58 3f 8a 3d bb 04 51 bc de e1 5c bd 59 19 0e bd
       0.06750363 -0.0127574755 -0.05392634 -0.034692142
000030 ee 48 30 bd 82 90 fb 3c f4 47 45 3d b9 36 34 bd
       -0.0430383 0.030708555 0.048164323 -0.0439975
000040 3c dd 84 3d d7 15 a6 bd 30 48 08 3e 97 e6 f3 3b
       0.064875096 -0.08109634 0.13308787 0.00744326
000050 24 5f bb bd e6 a6 87 3d c4 61 c1 3d f7 c7 5b 3d
       -0.09149006 0.0662363 0.094424754 0.0536575
000060 22 e6 d7 3b 94 80 e3 3c 21 9e 83 bd ad 7b 00 3d
       0.0065887133 0.027771272 -0.06426645 0.031367946
000070 db 1e 75 bd c1 ea 72 bd 88 c8 37 3d 04 0e 6f 3a
       -0.05984388 -0.05930591 0.044868976 0.0009119215
000080 d2 5c 5f bd 04 35 4b 3e c1 46 98 bd 0e 2d 8f 3d
       -0.05453188 0.19844443 -0.0743537 0.069910154
000090 50 6d 53 bd be 68 e3 bc be 30 97 3a c6 a8 6a 3d
       -0.05161792 -0.027759906 0.0011534912 0.05728986
0000a0 a7 a9 85 bd 96 e3 c0 3c 51 cc 87 bd 09 57 e0 bd
       -0.06526499 0.023546021 -0.06630767 -0.10954101
0000b0 bd d8 0a bc 88 03 bc 3d 76 90 0c 3e a9 17 ce bd
       -0.008474526 0.09180361 0.13726982 -0.100631066
0000c0 e9 95 2d 3e 09 13 64 3d 56 5e 4d bc e1 5e f1 bc
       0.16951717 0.055682216 -0.0125346985 -0.029464187
0000d0 60 79 ed 3b 1f c5 9b bd d0 cd c7 bc 40 da cf 3c
       0.007247135 -0.07605957 -0.024390131 0.025372624
0000e0 c3 39 af 3d 16 ef 90 bd cb 23 01 bd 8f 7c 7e 3e
       0.08555939 -0.07076852 -0.031528275 0.24852203
0000f0 2d 3f 5e 3d 7d 95 42 bd dc 6e f8 3d e4 4b c7 bb
       0.054259468 -0.047505844 0.1213052 -0.006082045
000100 f5 20 29 bd df af a4 bd e0 ae 9d 3c 74 5a 10 bd
       -0.041291196 -0.08041357 0.019248426 -0.035242513
000110 e5 e3 1a 3d 8c e2 6c bd 2e 4b 2f 3e e4 9c da ba
       0.037814993 -0.05783324 0.17118523 -0.0016678837
000120 23 d9 e1 3c 5b f3 6a 3d c2 8e ef 3c 59 84 ec bc
       0.02756936 0.057360988 0.029242877 -0.028871702
000130 0a 65 8e 3d 31 3a f2 bc 9c 8a 0e 3e bb 9c a8 3d
       0.069528654 -0.029568763 0.13920063 0.08233019
000140 8c 8c 83 3c ae 0e af 3c d5 bb 19 3c 01 f2 95 3c
       0.016058229 0.021369305 0.009383162 0.018303873
000150 90 97 16 3d 60 c0 71 3d 7f 62 ea 3c 90 57 1c 3d
       0.036765635 0.059021354 0.02861142 0.038169444
000160 fc ce 6c bd 82 48 6c bd 79 fb 96 3d c0 00 96 3d
       -0.057814583 -0.057686336 0.07372183 0.07324362
000170 ba c0 c3 bd d8 49 9b bb f8 c4 94 bd 7b c5 5b 3d
       -0.09558244 -0.0047390275 -0.07264131 0.05365513
000180 46 0f b1 bd 03 5d a0 3b f1 f1 04 3d fb 4a a6 bd
       -0.08645491 0.0048939004 0.032457296 -0.0811977
000190 90 fd 91 bc ec c8 9f 3d df a9 b2 bc fb 91 60 bd
       -0.017821103 0.07801995 -0.021809516 -0.054826718
0001a0 a7 b5 0b 3e 89 6f 2d 3d 4d 08 ab 3d 3f c2 e9 3d
       0.13643514 0.042342696 0.083511926 0.114140026
0001b0 b7 67 d8 bc ca 3c c4 bd 28 96 02 bd fa 60 05 3e
       -0.026416643 -0.09581907 -0.03188148 0.13025275
0001c0 a8 b3 17 3b 10 1e 10 3a 26 11 84 bd 5b e8 11 3e
       0.0023147855 0.0005497644 -0.06448583 0.14248793
0001d0 f2 de 82 3c e6 48 19 3d 2b b1 9c 3c 7a 96 89 bd
       0.01597545 0.037423037 0.019127449 -0.06718154
0001e0 55 03 b1 3d 20 99 f1 bc 4d 3b 78 bd b4 c6 ba 3d
       0.08643214 -0.029491961 -0.06060343 0.09119931
0001f0 e9 87 0f 3d 6c 4e f0 3d 3f 09 1a 3d ba 1d 9e 3d
       0.035041723 0.11733708 0.037606474 0.07720514

4.weight f4 [8, 128]
000000 45 96 51 3d 04 60 d8 3b c3 9c 92 bd a0 69 7a 3d
       0.0511687 0.006603243 -0.07158806 0.061135888
000010 06 39 0c bd 2a 0a 9e bd 24 42 a0 bd 4a 05 60 3c
       -0.03423407 -0.077167824 -0.07825115 0.013673136
000020 bc 75 f9 bc 6b 5f ea bc f3 4d b3 bd 09 a7 84 bd
       -0.030451648 -0.028609952 -0.08755102 -0.06477172
000030 6b 35 48 3d e9 5e c9 bd 6d ae 98 bd 4f 71 a8 bd
       0.04887907 -0.09832556 -0.07455144 -0.08224737
000040 62 f6 82 bd d0 5d a6 3d cb 59 00 be f3 fc 98 3d
       -0.0639465 0.08123362 -0.12534253 0.07470121
000050 09 82 c4 3b fd 06 65 bd 92 d3 b8 bd 71 b3 4e 3d
       0.0059969467 -0.055914868 -0.09024729 0.050464097
000060 cf 50 36 bd dc d1 c6 3c c2 36 8d bd 9d 93 4b 3d
       -0.04451066 0.02426999 -0.0689521 0.049701322
000070 2c 69 84 3d bf ae 35 bd f9 7a 07 3d 9d d0 1e bd
       0.064653724 -0.044356104 0.03307626 -0.038773168
000080 b4 fd e2 bc 3c 58 22 be d3 97 a6 bd 59 aa 34 bd
       -0.027708866 -0.15853971 -0.08134427 -0.04410777
000090 41 5f 0e 3d 87 93 a5 3d de 16 51 bd 60 4b 09 bd
       0.03475881 0.08084779 -0.0510472 -0.03351915
0000a0 6c 79 ac bd d0 49 7f 3d 46 1e d0 bd ce 23 ac bd
       -0.08421597 0.062326252 -0.10162024 -0.08405267
0000b0 ac 91 93 3d bb 1e 24 bd 75 56 f4 bc 61 08 f6 bc
       0.07205519 -0.04006837 -0.029826382 -0.030033292
0000c0 c7 f8 c8 bd 7f 99 8d bd 8f 08 ba 3a 2f 54 c3 3c
       -0.098130755 -0.06914043 0.0014193224 0.023843853
0000d0 a1 1c 25 3d 5c 4d b0 bd 9b e2 d6 3c 8e a1 3a 3b
       0.040310506 -0.08608505 0.0262311 0.0028477642
0000e0 8d 53 75 bc fe fe ed bc 55 75 da bd 36 8c 47 be
       -0.014973533 -0.029052254 -0.106669106 -0.1948708
0000f0 a0 87 4b 3d f7 cb ef bc 52 b8 41 bd 36 c9 d0 bd
       0.04968989 -0.029272063 -0.047294922 -0.10194628
000100 3d 5b a4 bd 7c 69 98 bd af 3d 8b 3d a8 ed 5e bb
       -0.08025215 -0.074419945 0.067988746 -0.0034016166
000110 47 98 a3 bc d8 a1 d1 3c f4 57 ad bd 66 ac 93 bd
       -0.019970072 0.025589868 -0.08464041 -0.07210617
000120 4e 4c c5 bc 39 51 d3 bd 20 eb 4e bd 53 11 db bc
       -0.024084236 -0.10318226 -0.0505172 -0.02674166
000130 bb 4a 8c 3c 4c 88 02 bd 4f 3d 11 be 2d eb bc bd
       0.017125478 -0.031868264 -0.14183544 -0.09224544
000140 e4 6c 89 bd a8 f7 00 3c b0 e4 92 bd 48 56 54 3d
       -0.06710222 0.007871546 -0.07172525 0.051840097
000150 7c 56 5a bc 1f 21 72 bd 35 23 51 bd 67 c5 2b 3b
       -0.013326284 -0.059113618 -0.051058967 0.002621019
000160 58 fd 61 3d fa 65 8a bd df 94 24 bd cb 2b f1 3c
       0.055173248 -0.06757732 -0.040181037 0.029439827
000170 29 c3 b1 3c 51 1e 92 bd b7 d1 84 3d b3 e1 6a bd
       0.021699505 -0.07134689 0.064853124 -0.05734415
000180 1f 1e 17 3c ce 15 60 3d aa 3d 5a bc 5f 78 cc bc
       0.00922349 0.054708295 -0.013320366 -0.024959741
000190 34 5b 65 bd b6 6d 96 3d 66 1f 2f bd 11 81 27 3d
       -0.05599518 0.073451445 -0.042754553 0.04089457
0001a0 ec 2f 90 bd 9f 14 67 bd 49 0a e3 bd b8 8e 41 bd
       -0.0704039 -0.05641615 -0.11085946 -0.047255248
0001b0 63 6a bb 3c 81 a0 96 3d 8c 66 87 3c 7c af cb bd
       0.022877878 0.073548324 0.01652839 -0.0994558
0001c0 73 ea 93 3d 7b ed a2 bd 18 20 bc bd b4 81 13 be
       0.07222452 -0.07955452 -0.09185809 -0.14404947
0001d0 d6 b3 8f 3c 74 fb 9a bd cc 29 68 3d f3 12 54 bb
       0.017541807 -0.07567492 0.056680486 -0.0032359927
0001e0 44 30 a6 bd 00 3b 0f bd d6 27 9e bd 4a 9e 11 bb
       -0.08114675 -0.034968376 -0.07722442 -0.0022219592
0001f0 5b 15 85 bc 46 1d 84 bd 2f 38 3d 3d fb fd 1f bc
       -0.016245535 -0.06450896 0.04619616 -0.0097651435
000200 75 18 30 bd c2 2b 19 3d d7 db 92 bd 6e d2 29 3d
       -0.042992074 0.037395246 -0.071708374 0.041460447
000210 77 15 b7 3c aa 3f af 3d bf 9c 7a 3d 0c ea d0 3b
       0.022349102 0.08557065 0.06118464 0.006375557
000220 a4 a3 a8 bd ac 73 e3 bc ed 51 7f bd 1a 7b b7 bd
       -0.08234337 -0.027765118 -0.06233399 -0.08959027
000230 92 35 f6 3c 0e 1f 21 bd f7 59 4a bc c9 55 19 bd
       0.030054841 -0.039336257 -0.012350551 -0.037435327
000240 a9 76 14 be 44 52 22 bd 3c d4 f8 bd 64 38 07 bd
       -0.1449839 -0.039629236 -0.121498555 -0.033012763
000250 b7 10 cf 3c 14 c4 b3 bc 7f 83 93 bc c1 c6 90 3d
       0.025276525 -0.021944083 -0.018007038 0.07069159
000260 a3 15 4f bd 2f 33 cb 39 48 64 1d 3d 2e e8 55 3d
       -0.050557744 0.00038757312 0.038425714 0.052223377
000270 97 0c 75 bc 0a 98 b4 bc a0 9e 80 3d 89 04 13 bc
       -0.014956615 -0.022045154 0.06280255 -0.008973249
000280 2b 5d fb 3c 4f cd 24 be 3f ec 9f bc f5 d8 46 bc
       0.030684074 -0.16093944 -0.01952183 -0.0121366875
000290 80 85 0f bd 40 08 16 bd 66 e4 9d bd 66 01 3e 3c
       -0.035039425 -0.03662896 -0.07709579 0.011597013
0002a0 e5 f6 af bd 30 c5 45 3d c1 e7 55 bc 8d 86 ed bd
       -0.08592013 0.048283756 -0.013055743 -0.11597929
0002b0 26 77 4d 3c 34 e8 45 bc 5c 93 2a be f9 6c 0f bd
       0.012540614 -0.012079287 -0.16657776 -0.035016034
0002c0 49 86 fc bd 58 02 73 3d 72 36 2a 3d e2 c0 70 bc
       -0.123303 0.059328407 0.04155583 -0.014694424
0002d0 10 05 d9 bc 07 4a 67 3d 45 79 09 3c 35 e0 31 bd
       -0.026491672 0.056467082 0.008390729 -0.04342671
0002e0 07 87 40 bd 7c bc 77 3d 8f ed 62 3d 85 1d 21 be
       -0.047003772 0.060482487 0.055402335 -0.15733917
0002f0 34 36 18 3d 21 d4 b1 3b 82 21 9f bd ed 9b 0d bc
       0.037161067 0.005426899 -0.07770063 -0.008643133
000300 34 7d 99 bd 59 86 af 3d a0 9f 9d 3d ce 98 fe 3c
       -0.07494584 0.08570547 0.07696462 0.031078722
000310 2e e8 5c 3d e4 bc 50 3d e9 fd ea bd fa a6 12 bd
       0.05393236 0.05096139 -0.11474211 -0.035803773
000320 53 18 75 bd c5 0d 9d bd ac 35 29 3b 22 e4 43 bc
       -0.05983765 -0.07668642 0.0025819344 -0.011956247
000330 5f b9 b2 bd 25 f9 df bc 02 49 12 be 0d b2 82 bd
       -0.08726763 -0.027340481 -0.14285663 -0.06381617
000340 64 38 df bd 20 ad 90 3c cb 70 94 3c 19 c8 66 3d
       -0.108994275 0.017660677 0.01812019 0.05634317
000350 f5 d2 9d bd 3c c7 e3 bd 63 3c 49 bd f6 e9 39 3d
       -0.077062525 -0.11121985 -0.049129855 0.04538914
000360 c9 9c f1 bc 1b 8c 59 bd 02 17 45 bc 4e df 26 bd
       -0.029493706 -0.05311213 -0.012029411 -0.040740304
000370 21 32 84 3a ec a4 8f bd 8b 3d 92 bd 7c 6d 17 bd
       0.001008574 -0.07013878 -0.07140645 -0.036969647
000380 db 22 6c bd c3 fb 72 3c 58 93 ed bc 1e a0 0e 3d
       -0.05765043 0.0148305325 -0.029000923 0.03482067
000390 10 95 fb 3c 17 37 6b 3c 71 93 4f bd 80 7e 5e bd
       0.030710727 0.014356396 -0.05067772 -0.05431986
0003a0 08 9d ba bd f2 50 7d bd ea a5 ea bd a0 0a c7 bd
       -0.091119826 -0.061844774 -0.11457427 -0.097188234
0003b0 6b d5 8f bd ce 30 58 bd 8d b7 49 3d 65 5c af bd
       -0.07023128 -0.05278092 0.049247313 -0.08562545
0003c0 25 aa 06 3d 2f 1c 40 bd 3b b8 4d bd 87 6e 30 be
       0.032877106 -0.046901878 -0.050224524 -0.17229663
0003d0 7c 63 84 3d 32 5c 91 bd bc 2a b5 3c 40 19 b3 3d
       0.06464288 -0.07097663 0.022115104 0.087450504
0003e0 38 14 00 bd 9f e9 b0 bd d1 3a a3 bc ce d0 d3 bc
       -0.031269282 -0.0863831 -0.019925507 -0.025856402
0003f0 f7 53 10 bd 2b c0 21 bd 23 6b 72 bc 35 3c 1f 3d
       -0.035236325 -0.039489906 -0.014796051 0.038875777

4.bias f4 [8]
000000 b8 6d 12 be 73 1a e1 bd 7d eb 22 bd d1 83 ce bd
       -0.14299667 -0.10991373 -0.03977536 -0.10083736
000010 dd a0 2c be 51 7f d5 bc 80 bf 12 be 58 60 97 bd
       -0.1685824 -0.026061686 -0.14330864 -0.07391423
