ddqn/service-rate/final_dqn_model.pth (torch, 75928 bytes, 6 tensors)

0.weight f4 [128, 5]
0.25237182 -0.20946114 0.0684662 -0.13995238 -0.080846764 -0.061554957 0.2924019 -0.14791422
-0.07051788 -0.4202694 0.29354444 -0.20908165 0.4199295 0.0085144555 0.25836307 -0.13514824
-0.5741012 0.13374057 0.16754395 -0.12329498 0.44323432 0.7321519 0.14174664 -0.2666129
-0.09505964 -0.3875873 -0.25793684 0.18362066 0.22282447 -0.522926 -0.44262725 0.37337673
-0.18428859 -0.3266931 -0.3359054 -0.41392124 0.47210157 -0.21257168 -0.1369728 -0.03374934
0.18297365 -0.2873957 -0.33355376 0.442313 0.07385708 0.43409324 0.26958004 -0.41818732
0.19579823 0.14071071 -0.3153289 -0.23859224 -0.00072099245 -0.19673952 -0.39014673 -0.2862687
-0.6006344 0.15569127 -0.44983903 0.25466737 0.20503774 -0.18338951 0.15685317 -0.39632043
0.30006948 0.07809821 -0.3060364 -0.027787475 0.13932405 0.06560704 -0.18093826 0.08955986
0.32015496 -0.24027425 0.37300768 -0.36782348 -0.11543877 -0.02013367 -0.053827465 -0.25499704
0.13626002 -0.2826014 0.258507 -0.2752149 -0.515729 -0.34167802 0.040535152 -0.3968806
-0.1357245 -0.23936774 -0.39237508 -0.0021860714 0.00031904157 0.09526065 -0.3230127 0.00064960687
-0.18116768 0.39244717 -0.3447767 0.05536175 -0.04611692 0.44765753 0.3430135 0.12129418
0.17689526 0.01751177 -0.66439146 0.32504594 -0.420414 -0.3464321 0.073222615 -0.3352542
-0.13942707 -0.11587782 -0.04328552 -0.028256914 -0.23644935 -0.32582176 -0.44006935 0.05606931
-0.052238416 0.4295187 0.07589739 -0.5173551 0.09275306 -0.35423824 -0.37005526 -0.2087625
-0.31172627 0.09324021 -0.19699301 -0.21428332 -0.30607224 0.20138878 0.13334075 0.1550749
0.047787193 -0.06719745 -0.27086356 0.09313401 0.35672078 0.088411145 -0.12822384 0.1290384
-0.26119673 -0.26322812 0.26258177 -0.37470183 0.10310602 0.29510108 -0.30459404 -0.07540633
-0.40185001 -0.42410386 0.39015305 -0.43391058 -0.63634795 -0.15501691 0.48364487 0.21829234
0.28514805 0.10921744 -0.36577517 -0.44566172 0.22513995 0.3923652 -0.036783904 0.007050407
-0.43738014 -0.28670108 0.078065105 0.09136337 0.1528242 0.16902375 0.41394132 -0.24302025
-0.053054255 -0.0148103265 0.12145947 -0.114678316 -0.1277536 0.04160923 0.13147128 -0.2649988
0.07739868 -0.40775523 0.28177264 -0.019758658 -0.33390525 0.010359004 0.38665646 -0.29094034
0.06482789 -0.25015128 -0.06906118 0.20025784 0.08743673 -0.3360252 0.21255614 0.35966814
0.37223083 0.24570814 -0.04684601 0.0661934 -0.16427438 -0.27905545 0.27760243 0.13790888
0.3085978 -0.27027598 0.23369865 0.37117592 0.030683303 -0.27364177 0.24738348 -0.35331622
-0.69443923 -0.31992942 0.19241549 0.3268931 0.001174517 -0.54114425 0.14695036 -0.11155846
-0.39074934 -0.09705484 0.3499323 -0.06487876 -0.27710626 -0.4935232 0.25026616 0.17879102
0.015534268 -0.33862224 -0.36579373 -0.23701467 -0.018892711 -0.26090062 0.059607312 -0.19294305
-0.23803431 -0.2705386 -0.4252917 0.22133736 0.070906475 0.18944936 0.074847244 -0.38495544
0.20602022 0.40338713 0.1218188 0.06624197 -0.11968647 0.20372666 -0.5150961 -0.26319236
00000000: e136 813e fb7c 56be 0238 8c3d ad4f 0fbe
00000010: fd92 a5bd 0d21 7cbd b4b5 953e d376 17be
00000020: ae6b 90bd 8d2d d7be 754b 963e 8019 56be
00000030: 0001 d73e 3780 0b3c 2a48 843e 4d64 0abe
00000040: 4cf8 12bf 4af3 083e a490 2b3e 1482 fcbd
00000050: 9cef e23e 4f6e 3b3f 0826 113e 7c81 88be
00000060: a1ae c2bd d871 c6be 4c10 84be 0e07 3c3e
00000070: 192c 643e 7ade 05bf 0aa0 e2be 3c2b bf3e
00000080: 26b6 3cbe 5144 a7be cbfb abbe 7ced d3be
00000090: 4cb7 f13e 64ac 59be 9942 0cbe bf3c 0abd
000000a0: 725d 3b3e 8725 93be 8fc7 aabe d976 e23e
000000b0: 6142 973d 7841 de3e 6506 8a3e a61c d6be
000000c0: 557f 483e 7816 103e ca72 a1be 8651 74be
000000d0: fc00 3dba 1676 49be 50c1 c7be d091 92be
000000e0: 2dc3 19bf 886d 1f3e 4d51 e6be c363 823e
000000f0: 6af5 513e 76ca 3bbe 1e9e 203e 83ea cabe
00000100: b5a2 993e f4f1 9f3d ceb0 9cbe 8fa2 e3bc
00000110: f7aa 0e3e fc5c 863d e147 39be 296b b73d
00000120: 5aeb a33e 740a 76be ddfa be3e 5c53 bcbe
00000130: 296b ecbd 5eef a4bc 307a 5cbd f98e 82be
00000140: bf87 0b3e 21b1 90be 085b 843e f8e8 8cbe
00000150: d106 04bf 6cf0 aebe 3008 263d ef33 cbbe
00000160: 5dfb 0abe d11c 75be 63e5 c8be 3144 0fbb
00000170: 0945 a739 0418 c33d ec61 a5be 614a 2a3a
00000180: 0584 39be d6ee c83e 9286 b0be 01c3 623d
00000190: 18e5 3cbd 5e33 e53e 779f af3e 1569 f83d
000001a0: 0824 353e d874 8f3c 8f15 2abf 6c6c a63e
000001b0: 8140 d7be 8c5f b1be bdf5 953d 70a6 abbe
000001c0: f8c5 0ebe 5a51 edbd 284c 31bd 0b7b e7bc
000001d0: c71f 72be 1cd2 a6be c550 e1be efa8 653d
000001e0: f3f7 55bd e0e9 db3e 1770 9b3d 6271 04bf
000001f0: 51f5 bd3d b75e b5be e277 bdbe d6c5 55be
00000200: 969a 9fbe b9f4 be3d 89b8 49be 166d 5bbe
00000210: 80b5 9cbe dc38 4e3e 7a8a 083e f4cb 1e3e
00000220: 81bc 433d d19e 89bd a1ae 8abe 0bbd be3d
00000230: 1ba4 b63e e710 b53d 1c4d 03be a422 043e
00000240: 94bb 85be d6c5 86be 1e71 863e ebd8 bfbe
00000250: 4029 d33d 7d17 973e c0f3 9bbe a26e 9abd
00000260: 49bf cdbe 2424 d9be 24c2 c73e 8729 debe
00000270: b3e7 22bf c1bc 1ebe 4da0 f73e 0788 5f3e
00000280: edfe 913e 65ad df3d e246 bbbe c62d e4be
00000290: 168b 663e 17e4 c83e b8aa 16bd 1a07 e73b
000002a0: 4af0 dfbe 7cca 92be 99e0 9f3d b81c bb3d
000002b0: f27d 1c3e 9014 2d3e 1ef0 d33e 4dda 78be
000002c0: 6b4f 59bd 03a7 72bc bebf f83d 77dc eabd
000002d0: d7d1 02be 716e 2a3d 68a0 063e ecad 87be
000002e0: 3383 9e3d 4bc5 d0be 8144 903e e9dc a1bc
000002f0: a1f5 aabe d0b8 293c d6f7 c53e 22f6 94be
00000300: 7cc4 843d d413 80be f36f 8dbd 6410 4d3e
00000310: 0712 b33d 7f0b acbe 51a8 593e 6c26 b83e
00000320: 0a95 be3e ea9a 7b3e 9ae1 3fbd 6890 873d
00000330: 8b37 28be 5be0 8ebe e821 8e3e fc37 0d3e
00000340: 8800 9e3e 9d61 8abe b34e 6f3e c50a be3e
00000350: 8d5b fb3c c61a 8cbe 1852 7d3e dde5 b4be
00000360: c5c6 31bf cacd a3be 9108 453e 885e a73e
00000370: 40f2 993a 6e88 0abf 287a 163e c378 e4bd
00000380: 4c10 c8be b0c4 c6bd 542a b33e 28df 84bd
00000390: dfe0 8dbe 13af fcbe e322 803e fe14 373e
000003a0: 7183 7e3c e55f adbe 5149 bbbe f9b3 72be
000003b0: e3c4 9abc c494 85be cc26 743d dd92 45be
000003c0: 44bf 73be 0984 8abe d5bf d9be 43a6 623e
000003d0: 6a37 913d 03ff 413e 8349 993d e118 c5be
000003e0: f7f6 523e c288 ce3e 237c f93d dfa9 873d
000003f0: 2e1e f5bd b99d 503e 57dd 03bf 26c1 86be

0.bias f4 [128]
-0.2565347 -0.021259127 -0.3683658 -0.120793626 -0.18462324 -0.011159658 -0.27244467 0.71283984
-0.3036187 -0.35070014 0.40647584 0.2149726 0.47265697 -0.5066131 -0.56234974 0.33022508
-0.26573247 0.26936743 -0.12834045 0.42446432 0.4365391 0.06681374 -0.3479615 -0.30323
-0.3435778 0.16075294 0.014710395 0.5932853 0.21045 -0.24591441 0.29192296 0.35459173
-0.20459999 0.15282716 0.19756544 -0.4187862 0.22214437 -0.3297183 -0.37456962 0.4382324
-0.17012401 0.39736703 0.31996498 0.20699883 -0.01593608 0.16065766 -0.19711104 -0.059284505
-0.028123047 -0.394645 0.27354628 0.12199486 0.5832991 0.022439986 -0.42229635 0.33410197
0.14994633 -0.23636305 -0.3311882 0.025048664 0.27033016 -0.21964204 0.16083845 -0.045275014
-0.43771607 -0.19563116 0.013529203 0.3125772 -0.39123747 0.3369532 -0.54980874 -0.3280745
0.04886894 -0.18905406 -0.4129254 -0.24235173 -0.070488505 0.33175159 -0.21581194 -0.41317403
-0.016683355 -0.2228708 0.05895943 -0.01193704 -0.116921015 -0.28326556 0.12467078 0.27123675
-0.40476635 0.14024463 -0.085901745 -0.39861333 -0.08647371 -0.12129155 -0.24441996 0.38832936
0.58727777 0.4936547 -0.41811982 0.10834376 0.12326753 -0.24971953 -0.18578142 -0.19110012
-0.12115615 -0.23766683 0.31772634 -0.32086095 0.3231845 -0.37350807 -0.49976733 0.33042735
0.26052785 0.5834724 -0.03161131 0.55111986 -0.16842848 -0.05143427 -0.4184365 -0.34894136
0.17566666 0.4049084 0.44547018 -0.24459104 0.0995157 -0.42099157 0.1618473 0.47848254
00000000: 8458 83be 9f27 aebc 719a bcbe a662 f7bd
00000010: e00d 3dbe 00d7 36bc de7d 8bbe ac7c 363f
00000020: e973 9bbe f88e b3be 9a1d d03e c721 5c3e
00000030: 1800 f23e 65b1 01bf 27f6 0fbf 4313 a93e
00000040: 160e 88be 87ea 893e ae6b 03be 6353 d93e
00000050: 0e82 df3e a4d5 883d 0228 b2be f640 9bbe
00000060: 6ee9 afbe 6b9c 243e de03 713c 8ce1 173f
00000070: 3480 573e fdd0 7bbe ed76 953e 0c8d b53e
00000080: a982 51be b97e 1c3e 984e 4a3e 256b d6be
00000090: d079 633e d6d0 a8be 97c7 bfbe ff5f e03e
000000a0: fd34 2ebe b173 cb3e 73d2 a33e 80f7 533e
000000b0: 628c 82bc 7183 243e 7ad7 49be 4fd4 72bd
000000c0: 4e62 e6bc e90e cabe 420e 8c3e 71d8 f93d
000000d0: 1753 153f 10d4 b73c 3a37 d8be 6a0f ab3e
000000e0: 888b 193e 2809 72be 8091 a9be db32 cd3c
000000f0: b768 8a3e d8e9 60be d6b2 243e 4b72 39bd
00000100: 521c e0be 8953 48be 97a9 5d3c 1e0a a03e
00000110: 4750 c8be 2185 ac3e 44c0 0cbf 62f9 a7be
00000120: cc2a 483d 6397 41be f56a d3be 0d2b 78be
00000130: 475c 90bd 58db a93e cefd 5cbe 8c8b d3be
00000140: 88ab 88bc 3e38 64be 717f 713d 9393 43bc
00000150: 4974 efbd 2f08 91be 6553 ff3d 8bdf 8a3e
00000160: 893d cfbe 4a9c 0f3e 41ed afbd 0c17 ccbe
00000170: 2119 b1bd b467 f8bd 3a49 7abe 1bd3 c63e
00000180: d657 163f 4fc0 fc3e cd13 d6be 55e3 dd3d
00000190: b073 fc3d 7ab6 7fbe 7c3d 3ebe c0af 43be
000001a0: b720 f8bd ef5e 73be 07ad a23e e347 a4be
000001b0: 7078 a53e 733c bfbe 81e1 ffbe c62d a93e
000001c0: e863 853e 725e 153f dc7a 01bd 3116 0d3f
000001d0: 8478 2cbe beac 52bd 4f3d d6be 71a8 b2be
000001e0: f6e1 333e 2750 cf3e ab14 e43e 1376 7abe
000001f0: e3ce cb3d 358c d7be 4cbb 253e aafb f43e

2.weight f4 [128, 128]
-0.08417807 0.034358162 -0.10116396 -0.08907423 -0.0015552543 -0.08417938 0.06461395 0.0042494326
-0.021407122 -0.013955939 -0.0030386944 -0.085540794 -0.03617087 0.038540494 -0.0054044966 -0.059996158
-0.08353751 0.08763574 0.06071106 -0.080380306 0.066696286 -0.055787813 0.08354436 0.020587176
0.051480744 0.02795709 0.013900452 0.0021342586 0.07288951 0.037820138 -0.071365215 -0.088044025
-0.07628763 -0.043022458 0.027193964 -0.017969266 0.06457702 0.0032624612 -0.05104863 0.062270906
0.026496533 -0.027562464 0.0052117924 -0.08612661 0.05756051 -0.02106177 -0.024463547 -0.06393904
-9.371352e-05 0.030861165 0.027187685 0.03702798 0.018624026 0.0038828054 -0.00020411718 0.018054044
-0.04048661 -0.020337421 -0.07433214 -0.027940476 0.036418855 0.034061812 0.013637488 0.035152305
-0.03208828 0.013715122 -0.0074664406 -0.05568668 0.036393255 0.055766832 -0.057335865 0.06187808
0.041543316 -0.04563309 -0.04518883 0.023164308 0.066126056 -0.05751453 0.05062637 0.021895371
0.03998874 -0.025310403 0.012647794 -0.054730043 0.04273228 0.045575555 -4.387815e-05 -0.073651545
-0.028464917 -0.026359914 -0.019788405 -0.04761795 -0.051321547 0.05534604 -0.045548666 -0.083398975
-0.07182915 -0.070744336 0.014002637 -0.0559103 0.0012749763 -0.08125969 0.053851757 0.005711077
-0.04321581 0.07543302 0.0048377626 -0.04267678 0.05395863 0.030226532 -0.065811 -0.029296694
0.02300531 -0.0061743194 -0.037893195 0.058524974 0.078657396 -0.08336231 -0.011818081 -0.06694892
-0.058164924 -0.028878434 -0.026109586 0.08058825 -0.0260486 -0.057509944 -0.014618679 0.048913386
0.0034194402 0.018765273 -0.05109029 0.033600435 0.03698526 -0.05909902 -0.070944704 -0.06317992
-0.039452493 -0.05544541 -0.15119742 -0.04780326 -0.07797177 0.02793155 -0.073871754 -0.10885501
-0.08601386 0.05886 0.015133561 -0.107979655 -0.015951522 -0.30711865 0.0568717 0.058643263
0.059376862 0.062952526 -0.07683736 -0.030019747 -0.10718569 -0.06414237 -0.028027728 0.062342927
-0.07542909 0.051080864 -0.0010700276 -0.11656356 -0.13078156 0.01834666 0.039851993 0.09493382
-0.016887883 -0.05172683 0.049129706 0.22448851 -0.082243 -0.11164873 0.004604206 -0.043083962
0.005908082 0.024668908 -0.0430244 -0.0639116 -0.11106644 -0.05207702 -0.05073491 0.031766795
-0.015480474 -0.16043873 -0.03143923 -0.008235213 0.1243329 -0.11583209 -0.13600421 0.08409
-6.761408e-05 0.07996811 -0.03117515 -0.001622477 0.07417023 0.031036202 -0.04702848 -0.115292035
-0.087904476 -0.062312987 -0.026451098 0.04030761 0.021619804 0.17380546 -0.055778697 0.059692856
-0.011024604 0.03462268 -0.111854345 0.070336275 -0.15119897 0.034945913 0.11567634 -0.09603268
0.016465066 -0.074460365 -0.0383344 -0.09414118 -0.09418342 0.08789607 -0.06356937 0.0741335
0.055989493 0.06742963 -0.075168304 0.009718663 -0.11176711 0.00072089257 0.1874463 -0.05171845
-0.011721789 -0.06546499 -0.042241268 -0.20711982 -0.027446171 -0.11100864 -0.13588284 0.0607798
-0.06476085 -0.05213429 0.030842837 0.02754626 -0.03370728 -0.046717126 0.0123923635 0.06764388
0.073816255 -0.041068956 0.02553529 0.021120586 0.004471097 0.029685585 0.0789723 -0.105837196
00000000: 8d65 acbd 25bb 0c3d 0d2f cfbd 8d6c b6bd
00000010: add9 cbba 3d66 acbd 5254 843d d33e 8b3b
00000020: fd5d afbc 73a7 64bc d524 47bb 0330 afbd
00000030: e827 14bd a3dc 1d3d 3418 b1bb 88be 75bd
00000040: b715 abbd 5e7a b33d 29ac 783d 6e9e a4bd
00000050: 1098 883d c381 64bd 4e19 ab3d 70a6 a83c
00000060: 79dd 523d 4406 e53c b9be 633c ebde 0b3b
00000070: 1847 953d 4ae9 1a3d ed27 92bd 6d50 b4bd
00000080: b03c 9cbd 5138 30bd e0c5 de3c 4834 93bc
00000090: f540 843d 04cf 553b 5e18 51bd c70f 7f3d
000000a0: 420f d93c adca e1bc afc7 aa3b 2663 b0bd
000000b0: 92c4 6b3d bc89 acbc c767 c8bc 79f2 82bd
000000c0: 1088 c4b8 8ed0 fc3c b5b8 de3c a7aa 173d
000000d0: 6a91 983c aa76 7e3b 4a08 56b9 13e6 933c
000000e0: 4ad5 25bd aa9a a6bc 733b 98bd 6de3 e4bc
000000f0: f02b 153d 6684 0b3d c56f 5f3c ddfb 0f3d
00000100: 006f 03bd 64b5 603c 0ba9 f4bb b717 64bd
00000110: 1811 153d c36b 643d 03d9 6abd df73 7d3d
00000120: 5329 2a3d c3e9 3abd ec17 39bd 13c3 bd3c
00000130: 196d 873d 5b94 6bbd 995d 4f3d ec5d b33c
00000140: 3ccb 233d c357 cfbc b138 4f3c 9c2c 60bd
00000150: 0b08 2f3d 6fad 3a3d ce09 38b8 9fd6 96bd
00000160: 422f e9bc bff0 d7bc 4b1b a2bc 0a0b 43bd
00000170: 8b36 52bd 87b2 623d 3d91 3abd 15cd aabd
00000180: 291b 93bd 68e2 90bd 516b 653c 3302 65bd
00000190: 1b1d a73a 7b6b a6bd a993 5c3d fc23 bb3b
000001a0: 1003 31bd a17c 9a3d 1886 9e3b d9cd 2ebd
000001b0: b903 5d3d a29d f73c ebc7 86bd 9fff efbc
000001c0: a275 bc3c f251 cabb e535 1bbd e2b7 6f3d
000001d0: 2117 a13d dcb9 aabd a0a0 41bc 841c 89bd
000001e0: 583e 6ebd 7792 ecbc c5e3 d5bc 740b a53d
000001f0: e063 d5bc 8c8f 6bbd 2f83 6fbc 6759 483d
00000200: b018 603b a1b9 993c 0d44 51bd 9ca0 093d
00000210: db7d 173d d011 72bd 754b 91bd 7964 81bd
00000220: f098 21bd ba1a 63bd 7fd3 1abe 5acd 43bd
00000230: aaaf 9fbd b5d0 e43c 134a 97bd 60ef debd
00000240: 0928 b0bd 2f17 713d c1f2 773c 7024 ddbd
00000250: c4ac 82bc a83e 9dbe 4df2 683d eb33 703d
00000260: 2735 733d 41ed 803d e85c 9dbd f9eb f5bc
00000270: 2c84 dbbd 135d 83bd 689a e5bc 4c5b 7f3d
00000280: 917a 9abd 2b3a 513d 2b40 8cba e0b8 eebd
00000290: 9aeb 05be bc4b 963c d83b 233d aa6c c23d
000002a0: 7558 8abc 83df 53bd 3b3c 493d 51e0 653e
000002b0: 056f a8bd 17a8 e4bd e1de 963b cf78 30bd
000002c0: 9598 c13b 7316 ca3c 5a3a 30bd 16e4 82bd
000002d0: cd76 e3bd b74e 55bd 69cf 4fbd e61d 023d
000002e0: d0a1 7dbc 0d4a 24be 6cc6 00bd fdec 06bc
000002f0: 3fa2 fe3d 6039 edbd b044 0bbe 6137 ac3d
00000300: 08cc 8db8 52c6 a33d 0763 ffbc 4ba9 d4ba
00000310: 90e6 973d a23f fe3c efa0 40bd 3b1e ecbd
00000320: 4307 b4bd e73b 7fbd f9af d8bc 9819 253d
00000330: 041c b13c 0ffa 313e 3478 64bd 7f80 743d
00000340: 8aa0 34bc 83d0 0d3d e413 e5bd 770c 903d
00000350: e7d3 1abe 7223 0f3d b8e7 ec3d c8ac c4bd
00000360: bfe1 863c ad7e 98bd 8804 1dbd 17cd c0bd
00000370: 3de3 c0bd db02 b43d a830 82bd 4ed3 973d
00000380: 3d55 653d 8c18 8a3d d7f1 99bd 073b 1f3c
00000390: 28e6 e4bd 48fa 3c3a ecf1 3f3e bad6 53bd
000003a0: bf0c 40bc 8212 86bd 2e05 2dbd 3817 54be
000003b0: cbd6 e0bc 7f58 e3bd df24 0bbe 3df4 783d
000003c0: 56a1 84bd c48a 55bd 1eaa fc3c b2a8 e13c
000003d0: a510 0abd 755a 3fbd 5709 4b3c e088 8a3d
000003e0: fa2c 973d ec37 28bd 622f d13c 1405 ad3c
000003f0: 4882 923b 2f2f f33c 3bbc a13d 2cc1 d8bd

2.bias f4 [128]
-0.041953452 -0.03998756 -0.070390664 0.007299361 0.0205034 -0.07235616 -0.09280653 0.22822727
0.17418548 -0.022787595 -0.027223414 -0.06644211 0.0045500896 -0.05101969 -0.10126901 -0.039695334
-0.0518254 -0.02520993 0.094358 -0.08566999 0.029576538 0.07291245 0.020013433 0.101255365
0.0015637007 -0.052276686 0.024389397 0.28552824 -0.030827047 0.0020403315 0.12822895 -0.027716892
-0.09257546 0.00740501 -0.043007765 -0.104826085 -0.06554142 0.015710786 -0.06904418 0.28204218
0.03589326 -0.05961362 0.05634539 0.044990998 0.026037987 -0.01834456 -0.07142946 5.0183702e-05
-0.06509854 0.069716856 0.043502543 0.017881213 0.008707764 0.024666153 -0.08653618 -0.013983576
0.1304213 0.06715366 0.08737769 -0.05614812 0.023870837 -0.094864726 0.011418214 0.042294182
-0.062482137 -0.07559807 -0.07419684 0.10045816 0.062753074 -0.08600995 -0.04938885 -0.039449874
-0.088577986 -0.015453714 -0.057064526 0.12793346 0.016943766 -0.11386871 -0.054835137 0.030036988
-0.0503642 0.0014622271 0.10839327 0.014661376 -0.023557486 0.1487418 0.017881993 0.002782672
-0.014960188 -0.053740095 -0.08049934 0.035332207 -0.056776226 -0.07659014 0.14868154 -0.09426606
0.012951566 -0.06510127 0.07909941 0.2476081 -0.021695217 0.15743922 0.15566684 0.07131766
-0.007640125 0.13837431 0.015257434 -0.004903712 -0.08291779 -0.040631417 -0.115858026 -0.09701141
0.25842348 -0.02808711 -0.014660427 -0.041051414 -0.089388125 -0.037695806 -0.087399945 -0.060048785
0.056101274 0.017352697 0.18267673 -0.06718693 0.040529683 0.15642105 0.09560498 -0.043871656
00000000: 62d7 2bbd ffc9 23bd fb28 90bd 7a2f ef3b
00000010: bff6 a73c 772f 94bd 5a11 bebd 69b4 693e
00000020: ae5d 323e 0dad babc a303 dfbc cd12 88bd
00000030: eb18 953b 06fa 50bd 2066 cfbd 9397 22bd
00000040: df46 54bd 0e85 cebc c43e c13d bf73 afbd
00000050: 7f4a f23c 1f53 953d 36f3 a33c f95e cf3d
00000060: 17f5 cc3a 1420 56bd 46cc c73c c230 923e
00000070: 0189 fcbc 15b7 053b 734e 033e 890e e3bc
00000080: 3498 bdbd baa5 f23b e928 30bd 0faf d6bd
00000090: 943a 86bd e8b3 803c 0967 8dbd d567 903e
000000a0: d004 133d 692d 74bd 6cca 663d 7b48 383d
000000b0: 9e4d d53c 5547 96bc 9c49 92bd 577c 5238
000000c0: 6252 85bd b6c7 8e3d b92f 323d 9f7b 923c
000000d0: 02ab 0e3c ac10 ca3c e139 b1bd 5e1b 65bc
000000e0: 298d 053e dc87 893d 13f3 b23d 92fb 65bd
000000f0: c68c c33c 7048 c2bd 7613 3b3c aa3c 2d3d
00000100: 45ed 7fbd 29d3 9abd 83f4 97bd 02bd cd3d
00000110: af84 803d fc25 b0bd f64b 4abd 3196 21bd
00000120: 6068 b5bd 9331 7dbc 7ebc 69bd fd00 033e
00000130: a7cd 8a3c 0034 e9bd cf9a 60bd 2110 f63c
00000140: b14a 4ebd 33a8 bf3a 4afd dd3d 4536 703c
00000150: a1fb c0bc c54f 183e 427d 923c 7d5d 363b
00000160: 941b 75bc 931e 5cbd d7dc a4bd 81b8 103d
00000170: 308e 68bd 4bdb 9cbd f93f 183e 900e c1bd
00000180: ce32 543c d153 85bd dffe a13d fa8c 7d3e
00000190: 2bba b1bc bf37 213e 2167 1f3e fe0e 923d
000001a0: 045a fabb ffb1 0d3e 51fa 793c 51af a0bb
000001b0: cdd0 a9bd 216d 26bd f946 edbd ebad c6bd
000001c0: 1550 843e f016 e6bc 4a32 70bc 8725 28bd
000001d0: 1f11 b7bd eb66 1abd befe b2bd b7f5 75bd
000001e0: 73ca 653d 3e27 8e3c 9c0f 3b3e 4d99 89bd
000001f0: 7402 263d d72c 203e 8bcc c33d c4b2 33bd

4.weight f4 [8, 128]
0.013853853 -0.03825641 -0.072000094 -0.09763004 0.046594623 -0.07964918 -0.08264363 -0.06123543
0.016180716 -0.070229694 -0.016608527 -0.09601734 0.07352603 0.07706591 0.07060799 0.011382104
-0.0018061756 0.08013006 -0.009691084 -0.0648439 -0.06663573 -0.10127854 -0.055304233 -0.10563688
-0.014601628 -0.07175885 -0.051268384 -0.15184097 0.068362825 -0.07058829 -0.14613634 0.035382625
0.03798672 -0.080676265 0.044706285 0.012827416 -0.051830485 0.061910726 0.008589076 -0.15696986
-0.19944076 -0.079644024 0.0021334016 -0.11970228 0.052351043 -0.12101596 0.028378947 -0.050394073
0.002400232 0.04883125 -0.017043564 -0.19823337 0.041121677 0.06769236 0.014821686 -0.052425127
0.20960495 -0.058700923 -0.081603006 0.023862235 0.08241637 -0.059720926 0.046206035 0.065790474
-0.009198208 0.016973274 -0.07092306 -0.047726024 -0.11200218 0.061949875 -0.06803611 -0.046433073
-0.022014339 -0.07204669 0.06795232 0.0455646 0.005324332 -0.014393528 -0.022361286 0.017902864
0.06956831 -0.081663564 -0.11924794 -0.06365792 0.01946374 -0.06453462 -0.041383214 -0.051494345
-0.028918996 0.005470795 -0.14023548 0.0040979893 0.07757812 -0.009302585 -0.0064929347 -0.032071255
0.05367043 0.008924543 0.08441731 -0.14878146 0.0777942 -0.12662874 -0.10210922 0.015452751
-0.21174957 -0.062233098 -0.06453912 -0.028896553 -0.038266093 0.08534499 0.051730137 0.04449408
-0.051610205 -0.027761128 -0.04045673 0.0029657881 -0.023939641 -0.019144753 0.08401807 -0.06396122
0.03460949 0.07505462 -0.17572995 0.00024954096 0.06445856 -0.07434551 -0.15226687 -0.0071438192
0.03801681 0.1885089 0.08736877 0.047670994 0.07043455 -0.08976292 0.0672857 -0.046851087
-0.19254641 -0.052307338 0.052627966 0.04894794 0.06845482 -0.034187194 -0.023533704 -0.0441815
0.08795569 0.06178984 -0.045880146 -0.01222645 0.06298271 -0.055290107 0.0038861632 -0.18513076
-0.07320994 -0.005138449 -0.07540002 -0.14966945 0.0042855907 0.07492235 -0.105013125 -0.057203922
0.022424897 -0.06381109 0.06504887 0.027722701 0.052227397 -0.020839004 -0.03123547 -0.17264262
0.022423172 0.0495354 0.060732126 0.012210587 -0.056704346 0.012071242 -0.08559375 0.017728025
-0.08240319 0.044514067 -0.08434661 -0.0683901 -0.052635573 0.15932503 0.06526248 -0.022834087
0.01648515 0.041531328 -0.1395048 -0.012866855 0.075186096 0.07942409 -0.01244177 -0.05927522
0.06175248 -0.020050557 -0.015311865 -0.12315674 -0.15483057 -0.04310582 -0.0444149 -0.035843305
-0.0021609594 0.05607339 -0.02071751 -0.12809926 0.043986022 0.059139766 0.01868448 -0.026194861
0.030832527 0.13848728 -0.16335104 -0.01880579 0.08460113 -0.123710066 -0.024875933 -0.07129
0.012810355 -0.048456926 0.077233076 0.06804937 -0.041173782 -0.038876988 -0.050931193 -0.018652862
0.04014001 -0.07480984 0.07728945 -0.13356592 -0.026711123 -0.076340206 -0.15964884 0.075200774
-0.059724867 -0.18024808 0.0610746 0.03061408 -0.0074039246 -0.036151987 0.015302147 -0.088302374
-0.072935656 -0.011946061 0.0029047248 0.009628934 0.042953987 0.012519405 0.032838307 0.029472733
0.047281966 -0.010885679 -0.1399493 -0.07238757 0.04766329 -0.20541562 0.03642839 0.025495816
00000000: 45fb 623c c1b2 1cbd c974 93bd 42f2 c7bd
00000010: 01da 3e3d 1c1f a3bd 1041 a9bd 01d2 7abd
00000020: 6c8d 843c 96d4 8fbd 9b0e 88bc bda4 c4bd
00000030: d194 963d bbd4 9d3d ec9a 903d 017c 3a3c
00000040: 32bd ecba 3b1b a43d 5ac7 1ebc e1cc 84bd
00000050: 5078 88bd 206b cfbd b186 62bd 2658 d8bd
00000060: ab3b 6fbc 4ef6 92bd ccfe 51bd 337c 1bbe
00000070: cf01 8c3d 9890 90bd c4a4 15be 5fed 103d
00000080: f797 1b3d 9939 a5bd f01d 373d 152a 523c
00000090: 344c 54bd 1a96 7d3d 32b9 0c3c b5bc 20be
000000a0: 333a 4cbe 681c a3bd 8ad0 0b3b 7826 f5bd
000000b0: 0c6e 563d 37d7 f7bd f77a e83c 046a 4ebd
000000c0: 364d 1d3b 4703 483d f29e 8bbc b0fd 4abe
000000d0: 346f 283d 4ba2 8a3d a8d6 723c bbbb 56bd
000000e0: aea2 563e 6170 70bd 7a1f a7bd bc7a c33c
000000f0: eac9 a83d ee9d 74bd 8a42 3d3d 28bd 863d
00000100: 15b4 16bc 890b 8b3c 1c40 91bd 5d7c 43bd
00000110: 6661 e5bd 27bf 7d3d 8456 8bbd 9b30 3ebd
00000120: 6a57 b4bc 378d 93bd 962a 8b3d f2a1 3a3d
00000130: bc77 ae3b d5d2 6bbc 042f b7bc 07a9 923c
00000140: d579 8e3d 3a3f a7bd 4438 f4bd 155f 82bd
00000150: 6c72 9f3c ba2a 84bd 7281 29bd bceb 52bd
00000160: 88e7 ecbc 5b44 b33b e499 0fbe 6d48 863b
00000170: 47e1 9e3d df69 18bc afc2 d4bb 265d 03bd
00000180: 86d5 5b3d 3f38 123c fce2 ac3d 2b5a 18be
00000190: 9152 9f3d f7aa 01be a41e d1bd 892d 7d3c
000001a0: e1d4 58be 22e8 7ebd 162d 84bd 77b8 ecbc
000001b0: e8bc 1cbd 5bc9 ae3d fbe2 533d 6d3f 363d
000001c0: 3965 53bd 4e6b e3bc f5b5 25bd ab5d 423b
000001d0: 111d c4bc 75d5 9cbc aa11 ac3d 1afe 82bd
000001e0: aec2 0d3d 3db6 993d 8df2 33be d2d4 8239
000001f0: d902 843d 7542 98bd d9eb 1bbe b316 eabb
00000200: 84b7 1b3d 7a08 413e 66ee b23d a942 433d
00000210: fd3f 903d 9fd5 b7bd 16cd 893d ede6 3fbd
00000220: e32a 45be 3840 56bd 6c90 573d a37d 483d
00000230: 0a32 8c3d df07 0cbd c1c9 c0bc a9f7 34bd
00000240: 1d22 b43d 5817 7d3d d2ec 3bbd 7351 48bc
00000250: 14fd 803d e177 62bd 00af 7e3b eb92 3dbe
00000260: 18ef 95bd 6f60 a8bb 536b 9abd f342 19be
00000270: 246e 8c3b e470 993d 1f11 d7bd a94e 6abd
00000280: 6bb4 b73c 64af 82bd 5838 853d b81a e33c
00000290: 65ec 553d 8fb6 aabc 87e1 ffbc 3ac9 30be
000002a0: cdb0 b73c a2e5 4a3d 40c2 783d ea0e 483c
000002b0: d142 68bd 75c6 453c c74b afbd 5d3a 913c
000002c0: 01c3 a8bd 6254 363d eabd acbd 1c10 8cbd
000002d0: 6698 57bd 1a26 233e 56a8 853d 8d0e bbbc
000002e0: de0b 873c c11c 2a3d 59da 0ebe 80cf 52bc
000002f0: 2bfb 993d 19a9 a23d 91d8 4bbc 93ca 72bd
00000300: 2bf0 7c3d 1141 a4bc 9ede 7abc 9a39 fcbd
00000310: e88b 1ebe ba8f 30bd 66ec 35bd 6ed0 12bd
00000320: e29e 0dbb 36ad 653d c4b7 a9bc 742c 03be
00000330: b02a 343d 8a3c 723d 3210 993c 9b96 d6bc
00000340: 7f94 fc3c 9ccf 0d3e 7f45 27be 9a0e 9abc
00000350: 5b43 ad3d b45b fdbd 9dc8 cbbc 7e00 92bd
00000360: 86e2 513c c57a 46bd 602c 9e3d 785d 8b3d
00000370: d7a5 28bd 7a3d 1fbd 3a9d 50bd e3cd 98bc
00000380: da69 243d e735 99bd ee49 9e3d 81c5 08be
00000390: 49d1 dabc 4158 9cbd fc7a 23be dd02 9a3d
000003a0: 10a2 74bd f492 38be 5c29 7a3d 61ca fa3c
000003b0: 9f9c f2bb 1b14 14bd dbb5 7a3c e0d7 b4bd
000003c0: 4a5f 95bd 69b9 43bc 325d 3e3b adc2 1d3c
000003d0: 85f0 2f3d 311e 4d3c 7681 063d cd70 f13c
000003e0: bcaa 413d d959 32bc df4e 0fbe ef3f 94bd
000003f0: 953a 433d 7958 52be ef35 153d 9adc d03c

4.bias f4 [8]
-0.23619957 -0.17049628 -0.2230445 -0.15297742 -0.14106488 -0.072398074 -0.26416758 -0.20915109
00000000: 4dde 71be 9496 2ebe c765 64be 1da6 1cbe
00000010: 5073 10be 7145 94bd f940 87be b42b 56be
