ddqn/service-rate/final_double_dqn_model.pth (torch, 76062 bytes, 6 tensors)

0.weight f4 [128, 5]
0	0xbcddde96	-0.027083676
1	0x3ec5cc6a	0.38632518
2	0xbde64498	-0.11243552
3	0xbd28c5f4	-0.041204408
4	0xbec4314f	-0.3831887
5	0xbe9dfaf3	-0.30855522
6	0xbec17696	-0.37785786
7	0xbdbb34ab	-0.09140905
8	0xbe227317	-0.15864216
9	0x3e7ad978	0.2449702
10	0xbe11d24d	-0.1424038
11	0x3e6af812	0.22946194
12	0xbd735b68	-0.059413344
13	0x3da1f3e2	0.07907845
14	0x3d3650cb	0.044510644
15	0x3e4a93ac	0.19782895
16	0xbf00c8e9	-0.50306565
17	0xbb60c310	-0.0034295954
18	0xbdaa56ba	-0.08317323
19	0x3ecb6e49	0.39732578
20	0x3eb0b5c6	0.34513682
21	0x3ec1c502	0.37845618
22	0xbe931ae2	-0.28731447
23	0x3dbba071	0.09161461
24	0x3d617d67	0.055051234
25	0xbce67e25	-0.028136322
26	0xbe00d3f8	-0.1258086
27	0x3e07697a	0.1322383
28	0xbda29571	-0.0793866
29	0x3bfece43	0.007776053
30	0xbe9c0706	-0.30474108
31	0x3e8afa22	0.2714396
32	0xbe45ec6e	-0.19328472
33	0xbc0265ee	-0.007958872
34	0xbe85530e	-0.26039928
35	0x3ec73538	0.3890779
36	0x3eae51f1	0.3404689
37	0x3e3cce7f	0.18438147
38	0xbece4faf	-0.4029517
39	0xbba33223	-0.004980342
40	0xbeb7008d	-0.35742608
41	0x3e9e8232	0.30958706
42	0x3d38dc12	0.04513175
43	0xbebf1e69	-0.3732789
44	0xbec94028	-0.3930676
45	0xbeb1b29c	-0.3470658
46	0x3d215c04	0.039394394
47	0x3d8a8c6b	0.06765064
48	0xbdbb175f	-0.09135317
49	0x3e83e66b	0.25761732
50	0x3d781d69	0.060574923
51	0xbd69f693	-0.057119917
52	0x3d0eca0a	0.03486065
53	0xbe9cf41a	-0.30654985
54	0xbdf31fa4	-0.11871269
55	0x3eb7edb7	0.3592355
56	0x3eab82e1	0.3349829
57	0xbe8ce8b0	-0.27521276
58	0xbea60ef3	-0.3243328
59	0xbe95665b	-0.29179654
60	0x3e6c018d	0.23047467
61	0x3daf44af	0.08558022
62	0xbda5041a	-0.08057423
63	0x3df2a01d	0.118469454
64	0xbe7e1eda	-0.24816456
65	0x3ea811f2	0.3282619
66	0xbe2b4719	-0.1672634
67	0xbe490c18	-0.1963352
68	0xbe8697ec	-0.26287782
69	0x3e830337	0.2558839
70	0xbebd1a97	-0.3693435
71	0xbe4c515b	-0.1995291
72	0x3e6287ca	0.22122112
73	0x3e9b3083	0.3031045
74	0x3e982a7a	0.29719907
75	0x3ea04976	0.31306046
76	0x3e8de1a0	0.277112
77	0xbec38790	-0.38189363
78	0xbec1c9fc	-0.37849414
79	0x3d976b69	0.07393534
80	0x3e84cdd4	0.25938284
81	0x3e08a619	0.13344611
82	0xbd026eba	-0.03184388
83	0xbd06bdb8	-0.032895774
84	0xbe194590	-0.14967942
85	0x3e7db417	0.2477573
86	0xbe904e36	-0.2818467
87	0xbeb5cee0	-0.35509396
88	0x3e8553a1	0.26040366
89	0x3edb2d4c	0.42807996
90	0x3e059856	0.13046393
91	0x3e59aa67	0.2125641
92	0x3de62674	0.11237803
93	0xbdbb0636	-0.09132044
94	0x3e5e6fb9	0.21722306
95	0xbe14e3f9	-0.1454009
96	0x3d990458	0.07471532
97	0xbe86f26a	-0.26356822
98	0x3e816509	0.25272396
99	0x3e0de61b	0.1385731
100	0xbec93d0b	-0.39304385
101	0x3e8e4d59	0.27793387
102	0xbec0be27	-0.37645075
103	0x3e6f3f17	0.2336391
104	0xbe93fbd0	-0.28903055
105	0xbe05fcdd	-0.13084741
106	0xbe34c07a	-0.17651549
107	0xbdfda731	-0.12385405
108	0x3d86b3cd	0.06577263
109	0xbe9e0d46	-0.30869502
110	0xbe19433c	-0.14967054
111	0xbebd40d0	-0.3696351
112	0xbe9f74fc	-0.3114394
113	0x3ead59a2	0.33857447
114	0x3e0846b3	0.1330822
115	0x3ea799e3	0.32734594
116	0x3ee0190d	0.43769112
117	0xbdd6973d	-0.10478065
118	0xbd8b7c6e	-0.068108425
119	0xbe8765e6	-0.2644493
120	0xbe37be80	-0.17943764
121	0xbe3b9257	-0.18317543
122	0x3e380219	0.1796955
123	0xbe209efc	-0.15685648
124	0xbf0d43a3	-0.5518133
125	0x3d9a8383	0.07544615
126	0xbe14841f	-0.14503525
127	0xbe5475dc	-0.20748085
128	0x3e8908dd	0.26764575
129	0x3d2168cc	0.039406583
130	0x3e425415	0.18977387
131	0xbe97a884	-0.29620755
132	0x3e8ba9b1	0.27277902
133	0xbf0a9253	-0.54129523
134	0xbee9d1c1	-0.45667842
135	0xbe020e65	-0.12700804
136	0xbcc6df5b	-0.024276426
137	0xbe484a97	-0.19559704
138	0xbed26b28	-0.4109738
139	0x3e905ccf	0.28195807
140	0xbe8d7bb8	-0.27633452
141	0x3e8ab34e	0.27089924
142	0xbef33326	-0.4749996
143	0x3dcd9428	0.10038024
144	0x3e05a6ef	0.13051961
145	0x3e9e15e0	0.30876064
146	0x3e2f6dc6	0.17131719
147	0x3eb23232	0.3480392
148	0xbed95b55	-0.42452493
149	0xbee80e6b	-0.453235
150	0x3dfff52d	0.124979354
151	0xbd7db8dc	-0.061943874
152	0xbe362b7c	-0.17790025
153	0x3e02f330	0.12788081
154	0xbedad337	-0.4273927
155	0x3e8fb226	0.28065604
156	0xbf0502dd	-0.51957494
157	0x3e051cfb	0.12999336
158	0xbe7df339	-0.24799813
159	0xbe3999aa	-0.18125024
160	0xbe688dcd	-0.22710343
161	0x3eabe3f7	0.3357236
162	0xbdc1775e	-0.094465956
163	0xbe8e1232	-0.27748257
164	0x3e834e74	0.25645792
165	0x3d5b63ef	0.0535621
166	0xbf0fd804	-0.5618899
167	0xbe0e7fe2	-0.13915971
168	0xbd4e08c5	-0.050301332
169	0x3e4fd690	0.20296693
170	0x3ea00766	0.31255645
171	0xbdc413de	-0.09574102
172	0xbe03a69e	-0.12856528
173	0xbe5d183b	-0.21591274
174	0xbea987ab	-0.3311132
175	0xbe011f95	-0.12609704
176	0x3e100516	0.1406444
177	0xbecbd404	-0.39810193
178	0x3d35ea24	0.044412747
179	0x3ee3b889	0.44476727
180	0x3e97d65c	0.2965573
181	0x3e138a0d	0.14408131
182	0xbed4bac7	-0.4154875
183	0x3e8de8ef	0.27716777
184	0x3ec7826f	0.389667
185	0x3e8cea65	0.2752258
186	0xbe762e60	-0.24041128
187	0x3eeb37de	0.4594106
188	0x3e5afa4d	0.21384545
189	0xbe9bb139	-0.30408648
190	0xbe3f4a6b	-0.18680732
191	0xbe83ece8	-0.25766683
192	0x3cfb8b3c	0.03070604
193	0x3e9e720d	0.3094639
194	0x3e6bdb30	0.23032832
195	0x3e831e88	0.2560923
196	0x3e971974	0.29511607
197	0xbdaa2d09	-0.08309371
198	0x3e047dc9	0.12938608
199	0xbe5938c5	-0.21213062
200	0xbe52a10f	-0.20569251
201	0xbce589a1	-0.028019728
202	0xbe8c4ec5	-0.27403846
203	0xbe33f347	-0.17573272
204	0xbbd61a7f	-0.0065339203
205	0x3c853dfd	0.01626491
206	0xbe9a25b6	-0.30106896
207	0x3e59d999	0.21274413
208	0xbf022070	-0.50830746
209	0xbef7e466	-0.48416442
210	0x3e7ba0e2	0.2457309
211	0x3d91c408	0.07117468
212	0xbe96b6b4	-0.29436266
213	0xbd964713	-0.07337775
214	0xbea4883a	-0.32135183
215	0xbeca2d8d	-0.39487877
216	0x3dd5dbf2	0.10442342
217	0xbe9dd02e	-0.3082289
218	0x3ec03b10	0.3754506
219	0xbdbd9aea	-0.09258063
220	0x3de9fb74	0.11424914
221	0xbe7be9dd	-0.2460093
222	0xbda7e2be	-0.081975445
223	0x3d089eec	0.033354685
224	0x3e707f6f	0.23486112
225	0x3e797c60	0.24363852
226	0x3e82e705	0.2556688
227	0x3d1eb505	0.038746852
228	0xbe1849ea	-0.14871946
229	0x3e2491d0	0.16071248
230	0xbd981a78	-0.074269235
231	0xbe34ffb0	-0.17675662
232	0xbe8aac3f	-0.27084538
233	0xbedc3d8a	-0.430157
234	0xbe9a009e	-0.30078596
235	0xbeb0cdab	-0.34531912
236	0x3dd7a325	0.10529164
237	0x3d700ce2	0.058606036
238	0xbe97aae9	-0.29622582
239	0x3e8e8b15	0.27840486
240	0x3d97d85d	0.07414315
241	0x3cbce9fc	0.023060791
242	0xbe165533	-0.14680938
243	0xbc9328cb	-0.017963788
244	0x3e1d56f1	0.15365197
245	0x3e945eb9	0.28978518
246	0x3ec0a695	0.37627092
247	0xbec77345	-0.3895513
248	0xbeaa4627	-0.33256647
249	0xbe565b1f	-0.20933197
250	0xbdf61e3f	-0.12017488
251	0x3e6a8d22	0.229054
252	0xbd7af6d1	-0.06127054
253	0xbeb398be	-0.3507747
254	0xbd0ddc98	-0.034634203
255	0x3e1c9e6b	0.15294807

0.bias f4 [128]
0	0x3f18bd71	0.59664065
1	0xbe61cdcf	-0.22051166
2	0xbea79eb8	-0.3273828
3	0x3ec46c0b	0.3836368
4	0x3f0ff0cd	0.5622681
5	0xbf0dc3b3	-0.5537674
6	0x3a73cb18	0.00092999777
7	0x3e81044a	0.25198585
8	0xbe06941f	-0.13142441
9	0xbea7b8c0	-0.3275814
10	0x3e8420ea	0.2580636
11	0xbe94869a	-0.29008943
12	0x3c84ade9	0.016196208
13	0xbe83ab30	-0.25716543
14	0x3dd9fa02	0.10643388
15	0xbc6830b9	-0.014171773
16	0x3d8384dc	0.06421825
17	0xbec5fa26	-0.3866741
18	0xbe9ea6e6	-0.30986708
19	0xbe1b9dde	-0.1519694
20	0x3d54fd91	0.051999632
21	0xbe6b25ed	-0.22963686
22	0xbe22af69	-0.15887226
23	0x3e397cb4	0.18113977
24	0xbf03de57	-0.5151114
25	0xbe3dfc5b	-0.18553297
26	0xbedb0e7b	-0.42784485
27	0xbdf2d52d	-0.11857066
28	0x3c5f1bad	0.013617438
29	0x3de06d5d	0.109583594
30	0x3ee6fa3d	0.45112792
31	0xbe883ecb	-0.26610407
32	0xbebfcc15	-0.3746039
33	0x3f066a2e	0.5250577
34	0x3d432040	0.047638178
35	0xbe86667b	-0.2625006
36	0xbe891bfb	-0.2677916
37	0x3ee16220	0.44020176
38	0x3e8333d6	0.25625485
39	0xbe7b4ac0	-0.24540234
40	0x3e8b9568	0.27262425
41	0xbe4f9631	-0.20272137
42	0x3e459110	0.19293618
43	0xbe0bc26a	-0.13648382
44	0xbc4bfbb4	-0.012450147
45	0xbecf58ec	-0.4049753
46	0x3df391c3	0.11893036
47	0x3caefc9f	0.021360693
48	0x3f0c21df	0.54739183
49	0xbce12703	-0.027484423
50	0xbe88f83e	-0.26751894
51	0x3e8942d5	0.268088
52	0xbd10f19b	-0.035386663
53	0xbdfe2069	-0.124085255
54	0xbeb5a88e	-0.3548016
55	0x3c31f9c1	0.010862769
56	0x3f0e4657	0.5557608
57	0x3eea0ca0	0.45712757
58	0xbedb6072	-0.4284702
59	0x3c0c0c3f	0.008547842
60	0x3e770e54	0.2412656
61	0xbee4e4e6	-0.44705886
62	0x3dfde3c7	0.12396961
63	0xbd8bc31b	-0.06824323
64	0x3e5c9c5a	0.21544018
65	0xbe0776b4	-0.13228875
66	0xbf14388e	-0.57898796
67	0xbdb87b36	-0.090078756
68	0x3f0c2e80	0.54758453
69	0xbdab429d	-0.08362315
70	0xbed1466f	-0.4087405
71	0xbe66d89f	-0.22543572
72	0x3b549da4	0.0032442594
73	0xbecb2257	-0.39674637
74	0xbe08e869	-0.13369907
75	0x3e201aa2	0.1563516
76	0x3eddac53	0.43295535
77	0xbeb62df5	-0.35581937
78	0xbeb590d8	-0.3546207
79	0xbeccec46	-0.40024012
80	0x3eb0167b	0.3439215
81	0xbe3a6fc7	-0.18206702
82	0x3e575909	0.21030058
83	0x3a4cc82b	0.000781181
84	0x3ea7a532	0.32743222
85	0x3c377208	0.011196621
86	0x3eaaa617	0.33329841
87	0xbe0293d5	-0.12751706
88	0x3e8311e6	0.25599593
89	0x3d86ae94	0.06576267
90	0xbea84b57	-0.3286998
91	0x3d722c4d	0.05912428
92	0xbe745ce2	-0.23863557
93	0x3e8c60c3	0.27417573
94	0x3e9d3bfc	0.30709827
95	0x3ed2e86f	0.41192958
96	0xbdf77236	-0.12082331
97	0xbed19887	-0.40936682
98	0xbe827f97	-0.25487968
99	0xbe10907a	-0.14117613
100	0x3f0a2160	0.53957176
101	0xbde8d8d4	-0.11369482
102	0x3f12158e	0.5706414
103	0x3e3a0a11	0.18167903
104	0x3e7cc308	0.24683774
105	0x3e4c0873	0.19925098
106	0x3ee3ee32	0.44517666
107	0xbe11b539	-0.14229287
108	0xbed57ffc	-0.41699207
109	0x3c78bf08	0.015182264
110	0xbc186723	-0.009301933
111	0x3e08d4b6	0.13362393
112	0x3ea88108	0.32910943
113	0xbcec6162	-0.02885503
114	0xbe84531e	-0.25844663
115	0x3ec84119	0.39112166
116	0xbf0bbf27	-0.5458855
117	0xbebc77b7	-0.36810085
118	0xbe509400	-0.20368958
119	0x3e7d4359	0.24732722
120	0xbe9f2f89	-0.31090954
121	0xbe8dc3ad	-0.2768835
122	0x3dec52e3	0.11539247
123	0x3e931537	0.28727123
124	0xbea38720	-0.3193903
125	0xbf03bfab	-0.5146434
126	0xbe4bf169	-0.1991631
127	0xbeccdb27	-0.4001095

2.weight f4 [128, 128]
0	0xbda1792d	-0.078844406
1	0x3c8ebddd	0.017424518
2	0x3ba8eaf0	0.00515496
3	0x3c789b30	0.015173718
4	0x3d58649d	0.052830327
5	0x3bc68dee	0.0060594
6	0x3d96f708	0.07371336
7	0xbcf1bc3d	-0.029508704
8	0xbcafa195	-0.021439353
9	0xbcdb6e1c	-0.026785903
10	0xbccec099	-0.025238322
11	0xbbd1b83b	-0.006400136
12	0xbc6d466a	-0.01448212
13	0x3da3f031	0.08004797
14	0xbc300127	-0.010742462
15	0xbcc53e68	-0.02407761
16	0xbd8c1190	-0.06839287
17	0xbd71ba73	-0.059015702
18	0x3bd8ca6c	0.0066159274
19	0xbc52f6a6	-0.012876188
20	0xbc9c2f8d	-0.019065643
21	0x3d942f11	0.0723554
22	0x3daf4c62	0.08559491
23	0x3d8cefea	0.068816975
24	0xbdb1694d	-0.08662663
25	0xbc95c004	-0.018280037
26	0xbd99bcc2	-0.07506706
27	0xbd87f3f5	-0.06638328
28	0xbd180a6a	-0.037119307
29	0xbda02ac7	-0.07820659
30	0x3cf51b76	0.029920321
31	0x3d255b5b	0.040370326
32	0xbd9b0954	-0.075701386
33	0xbd40ed3b	-0.04710124
34	0x3d285bb7	0.04110309
35	0xbdb30d5a	-0.08742781
36	0xb97c42a6	-0.00024057421
37	0xbda2c813	-0.079483174
38	0x3d80e7fb	0.06294247
39	0xbcdda8be	-0.027058002
40	0xbd8d9599	-0.06913299
41	0xbcd0199f	-0.025402842
42	0xbc931ba5	-0.017957518
43	0x3d19703f	0.03746056
44	0xbd3d69e1	-0.046243552
45	0x3d926f5f	0.071501486
46	0x3c6b6a50	0.014368609
47	0xbbe34245	-0.00693539
48	0xbd359267	-0.044329073
49	0xbd874828	-0.066055596
50	0x3d8040b7	0.062623434
51	0xbd8a33b3	-0.06748142
52	0x3cabc08a	0.020965833
53	0xbd7419a8	-0.05959478
54	0xbd7dfc9f	-0.062008496
55	0xbc5220d7	-0.012825212
56	0x3c555822	0.013021501
57	0xbcc2c5a8	-0.02377589
58	0xbd80b8ae	-0.06285225
59	0x3c64d97a	0.013967866
60	0x3c16fc01	0.009215356
61	0x3aa59a96	0.0012634571
62	0x3cd9478f	0.02652338
63	0x3c91fe4e	0.017821457
64	0x3d994b3a	0.074850515
65	0xbd5757a2	-0.052573808
66	0xbd4c552f	-0.049885925
67	0x3cccc3f8	0.024995789
68	0xbd7effab	-0.062255543
69	0x3cc90412	0.024538074
70	0x3d34eb65	0.044169802
71	0xbc8ea67c	-0.01741337
72	0x3d56ce67	0.052442934
73	0x3d741d06	0.05959799
74	0xbb0ace97	-0.0021180266
75	0x3d3bf5c9	0.045888696
76	0x3da37ba2	0.079825655
77	0xbc95ebc4	-0.018300898
78	0x3d931ca4	0.07183197
79	0xbc567ba3	-0.013091001
80	0xbdac36bd	-0.08408878
81	0x3b0082d9	0.0019609241
82	0x3d8ab2eb	0.06772407
83	0xbda8edbe	-0.08248471
84	0xbcbfe052	-0.023422394
85	0x3c89124e	0.016732361
86	0x3d029462	0.03187979
87	0xbd104f15	-0.03523167
88	0xbd8faa1b	-0.07014867
89	0xbd9f04e5	-0.077646054
90	0xbd8b640e	-0.06806193
91	0x3ac109ed	0.001472769
92	0x3da62349	0.08112199
93	0x3a631613	0.0008662652
94	0xbd2fdbd7	-0.042934265
95	0xbb47e9bc	-0.0030504307
96	0xbd8fb1bd	-0.07016323
97	0x3d28d1ec	0.041215822
98	0xbd9119ef	-0.070850246
99	0xbc2fef7a	-0.010738248
100	0x3d11fe51	0.035642926
101	0x3db09a5b	0.08623191
102	0xbd195d6e	-0.037442617
103	0x3d9f6960	0.077837706
104	0xbda2d0df	-0.07949995
105	0x3db1905a	0.08670111
106	0xbd1ae71f	-0.03781807
107	0x3d6d2789	0.05789903
108	0x3d73ea06	0.059549354
109	0x3d7703aa	0.06030623
110	0xbc9765e4	-0.018481202
111	0x3c614900	0.013750315
112	0x3d883826	0.066513345
113	0x3d819deb	0.063289486
114	0x3d5d8ff1	0.05409235
115	0xbc1f801a	-0.009735132
116	0x3be855d8	0.0070903115
117	0x3d27cccb	0.04096679
118	0xbda0ed70	-0.078577876
119	0x3d00df70	0.031463087
120	0x3ce5dd51	0.028059633
121	0x3c538c61	0.012911887
122	0x3da6cbf9	0.081443734
123	0x3d55cdca	0.05219821
124	0x3d98c456	0.07459323
125	0x3c1998b4	0.009374786
126	0xbcd54ec3	-0.026038533
127	0x3b6cafa0	0.0036115423
128	0xbd8cac40	-0.068687916
129	0xbb80b5ac	-0.003927907
130	0xbd25d4b3	-0.04048605
131	0x3daa120a	0.08304222
132	0x3d73162b	0.059347313
133	0x3cb57227	0.022149159
134	0xbcd39cdd	-0.025831634
135	0xbd793192	-0.06083829
136	0x3d928bf7	0.071556024
137	0x3d544ac4	0.051829115
138	0xbceeb8b8	-0.029140815
139	0xbd1221df	-0.035676833
140	0xbdd522a6	-0.10406999
141	0x3d6dc4ca	0.058049
142	0xbd85b315	-0.06528298
143	0x3b9979ae	0.004683695
144	0xbdcc0a0f	-0.09962856
145	0x3cd56295	0.026047984
146	0x3d498cb5	0.049206454
147	0xbc8b0145	-0.016968379
148	0x3db44e3c	0.088039845
149	0x3d8b1955	0.06791941
150	0xbd38ce3d	-0.04511856
151	0x3d6e02f0	0.05810827
152	0x3cf80b7e	0.030278917
153	0xbd9b1483	-0.07572272
154	0x3d172920	0.036904454
155	0xbc0bdde6	-0.008536791
156	0xbc7b7d30	-0.015349671
157	0x3d8329c1	0.06404448
158	0xbdb3d75d	-0.08781312
159	0xbd56d3ea	-0.05244819
160	0x3d5d68bd	0.054054964
161	0xbd0a3252	-0.033739395
162	0xbceed36a	-0.029153544
163	0x3d0a05d9	0.033696983
164	0xbd48d153	-0.049027752
165	0x3cda0b11	0.026616605
166	0xbdd220f8	-0.102601945
167	0x3bc21797	0.0059232223
168	0xbd89fcb1	-0.0673765
169	0xbd211456	-0.039326034
170	0x3da4fd5b	0.08056136
171	0xbd4e57c2	-0.05037666
172	0x3d76d9b5	0.060266215
173	0x3d47208b	0.04861502
174	0x3d357bb6	0.044307433
175	0xbc17ef62	-0.009273382
176	0xbd64c8d6	-0.055855595
177	0xbd465324	-0.048419133
178	0x3d90c737	0.07069247
179	0x3d739ec0	0.059477568
180	0xbda1c0b3	-0.078980826
181	0x3d7ed72f	0.062216934
182	0xbdb9925f	-0.09061121
183	0xbc7533cf	-0.014965965
184	0x3d2c896f	0.042123254
185	0xbde89991	-0.113574155
186	0xbc3503c2	-0.011048259
187	0x3b33d704	0.0027441392
188	0x3ce3b26a	0.027795035
189	0xbdd52f10	-0.10409367
190	0x3d6fca6a	0.058542646
191	0x3d924c3e	0.07143448
192	0xbd86a25a	-0.06573935
193	0xbdacce31	-0.084377654
194	0xbdca742a	-0.09885438
195	0xbd106ade	-0.035258166
196	0xbc1447e1	-0.00905034
197	0xbd3d8c27	-0.046276238
198	0xbd4f53dd	-0.050617088
199	0x3d0092c0	0.03138995
200	0xbd541442	-0.05177713
201	0xbd1d2dcd	-0.038373757
202	0xbca5e524	-0.020250864
203	0xbd01b3af	-0.0316655
204	0x3d9e73fa	0.077369645
205	0x3d86967b	0.065716706
206	0x3ce36809	0.027759569
207	0x3d09f72d	0.03368299
208	0xbd21391d	-0.039361108
209	0xbc4c15c0	-0.0124563575
210	0xbcea49b4	-0.028599598
211	0xbd6e6dcb	-0.058210175
212	0x3d2b689b	0.041847806
213	0x3d0b0f42	0.033950098
214	0x3d88d719	0.066816516
215	0x3cf089c6	0.02936257
216	0x3c8d75e0	0.017268121
217	0x3d1d3b5e	0.038386695
218	0xbd86ee86	-0.065884635
219	0xbd81282a	-0.06306489
220	0x3d5ecdc8	0.054395467
221	0xbcfa0660	-0.030520618
222	0xbc5a6fd1	-0.013332323
223	0xbc0a5fc0	-0.00844568
224	0x3d2e804c	0.042602822
225	0x3d9dba59	0.077015586
226	0xbca9c706	-0.020724785
227	0x3cee7fbe	0.029113647
228	0x3c6cf74f	0.01446326
229	0x3cdd35b5	0.027003149
230	0xbd7caaa6	-0.06168618
231	0x3d79d3be	0.06099295
232	0xbd59b036	-0.053146563
233	0x3d8d754f	0.069071405
234	0x3d03dd0b	0.032193225
235	0xbd019833	-0.03163929
236	0x3d8b8736	0.06812899
237	0xbd994c00	-0.07485199
238	0xbd7e1482	-0.062031277
239	0xbd2abb94	-0.041682795
240	0xbc56053d	-0.013062772
241	0x3d40b331	0.04704589
242	0x3d3d1023	0.046157967
243	0xbdb10c3d	-0.086449124
244	0x3d171cce	0.036892705
245	0xbdac46b2	-0.084119216
246	0x3c317776	0.010831704
247	0x3d83b652	0.06431259
248	0xbc922dd6	-0.017844122
249	0xbdb4d763	-0.08830144
250	0xbd8acad7	-0.0677697
251	0xbd8e7968	-0.0695675
252	0xbd8e6ad9	-0.06953973
253	0xbc06db84	-0.008231048
254	0x3d3ef284	0.046618
255	0xbdc8db29	-0.098074265

2.bias f4 [128]
0	0x3c0ed3d4	0.008717496
1	0xbcc81d8a	-0.024428148
2	0x3d9ab202	0.075534835
3	0xbd639f50	-0.055571854
4	0xbd0eb3cb	-0.034839433
5	0x3e093c24	0.13401848
6	0x3d25cb80	0.040477276
7	0x3ce63e72	0.028105948
8	0xbcc0c194	-0.023529805
9	0xbca31c73	-0.019911027
10	0x3dfcad9e	0.12337802
11	0xbd09ae3c	-0.03361343
12	0xbcb49068	-0.022041515
13	0x3e895713	0.26824245
14	0x3d19fe5a	0.037596084
15	0xbd509f89	-0.050933395
16	0xbd779dec	-0.06045334
17	0x3d2f0d81	0.042737488
18	0x3b759775	0.0037474309
19	0x3e3a87da	0.18215886
20	0x3d265a62	0.04061354
21	0xbdb27b44	-0.08714917
22	0xbc0bcfbb	-0.0085334135
23	0xbdb25e21	-0.0870936
24	0xbdacfe23	-0.0844691
25	0x3d4b180f	0.04958349
26	0x3c36ea10	0.011164203
27	0x3ced156b	0.028940877
28	0xbc883907	-0.016628755
29	0x3e1bd155	0.15216573
30	0xbc26eea9	-0.010188737
31	0x3cd02c45	0.025411734
32	0x3e61bb99	0.22044219
33	0x3b8ad905	0.0042372965
34	0xbd510b74	-0.051036313
35	0xbda5cc06	-0.08095555
36	0x3e605319	0.21906699
37	0xbd1ee78b	-0.038795035
38	0xbd1444de	-0.03619849
39	0xbd99d1bf	-0.07510709
40	0x3d7e6ad5	0.0621136
41	0xbd2d9025	-0.042373795
42	0x3e28ded5	0.16491254
43	0xbdbb7b7e	-0.09154414
44	0xbd9b0355	-0.07568995
45	0xbcc7a29b	-0.024369529
46	0x3d091142	0.033463724
47	0xbd8aaa4c	-0.06770763
48	0xbd945ca3	-0.072442316
49	0xbc8c43f1	-0.01712224
50	0xbbff6d4c	-0.0077950116
51	0xbd60ce09	-0.05488399
52	0xbdca89c0	-0.09889555
53	0xbdd255d8	-0.1027028
54	0xbd684287	-0.05670407
55	0xbd16584f	-0.03670531
56	0xbd6f7b75	-0.058467347
57	0xbdd71ee2	-0.10503937
58	0xbc19b5d7	-0.009381733
59	0x3e358209	0.17725386
60	0x3cc2e2d9	0.02378981
61	0xbd166ab9	-0.036722872
62	0xbd824181	-0.0636015
63	0xbd4c1844	-0.04982783
64	0xbd5171f7	-0.051134076
65	0xbdf10b0b	-0.117696844
66	0x3d519c16	0.051174246
67	0x3d4e445a	0.050358154
68	0x3ea44f04	0.32091534
69	0x3e178c33	0.14799576
70	0xbd34c226	-0.044130467
71	0x3d2e20ce	0.042511754
72	0xbdfec20b	-0.124393545
73	0x3d697992	0.057000704
74	0x3b8f76ab	0.00437816
75	0xbcbca8d6	-0.023029726
76	0x3e9fa2b6	0.31178826
77	0xbaaa31e9	-0.0012984845
78	0xbdb3a61f	-0.087719195
79	0x3d13690d	0.035988856
80	0xbcb9dd61	-0.02268857
81	0x3d8c0dfb	0.06838604
82	0x3daa3112	0.08310141
83	0x3df5e2e0	0.120061636
84	0xbb83d83d	-0.0040235803
85	0xbd24bb62	-0.040217765
86	0x3c333837	0.010938696
87	0xbd83585a	-0.06413336
88	0xbcd78be5	-0.026311824
89	0x3d173984	0.036920086
90	0xbde3a263	-0.11114957
91	0x3dc8c760	0.09803653
92	0x3b5682cc	0.003273177
93	0x3d6eebef	0.058330473
94	0xbdbfe8df	-0.093705885
95	0xbda7cfeb	-0.08193954
96	0x3e042d0c	0.12907809
97	0x3b18d5f9	0.0023320897
98	0xbdcfedb7	-0.101527624
99	0x3c4bde53	0.012443143
100	0xbd32f5a3	-0.04369129
101	0x3d4084ed	0.047001768
102	0xbd664ff5	-0.056228597
103	0xbc5a63d3	-0.013329464
104	0xbd9bff58	-0.07617062
105	0x3c3a938d	0.011387718
106	0x3d2d8eba	0.042372443
107	0x3d55f6a2	0.05223716
108	0x3d76e09b	0.060272794
109	0xbdd6f41e	-0.104957804
110	0xbdb0ca7f	-0.08632373
111	0x3c38357a	0.011243219
112	0x3dadd7f4	0.084884554
113	0x3d4b32fe	0.049609177
114	0xbd2e6de4	-0.04258527
115	0x3da8ebd7	0.08248108
116	0x3e45a678	0.19301784
117	0xbd137fb8	-0.036010474
118	0xbce27cd3	-0.027647411
119	0xbd9911c5	-0.074740924
120	0x3d72d091	0.059280936
121	0xbdc299cf	-0.09501993
122	0x3de58bfc	0.112083405
123	0xbd92513c	-0.071444005
124	0xbdae81ee	-0.08520876
125	0xbd6d9acc	-0.058008954
126	0x3c8a103e	0.016853448
127	0x3e81068d	0.2520031

4.weight f4 [8, 128]
0	0xbcaba0fc	-0.020950787
1	0xbc53dfe8	-0.012931801
2	0xbdb47111	-0.08810628
3	0x3d2082e7	0.03918734
4	0xbdb38c2b	-0.08766969
5	0x3dce0284	0.100590736
6	0xbde8a164	-0.11358908
7	0xbd6b04b3	-0.05737753
8	0x3d08a428	0.033359677
9	0x3c28154e	0.010258986
10	0xbd740481	-0.059574608
11	0xbb848fbc	-0.004045455
12	0x3d1a6578	0.037694424
13	0xbe7db515	-0.24776109
14	0xbc869f4c	-0.01643338
15	0xbd5c36db	-0.05376325
16	0x39ac006f	0.0003280672
17	0xbddfdf52	-0.10931267
18	0x3df2530e	0.11832248
19	0xbe435976	-0.19077095
20	0xbe1bb19e	-0.15204474
21	0xbda6a5e8	-0.08137113
22	0xbbf6b75b	-0.007529182
23	0xbd58b810	-0.05290991
24	0xbcb1b43f	-0.021692393
25	0xbc84d5a0	-0.016215146
26	0x3da192c1	0.07889319
27	0xbda1d825	-0.079025544
28	0xbd1f04ae	-0.038822822
29	0xbe468efd	-0.19390483
30	0xbcd25edd	-0.02568
31	0xbcd0a551	-0.025469454
32	0xbe561b96	-0.2090896
33	0x3d4744f8	0.048649758
34	0xbdb20a58	-0.08693379
35	0x3c53f3cb	0.012936543
36	0xbe1850f4	-0.14874631
37	0x3c507f9a	0.012725735
38	0xbd59f51d	-0.053212274
39	0xbd5a5beb	-0.053310316
40	0x3daf46c6	0.08558421
41	0xbc874d72	-0.016516421
42	0xbd4a7e35	-0.049436767
43	0x3b2571dc	0.0025244867
44	0x3d98d9eb	0.074634396
45	0xbd6b2dd1	-0.05741674
46	0xbc8adc4e	-0.016950753
47	0x3cd701cf	0.02624598
48	0x3bca248c	0.0061689075
49	0x3d885130	0.0665611
50	0x3d8a7784	0.06761077
51	0xbdeeb2c4	-0.116551906
52	0xbd32a714	-0.04361637
53	0xbd4deb75	-0.050273377
54	0xbe4e1677	-0.20125757
55	0xbd0d91d3	-0.034562897
56	0xbd81618e	-0.06317435
57	0xbdbc09eb	-0.09181579
58	0x3dfcefcc	0.12350425
59	0xbe1031a1	-0.14081432
60	0x3d6f6a09	0.058450732
61	0x3ddc14cc	0.10746154
62	0xbc451420	-0.012028724
63	0xbd13e5bf	-0.036107775
64	0xbdc8c057	-0.09802311
65	0x3d498c13	0.04920585
66	0xbc9348d3	-0.017979061
67	0x3d8a7a6c	0.06761631
68	0xbdf1706c	-0.11789021
69	0x3d922fb1	0.07138003
70	0x3da17c68	0.07885057
71	0x3b78d6b8	0.003796978
72	0x3d69f754	0.057120636
73	0xbd30ad36	-0.043133937
74	0xbd8c6bf5	-0.06856529
75	0xbd519dea	-0.05117599
76	0xbe0c5b8d	-0.13706799
77	0x3bd96421	0.0066342507
78	0xbd340108	-0.043946296
79	0xbe14ecea	-0.145435
80	0xbdc2b0cf	-0.0950638
81	0x3cbe182e	0.02320489
82	0xbdeaab14	-0.11458412
83	0xbcec88f5	-0.0288739
84	0x3d3ba0d6	0.045807682
85	0xbd73f776	-0.05956217
86	0x3d2f07ba	0.042731978
87	0xbdb41745	-0.08793501
88	0xbc938965	-0.01800985
89	0x3d58ea5e	0.052957885
90	0xbd85a6ca	-0.06525953
91	0xbe6e0670	-0.23244643
92	0x3d38f4f7	0.04515549
93	0x3d209823	0.03920759
94	0xbd7c6b92	-0.061626025
95	0x3cb05c70	0.021528453
96	0xbe2f897c	-0.1714229
97	0x3cd96861	0.02653903
98	0xbd1c89f0	-0.038217485
99	0x3ca964db	0.020677974
100	0x39c31b32	0.0003721356
101	0x3e0d80ba	0.13818637
102	0x3db3b947	0.08775573
103	0xbcf84a6a	-0.03030892
104	0xbd9641be	-0.07336758
105	0xbbb36ea1	-0.0054758345
106	0xbda0c132	-0.07849349
107	0x3b93fa80	0.004515946
108	0x3d75cff9	0.06001279
109	0x3d8f5f5c	0.0700061
110	0xbd366dbd	-0.04453825
111	0x3c3695da	0.011144126
112	0xbde1d300	-0.11026573
113	0xbd59c339	-0.053164694
114	0xbdb8a069	-0.09014971
115	0xbd6b27cf	-0.05741101
116	0x3b8d8a6a	0.0043194788
117	0x3c2add6a	0.010428766
118	0xbd99dc15	-0.075126804
119	0xbda95cc4	-0.08269647
120	0x3db76869	0.089554615
121	0x3e0c7fb8	0.13720596
122	0xbd8c8bf9	-0.06862635
123	0x3d92e9ae	0.07173477
124	0x3ba745aa	0.00510474
125	0x3da14d0b	0.07876023
126	0xbdd8e5d3	-0.105907105
127	0xbe20384e	-0.15646479
128	0xbda11bbb	-0.07866617
129	0x3bcf0ce6	0.0063186763
130	0xbd967910	-0.073473096
131	0xbca57c78	-0.020200953
132	0x3d70e796	0.058814608
133	0xbe157439	-0.14595117
134	0xbe14d71e	-0.14535186
135	0x3ccf98d8	0.025341436
136	0x3df5bfc0	0.11999464
137	0x3d9158d1	0.070970185
138	0xbdca4ae4	-0.098775655
139	0x3d6a5fe3	0.05722035
140	0x3d1e5852	0.038658448
141	0xbe748c64	-0.2388168
142	0x3d4a4cf2	0.049389787
143	0x3d3f4f76	0.04670664
144	0xbd9219db	-0.07133838
145	0x3d37b0a8	0.044846207
146	0x3d6c626a	0.057711042
147	0xbd2e0046	-0.04248073
148	0xbdac44df	-0.084115736
149	0x3cd18634	0.025576688
150	0xbd647d31	-0.055783454
151	0xbdabce54	-0.08388963
152	0xbab77d1a	-0.0013999075
153	0x3cd91b42	0.026502255
154	0xbd540227	-0.051759865
155	0xbe2b8d1b	-0.16753046
156	0xbe2b9292	-0.16755131
157	0xbe027867	-0.12741242
158	0x3da766ed	0.081739284
159	0xbe19a50d	-0.15004368
160	0xbe2cd665	-0.1687866
161	0x3d85f2b1	0.0654043
162	0xbe2b6e03	-0.16741185
163	0x3d20dacb	0.039271157
164	0xbe382d18	-0.17985952
165	0xbd7930eb	-0.060837667
166	0xbdb125ef	-0.086498134
167	0xbc68ccaa	-0.014208952
168	0x3d417074	0.047226384
169	0x3d331fa5	0.04373135
170	0xbe5000b2	-0.20312765
171	0x3cf15d8f	0.029463558
172	0x3d525f90	0.051360667
173	0x3e46a240	0.19397831
174	0xbe007460	-0.12544394
175	0xbc168c31	-0.009188698
176	0x3cb772fb	0.022393694
177	0xbd47216c	-0.048615858
178	0x3d0b1847	0.0339587
179	0xbe14ff79	-0.1455058
180	0x3d4ce0be	0.05001902
181	0x3d786b83	0.060649406
182	0xbded131c	-0.115759104
183	0xbdd524c3	-0.10407402
184	0x3d5730c6	0.05253675
185	0xbdcdea2f	-0.100544326
186	0xbc93cc15	-0.01804165
187	0xbe1b82e2	-0.15186647
188	0xbd652c43	-0.055950414
189	0x3d4b4cc1	0.049633745
190	0x3d431ac2	0.04763294
191	0xbe488112	-0.19580486
192	0xbd18e80b	-0.03733067
193	0x3d4d7cf9	0.05016801
194	0x3d005263	0.03132857
195	0xbd1ae8ed	-0.03781979
196	0xbe3cc87a	-0.1843585
197	0xbe222004	-0.15832525
198	0x3d84136a	0.064490154
199	0xbd9e99fb	-0.07744213
200	0x3d687287	0.056749847
201	0xbe03af8a	-0.12859932
202	0x3c853702	0.016261581
203	0x3920ad6e	0.00015323397
204	0xbe43de1b	-0.19127695
205	0x3c5ddf49	0.013542005
206	0xbbde3233	-0.0067808866
207	0xbe7703d5	-0.24122556
208	0x3d8b5f35	0.06805269
209	0x3c02c1db	0.007980789
210	0xbe019353	-0.12653856
211	0xbe79a3d7	-0.24378906
212	0xbc12eabe	-0.0089671
213	0x3db29b16	0.087209865
214	0x3d71d4a4	0.05904068
215	0xbe272f97	-0.16326748
216	0x3ca0baf5	0.019620398
217	0xbe12009c	-0.14258045
218	0xbe028191	-0.12744738
219	0xbe298964	-0.16556317
220	0xbd51a52c	-0.05118291
221	0xbd5982f7	-0.053103413
222	0xbdba0039	-0.09082074
223	0xbca08d9c	-0.019598775
224	0xbdae0c86	-0.084984824
225	0x3cfa6b7e	0.030568834
226	0xbd9aa840	-0.075516224
227	0xbab77da2	-0.0013999233
228	0xbbb63c57	-0.0055613923
229	0x3ce352ba	0.027749408
230	0x3d1ba060	0.037994742
231	0xbc7002e9	-0.014649131
232	0xbdd143ca	-0.10218008
233	0x3d2f8ea8	0.042860657
234	0xbe45a102	-0.19299701
235	0xbea43fea	-0.32080013
236	0xbd0f5866	-0.034996413
237	0xbd69ebcd	-0.057109643
238	0x3dad64e1	0.08466507
239	0xbc57e14d	-0.0131762745
240	0xbe5f8ded	-0.21831484
241	0xbe954dfa	-0.29161054
242	0xbdee5a62	-0.11638333
243	0xbc5e84b8	-0.013581447
244	0xbc3fa6a0	-0.011697441
245	0xbdda07a7	-0.10645991
246	0xbe448b8d	-0.1919386
247	0xbd00dde9	-0.03146163
248	0x3e82255a	0.25419122
249	0xbc908461	-0.017641248
250	0xbe28e926	-0.16495189
251	0x3c030c4e	0.007998539
252	0x3d9aae38	0.07552761
253	0x3bfe2403	0.007755758
254	0x3df8916e	0.121371135
255	0xbd6f9374	-0.05849023

4.bias f4 [8]
0	0xbe79e2ce	-0.24402925
1	0xbda67651	-0.08128036
2	0xbe83ad21	-0.25718024
3	0xbebc2bb7	-0.36752102
4	0xbe239cc4	-0.1597777
5	0xbe40a690	-0.18813539
6	0xbea3fd07	-0.32028982
7	0xbe9e264f	-0.30888602
