Runs/5/final_model-2.pth (torch, 80048 bytes, 6 tensors)

0.weight f4 [128, 5]
0	0xbed09876	-0.40741318
1	0xbe82b432	-0.25528103
2	0xbdcca631	-0.09992636
3	0x3e8ee29c	0.27907264
4	0x3e8161da	0.25269967
5	0xbede2b69	-0.43392494
6	0xbf1e4af0	-0.61833096
7	0x3e80efaa	0.2518285
8	0x3d58ba73	0.052912187
9	0x3def46fc	0.11683461
10	0xbeb247c1	-0.3482037
11	0xbed4b88e	-0.41547054
12	0x3dd5ed96	0.104457065
13	0xbdf88d28	-0.121362984
14	0xbeca5ac2	-0.39522368
15	0xbc312a2b	-0.010813276
16	0xbbd0c92e	-0.0063716387
17	0xbcc404b8	-0.023928031
18	0xbeb98e05	-0.36241165
19	0xbe00db74	-0.12583715
20	0xbd9cbf46	-0.0765367
21	0x3e833df4	0.25633204
22	0x3e292539	0.16518106
23	0xbe9a7d5f	-0.30173776
24	0xbd323f14	-0.043517187
25	0xbdb2a466	-0.08722763
26	0xbd93add9	-0.07210893
27	0x3e05cfc5	0.13067539
28	0xbe27801a	-0.1635746
29	0xba95cbdf	-0.0011428556
30	0x3e5d732f	0.2162597
31	0xbd712a51	-0.058878247
32	0x3dd9f91f	0.10643219
33	0xbe151524	-0.14558846
34	0x3e990f00	0.29894257
35	0x3e9f6254	0.31129706
36	0x3eaed21f	0.34144685
37	0x3b685235	0.003544939
38	0xbe241b11	-0.1602595
39	0x3e0003a6	0.12501392
40	0xbd802004	-0.062561065
41	0x3ed610c1	0.41809657
42	0xbec0dc8a	-0.37668258
43	0xbed8a2eb	-0.42311797
44	0xbe58b39d	-0.21162267
45	0xbd448b2a	-0.04798428
46	0xbede4b10	-0.43416643
47	0xbea645b1	-0.32475045
48	0xbe59e4a5	-0.21278627
49	0xbe242b4a	-0.16032138
50	0xbe21dd7c	-0.15807146
51	0x3d8b9a7d	0.06816576
52	0xbe67fd56	-0.22655234
53	0x3e1ae9fe	0.15128323
54	0x3e76f2d0	0.24116063
55	0xbe1f4563	-0.15553813
56	0xbebec1b6	-0.37257165
57	0xbe63cc5c	-0.22245926
58	0x3e8cae00	0.274765
59	0xbecbe3a0	-0.39822102
60	0xbe9553ce	-0.291655
61	0xbe63f381	-0.22260858
62	0xbd10f6d8	-0.03539166
63	0x3cbfc092	0.023407254
64	0x3e2531f0	0.16132331
65	0x3e44e421	0.1922765
66	0x3e31cae4	0.17362553
67	0x3e7a5e6a	0.24450079
68	0x3db1de34	0.0868496
69	0x3e6b6787	0.22988711
70	0x3d22e004	0.03976442
71	0x3da21ca1	0.07915617
72	0x3ddac1d9	0.10681505
73	0xbdb81991	-0.089892514
74	0xbdac64c5	-0.08417658
75	0x3e7e1bf1	0.24815346
76	0xbea750ca	-0.32678825
77	0xbb2005c5	-0.0024417501
78	0x3ecc44fa	0.39896375
79	0xbd148d01	-0.036267284
80	0x3edbe2d1	0.42946485
81	0xbf19a62d	-0.6001919
82	0xbd981328	-0.07425529
83	0x3e1734e8	0.14766276
84	0x3e196fbc	0.1498403
85	0x3e6e98b3	0.23300438
86	0x3ed64203	0.41847238
87	0xbe27a782	-0.16372493
88	0xbeb0fd34	-0.3456818
89	0xbe09d8da	-0.13461629
90	0x3ee3f31b	0.44521412
91	0xbed529e8	-0.41633534
92	0x3ddf2be9	0.10897047
93	0x3e111650	0.14168668
94	0xbf16c960	-0.58901024
95	0x3ee28ec3	0.44249544
96	0x3e0287db	0.12747137
97	0x3e82c7de	0.25543112
98	0xbec1f652	-0.3788324
99	0xbe7cb44d	-0.24678154
100	0x3e453a34	0.19260484
101	0xbdc4af9b	-0.096038066
102	0x3ea90efa	0.3301924
103	0xbd8ac1bd	-0.06775234
104	0x3e5e4c1b	0.2170872
105	0xbe861e86	-0.26195163
106	0x3eba0164	0.36329186
107	0xbe067052	-0.13128784
108	0x3b9e5bbb	0.0048327125
109	0x3ed4f62a	0.41594058
110	0x3e87931d	0.26479426
111	0x3ef2ff1b	0.47460255
112	0x3cbbba3b	0.02291595
113	0xbec91415	-0.39273134
114	0x3da8d7bf	0.08244275
115	0x3d3fed1f	0.046856996
116	0x3e504be1	0.20341446
117	0xbda515f0	-0.08060825
118	0xbe9f3912	-0.3109823
119	0x3ea839d6	0.32856625
120	0x3e82392b	0.2543424
121	0xbd128cd1	-0.035778824
122	0x3e750d81	0.23930933
123	0xbe4c92d1	-0.19977881
124	0xbeb876d1	-0.3602815
125	0x3eb74276	0.35792893
126	0xbea69866	-0.32538146
127	0x3d0c9807	0.034324672
128	0xbedb4813	-0.42828426
129	0x3e7775ae	0.24165985
130	0xbe02ad16	-0.1276134
131	0xbf3567e1	-0.7086163
132	0x3df790e1	0.1208818
133	0xbe5433f6	-0.20722947
134	0x3df2f8cd	0.11863861
135	0xbda8b17d	-0.08236978
136	0x3e310c63	0.17289881
137	0x3e6c8a2e	0.23099586
138	0xbee328bf	-0.44367024
139	0x3d86ac1d	0.06575797
140	0xbea43ae6	-0.32076186
141	0xbf1712e1	-0.5901318
142	0xbd1ca486	-0.03824284
143	0x3e2d991d	0.1695294
144	0x3e1df63a	0.15425959
145	0xbded807a	-0.115967706
146	0x3ec771ee	0.3895411
147	0xbea404d2	-0.32034928
148	0x3e3fff15	0.1874965
149	0xbe6365ae	-0.22206756
150	0xbe158ebd	-0.14605232
151	0xbdca6e46	-0.09884314
152	0xbeb5eee4	-0.35533822
153	0xbedccde4	-0.43125832
154	0x3e9f5174	0.3111683
155	0xbe9730ae	-0.29529327
156	0x3dbf098c	0.09327993
157	0xbd0c216a	-0.034211554
158	0x3e161986	0.14658174
159	0x3e829b9b	0.25509343
160	0xbe88bce5	-0.26706615
161	0x3c6927cf	0.0142306825
162	0xbe84f4a7	-0.25967905
163	0xbe0a4771	-0.13503815
164	0xbcb64a67	-0.022252275
165	0x3e6a597b	0.22885697
166	0xbe81fc73	-0.25387916
167	0xbee2ccf3	-0.4429699
168	0xbed18e5e	-0.4092893
169	0x3ebae6ad	0.36504117
170	0xbdd8bb14	-0.10582557
171	0x3d6ac1ad	0.05731361
172	0x3e675ae1	0.22593261
173	0xbd5fa08b	-0.054596465
174	0xbe38555b	-0.1800131
175	0x3db74526	0.08948736
176	0xbe66fc6d	-0.2255723
177	0x3c31ed2e	0.010859771
178	0x3dadf9db	0.08494922
179	0xbec9026a	-0.39259654
180	0x3e1c7eee	0.15282795
181	0xbe2fd7ec	-0.17172211
182	0x3e245183	0.16046719
183	0x3e51e483	0.20497327
184	0x3eae4a7b	0.340412
185	0x3eb02622	0.34404093
186	0x3e24d281	0.16095926
187	0xbece9d19	-0.4035423
188	0x3eae0e10	0.33995104
189	0x3e4976bd	0.19674201
190	0xbe3e1f2d	-0.1856658
191	0x3b210ad5	0.0024573107
192	0xbee31e10	-0.44358873
193	0x3e8d335e	0.27578253
194	0xbe425be5	-0.18980367
195	0x3eb10db1	0.34580758
196	0xbf023d7a	-0.50875056
197	0x3e60c51a	0.21950188
198	0x3eadba8c	0.33931386
199	0xbe9c0a8d	-0.304768
200	0xbd4a400b	-0.049377482
201	0x3e7e706a	0.2484757
202	0x3e4c8365	0.19971998
203	0x3e17f68c	0.14840144
204	0xbe9a8502	-0.30179602
205	0x3e8c1524	0.2735988
206	0xbf08dc4a	-0.53461134
207	0xbcae7b07	-0.021298898
208	0x3d9b5e18	0.07586306
209	0x3e5345b1	0.20632054
210	0x3e03bb9f	0.1286454
211	0xbdd5e122	-0.10443331
212	0xbebf83fc	-0.37405384
213	0x3e9bb573	0.30411872
214	0x3f1cfad9	0.61320263
215	0xbd1a94ed	-0.037739683
216	0x3e582399	0.2110733
217	0xbe723631	-0.23653485
218	0xbcf73a01	-0.030179026
219	0x3eb3cfbe	0.35119432
220	0xbb97fa3e	-0.0046379855
221	0xbdff2c73	-0.1245965
222	0x3e019613	0.12654905
223	0x3e3dbfde	0.18530223
224	0xbe6011a1	-0.21881725
225	0xbe0b361e	-0.13594863
226	0x3de0f6a1	0.10984541
227	0x3d935b31	0.07195128
228	0xbe88b3e0	-0.26699734
229	0x3e9be8e4	0.3045112
230	0x3e814285	0.25246063
231	0xbf18df2d	-0.5971554
232	0xbda68fc7	-0.08132892
233	0x3e810617	0.2519996
234	0xbe4e895c	-0.20169586
235	0xbd4b78b3	-0.049675655
236	0xbe3d28d3	-0.18472604
237	0xbe0328bc	-0.12808508
238	0x3e9aa172	0.30201298
239	0xbd96b203	-0.07358172
240	0xbed83b93	-0.42232952
241	0x3ea46afa	0.32112867
242	0xbe4462ff	-0.19178389
243	0xbee85ad8	-0.45381808
244	0xbe1814a9	-0.14851631
245	0x3ed7d7ca	0.4215682
246	0xbed9ee3d	-0.42564574
247	0xbdf359ea	-0.11882384
248	0x3e9c5502	0.30533606
249	0x3ec1fe02	0.37889105
250	0xbce24590	-0.02762106
251	0x3e20e5e1	0.15712692
252	0x3dd7748f	0.10520279
253	0x3e59db13	0.21274976
254	0xbde2ba15	-0.110706486
255	0x3d59ab34	0.053141788

0.bias f4 [128]
0	0x3e9019f1	0.28144792
1	0x3de2875a	0.110609725
2	0xbde11bd9	-0.1099164
3	0xbacfb054	-0.0015845397
4	0x3f133127	0.57496876
5	0x3e04f721	0.12984897
6	0xbeaec96f	-0.34138057
7	0x3e37eaeb	0.17960708
8	0x3ece8bc2	0.40341002
9	0xbda81ea2	-0.08208968
10	0xbe940516	-0.2891013
11	0xbe16913e	-0.14703843
12	0x3ea90214	0.33009398
13	0x3ea559b1	0.32294992
14	0x3e2d21d5	0.16907437
15	0x3e9aa6f2	0.30205494
16	0xbee8d826	-0.45477408
17	0x3f383bce	0.71966255
18	0xbeb95ea0	-0.36205006
19	0xbee91e72	-0.4553104
20	0x3ea547d7	0.32281372
21	0xbeb8d047	-0.36096403
22	0x3e84dbe6	0.2594902
23	0x3f29a314	0.6626446
24	0x3f0a10e1	0.53932005
25	0xbeb91267	-0.36146852
26	0xbcfb954f	-0.030710844
27	0xbf0cd6fc	-0.5501554
28	0xbdb4ca66	-0.08827667
29	0xbd87254b	-0.0659891
30	0xbd5d8f5f	-0.054091807
31	0x3f180073	0.59375685
32	0xbdec423a	-0.11536069
33	0x3e94e79f	0.29082963
34	0xbf057940	-0.5213814
35	0xbe0af6ee	-0.13570759
36	0x3df5415b	0.11975356
37	0xbe8aa6d3	-0.27080402
38	0x3ddd1501	0.10795022
39	0x3ebccc09	0.36874416
40	0x3f087840	0.53308487
41	0xbd6b737f	-0.057483193
42	0x3ee8331c	0.45351493
43	0xbe88bee1	-0.2670813
44	0xbeac5458	-0.336581
45	0xbed736a5	-0.42033878
46	0xbd58c434	-0.05292149
47	0xbebebc4a	-0.37253028
48	0x3f145e60	0.57956505
49	0x3e540f23	0.20708899
50	0x3ebbc802	0.3667603
51	0xbe0d8f9e	-0.13824317
52	0x3e406451	0.18788268
53	0xbdad0479	-0.08448119
54	0xbde081c4	-0.10962251
55	0x3ef2c3fe	0.47415155
56	0xbe709391	-0.23493792
57	0xbed092e6	-0.40737075
58	0xbee7e482	-0.45291525
59	0xbe3089c5	-0.17240055
60	0xbdf3fd3c	-0.11913535
61	0x3ee42d25	0.44565693
62	0x3e8a8a10	0.27058458
63	0xbe806735	-0.2507874
64	0x3bac206a	0.0052528875
65	0xbd6a539c	-0.057208642
66	0xbee9fb74	-0.45699656
67	0x3cd9c91d	0.026585156
68	0xbec0132a	-0.3751462
69	0xbeb8c464	-0.36087334
70	0x3eeabb04	0.45845807
71	0xbeb6d841	-0.35711864
72	0x3ce4490f	0.027866868
73	0xbf138ad4	-0.5763371
74	0x3edd36d0	0.4320588
75	0x3e6079fa	0.2192153
76	0x3e5e60b9	0.21716584
77	0x3e71a2d2	0.23597267
78	0xbcf11b9b	-0.029432109
79	0xbc7f6582	-0.015588166
80	0xbcb67bab	-0.022275766
81	0xbb55f4ef	-0.0032647213
82	0x3e680096	0.22656474
83	0xbef228df	-0.47296807
84	0x3e011705	0.12606438
85	0xbf21eafe	-0.63249195
86	0x3eee0a02	0.4649201
87	0xbef2231a	-0.47292405
88	0xbec28426	-0.37991446
89	0x3e8c70b6	0.27429742
90	0xbccde6f6	-0.025134545
91	0xbf112b5e	-0.567068
92	0xbea71052	-0.3262964
93	0xbeb9bb83	-0.36275873
94	0xbedc7c4f	-0.4306359
95	0xbea3448c	-0.31888235
96	0xbe15b5ab	-0.14620082
97	0x3e0df4ce	0.13862917
98	0xbf298051	-0.6621142
99	0xbf0cf0a4	-0.5505469
100	0xbd5dd119	-0.05415449
101	0xbe8ebb96	-0.27877492
102	0xbeb664b1	-0.35623696
103	0x3eb828df	0.35968682
104	0xbf2b6ed8	-0.6696601
105	0xbe8002e4	-0.25002205
106	0xbed799ab	-0.42109427
107	0xbf0c3fca	-0.54784834
108	0xbeca21a7	-0.394788
109	0x3dd6d26a	0.10489352
110	0xbe117e0f	-0.14208244
111	0x3ea7ac5f	0.32748696
112	0xbeef5ed7	-0.46752045
113	0xbddf5b31	-0.10906065
114	0x3d2bc3d7	0.041934814
115	0x3e28400f	0.16430686
116	0xbd9a0989	-0.0752135
117	0xbdcecbf9	-0.100974984
118	0x3eb3959c	0.3507508
119	0xbea06568	-0.31327367
120	0xbe1b341b	-0.15156595
121	0xbd01ff12	-0.031737395
122	0xbe97f4d1	-0.29678968
123	0xbf089326	-0.5334953
124	0xbe445f59	-0.19176997
125	0xbcceaac4	-0.025227912
126	0x3ea1399f	0.31489274
127	0xbe8b2fd0	-0.27184916

2.weight f4 [128, 128]
0	0xbd34ef9e	-0.04417383
1	0x3befa5d6	0.0073134704
2	0x3d9f7255	0.07785479
3	0xbd419d09	-0.0472689
4	0x3d6f299f	0.058389302
5	0xbdb8e849	-0.0902868
6	0x3cb8304f	0.022483973
7	0x3d127bf4	0.035762742
8	0x3da839ca	0.082141474
9	0x3d2c727d	0.042101372
10	0x3d861f59	0.06548948
11	0x3d526820	0.051368833
12	0xbd3939f7	-0.045221295
13	0xbbdff109	-0.0068341536
14	0xbcad2630	-0.021136373
15	0xbdc8f97b	-0.098132096
16	0x3c5889e4	0.013216469
17	0x3da0daa3	0.07854202
18	0xbd668a85	-0.056284446
19	0xbb13398f	-0.0022464728
20	0xbc517bf8	-0.012785904
21	0xbcc1a7a7	-0.023639513
22	0x3ace7b19	0.0015753239
23	0x3dcf77ff	0.10130309
24	0xbd733e29	-0.059385452
25	0xbdaea291	-0.08527101
26	0x3d677d8a	0.056516208
27	0xbe0260e3	-0.12732272
28	0x3d13d145	0.036088247
29	0xbce35146	-0.027748715
30	0xbc89f139	-0.016838657
31	0xbd0993b6	-0.033588134
32	0xbd1b3394	-0.037890986
33	0xbd21d37c	-0.039508328
34	0xbda64d66	-0.08120231
35	0x3cb7f9d9	0.022458004
36	0x3c506636	0.0127196815
37	0x3d3af95c	0.045647964
38	0x3d85b7ab	0.065291725
39	0x3d39aa39	0.045328353
40	0x3c3de88d	0.011591089
41	0x3bf4de2b	0.0074727735
42	0xbdd14751	-0.10218681
43	0xbda74975	-0.08168308
44	0x3d68887c	0.056770787
45	0x3d6b7c8e	0.05749183
46	0x3cfd9d28	0.030958727
47	0xbdb6513f	-0.08902215
48	0x3da39875	0.07988063
49	0x3d708e0c	0.058729216
50	0x3c901541	0.01758826
51	0xbd977043	-0.07394459
52	0xbdf036d1	-0.117292054
53	0xbda75a14	-0.08171478
54	0x3d13e726	0.036109112
55	0xbd0abfa2	-0.03387416
56	0xbdc15809	-0.094406195
57	0xbc07d9b8	-0.008291654
58	0xbc221df5	-0.009894838
59	0xbdaf5126	-0.085604
60	0xbb43e551	-0.0029891322
61	0x3d603381	0.054736618
62	0x3c82db7b	0.015973797
63	0x3c99feed	0.018798316
64	0x3c004392	0.00782861
65	0x3c21dcfd	0.009879348
66	0xbe51be17	-0.2048267
67	0x3daf4621	0.08558298
68	0x3c7bea91	0.015375749
69	0x3c9624fa	0.018328179
70	0x3ae05953	0.0017116464
71	0xb9b352c9	-0.0003420322
72	0xbdc59f81	-0.096495636
73	0xbd8e057c	-0.0693464
74	0x3dea59cf	0.11442911
75	0x3d02ae1b	0.03190432
76	0xbdbcc01f	-0.09216332
77	0x3d3247cc	0.043525502
78	0x3d402787	0.046912696
79	0xbc6551c6	-0.013996547
80	0x3d6e05e5	0.05811109
81	0xbdb28ffc	-0.08718869
82	0xbd310ee9	-0.04322711
83	0x3b23e11e	0.0025006006
84	0x3cfd7a6a	0.03094216
85	0xbc07b0a2	-0.008281859
86	0x3e218cc2	0.15776351
87	0x3bcd4121	0.0062638675
88	0xbcf7b61a	-0.0302382
89	0xbd9b8ab1	-0.07594813
90	0xbd813279	-0.06308455
91	0x3d3be1d7	0.045869675
92	0x3dadd973	0.08488741
93	0x3d8f462d	0.06995807
94	0x3d9a85ff	0.07545089
95	0xbc2653d4	-0.010151822
96	0xbe01a44b	-0.12660329
97	0x3dc3e3a9	0.09564907
98	0xbde3939d	-0.111121394
99	0x3baa26e3	0.005192624
100	0xbc532860	-0.012888044
101	0x3d30e06c	0.043182775
102	0xbc814261	-0.015778722
103	0xbdbd790b	-0.09251603
104	0xbd3ab190	-0.045579493
105	0xbc6170d1	-0.013759808
106	0x3d49ba7f	0.049250122
107	0xbd85b2f2	-0.06528272
108	0x3d85d43c	0.06534621
109	0xbd3cd93e	-0.046105616
110	0xbd864f06	-0.06558041
111	0xbdeb7c68	-0.11498338
112	0xbb053e67	-0.0020331384
113	0x3ca49276	0.02008937
114	0xbbe1c543	-0.0068899705
115	0xbdd11820	-0.102096796
116	0xbb55e193	-0.0032635673
117	0x3d1b4f4d	0.037917424
118	0xbd26f23d	-0.04075836
119	0xbd86349f	-0.065530054
120	0x3d9a61cf	0.07538187
121	0xbd69dc61	-0.057094935
122	0xbe21470b	-0.15749757
123	0xbd0b24d8	-0.033970684
124	0x3d2d2f4b	0.04228143
125	0xbd16f16b	-0.036851328
126	0xbd99b62b	-0.07505449
127	0x3d4790d5	0.048722107
128	0x3baaae56	0.0052087707
129	0x3d3208f7	0.04346558
130	0xbb86aa5f	-0.0041096653
131	0xbd999b91	-0.07500375
132	0xbbea3356	-0.007147233
133	0x3d79a663	0.060949694
134	0x3d2dbd38	0.04241678
135	0x3d48eb5f	0.049052592
136	0xbd3c7904	-0.046013847
137	0xbd8d18be	-0.06889485
138	0xbc9f84fc	-0.019472592
139	0x3ca283e3	0.01983828
140	0x3c82379b	0.015895655
141	0xbd97cf3a	-0.07412572
142	0x3d35b5f1	0.044362966
143	0x3caefd1d	0.021360928
144	0xbd81d928	-0.063402474
145	0x3d8aba52	0.06773819
146	0x3c884627	0.016635014
147	0x3ce9a08f	0.028518943
148	0xbabc48fd	-0.0014365014
149	0xbd86b4d7	-0.06577461
150	0x3cb1702b	0.021659931
151	0x3d55aba0	0.052165627
152	0x3d886442	0.06659748
153	0x3add28a0	0.0016873069
154	0xbdaf9061	-0.0857246
155	0x3daef3ae	0.08542572
156	0x3c999a7f	0.018750427
157	0x3d83901c	0.06423971
158	0xbd9b3298	-0.07578009
159	0xbc2716ef	-0.010198339
160	0xbcc753b2	-0.024331901
161	0x3c563c0a	0.013075838
162	0xbd3b024d	-0.04565649
163	0x3d82ee6b	0.06393131
164	0xbd9a4fdd	-0.07534764
165	0xbc16ccce	-0.009204103
166	0x3d4cdbfd	0.050014485
167	0xbd6b65c3	-0.057470094
168	0xbd0e0509	-0.03467277
169	0xbdaa8429	-0.08325989
170	0x3c9442c6	0.018098246
171	0x3da0bfaa	0.07849057
172	0x3d2c739f	0.042102452
173	0x3cbd6b87	0.023122562
174	0xbd84b3e5	-0.06479625
175	0xbca11628	-0.019663885
176	0x3be7e032	0.0070762867
177	0xbc3a2a8e	-0.011362685
178	0xbd8219dd	-0.06352589
179	0x3d05c654	0.032659844
180	0xbd471a63	-0.04860915
181	0xbcc4f028	-0.024040297
182	0x3d62ec91	0.05540139
183	0x3d4e381c	0.05034648
184	0x3c72f1ff	0.014828204
185	0xbc70a6c4	-0.0146881975
186	0x3c78ecd1	0.01519318
187	0x3d3579d8	0.044305652
188	0xbdc0d13d	-0.09414909
189	0x3d582416	0.05276879
190	0x3d0985f2	0.033575006
191	0x3cda895c	0.026676826
192	0x3b6d2087	0.0036182718
193	0x3bf276ce	0.0073994165
194	0xbd603b75	-0.054744203
195	0xbd8a992e	-0.06767498
196	0x3d3fc576	0.046819173
197	0xbd9454a4	-0.072427064
198	0x3d3cba6c	0.046076223
199	0xbdb2353f	-0.08701562
200	0x3d99fd38	0.07519001
201	0xbda08561	-0.0783794
202	0xbd8098b0	-0.06279123
203	0xbd92ad6e	-0.07161985
204	0x3cf35110	0.02970174
205	0xbd5cd0f7	-0.053910222
206	0xbc186a32	-0.009302663
207	0xbdb327c7	-0.08747821
208	0xbd1382ca	-0.036013402
209	0xbc58aa62	-0.013224216
210	0xbd6dbf2e	-0.05804365
211	0x3ac2b6c9	0.00148555
212	0x3d39f3d4	0.04539855
213	0xbd7f8ede	-0.06239211
214	0xbd3e3909	-0.04644111
215	0x3cbac7ee	0.022800412
216	0xba050824	-0.00050747604
217	0x3d78191a	0.060570814
218	0x3d541e8d	0.051786948
219	0xbd8890a8	-0.06668216
220	0xbd5b90ae	-0.053604774
221	0xba888bd3	-0.0010417647
222	0xbd491773	-0.04909463
223	0x3d98cade	0.07460569
224	0xbd9b7c91	-0.075921185
225	0x3cc339be	0.023831245
226	0x3d95c8ad	0.073136665
227	0xbd68fe52	-0.056883164
228	0xbd93cef4	-0.072172076
229	0xbc789cbc	-0.015174087
230	0xbd89c87e	-0.06727694
231	0x3be3e469	0.006954719
232	0x3d8350d4	0.06411901
233	0x3d1c0350	0.038089097
234	0xbda0f778	-0.07859701
235	0xbd7b79cc	-0.06139545
236	0x3d9d42c9	0.07678754
237	0xbd4a25f4	-0.0493526
238	0x3b3a4aa4	0.0028425837
239	0x3d482418	0.048862547
240	0x3c1911c4	0.009342615
241	0xbc097734	-0.008390237
242	0x3cfd7577	0.0309398
243	0xbbf40e7c	-0.0074480157
244	0x3da5c431	0.08094061
245	0xbd822ea2	-0.06356551
246	0x3ba923c2	0.0051617334
247	0xbcc14f6b	-0.02359744
248	0xba7553cf	-0.0009358497
249	0x3d156f0a	0.03648285
250	0xbd2a6c2b	-0.041607063
251	0x3daf4e7f	0.08559894
252	0xbdb3fc1f	-0.08788323
253	0xbc37739c	-0.011196997
254	0xbdaf26b3	-0.08552303
255	0x3d86250f	0.06550037

2.bias f4 [128]
0	0x3ca3537a	0.019937266
1	0xbd8c7b91	-0.06859506
2	0xbdabf5ce	-0.08396493
3	0x3d153fa3	0.03643764
4	0xbd84e7a9	-0.06489498
5	0x3d23f7ff	0.04003143
6	0xbdc0ff52	-0.094236985
7	0xbd97e2d1	-0.07416309
8	0x3d04c535	0.032414634
9	0xbb6b25e3	-0.0035880737
10	0x3d390fec	0.0451812
11	0x3e88a4c6	0.26688212
12	0x3d4704ee	0.048588686
13	0x3d74b905	0.05974676
14	0xbc34bbf0	-0.011031136
15	0xbcdce9ce	-0.026966956
16	0x3d439231	0.04774684
17	0xbd900dc9	-0.07033879
18	0xbd3d11c9	-0.04615954
19	0x3cb8d4c9	0.022562401
20	0x3d02c13e	0.03192257
21	0xbdb55508	-0.08854109
22	0xbd4eb532	-0.05046577
23	0xbd01ccdb	-0.031689506
24	0xbd57e5db	-0.05270944
25	0xbd77d9ce	-0.06051045
26	0xbdcf4067	-0.10119706
27	0x3d5d44cb	0.054020684
28	0x3d874376	0.06604664
29	0xbc45e6d4	-0.0120789595
30	0xbd37c406	-0.044864677
31	0xbca78d3b	-0.020453086
32	0xbd7e617c	-0.062104687
33	0xbd8e7d6b	-0.06957515
34	0xbdd447a4	-0.10365227
35	0xbd8200ee	-0.063478336
36	0xbd63f8dc	-0.055657253
37	0x3c42523e	0.011860428
38	0x3e49ebd1	0.19718863
39	0xbd93429f	-0.07190441
40	0x3e3379f4	0.1752699
41	0x3c959ba4	0.018262692
42	0xbd0833f3	-0.033252668
43	0x3e4fbd0e	0.20286962
44	0x3c0ffc45	0.008788173
45	0xbded70ab	-0.11593755
46	0x3d6c4305	0.057681102
47	0x3bd7c020	0.0065841824
48	0x3b9b74da	0.0047441544
49	0x3d6d1cc8	0.057888776
50	0x3d6e7cd6	0.05822452
51	0xbd083f81	-0.033263687
52	0x3ca1cb7c	0.01975035
53	0x3d551999	0.052026365
54	0x3d0e55a0	0.034749627
55	0x3d576bca	0.05259303
56	0x3ba517a8	0.0050382204
57	0xbd953db4	-0.072871596
58	0xbd910f4f	-0.07082998
59	0xbcb0df18	-0.021590754
60	0x3c9f4f4d	0.019446993
61	0xbc8dcd07	-0.017309679
62	0xbd571e0a	-0.05251888
63	0x3b83d018	0.0040226094
64	0x3df8270b	0.12116822
65	0xbd6fef6c	-0.05857794
66	0x3ea505b3	0.3223091
67	0x3d45c6b0	0.048285186
68	0x3d553770	0.052054822
69	0x3d82d394	0.063880116
70	0xbc8a959e	-0.016917046
71	0xbd2b17ed	-0.041770864
72	0xbd8adc71	-0.06780327
73	0xbd9bf984	-0.07615951
74	0xbc15e649	-0.009149143
75	0x3cad5fbb	0.021163812
76	0xbdbfc82e	-0.09364353
77	0x3da0897f	0.07838725
78	0x3d1bddc1	0.038053278
79	0xbd4a95da	-0.049459316
80	0xbd8932a9	-0.06699116
81	0x3cd3b379	0.025842415
82	0xbd014c1c	-0.031566724
83	0x3e2fa636	0.17153248
84	0x3e0d11c3	0.13776307
85	0x3ce8325e	0.02834433
86	0xbcf1f600	-0.029536247
87	0xbbfe3c5b	-0.00775866
88	0xbda11b39	-0.078665204
89	0x3debcc2d	0.11513553
90	0x3df0e6fc	0.11762807
91	0x3d9f814c	0.07788333
92	0x3cbfa32f	0.023393242
93	0x3cd97011	0.026542695
94	0xbb73e819	-0.0037217198
95	0xbd359546	-0.04433181
96	0xbcd1d55b	-0.025614431
97	0xbd3aa127	-0.045563843
98	0xbaada0da	-0.001324679
99	0xbd62ed2d	-0.05540197
100	0xbde9dcee	-0.11419092
101	0xbdab3bcf	-0.08361017
102	0x3cedecdf	0.029043613
103	0x3e1f97c9	0.15585245
104	0xbce9433e	-0.028474446
105	0x3b983fe7	0.0046462896
106	0x3cc3c564	0.023897834
107	0xbd7f106a	-0.062271513
108	0x3dfed0d6	0.12442176
109	0x3e04e7da	0.1297907
110	0xbb8acf7c	-0.00423616
111	0xbc2bd52c	-0.010487836
112	0x3d57768d	0.052603293
113	0xbd1b58fe	-0.037926666
114	0xbcca98b9	-0.024731027
115	0x3d825750	0.0636431
116	0x3dc3f54c	0.09568271
117	0x3d4b641b	0.049656015
118	0xbd99a71d	-0.075025775
119	0x3e448a4e	0.19193384
120	0x3c886105	0.016647825
121	0xbdb996d6	-0.09061973
122	0xbd091e16	-0.033475958
123	0xbcc3bfe0	-0.023895204
124	0x3cac1b46	0.021009099
125	0x3d267152	0.040635414
126	0xbd2bdfdf	-0.041961547
127	0xbd7f203d	-0.062286604

4.weight f4 [16, 128]
0	0x3c656de8	0.0140032545
1	0x3d8d019e	0.06885074
2	0xbd85b248	-0.06528145
3	0x3c9c406a	0.019073684
4	0xbdecadb0	-0.11556566
5	0xbd132221	-0.03592122
6	0x3c016f57	0.007900081
7	0xbc2d857b	-0.010590906
8	0xbcea0ffc	-0.028572075
9	0xbde2a338	-0.11066288
10	0xbd1b9096	-0.037979685
11	0xbe133ba0	-0.14378214
12	0xbd9cc525	-0.0765479
13	0x3c69bff9	0.014266961
14	0x3ca14cdc	0.01968997
15	0xbbe7223e	-0.0070536425
16	0x3b9c4398	0.0047688
17	0xbd9a2352	-0.07526268
18	0xbcf67cb9	-0.03008877
19	0x3c67d8f1	0.014150844
20	0xbd54945b	-0.051899295
21	0xbd33e705	-0.04392149
22	0x3cbb8267	0.02288933
23	0x3d467ab4	0.048456863
24	0xbd9f0831	-0.07765234
25	0xbd6de641	-0.058080915
26	0x3d9e386c	0.07725605
27	0xbd1cb2dd	-0.038256515
28	0x3d9e8ee5	0.07742099
29	0x3d596244	0.05307223
30	0xbd9c0851	-0.07618774
31	0x3da15b7e	0.07878779
32	0x3d0fe9d8	0.03513512
33	0x3d8392b0	0.06424463
34	0xbe3c9d8c	-0.18419474
35	0xbdd046bc	-0.101697415
36	0x3d8e7a32	0.06956901
37	0xbd9f9447	-0.077919535
38	0xbd31582e	-0.043296985
39	0x3d93ce86	0.072171256
40	0xbd9c16b0	-0.07621515
41	0x3d4882c5	0.048952837
42	0x3dc03d05	0.093866386
43	0xbe2ad025	-0.16680963
44	0xbccce802	-0.025012974
45	0xbd9ac308	-0.075567305
46	0xbddf9ed7	-0.10918968
47	0xbd930997	-0.071795635
48	0x3daf6957	0.08565014
49	0xbca9416d	-0.02066108
50	0xbdb03f3f	-0.08605813
51	0x3ccf1c11	0.025281938
52	0x3b6c3d6e	0.0036047357
53	0xbc91fc40	-0.017820477
54	0xbce00749	-0.027347224
55	0xbd9dbd36	-0.07702105
56	0xbd160b65	-0.03663196
57	0x3d8ab97a	0.06773658
58	0xbd697157	-0.056992855
59	0xbda4a800	-0.08039856
60	0xbc7f2b52	-0.015574293
61	0x3cbd9a5e	0.023144897
62	0xba793ba8	-0.00095074857
63	0xbcc8cf46	-0.024512898
64	0xbde7401e	-0.11291526
65	0x3da8a84d	0.08235226
66	0xbdafa51e	-0.085764155
67	0xbca7d188	-0.020485654
68	0xbd46ef2b	-0.048567932
69	0x3d1752c4	0.036944166
70	0x3d7f772e	0.062369518
71	0xbe095646	-0.13411817
72	0x3b3e8ec4	0.0029076794
73	0xbda70e92	-0.08157076
74	0xbe4ca99a	-0.19986573
75	0x3df910fd	0.121614434
76	0x3d4677f7	0.04845425
77	0x3d3d13c2	0.04616142
78	0x3d8c7c06	0.06859593
79	0x3cc2f9d4	0.023800768
80	0x3dad1d88	0.08452898
81	0x3bcf0821	0.0063181077
82	0x3cd89bd9	0.026441501
83	0xbdfcb342	-0.12338878
84	0x3c47d80f	0.0121975085
85	0xbe23bdb1	-0.1599033
86	0xbc3306e7	-0.010926939
87	0x3cc797af	0.02436432
88	0xbd8ffb81	-0.070303924
89	0xbde4d008	-0.11172491
90	0xbd829e45	-0.06377844
91	0xbd9faa08	-0.07796103
92	0x3d4c0dbd	0.04981779
93	0x3ce3ecef	0.02782294
94	0xbd8b8fe1	-0.06814552
95	0xbca2c922	-0.019871298
96	0xbd7fffd4	-0.062499836
97	0x3d15cd4b	0.036572736
98	0xbda5992f	-0.08085858
99	0x3d57612b	0.0525829
100	0x3b3c88b2	0.0028768
101	0x3d009dd5	0.03140052
102	0x3d84f366	0.06491737
103	0xbe13929c	-0.14411396
104	0xbd613875	-0.054985482
105	0xbd106d9c	-0.03526078
106	0xb8994f05	-7.310327e-05
107	0x3ce690b3	0.02814517
108	0xbd4fb0fb	-0.05070589
109	0xbe78ffe2	-0.24316362
110	0xbd898538	-0.067148626
111	0xbdd9da45	-0.10637335
112	0xbce8efb2	-0.028434608
113	0x3d5c9cb8	0.053860396
114	0xbe2eb31c	-0.17060512
115	0xbe2d9bad	-0.16953917
116	0xbe1fdbfe	-0.15611264
117	0x3d40f8ab	0.04711215
118	0x3a71bf66	0.0009221941
119	0xbe47dd71	-0.19518067
120	0xbd923ad3	-0.07140126
121	0xbd83dfba	-0.06439157
122	0xbda43617	-0.08018129
123	0xbd594f51	-0.053054158
124	0xbc2c0f68	-0.01050172
125	0xbe1bceba	-0.15215579
126	0xbd8c12d1	-0.068395264
127	0x3d9950fa	0.07486148
128	0xbdd6a8e4	-0.10481432
129	0x3d879f1d	0.06622145
130	0x3c7b5920	0.015341073
131	0xbd459b0d	-0.04824357
132	0xbc27c7e3	-0.010240528
133	0x3d75aaf5	0.05997749
134	0x3bfe12e7	0.007753718
135	0x3d75d8c6	0.060021184
136	0xbd020765	-0.031745333
137	0xbe1dec23	-0.1542211
138	0x3d4b8957	0.049691524
139	0xbd49e588	-0.049291164
140	0xbc79b504	-0.015240911
141	0x3d955d2d	0.072931625
142	0xbc5fbf06	-0.013656383
143	0xbc87b34c	-0.016564988
144	0xbdb216ff	-0.086957924
145	0xbd7183ae	-0.05896347
146	0xbbe3958d	-0.006945318
147	0x3c733c61	0.014845938
148	0xbbb781f0	-0.0056002066
149	0x3d9842c7	0.07434612
150	0xbb2ebd95	-0.0026663293
151	0x3d8ba134	0.068178564
152	0x3d2a0e38	0.041517466
153	0xbd55bf7b	-0.052184563
154	0xbd44e185	-0.048066635
155	0xbd6eb9b9	-0.058282588
156	0x3c63f7d9	0.013914072
157	0x3db02118	0.08600062
158	0x3d956eb2	0.07296504
159	0xbd933ce8	-0.07189351
160	0x3d6bddca	0.05758456
161	0x3c16f48c	0.009213578
162	0x3d20a62d	0.039220978
163	0x3bbdbc8d	0.0057902993
164	0x3d54e704	0.051978126
165	0xbb3b238b	-0.002855512
166	0xbdf00de2	-0.11721398
167	0x3da3a497	0.079903774
168	0xbdee9596	-0.11649625
169	0xbcb35f9a	-0.021896172
170	0xbd5968fe	-0.053078644
171	0xbdc02ed9	-0.093839355
172	0xbc33b797	-0.010969064
173	0xbd0a6d13	-0.033795428
174	0xbd589d70	-0.05288452
175	0x3d331591	0.04372174
176	0x3b97a593	0.0046278923
177	0x3d0dbb0a	0.034602202
178	0xbbfd9693	-0.007738897
179	0xbd5f680b	-0.054542582
180	0xbb9ea3cb	-0.004841303
181	0x3d520893	0.05127771
182	0xbd9cc6b6	-0.076550886
183	0xbd979326	-0.07401113
184	0xbdde3a5b	-0.10850974
185	0xbd198d4d	-0.03748827
186	0xbcb0541b	-0.02152448
187	0x3d2e1a02	0.04250527
188	0x3ca1359a	0.01967888
189	0x3d42adc4	0.047528997
190	0xbb619c7b	-0.0034425545
191	0x3d94198b	0.072314344
192	0xbe315b3b	-0.17319958
193	0xbc1cead9	-0.009577476
194	0xbe7b7ab1	-0.24558522
195	0x3d8e4b29	0.069479294
196	0x3ce4d6c7	0.027934445
197	0x3d5e2e14	0.054243162
198	0xbbed9367	-0.0072502377
199	0x3c7caa87	0.015421516
200	0x3c9adbf6	0.018903714
201	0x3d002069	0.03128091
202	0x3c036c22	0.008021386
203	0xbd9775ee	-0.0739554
204	0xbb62002f	-0.0034484973
205	0xbc354e68	-0.011066057
206	0xbd5e9266	-0.054338835
207	0x3c0fbca5	0.008773004
208	0xbd5377a7	-0.05162778
209	0xbcd3409c	-0.025787644
210	0x3c0e990b	0.0087034805
211	0xbe1498f1	-0.14511468
212	0xbe05e8c9	-0.13077082
213	0x3ce82394	0.028337277
214	0xbc0ee69c	-0.008721974
215	0xbe4a7051	-0.19769408
216	0xbd4369a6	-0.047708176
217	0xbdf036a0	-0.11729169
218	0x3e278466	0.163591
219	0xbe9a581c	-0.30145347
220	0x3d086c1f	0.033306237
221	0xbd936c24	-0.071983606
222	0xbdb3cc2a	-0.087791756
223	0x3d6fda06	0.058557533
224	0xbb8b85bb	-0.0042578853
225	0xbdb36dfe	-0.08761214
226	0x3d3af3d6	0.045642696
227	0xbd66a4e0	-0.05630958
228	0x3d3d8c21	0.046276215
229	0xbc1767a9	-0.009241023
230	0x3ce2053b	0.027590385
231	0xbda87ebc	-0.08227298
232	0xbd5c0e2c	-0.053724453
233	0xbd800629	-0.06251175
234	0x3cbc00a7	0.02294953
235	0xbd89c99b	-0.06727906
236	0xbef701a2	-0.48243433
237	0x3d00b1b4	0.03141947
238	0xbd8160a7	-0.06317263
239	0xbd45fef8	-0.04833886
240	0xbe0b4e28	-0.13604033
241	0xbd6d26f9	-0.057898495
242	0x3dd8f0f5	0.10592834
243	0x3dc76ba1	0.097373255
244	0xbdb1be75	-0.08678905
245	0xbd221ba3	-0.039577138
246	0xbd255f03	-0.040373813
247	0xbe00f749	-0.12594332
248	0x3c4ff7f8	0.012693398
249	0xbbc7136e	-0.0060753142
250	0xbc99c74b	-0.018771788
251	0x3d133299	0.035936926
252	0xbe2e2bab	-0.17008846
253	0xbde05963	-0.10954549
254	0x3c88f100	0.01671648
255	0x3d6289f8	0.05530736

4.bias f4 [16]
0	0xbc551ae3	-0.013006899
1	0xbde52d8b	-0.11190327
2	0xbd5dfcde	-0.05419623
3	0xbe5b9227	-0.21442471
4	0xbdad6631	-0.08466757
5	0xbdd27a69	-0.10277254
6	0xbd72a665	-0.059240717
7	0xbdcc6ebf	-0.09982061
8	0xbe4e0bda	-0.20121709
9	0xbe01d076	-0.12677178
10	0xbd4d88f2	-0.05017943
11	0xbd1f775c	-0.03893219
12	0xbe035923	-0.12826972
13	0xbd0b8c2a	-0.034069218
14	0xbe440ca0	-0.19145441
15	0xbdf54add	-0.1197717
