Runs/9/final_model-8thSize.pth (torch, 75908 bytes, 6 tensors)

0.weight f4 [128, 5]
00000000: afa4 87bc 05d2 81be 8819 833d 8fde e63d
00000010: db0a dbbe 9698 a63e 1112 933e 158d 943e
00000020: 8643 9cbc 7f12 8f3e 21aa a4bc 3403 803d
00000030: 54b1 cf3d b2dd 69bd ce2f c2be e0cd a13e
00000040: 9ec7 1f3e cbf8 a13e c51d a4be 1edb ea3e
00000050: 7a89 863e 7581 853f c971 f3bd 812c c73e
00000060: 293b abbe ba35 babd 5b3d 243f 3cdf 203c
00000070: 91c1 673e cec6 d23d 243e a8be f7e6 d93e
00000080: afe7 dcbe e59e 78be c645 86be 542b f63c
00000090: f47e 85be 8e9f 8c3b 0891 52bd 7520 a3bd
000000a0: 527c 4cbe 4d71 d23e c7aa 2cbe 64d4 5dbb
000000b0: f59d a9be efe1 c73e b4c1 dabe 767c 703e
000000c0: 2e35 8dbd 7e4a a0be 3355 78be a4d0 bdbe
000000d0: 6827 bb3d cf15 a5bc 3b17 003e 7e9b 2a3d
000000e0: 4551 a93e f165 babd 669f 953c a260 b8be
000000f0: 8fef 85be 2250 61be 8a81 f53d 12f6 76be
00000100: 7c6d b6bd dd01 e4be 3210 bc3d cc71 523e
00000110: 2d22 d2bd acec b63e cd4e 89be 44a8 7abd
00000120: 1e70 393e 5345 f1be d718 a73e 6aaa d53d
00000130: f8fe c1be ef1a 413e 3590 873c 090f f0be
00000140: 54b5 a3be 0e10 313e 8207 ad3e 77ab 1cbe
00000150: 329f babe f755 93bd eb51 b1be e509 7d3e
00000160: 8579 c1be 0f9c f3be fd0c 423d 9554 f93e
00000170: 47ba ff3d 7d7e cabe 5dc1 b5be e6c8 213e
00000180: 45d1 2c3c 28db f73c f730 a13d 09ae 273e
00000190: 6fca afbe b8d9 a23e 1ba5 05be 505c 0cbd
000001a0: b6b9 c2be 5444 a23b a1ab 9e3d dca8 72be
000001b0: da9b d5bd c686 8abe e679 9b3c 043c a7bc
000001c0: 4512 3f3d f934 ba3c ae7a 7dbe 7ca2 a3be
000001d0: 31cd 6d3e 6536 543e d743 f5be af96 15bf
000001e0: 29e5 cabe ab84 173e d8ee 9d3e 5f0d d5bd
000001f0: 99a8 14be c377 e1be eb15 903e 5a23 a1be
00000200: c12a 233e 54c9 d2be ee24 c23e 3291 ffbd
00000210: 4e97 babe 6796 ac3e 8c6a f43c 3bbc e23e
00000220: 9306 cabc b105 84bd 3133 5dbd a424 73be
00000230: c918 61be ba7e 3ebe 6545 70bd 07c3 95be
00000240: 19a7 c63d f12c d83e 7251 54bc accc adbe
00000250: e102 a1be d864 e43e 75bf 44be f02f 5ebe
00000260: aa80 033e 2552 3abe 1c5c b1be d664 dfbe
00000270: e5f6 003f d37b 9f3d 5e40 cdbe 928a ab3e
00000280: 67e7 553d 0d1c 48be 8b16 ba3c fca7 d23d
00000290: 8157 03bf 1202 5e3e ca08 9c3e 91a9 e93d
000002a0: b2f1 72be 3896 e03e b94f bc3d f6de 17bd
000002b0: e5e4 d2be 6868 923e 466a bd3e fa0d 99be
000002c0: d87b cfbe 53fb 963d 7122 f3be 76b0 d5be
000002d0: f403 cdbd 90cc c8bd a518 8cbe 4bee a73e
000002e0: bf21 a43e 7c3b 593e 6d16 b0be 72bc cfbe
000002f0: ddc7 5ebd 1b74 00be 2108 f23d 3f8a c7be
00000300: 0f6b b83e 1083 813e 353d 903d 1cb7 03be
00000310: fee6 2cbf 0c2c e63c 97a1 743d 8e07 1abf
00000320: 08c4 2e3e 4e0c 05bc f34d c33e e031 a63d
00000330: a047 483d de64 62bc 586c 00bf 8c48 8f3e
00000340: d246 1abf e023 1dbf 800e d3bd ed06 923e
00000350: f55f aabe e8ae b5be 3a62 0ebe 7f4a 2c3e
00000360: badb 7ebf 4618 83be 2697 9a3e 9415 d33e
00000370: 34f9 d2be 4641 f0be c33a 0b3e 1735 bbbe
00000380: 47db 85be 3140 763e 33f6 0dbf 110d 763c
00000390: 0dc3 bd3e c8a5 aa3e 45ab b13d 6d90 e6be
000003a0: 5b37 c5be 10c9 783e 9331 ef3e 3596 c63e
000003b0: 76fd 163e 5166 19bd 3a1c 623e 1bc2 fdbe
000003c0: 6c12 863e 9fe4 45be 0c4f 5ebe a83a a2bd
000003d0: 2b57 a7be 7873 d0be e85a adbc 42e1 1a3e
000003e0: af5f acbe 4024 26be 3157 903e 5a88 2a3d
000003f0: c826 30be 5992 043d 865e 873e 4e36 00be
-0.01655802 -0.25355545 0.06401354 0.112729184 -0.4278172 0.3253829 0.2872472 0.29013887
-0.019075166 0.279438 -0.020100655 0.06250611 0.101412445 -0.05709619 -0.37927097 0.31602383
0.15603492 0.31635126 -0.32053962 0.45870298 0.2627676 1.0430132 -0.11886937 0.3890114
-0.33443573 -0.09092279 0.6415612 0.009818848 0.22632433 0.10291825 -0.3285991 0.42559025
-0.4314551 -0.24279363 -0.26225108 0.030049957 -0.2607342 0.0042914813 -0.051407844 -0.07965175
-0.199693 0.41102067 -0.16862021 -0.0033848519 -0.33128324 0.3903956 -0.4272591 0.23484978
-0.06894909 -0.31306833 -0.24251251 -0.37073243 0.091383755 -0.020152 0.12508862 0.041652195
0.33069816 -0.09101475 0.018264484 -0.36011225 -0.2615933 -0.22003224 0.11987598 -0.24117306
-0.08907601 -0.44532672 0.091827765 0.20551223 -0.10260425 0.3572744 -0.26817933 -0.061195627
0.18109176 -0.47123203 0.3263614 0.104328945 -0.37889838 0.1885793 0.016548255 -0.4688647
-0.3197428 0.1729128 0.3379479 -0.15299784 -0.3644958 -0.07194131 -0.3463281 0.24710806
-0.37788025 -0.4758 0.047375668 0.48697343 0.124867015 -0.39549628 -0.35499087 0.15799293
0.010547941 0.030255869 0.078706674 0.16374983 -0.34334132 0.3180673 -0.13051264 -0.034267724
-0.3803231 0.004951993 0.07747579 -0.23697227 -0.10430117 -0.2705595 0.018979024 -0.02041436
0.046648283 0.022730337 -0.2475383 -0.31959903 0.23222806 0.20723875 -0.4790332 -0.5843305
-0.3962796 0.14796703 0.30846286 -0.10402941 -0.1451744 -0.44036683 0.28141722 -0.31472284
0.15934278 -0.41169226 0.379188 -0.12478866 -0.3644356 0.33708498 0.029835962 0.44284233
-0.024661338 -0.06446398 -0.054003898 -0.23744446 -0.21982111 -0.1860303 -0.05865993 -0.29250357
0.0969984 0.42221788 -0.012958871 -0.33945215 -0.3144751 0.44608188 -0.1921366 -0.21697974
0.1284205 -0.18195398 -0.34640586 -0.4363162 0.5037673 0.077872895 -0.4008817 0.33504158
0.052222636 -0.1954195 0.022715827 0.10285947 -0.51305395 0.21680477 0.30475456 0.11409295
-0.23725012 0.43864608 0.091948934 -0.037077866 -0.41190258 0.2859528 0.36995143 -0.29893476
-0.40524173 0.07372155 -0.47487214 -0.41736192 -0.100105196 -0.09804642 -0.27362552 0.3279899
0.32056996 0.21214098 -0.3439211 -0.4057346 -0.054389823 -0.1254429 0.11817957 -0.3897266
0.3601918 0.25295305 0.07042924 -0.1286282 -0.67539966 0.028097175 0.059724417 -0.6016778
0.17066967 -0.008120609 0.38145408 0.08114982 0.048896432 -0.013817994 -0.5016532 0.27985036
-0.60264313 -0.61382866 -0.103055 0.2852091 -0.33276334 -0.35485005 -0.13904658 0.16825293
-0.99554026 -0.25604457 0.30193442 0.412274 -0.41205752 -0.469248 0.13596635 -0.36563942
-0.26143858 0.24047925 -0.55453795 0.015017764 0.37062874 0.33329606 0.08675245 -0.45032063
-0.38518795 0.2429545 0.4671751 0.38786474 0.14745125 -0.037451092 0.2208108 -0.49562153
0.2618593 -0.19325493 -0.21709841 -0.07921344 -0.3268369 -0.40713096 -0.021161512 0.15124992
-0.3366675 -0.16224766 0.28191522 0.04163394 -0.17202294 0.03236613 0.26439303 -0.12520716

0.bias f4 [128]
00000000: 2497 e8be 00c2 63be d123 c9be 16c3 a7be
00000010: 1ee5 c1be 067a e9be ee63 41be cfd3 2a3e
00000020: 53be da3e cf60 bf3e 40ca 19bf f2fe 2bbe
00000030: 106c 2c3c 8ff4 6abe c15f 9dbe 6033 aabe
00000040: 5a37 95be d476 10bf de34 d3bd 4075 1fbf
00000050: 2c1c e73e 1f18 64bd b47a b43e 3175 bf3e
00000060: b617 c03e c05d 0bbd 30b5 dfbe b7d6 c8be
00000070: 8450 273f 39e9 483e 5edf 93be 4180 9c3e
00000080: 6d7d 18be f04e d7bd 789c f4bd c619 d93e
00000090: e633 873e 6cc1 7ebe f4ee 6cbd 7f9a 6ebd
000000a0: cbae cd3e c508 b1be 4253 c3be e5a2 f83e
000000b0: 37bd cd3e b4bc 813e 710a 793e d524 f7be
000000c0: 1fdb b0bd 4156 a6be fd60 a23e 8d25 0e3e
000000d0: 8b3b a8be e3fb 213e 410f a33e 35f3 713d
000000e0: 9536 2fbe 5ff4 b5bd 89cc 9e3c 9b38 7cbe
000000f0: 1937 52be 5f0b cfbd 0b7d e9be 48df 593e
00000100: b260 d53e 9b85 adbe 6130 0d3f 5db0 cebe
00000110: e594 66be 5118 233e ff24 81be 3df1 b93e
00000120: c53f a83d 261e 383b e47a 8bbd e4cc ddbe
00000130: 8ef8 ec3e 085d e83e 442d 373e 25af 873e
00000140: 20eb 18be 332e dcbe 0477 80be d67a 353e
00000150: e1f9 84be f008 0f3c da09 fdbe ede9 073f
00000160: 98e8 7bbe ea1f 153e e830 d5be d43d b4be
00000170: 7bc8 22be ef94 b9be 1151 0abf 706c bcbe
00000180: 666e acbe eeac f3bb 6b3b 12bf 0231 97be
00000190: 4f60 b53d fe23 c2be e4cb 6e3e 0f1f 513e
000001a0: 97a0 bfbe fc89 14be 234d 88be c142 b53c
000001b0: e211 87be 33ed d13e 4e17 a8be d052 8dbe
000001c0: 2cf4 393e 2e67 8ebe a25c 8b3e 3a5d 97bd
000001d0: 94af b3be 2268 efbe d9c1 bc3e c489 53bd
000001e0: 676b f83d 6b3f 983d d403 b7bd f11c 11be
000001f0: 76ec 9ebe 645e 33be 8eda 68be fc7a c5be
-0.4542781 -0.22241974 -0.39285138 -0.32766026 -0.37870115 -0.4560091 -0.18885776 0.16682361
0.4272333 0.37378547 -0.60074234 -0.16796473 0.010523811 -0.22944854 -0.30737117 -0.3324232
-0.29143792 -0.5643132 -0.10312818 -0.62288284 0.4513868 -0.055687066 0.35249865 0.37394097
0.3751809 -0.034024954 -0.43692923 -0.39226314 0.6535723 0.19620217 -0.28881353 0.305666
-0.14891596 -0.10513103 -0.119439065 0.42402476 0.26406783 -0.24878472 -0.05784507 -0.058252808
0.4017242 -0.34577003 -0.38149458 0.4856178 0.40183422 0.25339282 0.2432039 -0.48270288
-0.08635544 -0.32487682 0.3171462 0.13881512 -0.32857928 0.15818743 0.31847575 0.05906983
-0.17110665 -0.08884501 0.01938464 -0.24630968 -0.2052883 -0.10109591 -0.45603213 0.21276581
0.41675335 -0.33890995 0.55151945 -0.4036893 -0.22517736 0.15927245 -0.25223538 0.36316863
0.08215288 0.0028094142 -0.06810549 -0.43320382 0.46283382 0.45383477 0.17888361 0.26500812
-0.14933443 -0.43003997 -0.25090802 0.1772264 -0.25971892 0.008730158 -0.4942158 0.5309132
-0.24600446 0.14562955 -0.41638875 -0.3520342 -0.1589679 -0.3624644 -0.5402995 -0.3680148
-0.33677977 -0.0074363863 -0.57121915 -0.29529577 0.0885626 -0.37918085 0.23319966 0.20422004
-0.37427208 -0.14505762 -0.2662135 0.022126557 -0.2638083 0.4100128 -0.3283028 -0.27602243
0.1815955 -0.27813095 0.2721911 -0.073908284 -0.35094893 -0.46759135 0.36866644 -0.051645055
0.1212986 0.07433971 -0.08936277 -0.14171197 -0.3103978 -0.17516476 -0.22739622 -0.38570392

2.weight f4 [128, 128]
00000000: a2b2 c3bd c7d4 c4bd 2f31 863a 1a6a 12be
00000010: d954 a0be 6c08 e3bd a77f 46bc e870 9a3d
00000020: 75a8 d83d c244 cd39 a30c 32bc b16d 4a3d
00000030: 2143 7ebd b360 f8bd f492 c13c 1024 d9bd
00000040: 59bd bcbd 6381 a8bc 87aa 45be 46d7 57bd
00000050: d38e f3bd bb9b a2bb 3300 4bbd efd1 5a3c
00000060: 9c4d c4bd 7220 813d 39f4 4b3d 7f97 35bb
00000070: 65c3 03be 2c7f c53c ec4c 85bd 02c9 37bc
00000080: fd37 ee3c 65f0 26be 9573 b2bd 0709 7dbd
00000090: ecd8 8a3c d7ee 84bb a225 243d 1136 963d
000000a0: c188 de3c decb 88bd 4545 e03b b40c 403e
000000b0: ef51 8bbd 77f7 a6bb a592 05be 789f ddbd
000000c0: aecb c43b aa4a b4bd e150 d73b 98c4 84bd
000000d0: fd2f d0bd 0cd0 593d 5a25 9f3d 9bb8 6bbd
000000e0: a6e0 c23d 99ae 203d 0e04 903d de61 7d3d
000000f0: c50a 213d 6b11 a3bd 25ec 9bbd c534 36bd
00000100: 06a0 b6bd c455 88bd 429d cdbd c9b0 86bd
00000110: 7c5c d0bc 62f1 e1bb 1d21 16bd 5e50 cebc
00000120: b26c 8f3d 9b37 473d a8ae 6b3d 0950 ddbd
00000130: 0f0d 50bd 1ac2 f5bc 8457 31bd 9219 08bd
00000140: dd22 b23c 1d0e 5abd f106 3f3c ef92 a4bd
00000150: cc30 a53d 52df 6e3d 28c3 c03d 5fcb 2fbd
00000160: 08ab b13c 2472 553d 083e 92bb b092 96bb
00000170: 0535 093d 5a25 52bd ae8e 29bd bfd2 1fbd
00000180: 9731 973c 175b 5a3d 392f 833d 028d b83c
00000190: 9c0b 0bbe 30af 6bbd 707b b9bd 5543 c93c
000001a0: 91fc bd3d 936b ef3b 0273 0a3e 8a0a b0bd
000001b0: 1555 81bc b86a e3bc 4cfc 463d c5d4 833d
000001c0: 3fd6 b7bd dd74 293d 8970 86bd b1db 80bb
000001d0: 7b83 003c 2930 cd3c ce31 ef3c b7de fdbb
000001e0: 4664 31be 4009 aa3c 7bc7 8a3d a196 abbd
000001f0: 0e5e dfbd 831c 12be 0e7b 3e3c fbc0 b13d
00000200: 2fe1 f2bc dd39 38bd ebe8 38bd 01e8 253c
00000210: 561e bc3d caa7 493c ada9 afbd a826 df3c
00000220: 4513 153c 0887 943d c9f4 863d f354 893d
00000230: a02d 4ebc 8133 70bc 096a 493d d470 3b3d
00000240: d1db 99bc 0c79 523d 1372 fe3b 8180 233d
00000250: 252c 5ebd 0802 8fbc 4421 8abd 8e4c 923c
00000260: 62f1 a0bd 0b68 c8bc 7d3d 5cbd 4dc6 a83c
00000270: 799c 5ebc d382 b43d e95d 9bbd 0289 953d
00000280: e2ee 80bd 9cb0 a73d 5a9d 6c3d dbb8 ffbc
00000290: 6d75 943d 8283 2f3c 8be4 95bd da50 2d3d
000002a0: 6dc1 6ebd 0791 15bd d415 16bd 0ba5 6fbd
000002b0: bd5f a53b 1116 673d cc9a 45bd b6dd 603d
000002c0: 349b 49bd b078 5cbd c57f 45bd 60c5 143d
000002d0: 49da 5abc 25f3 4c3c 9c32 253d ca53 8cbd
000002e0: 7727 acbd ed34 34bc b63a 27bd b902 fcbb
000002f0: 2e09 3ebd 8979 abbd e39e a73c 593f 38bd
00000300: 9ad5 aebd 8b68 bdbc 220f 383c f55f 63bd
00000310: 8884 273c fd4d 26bd 8c96 993d 9a7f 043d
00000320: 19a7 ec3c 2870 803d e402 9dbd a998 503d
00000330: d16b 783c 0e66 b63d cde7 b23d 3e9d b2bd
00000340: 1576 623d fc33 a8bd 13d9 18bd 4c75 31bd
00000350: e27e ae3d 9a5c 3dbd 6b1c 8f3d 8260 453c
00000360: dc3f 28bc 2bac 8d3d 37ab 29bd 85ab 0f3d
00000370: 60eb 86bd 9691 80bb 4803 663d f10d 0cbd
00000380: 315a 96bd d210 a23d b999 53bd 00f1 2fbd
00000390: e4d0 a9bd fdc4 43bc 9ba5 40bd a90a 98bd
000003a0: 1184 57bd 0e10 283d 69f5 94bd 058a abbc
000003b0: 1d88 cfbc 86dd 69bd a5ad 2a3d c39a dc3c
000003c0: 7abe 823d 9446 a03d 7f43 9a3d 1734 343d
000003d0: 745c 85bd 4f61 9cbc 08fd 61bc 253d 08bd
000003e0: 1e4f 62bd debf 85bd 2a51 063d 80fb a6bc
000003f0: f79b adbd b8dc a83d f038 a1bd 3d56 3fbb
-0.09555556 -0.096108966 0.0010238047 -0.14298287 -0.31314734 -0.11085591 -0.012115396 0.075410664
0.10579006 0.00039151876 -0.010867271 0.049421016 -0.062075738 -0.12127819 0.023629643 -0.106025815
-0.09215803 -0.020569509 -0.19303332 -0.052695535 -0.11892476 -0.004962412 -0.049560737 0.013355716
-0.09585115 0.063050166 0.049793456 -0.0027708707 -0.12867506 0.024108492 -0.06508812 -0.011217358
0.029079432 -0.1630264 -0.08713452 -0.061776187 0.01694914 -0.0040567922 0.040074952 0.07334531
0.027164819 -0.066795096 0.006844195 0.18754846 -0.06802737 -0.005095418 -0.13044222 -0.10821432
0.006005726 -0.088033035 0.006570921 -0.0648281 -0.10165403 0.053176925 0.07770796 -0.0575491
0.095155045 0.03922901 0.07032023 0.06186091 0.03931691 -0.079623066 -0.076134 -0.04448392
-0.08917241 -0.066569835 -0.1003976 -0.06576688 -0.025434725 -0.00689523 -0.036652673 -0.025184806
0.07003154 0.048637014 0.057539612 -0.10806281 -0.050793704 -0.029999781 -0.043296352 -0.03322751
0.02174514 -0.053236116 0.01165937 -0.08035838 0.08065948 0.058318444 0.09412223 -0.04291856
0.021688 0.052110806 -0.004462961 -0.004595123 0.03349783 -0.051305152 -0.041395836 -0.039019343
0.018456263 0.053309526 0.064054914 0.022528175 -0.13578647 -0.05754012 -0.09056747 0.02456824
0.09276689 0.007306525 0.13520434 -0.0859576 -0.01578764 -0.027760848 0.048580453 0.06437067
-0.08976411 0.041371215 -0.06564433 -0.0039324393 0.007843847 0.025047379 0.029198553 -0.007747497
-0.17323408 0.020756364 0.06776329 -0.083783396 -0.109066114 -0.14268689 0.011626018 0.08679386
-0.029648392 -0.044977058 -0.045144003 0.010126115 0.091854736 0.01230807 -0.08577285 0.027240112
0.0090988325 0.07252318 0.06589658 0.06705656 -0.01258412 -0.014660717 0.04917339 0.0457619
-0.018781574 0.05138497 0.0077650636 0.039917473 -0.05424132 -0.017457023 -0.06744626 0.01785877
-0.0785854 -0.024463674 -0.053769577 0.02060237 -0.013587111 0.08814015 -0.07586271 0.07301523
-0.06295563 0.081879824 0.05776725 -0.031216076 0.0724896 0.010712506 -0.07318982 0.042313434
-0.058289934 -0.036515262 -0.03664191 -0.058507007 0.0050468133 0.05641753 -0.04824333 0.05489894
-0.04922028 -0.053826034 -0.048217554 0.036321044 -0.013357707 0.012509142 0.040331468 -0.06851919
-0.08405965 -0.010998947 -0.040827475 -0.0076907543 -0.046395473 -0.0837279 0.020461505 -0.044982288
-0.08536835 -0.023121139 0.011234077 -0.055511434 0.010224469 -0.04060172 0.07499418 0.032348253
0.028888272 0.06271392 -0.07666567 0.050926838 0.015162424 0.08906184 0.08735619 -0.08721398
0.055288393 -0.0821304 -0.037316393 -0.043324754 0.08520295 -0.04623089 0.06987842 0.012046935
-0.0102691315 0.06917604 -0.04142305 0.035075683 -0.06587863 -0.003923605 0.056155473 -0.034192983
-0.073414214 0.079133645 -0.051660273 -0.042954445 -0.08291796 -0.011948821 -0.047032934 -0.07423908
-0.052616183 0.041030936 -0.07273371 -0.020939836 -0.025333459 -0.057096027 0.041669507 0.026929265
0.06383987 0.07825962 0.07532405 0.04399499 -0.06511775 -0.01908937 -0.0137932375 -0.033261437
-0.055251233 -0.065307364 0.032792248 -0.020383596 -0.084770136 0.08245224 -0.07872188 -0.002919569

2.bias f4 [128]
00000000: b608 f53c d6c6 96bc c155 c9bd fbd9 b1bd
00000010: 5abc e2bd cc23 05bb fd58 adbd e644 2e3e
00000020: 95e9 933c 6a4e cc3c 1b34 8ebc a120 71bb
00000030: bc1c 8abd ee41 a4bd a5a2 36bd d43d f53c
00000040: 4284 e6bd d888 833d c16e 01bd 47bc 853b
00000050: 59ad 1cbd 55bb 3dbd 6393 acbd 5945 683d
00000060: 8218 42bd 992b 78bc 34d1 bcbc 5ed4 f6bc
00000070: 932f 343d e11a 15be 6ea5 d8bd ce66 2b3b
00000080: f398 64bd 4dbf 50bc 226b 323d dedc 763d
00000090: 4406 54bc 056a a8bc f413 883d 4a08 013e
000000a0: f96c 12bd f3ee 68bd 7d06 42bc 4f60 59bb
000000b0: 2610 9b3c 6d56 063e 7ee4 8a3d 82bc adbc
000000c0: 3673 9bbd 7d9f 91bd 7b0e 9bbc 6a12 623d
000000d0: 1c13 0a3e c121 fd3d 5c55 3b3e 1725 633d
000000e0: 48eb ab3d 7822 1e3c 174f 69bd 6f3e babd
000000f0: 58bc b839 1311 143d 399c 9abc ff8f 463e
00000100: ea29 983d 06eb be3b ab72 4f3d b133 fbbd
00000110: 4c3a 373e ac8b 84bd 1c4f 8b3c 658e 6e3c
00000120: 756f d3bc ba57 febc d482 d83c 1afc 9d3d
00000130: c472 69bb bb73 83bd 0589 973d ee7f 823c
00000140: 0b3c 9dbd dedc 733e 24f0 03bd 0e7d d1bd
00000150: 33f0 ecbc 7e52 4cbd 1252 753e 0d5e 79bd
00000160: d8f5 b43c fa3a c1bb eb34 233d e4c8 a2bd
00000170: bb6c 593d 5933 07be 9f51 30bd d8a6 2bbb
00000180: fd2d 9b3c 58c4 b73d d236 633d da44 df3d
00000190: a2a0 2a3e 6b55 7bbd ed8f b83c 30ca 8fbd
000001a0: c479 83bd 707f be3d fbdf 6fbd a8e2 8c3e
000001b0: f605 093e 2f45 8a3d 50b8 783d 7065 853d
000001c0: 5d37 ecbd fb25 99bd 64c6 4c3c daf2 cabd
000001d0: 0fc5 203d 798a 43bc 868d c3bd ec2a d2bc
000001e0: 5071 a7bd 4ef8 3cbd 81bb 463e 4099 9d3d
000001f0: 6e9d 6c3d 3b0b 353c 74fc b23d d3c4 b2bd
0.02991138 -0.01840536 -0.098308094 -0.086841546 -0.110710815 -0.0020315526 -0.08464239 0.1701847
0.018055717 0.024939734 -0.01735883 -0.003679313 -0.06743762 -0.080203876 -0.044588704 0.029936709
-0.11255695 0.06422585 -0.031599764 0.0040812823 -0.038251255 -0.046321232 -0.08426549 0.05670676
-0.047386654 -0.015147113 -0.023048975 -0.030130561 0.043990683 -0.14561035 -0.10578428 0.0026153806
-0.055809926 -0.012740922 0.0435592 0.06026923 -0.012940947 -0.020558367 0.06644431 0.12600818
-0.035748456 -0.056868505 -0.011842367 -0.0033168977 0.018928599 0.13118906 0.06781863 -0.021208052
-0.07590334 -0.07110498 -0.018927803 0.055193342 0.13483852 0.12359954 0.18294281 0.055455294
0.08394486 0.009651773 -0.05696019 -0.090939395 0.00035235542 0.036149096 -0.01887332 0.19390868
0.074298695 0.005826357 0.050646465 -0.12265719 0.17893332 -0.06471953 0.017005496 0.014560317
-0.025809983 -0.03104769 0.026429571 0.077141 -0.0035621384 -0.06418558 0.07399181 0.015930142
-0.07677468 0.23814723 -0.032211438 -0.102289304 -0.02892313 -0.04988336 0.23957089 -0.06088071
0.022089884 -0.005896923 0.03984539 -0.07948473 0.05308221 -0.13203181 -0.04304659 -0.0026191976
0.018942827 0.089729965 0.055472203 0.10901804 0.16662839 -0.061360758 0.022529567 -0.07020986
-0.06419709 0.093016505 -0.058563214 0.27516675 0.1338118 0.06751477 0.06072265 0.06513488
-0.11533997 -0.07477947 0.012498472 -0.099096015 0.03925043 -0.01193487 -0.09548478 -0.025655232
-0.081759095 -0.04613524 0.19407465 0.07695246 0.057767324 0.011050041 0.08739558 -0.087289475

4.weight f4 [8, 128]
00000000: e04a fbbc 26b9 f4bc a97b e23c 807b 8e3c
00000010: 3774 52bc 5f62 1dbd c02f 863b 800d 923d
00000020: 2ee6 b0bd 0d9b 9c3c 7389 1bbd ca8c 34bd
00000030: 80e9 8fbd 00e9 4f3d 47d4 6a3d 7d00 653c
00000040: 4d81 223d c017 71bd 5574 8a3d 11c2 dd3b
00000050: 1e94 473d f9a2 e43c 1edf 0c3d 1db2 18be
00000060: 0c68 2a3d 2ece 81bd 3a20 f73c 9115 8f3d
00000070: 0af2 9b3c d76e 653d 6809 033b e700 573d
00000080: 7500 193d 18bc 913d 3bcf d9bc 2a12 473d
00000090: a161 19bd d6c8 18bd 4550 193d 1259 fe3d
000000a0: 9168 a4bd 7669 4ebd c955 69bd 2eb6 0c3c
000000b0: 97b6 393d bf8f c2be 0b31 8cbd 313b 753c
000000c0: 1fe9 b0bc a9dc 58bd 81a6 04bd 2b89 603d
000000d0: 884f 13bc 175e 23be 7e12 473d dbe5 9bbd
000000e0: d2ea 19be e1c0 aebc 22c2 b3bd c90f 5ebd
000000f0: cbd3 093d 3992 d63d 62aa 5cbd 67d2 8ebd
00000100: 8985 f7bc e0fc 74bd d983 4b3b b7fe 7cbd
00000110: 88d4 30be 546f 49bd 8587 7d3d 9f2a c2bd
00000120: 9551 823c 312f 49bd b18c d0bb 2c03 0fbd
00000130: 1e59 4abd dfc8 4d3d e395 1abc 2e19 203d
00000140: 067a 54bd c0d4 0bbe 2a30 00bc 4f62 933d
00000150: 322f 853d 9004 3d3d 1461 3ebe 2be1 8e3d
00000160: 8c8e 79bd 3596 91bd 91f7 0d3d 231f 91bd
00000170: 62e4 47bd a038 30bc 4119 9abd bc78 273d
00000180: 7d81 63bd f905 a53c 8603 9ebd cb47 54bd
00000190: c044 0fbd 7560 bdbc e604 843d c02f 9bbd
000001a0: da2a dabc e35f f6bd 0ca6 d7bc 7fdf 3cbe
000001b0: 7eb6 f53c 9a33 ecbd 0bcf b7bd c38c 963b
000001c0: 8245 7abd f609 96bd dd34 cf3c ec95 713d
000001d0: 8888 abbd 2099 c6bd 3c38 30bd 6da8 bc3b
000001e0: ae01 863d 1761 623d a8ee 29be e6fe b1bd
000001f0: 8631 b0bc 7195 a8bd 06cb dd3d 4c01 51bd
00000200: e51e 703c 7129 9c3d a99d 553d b279 253d
00000210: 6f7a 5e3d 272b 4fbd 7182 2c3c c1b8 15be
00000220: 1add d03c fd7c e8bd bc86 02bc 7547 77bc
00000230: db86 72bc 83ad 913d eed0 173c 053d 31bd
00000240: 82b8 9abd e681 243c 1cd2 c63c b237 afbd
00000250: e75f 8abd 01a3 66bd dd0a 84bd 6ca0 c8bd
00000260: 63e2 763d 7df0 a3bd e5c0 f3bc 39b6 003c
00000270: 9fb5 32be d2f2 6dbd 2163 613d e90c 62bd
00000280: f9a7 803c c735 35bc 259d fabb d8ff a13c
00000290: f6d4 943d 20a9 69bc bcb0 88bd 24a0 4abb
000002a0: f751 57bd 6f69 563d 0125 83bd 7de0 9abd
000002b0: 9d1b a9bc de6a b3bc 9f90 60bc ec0f 80bd
000002c0: 0551 7d3d 5e7c e43c 5fc1 40bd 73d1 753c
000002d0: d062 8dbd a113 14bc 200e 80bd 3980 b3bb
000002e0: 69b6 47bd 60e4 823d eb53 cb3c 2581 78bc
000002f0: e286 9a3c d9b2 623c e22a 43bc a486 92bd
00000300: 9a0c bf3c d3ff cfbd 2a76 dbbc f4d0 903d
00000310: 1e82 6bbe 0d81 adbd f546 5a3d 9e24 b8bc
00000320: 3f0b 853d 272e 7c3d 4c0b 8bbd c533 bfbd
00000330: 023e 3abd 4d95 77bc 40b3 1fbd 8468 1abd
00000340: 61ee 8c3c 748f 2bbe e0ab 5fbd a865 353d
00000350: 387e bd3c a1ab 9c3d dc6e 17be 1f13 af3d
00000360: a3e9 39bd 6110 b4bb 3977 16bd 75ec 3c3d
00000370: 77b5 9f3d c14a 7d3d 02bd c83c 0ae0 07bd
00000380: 4851 8d3d 0c02 cebd 2087 5bbd 891e 223e
00000390: e2f3 8dbd d5c9 833b 832c 293d def7 ac3c
000003a0: f0b5 163d 99dd 8a3c e744 3d3c 3322 18be
000003b0: 28ed 0d3d 6356 733b 73de 96be baf1 9c3c
000003c0: d8c3 fbbb 8f9d 683d 65a0 0e3d f05f 823d
000003d0: 40d7 8f3d f23e 6dbd 1654 e23c 328e aabd
000003e0: 5fbc bb3d de35 803d 7139 8bbd 7f52 70bb
000003f0: a7cb 32bd c601 b4bd 0359 efbd 6ec7 5ebc
-0.030675352 -0.029873442 0.027646856 0.017392874 -0.012845091 -0.038423892 0.0040950477 0.07131481
-0.08637653 0.019116903 -0.03797288 -0.04407958 -0.070269585 0.050759315 0.05733135 0.013977167
0.039674092 -0.05886054 0.0676047 0.0067675193 0.04872524 0.027909743 0.03439247 -0.14911695
0.041603133 -0.06338154 0.030166734 0.06986535 0.019036312 0.05601391 0.001999462 0.052491095
0.03735395 0.07115954 -0.026588073 0.048601307 -0.03744662 -0.037300907 0.037430067 0.124193326
-0.08027757 -0.050393544 -0.056966577 0.008588357 0.045340147 -0.38000295 -0.06845292 0.014967726
-0.021595536 -0.052944813 -0.032385353 0.054818314 -0.00899113 -0.15953861 0.04860162 -0.07612201
-0.15030983 -0.021332206 -0.08777262 -0.054214273 0.033649247 0.104771085 -0.053873427 -0.06973725
-0.030215042 -0.059811473 0.003105393 -0.061766353 -0.17268574 -0.049178436 0.06189682 -0.094807856
0.015908042 -0.04911727 -0.006364428 -0.034915134 -0.049401395 0.050240394 -0.00943515 0.039086513
-0.051874183 -0.13655376 -0.007823983 0.07196485 0.065031424 0.04614693 -0.1859172 0.06976541
-0.06092696 -0.07108728 0.034659926 -0.07086017 -0.048801787 -0.010755688 -0.07524348 0.040886626
-0.05554341 0.02014445 -0.07715516 -0.05182628 -0.034977674 -0.023117283 0.06446247 -0.07577467
-0.026631761 -0.12030008 -0.026324295 -0.18444632 0.029994246 -0.1153328 -0.08975037 0.004594417
-0.061101444 -0.07326119 0.025293762 0.058980867 -0.08375651 -0.09697175 -0.04302238 0.0057573826
0.06543289 0.055268373 -0.16594946 -0.08691196 -0.02150799 -0.08231629 0.10829739 -0.051026627
0.014655803 0.07625092 0.05215231 0.04039926 0.05431598 -0.050578263 0.0105291465 -0.1462126
0.025496054 -0.113519646 -0.0079666935 -0.01509272 -0.01480266 0.07113173 0.009266121 -0.043271083
-0.07554723 0.010040736 0.02427011 -0.08555545 -0.06756573 -0.056307796 -0.064473845 -0.09796223
0.060274493 -0.08004854 -0.029755065 0.007855945 -0.17452095 -0.0580929 0.055026177 -0.055188093
0.015705096 -0.011060185 -0.0076481276 0.019775316 0.072671816 -0.014261514 -0.066743344 -0.0030918205
-0.052568402 0.052346643 -0.06403542 -0.07562349 -0.02064305 -0.021901544 -0.013706355 -0.06253037
0.061844844 0.027891334 -0.047059413 0.01500355 -0.069036126 -0.009037883 -0.06252694 -0.005477932
-0.048757944 0.06391215 0.024820289 -0.015167509 0.018863145 0.013836586 -0.0119120795 -0.07154587
0.023321439 -0.101562165 -0.026789743 0.07071105 -0.22998855 -0.0847188 0.053290326 -0.022478398
0.06496286 0.06156745 -0.06789264 -0.09336046 -0.04546929 -0.01511128 -0.038989305 -0.03769733
0.017203512 -0.16753942 -0.054607272 0.0442864 0.023131475 0.07649923 -0.14788383 0.08548569
-0.04538883 -0.0054951166 -0.036734793 0.04612394 0.077982835 0.06183887 0.024504188 -0.033172645
0.06900269 -0.10058984 -0.053595662 0.1583196 -0.069312826 0.004021863 0.041302215 0.021114286
0.036794603 0.01695137 0.011552072 -0.14856796 0.034649998 0.0037130348 -0.2946659 0.019158233
-0.0076832585 0.056790885 0.034820933 0.06365955 0.070234776 -0.057921357 0.027627986 -0.08327903
0.09166788 0.06260274 -0.067980655 -0.0036670265 -0.04365125 -0.08789401 -0.116868995 -0.013597352

4.bias f4 [8]
00000000: 7c5c e0bd feb9 0bbe a34a 2cbe 9706 28be
00000010: 1c35 51be 8581 7dbe 562a 6fbe 832c 34be
-0.1095514 -0.13645169 -0.16825347 -0.16408764 -0.20430416 -0.24756439 -0.23355994 -0.17595105
