Runs/9/final_model-9thSize.pth (torch, 75888 bytes, 6 tensors)

0.weight f4 [128, 5]
-0.40915862 -0.01504921 0.39471075 -0.095491596 0.07629981 -0.15207812 0.40559113 -0.06908856
-0.2762906 0.20101456 -0.36171472 -7.303746e-05 -0.056748934 0.1874067 -0.394883 -0.06279537
0.15661731 -0.46064746 -0.00619117 0.33500114 0.2192712 -0.21094692 -0.08917803 -0.024583988
0.15933223 0.43632135 -0.3111149 -0.045121796 -0.15150565 -0.3349541 -0.31692094 0.13981101
-0.10089656 0.027589396 -0.17097469 0.052209895 -0.44219017 0.14168148 -0.3372887 -0.18412574
-0.0058280695 -0.6379671 -0.23869476 0.39211836 -0.42927712 0.33954427 0.1773212 -0.037636127
-0.17372227 0.20273274 -0.4101228 -0.37488827 -0.34530148 0.4404907 -0.40598768 0.384329
-0.27945492 -0.31949064 -0.34543663 -0.27125314 0.26840156 -0.29425862 0.13293926 0.20078124
-0.2954965 0.24950972 -0.2724863 0.27764755 -0.48112568 -0.42301017 0.4082316 -0.3233431
-0.2477379 0.3600978 0.013939194 0.021890873 0.34017023 0.24673842 -0.36364847 0.0034048583
0.10258127 0.37887308 -0.4201709 -0.40719333 -0.27979735 0.29459366 -0.5639126 0.12263266
0.0733304 -0.4920369 -0.26451188 -0.40414625 0.14174922 -0.36782777 -0.0033143612 0.002688205
-0.22309212 -0.123107925 0.17361863 -0.2847274 -0.040383477 0.017037192 -0.0254896 0.18728128
-0.36161804 -0.14436045 0.34431857 0.09367424 -0.3171222 -0.5120246 0.40248322 -0.2611079
-0.0040948596 -0.39960018 0.14985757 0.1757163 0.17671452 -0.15905313 -0.3129789 0.35520694
-0.3993369 -0.20813784 -0.21331896 0.14967588 -0.44302475 -0.17971703 -0.54200214 0.13453993
-0.039395683 0.078568645 -0.4173543 0.0073536993 -0.41523087 0.012711396 -0.0818478 -0.32425198
-0.23761258 0.1826739 -0.083893746 -0.20286003 0.0777182 0.07582056 -0.2329155 0.030643852
-0.07402949 -0.26226202 -0.29924423 -0.024482466 -0.043806423 0.09144563 0.012030922 0.21521458
0.18405333 -0.11922907 0.28563958 -0.27252957 -0.34413052 -0.05834648 -0.081722416 -0.30244264
0.00047634286 0.32818532 -0.041485745 -0.28828603 0.028945217 -0.22208841 -0.15591419 -0.04027259
0.031061605 -0.41993105 0.20031771 -0.12633498 -0.0015271778 0.17988323 -0.38177806 0.2659309
-0.24940078 0.109997906 -0.25481123 -0.35397017 -0.07739566 0.18575647 0.076775976 -0.1574918
-0.40975267 0.41504964 -0.28726193 -0.29954454 0.31366313 0.37453276 -0.34668237 0.35317937
-0.030043652 -0.42449403 0.16812013 -0.25638074 -0.07202538 -0.22210851 0.35637376 -0.07745569
0.35239524 -0.1115669 0.02344714 -0.045385122 0.46581444 0.23815478 0.35123664 -0.15247607
-0.003911025 -0.43912563 0.018381024 -0.18176492 0.23588313 -0.5514369 0.11746584 0.35584015
-0.0370816 -0.3285451 0.014573852 -0.038891274 0.36500332 0.03795919 -0.17142828 0.28226823
-0.017270423 0.40660438 -0.31886244 -0.016895192 0.10259239 -0.48953187 0.034941174 0.27684596
0.24392043 -0.28799888 -0.31004757 -0.05361904 -0.45608345 0.31490892 0.29546356 -0.08236372
0.27748358 -0.25475264 -0.27946883 -0.15124214 -0.12174145 -0.11504552 -0.17997397 0.001653455
-0.24859522 0.29540813 -0.15786418 -0.09109408 -0.40455738 0.20319656 0.43610743 0.35239464
00000000: 3d7d d1be f690 76bc 8717 ca3e 1991 c3bd
00000010: 1343 9c3d 5eba 1bbe a4a9 cf3e 4e7e 8dbd
00000020: f675 8dbe c3d6 4d3e ac32 b9be b02b 99b8
00000030: 9271 68bd 8be7 3f3e 1b2e cabe dc9a 80bd
00000040: 4a60 203e fcd9 ebbe 4cdf cabb 4585 ab3e
00000050: a188 603e 7802 58be f9a2 b6bd 5c64 c9bc
00000060: fd27 233e 8365 df3e 744a 9fbe a2d1 38bd
00000070: 4c24 1bbe 1b7f abbe 7643 a2be 9e2a 0f3e
00000080: dba2 cebd 2803 e23c fd13 2fbe 0bda 553d
00000090: c066 e2be f314 113e 1bb1 acbe 758b 3cbe
000000a0: 64f9 bebb d051 23bf 666c 74be bdc3 c83e
000000b0: 36ca dbbe bfd8 ad3e b093 353e 5728 1abd
000000c0: 40e4 31be 2c99 4f3e 9efb d1be 5bf1 bfbe
000000d0: 5bcb b0be ff87 e13e 9edd cfbe c5c6 c43e
000000e0: b714 8fbe 4794 a3be 12dd b0be b1e1 8abe
000000f0: ee6b 893e 11a9 96be 3b21 083e 9999 4d3e
00000100: 514b 97be 7a7f 7f3e 5383 8bbe d227 8e3e
00000110: 1b56 f6be ca94 d8be bb03 d13e 3a8d a5be
00000120: 01af 7dbe bd5e b83e 3861 643c 7d54 b33c
00000130: cb2a ae3e ffa8 7c3e 2230 babe 0b24 5f3b
00000140: 2116 d23d a7fb c13e a420 d7be a57b d0be
00000150: 9941 8fbe fbd4 963e 935c 10bf d526 fb3d
00000160: 402e 963d 43ec fbbe 1a6e 87be 42ec cebe
00000170: b526 113e ec53 bcbe c135 59bb 992c 303b
00000180: 4372 64be 0220 fcbd 15c9 313e cac7 91be
00000190: 2569 25bd 9591 8b3c 91cf d0bc aac6 3f3e
000001a0: 0026 b9be 3ad3 13be 864a b03e 48d8 bf3d
000001b0: d75d a2be 0b14 03bf 4812 ce3e efaf 85be
000001c0: 2c2e 86bb 6598 ccbe 4374 193e f9ee 333e
000001d0: a7f4 343e d3de 22be c53e a0be afdd b53e
000001e0: e375 ccbe 1622 55be 4970 5abe a244 193e
000001f0: 24d4 e2be be07 38be a7c0 0abf d6c4 093e
00000200: 5e5d 21bd 99e8 a03d 76af d5be 4df7 f03b
00000210: 2499 d4be 7643 503c d29f a7bd 5b04 a6be
00000220: b650 73be de0e 3b3e 7cd0 abbd 8aba 4fbe
00000230: b82a 9f3d cf47 9b3d 6781 6ebe d108 fb3c
00000240: c69c 97bd 3547 86be 8a36 99be 748f c8bc
00000250: 5d6e 33bd d947 bb3d 581d 453c 3661 5c3e
00000260: 7a78 3c3e 5f2e f4bd 5a3f 923e ff88 8bbe
00000270: e031 b0be b8fc 6ebd 155e a7bd c3d9 9abe
00000280: a8bd f939 e807 a83e f5ec 29bd 3a9a 93be
00000290: 851e ed3c 256b 63be f8a7 1fbe dff4 24bd
000002a0: e874 fe3c 3401 d7be 1620 4d3e f55d 01be
000002b0: 952b c8ba 4f33 383e 6a78 c3be 1828 883e
000002c0: eb62 7fbe 9546 e13d 9e76 82be 943b b5be
000002d0: 9e81 9ebd f236 3e3e b93c 9d3d 8845 21be
000002e0: 1acb d1be 6381 d43e ff13 93be e75d 99be
000002f0: 7498 a03e c2c2 bf3e 5a80 b1be edd3 b43e
00000300: 1b1e f6bc 4857 d9be af27 2c3e 5644 83be
00000310: 0b82 93bd 6a70 63be 9f76 b63e 17a1 9ebd
00000320: 266d b43e 307d e4bd 3714 c03c c0e5 39bd
00000330: 3b7f ee3e d9de 733e 4ad5 b33e b022 1cbe
00000340: 0e28 80bb 13d5 e0be cd93 963c 9520 3abe
00000350: 598b 713e f82a 0dbf ee91 f03d ae30 b63e
00000360: e0e2 17bd 1037 a8be 2ac7 6e3c 754c 1fbd
00000370: b7e1 ba3e 187b 1b3d e58a 2fbe 7685 903e
00000380: b47a 8dbc 732e d03e f041 a3be c967 8abc
00000390: f51b d23d eca3 fabe 7a1e 0f3d c1be 8d3e
000003a0: 47c6 793e 9774 93be 8ebe 9ebe a39f 5bbd
000003b0: c583 e9be be3b a13e 0047 973e 4fae a8bd
000003c0: 5412 8e3e f06e 82be 8a16 8fbe 38df 1abe
000003d0: 9553 f9bd fc9c ebbd 194b 38be beb8 d83a
000003e0: bf8f 7ebe bc3f 973e 26a7 21be 888f babd
000003f0: 2522 cfbe c212 503e 7949 df3e 126d b43e

0.bias f4 [128]
0.27134272 0.27985922 -0.23531821 0.03870137 0.29542056 -0.30958217 0.30236953 -0.33205804
-0.06533014 0.012939452 0.28137207 0.051747415 -0.31788552 -0.55415446 -0.22501816 0.3464075
-0.42378557 -0.2973792 -0.18361372 0.13512161 -0.3687752 -0.19955477 0.5544938 -0.056920856
-0.039299432 -0.6550502 -0.20170909 0.40259025 -0.23785523 -0.02100974 0.20294122 0.54208267
-0.2143749 -0.18020597 -0.41200426 -0.0709398 -0.21574405 0.27867177 0.35818452 -0.26940972
0.47944164 0.38127252 -0.41572347 0.24758196 -0.30502293 0.056542944 0.24220064 0.39506888
-0.43496415 0.2017653 -0.22487834 -0.026623385 -0.081372954 0.14789584 0.6000931 -0.041651186
0.09958733 -0.12221255 -0.3379744 -0.40059617 0.040342055 0.24414156 -0.28056088 0.4248995
0.37044457 0.16076355 -0.17810473 -0.027564095 0.42069703 -0.5256467 0.20389009 0.13969745
-0.5046079 -0.59925973 -0.4225979 -0.36039567 -0.3531511 0.46611452 0.2810441 -0.43244454
-0.07677879 -0.14964752 0.45172197 -0.35833067 -0.48987404 0.3420508 -0.42714208 0.2315918
-0.340389 0.6334178 -0.025782945 -0.4650402 -0.06392523 0.27890393 0.05568925 -0.45252556
0.13106082 -0.41174206 0.19978574 0.26748052 -0.077196546 -0.34597033 0.57713413 0.42756814
-0.021306599 -0.20870548 0.40644884 -0.3394445 0.46943325 0.15368138 0.30495796 0.15680434
0.28443307 0.17172334 0.13209502 0.062418025 -0.40026584 -0.18922901 -0.19317374 0.21366829
0.18155691 -0.49463603 -0.013187793 -0.39629978 0.43090695 -0.23252189 -0.5505816 -0.10856811
00000000: 6fed 8a3e b549 8f3e 42f7 70be 5485 1e3d
00000010: 5d41 973e 8e81 9ebe 2ed0 9a3e 8303 aabe
00000020: cfcb 85bd ffff 533c 0010 903e 19f5 533d
00000030: e4c1 a2be 11dd 0dbf 296b 66be 535c b13e
00000040: 6cfa d8be 1642 98be 3c05 3cbe 525d 0a3e
00000050: 1ad0 bcbe 1658 4cbe 4ef3 0d3f d825 69bd
00000060: 71f8 20bd 5fb1 27bf d48c 4ebe 4f20 ce3e
00000070: 5290 73be 9e1c acbc d3cf 4f3e eec5 0a3f
00000080: 1885 5bbe ea87 38be 39f2 d2be e348 91bd
00000090: 02ec 5cbe 11ae 8e3e f663 b73e 12f0 89be
000000a0: 6079 f53e 2736 c33e b5d9 d4be 2086 7d3e
000000b0: f72b 9cbe 9399 673d 7203 783e 7846 ca3e
000000c0: 9fb3 debe 909b 4e3e 8246 66be 4919 dabc
000000d0: dda6 a6bd 0272 173e b49f 193f 6f9a 2abd
000000e0: 71f4 cb3d 934a fabd fb0a adbe f11a cdbe
000000f0: b63d 253d 3f00 7a3e ada5 8fbe 6d8c d93e
00000100: e9aa bd3e 339f 243e 1661 36be 19ce e1bc
00000110: 9a65 d73e c890 06bf 90c8 503e d90c 0f3e
00000120: fc2d 01bf 1669 19bf c05e d8be c885 b8be
00000130: 39d0 b4be 90a6 ee3e 03e5 8f3e 5f69 ddbe
00000140: 333e 9dbd 333d 19be 1a48 e73e 1e77 b7be
00000150: c5d0 fabe 4821 af3e 5eb2 dabe 6726 6d3e
00000160: 7847 aebe ab27 223f c136 d3bc c019 eebe
00000170: 3beb 82bd 7fcc 8e3e 691a 643d 6eb1 e7be
00000180: cf34 063e dbcf d2be a294 4c3e 35f3 883e
00000190: 3919 9ebd 0623 b1be 10bf 133f 36ea da3e
000001a0: 2d8b aebc e4b6 55be 101a d03e abcb adbe
000001b0: 8e59 f03e a75e 1d3e 7323 9c3e 5191 203e
000001c0: 36a1 913e 3ed8 2f3e eb43 073e 0baa 7f3d
000001d0: a5ef ccbe 40c5 41be 56cf 45be dccb 5a3e
000001e0: 0eea 393e ef40 fdbe 9d11 58bc cee7 cabe
000001f0: d69f dc3e 381a 6ebe eaf2 0cbf f558 debd

2.weight f4 [128, 128]
0.034995098 -0.007978235 0.026802583 -0.053450387 0.08648727 0.086750105 -0.007908078 -0.057533767
-0.2080501 -0.116266064 0.02054858 0.05848364 -0.0039663278 -0.05478909 -0.07406728 -0.004461293
0.035157036 -0.024640031 -0.056562975 0.030913422 0.009298365 -0.07972489 0.40033916 -0.022027077
-0.08539721 -0.024758825 0.013566006 -0.10901019 0.023898095 -0.05252232 -0.025386574 -0.11735406
-0.09776189 0.041059174 0.052906603 -0.108987875 -0.02864845 -0.022525666 -0.03751412 -0.087805204
-0.0063084136 -0.0635321 0.013763559 -0.041675236 -0.0345717 -0.020327313 -0.15363482 -0.0566989
0.058821816 -0.057025872 0.061250802 -0.042959142 -0.0678257 0.08147014 0.09634241 -0.020669952
0.18547854 -0.026821965 -0.08056681 0.08228169 -0.02975419 0.01332274 -0.055602018 0.16853589
-0.05405097 -0.035903614 -0.06642885 -0.121826805 0.035579517 0.034230057 -0.051875044 -0.02735342
0.020089341 0.0012588956 0.058391128 -0.048344545 0.072278865 -0.031935472 -0.07732916 -0.040674724
-0.082875654 0.033552885 -0.03485379 0.10931597 -0.10811895 0.03933733 -0.04866826 -0.011394697
-0.0114947995 0.023114685 -0.12730165 0.03825094 -0.16279049 -0.014388407 -0.07236988 -0.022615025
-0.1330578 -0.004120518 0.06223413 -0.15717499 0.012552606 0.05448696 -0.08952097 0.055979054
-0.2551624 -0.07742372 -0.09340681 0.11764155 -0.077586144 0.096931726 0.1131159 -0.037038144
0.05304962 -0.04232224 -0.09335252 -0.004042905 0.0009071266 -0.06888811 0.052742407 -0.069838874
-0.010005695 0.00021138704 -0.065838456 -0.039768137 -0.19689566 -0.03760483 0.005295662 -0.080379054
0.032078702 0.074322574 -0.005501565 -0.06099686 -0.021516263 0.040944017 -0.021253448 0.052512
-0.057065297 -0.025406146 0.024622494 0.04177072 0.03627993 0.038285714 -0.00742915 -0.06701968
0.014506123 -0.0007797289 -0.06610363 0.022567647 0.06178843 -0.074129224 -0.08626629 0.079040505
0.06248406 -0.06027075 0.0378447 -0.0036402787 0.04643549 -0.07829352 0.019185642 0.026689304
-0.013442174 0.017653018 0.04808189 -0.09466767 -0.07996927 0.03841449 0.035505407 -0.050020184
-0.07664008 0.034170862 0.06528578 0.055873845 -0.014395156 -0.0874559 -0.0069816634 0.03480667
-0.06602294 -0.0952564 -0.022282911 -0.063822374 -0.07671109 0.03647852 -0.08181795 0.05842164
0.021050757 0.062075205 0.021966409 0.0022493352 -0.058619037 0.07921887 0.023795256 -0.07283973
-0.049493622 0.07201435 0.07814265 -0.027323779 -0.015178881 -0.07284051 0.012253647 -0.08056657
-0.05930164 0.05429954 -0.033103976 -0.004001795 -0.04693197 0.028894158 0.030563587 0.049781363
0.0832968 -0.055469655 -0.020491872 0.055942915 0.035714395 -0.004660694 0.08412391 -0.05765638
0.051741514 0.014070222 -0.06024626 0.03827129 -0.023555133 -0.03440049 -0.068000704 0.05346025
-0.079371914 0.00049512007 -0.1027413 -0.083607696 -0.087758295 0.06971848 -0.13219036 -0.08739261
0.028744638 -0.0015503687 -0.09799929 -0.030423416 -0.049839098 -0.07961868 0.047822464 0.020537358
-0.088404775 0.07813892 -0.03323449 -0.07006254 0.082225025 -0.007262407 -0.035421792 -0.06408363
0.014361047 0.028627936 0.0109810345 -0.091314204 -0.062664315 0.028104888 -0.10143364 0.006767354
00000000: 0557 0f3d 25b7 02bc 1791 db3c cbee 5abd
00000010: 3d20 b13d 0aaa b13d e290 01bc 87a8 6bbd
00000020: 160b 55be e71c eebd 7f55 a83c 8b8c 6f3d
00000030: f8f7 81bb 866a 60bd 96b0 97bd 0a30 92bb
00000040: d300 103d e4d9 c9bc 94ae 67bd 253e fd3c
00000050: 2b58 183c ce46 a3bd 41f9 cc3e 2172 b4bc
00000060: bce4 aebd 05d3 cabc f443 5e3c bc40 dfbd
00000070: f0c5 c33c a521 57bd 81f7 cfbc 5357 f0bd
00000080: 6337 c8bd aa2d 283d 98b4 583d 0935 dfbd
00000090: 27b0 eabc bf87 b8bc 68a8 19bd 37d3 b3bd
000000a0: cfb6 cebb 1e1d 82bd 8d80 613c a7b3 2abd
000000b0: 0e9b 0dbd 7785 a6bc 7252 1dbe 1b3d 68bd
000000c0: 25ef 703d f693 69bd 1fe2 7a3d edf5 2fbd
000000d0: 33e8 8abd d1d9 a63d 2b4f c53d 0854 a9bc
000000e0: 16ee 3d3e bdb9 dbbc 3600 a5bd 4d83 a83d
000000f0: 0fbf f3bc 9f47 5a3c f1be 63bd ac94 2c3e
00000100: 8d64 5dbd ab0f 13bd d90b 88bd 5580 f9bd
00000110: d4bb 113d d134 0c3d ed7a 54bd 4814 e0bc
00000120: 6792 a43c 8701 a53a 892b 6f3d ee04 46bd
00000130: f106 943d c5ce 02bd c05e 9ebd 8a9a 26bd
00000140: b6ba a9bd c06e 093d d9c2 0ebd 0de1 df3d
00000150: 786d ddbd 2e20 213d 5f58 47bd d3b0 3abc
00000160: af54 3cbc 025b bd3c 5d5b 02be 05ad 1c3d
00000170: 8db2 26be 5abd 6bbc a936 94bd 2543 b9bc
00000180: 4e40 08be 6905 87bb 37e9 7e3d 7bf2 20be
00000190: 72a9 4d3c b82d 5f3d c556 b7bd 4b4a 653d
000001a0: a5a4 82be 5490 9ebd 124c bfbd 0eee f03d
000001b0: 7ce5 9ebd 2484 c63d 4fa9 e73d 4fb5 17bd
000001c0: 8f4a 593d 165a 2dbd 9b2f bfbd 587a 84bb
000001d0: 3ccc 6d3a 3615 8dbd 6c08 583d af07 8fbd
000001e0: edee 23bc c7a7 5d39 50d6 86bd eae3 22bd
000001f0: 049f 49be 8607 1abd 3c87 ad3b c69d a4bd
00000200: f564 033d 6f36 983d 7946 b4bb d8d7 79bd
00000210: e042 b0bc eab4 273d b61b aebc d316 573d
00000220: 4dbd 69bd 8d20 d0bc 1db5 c93c c617 2b3d
00000230: 449a 143d 7bd1 1c3d 3a70 f3bb 9d41 89bd
00000240: 17ab 6d3c b966 4cba 5761 87bd c9df b83c
00000250: dd15 7d3d 10d1 97bd 61ac b0bd fddf a13d
00000260: 49ef 7f3d 76de 76bd 0b03 1b3d be91 6ebb
00000270: 2433 3e3d 5a58 a0bd 352b 9d3c 87a3 da3c
00000280: 903c 5cbc 109d 903c 84f1 443d 20e1 c1bd
00000290: eec6 a3bd 8358 1d3d 1e6e 113d f7e1 4cbd
000002a0: 79f5 9cbd bff6 0b3d 8db4 853d f9db 643d
000002b0: a9d9 6bbc 141c b3bd 70c6 e4bb 7091 0e3d
000002c0: 0937 87bd ca15 c3bd a78a b6bc 4eb5 82bd
000002d0: b41a 9dbd 806a 153d 2b90 a7bd 884b 6f3d
000002e0: a372 ac3c 9242 7e3d e6f2 b33c 9569 133b
000002f0: 841a 70bd 813d a23d 45ee c23c ff2c 95bd
00000300: d3b9 4abd 427c 933d 4109 a03d 1ed6 dfbc
00000310: d7b0 78bc 682d 95bd 85c3 483c 1600 a5bd
00000320: 47e6 72bd 3269 5e3d 0998 07bd 7d21 83bb
00000330: bd3b 40bd 71b3 ec3c 7d60 fa3c 8be7 4b3d
00000340: 8397 aa3d 2634 63bd 92de a7bc 6624 653d
00000350: 4249 123d bcb8 98bb 2849 ac3d 1929 6cbd
00000360: e9ee 533d ca86 663c c8c4 76bd 5bc2 1c3d
00000370: b2f6 c0bc 87e7 0cbd f443 8bbd 23f9 5a3d
00000380: be8d a2bd f2ca 013a 086a d2bd 833a abbd
00000390: 9fba b3bd 90c8 8e3d e95c 07be e6fa b2bd
000003a0: e079 eb3c be35 cbba dab3 c8bd 873a f9bc
000003b0: 1524 4cbd 1e0f a3bd 7de1 433d f63d a83c
000003c0: 900d b5bd 4c07 a03d e320 08bd f37c 8fbd
000003d0: 9865 a83d 7cf9 edbb 7116 11bd 473e 83bd
000003e0: 994a 6b3c 2285 ea3c cce9 333c f102 bbbd
000003f0: 2656 80bd 393c e63c 71bc cfbd aec0 dd3b

2.bias f4 [128]
-0.018579625 -0.022404972 -0.060679443 -0.06063613 -0.051054873 0.030378206 0.017278528 -0.03744274
0.049651504 -0.05194887 -0.07486165 -0.050201125 -0.01995882 -0.061406255 0.02251471 0.15334226
0.18786526 0.009913139 0.0043202615 0.05330949 -0.031003738 0.022173267 -0.073466286 -0.065563366
-0.0015043927 -0.06655597 -0.039020456 0.04354522 0.021756716 -0.09009839 -0.06917505 0.036241256
0.052256875 0.14508536 0.24155387 -0.075422384 -0.08795102 -0.044670966 -0.070725076 -0.010963133
-0.050650932 -0.08422955 -0.0038001183 -0.04262016 -0.013584081 -0.074307516 -0.07139747 0.0046422565
-0.07486252 -0.014232084 -0.10895672 0.042254597 0.032446064 0.013979143 -0.05186886 -0.060811285
-0.031022554 0.018070418 -0.059271704 -0.08399673 -0.05096878 0.16251925 0.089393735 -0.11301691
0.032243848 -0.056357823 -0.10847473 -0.057521265 0.036159445 -0.051748205 -0.10089079 -0.005052268
0.085515454 0.04782372 -0.004809261 0.056222048 -0.009875226 0.034018088 0.010028642 0.054693256
-0.09573937 0.044997126 0.13389963 0.097885184 0.059055995 0.05366216 0.1887796 -0.043145493
-0.10647586 -0.05625909 -0.068204224 0.072621725 -0.05310169 0.00965427 0.04202742 0.08246011
0.2687252 0.1646714 0.036076766 0.035181157 -0.060093217 -0.12312684 0.23460297 -0.06772722
0.05783687 0.13717222 0.005612336 0.023307988 -0.0018517639 -0.056051526 0.0033586274 0.0041936217
-0.05581913 0.04832795 -0.11627776 0.19829717 0.10031277 -0.11284174 -0.091853485 0.1269978
0.009380407 -0.029892271 -0.07272278 -0.012596646 -0.076298736 -0.052464303 0.0076124426 0.104423314
00000000: 4c34 98bc a28a b7bc 028b 78bd 975d 78bd
00000010: ea1e 51bd b7db f83c b38b 8d3c 8f5d 19bd
00000020: 605f 4b3d 57c8 54bd 1151 99bd b29f 4dbd
00000030: ae80 a3bc 2085 7bbd c570 b83c c105 1d3e
00000040: c05f 403e b86a 223c fb90 8d3b 0d5b 5a3d
00000050: 8dfb fdbc b6a4 b53c 7e75 96bd 1646 86bd
00000060: 0b2f c5ba 7f4e 88bd ead3 1fbd 795c 323d
00000070: 243b b23c 8185 b8bd a6ab 8dbd b671 143d
00000080: 4e0b 563d 4291 143e e659 773e 0d77 9abd
00000090: aa1f b4bd e7f8 36bd 4fd8 90bd b69e 33bc
000000a0: 5a77 4fbd 8b80 acbd 680b 79bb 7a92 2ebd
000000b0: c48f 5ebc 8a2e 98bd d638 92bd 121e 983b
000000c0: 8551 99bd b02d 69bc b324 dfbd 2813 2d3d
000000d0: 2ae6 043d c708 653c 7174 54bd 4115 79bd
000000e0: 0323 febc 6a08 943c e3c6 72bd 7a06 acbd
000000f0: a4c4 50bd 726b 263e 1014 b73d 6975 e7bd
00000100: 2012 043d 76d7 66bd 0028 debd 6b9b 6bbd
00000110: ed1b 143d edf5 53bd d59f cebd 7f8d a5bb
00000120: ba22 af3d cee2 433d 0197 9dbb 1749 663d
00000130: b3cb 21bc 8d56 0b3d 2c4f 243c 0906 603d
00000140: 0113 c4bd e84e 383d fc1c 093e 0778 c83d
00000150: b3e4 713d dacc 5b3d 714f 413e 54b9 30bd
00000160: 0410 dabd ee6f 66bd a8ae 8bbd b3ba 943d
00000170: 2881 59bd f12c 1e3c f224 2c3d d9e0 a83d
00000180: 5996 893e 9f9f 283e 3bc5 133d 1e1a 103d
00000190: 4e24 76bd ed29 fcbd c33b 703e 92b4 8abd
000001a0: 5be6 6c3d e076 0c3e b0e7 b73b 65f0 be3c
000001b0: e3b6 f2ba 4996 65bd 6b1c 5c3b a66a 893b
000001c0: 9aa2 64bd 87f3 453d 0923 eebd 6a0e 4b3e
000001d0: c870 cd3d 9219 e7bd ae1d bcbd b60b 023e
000001e0: 47b0 193c a3e0 f4bc aeef 94bd 2a62 4ebc
000001f0: 8342 9cbd cfe4 56bd cc71 f93b e4db d53d

4.weight f4 [8, 128]
-3.3098834e-06 0.042688534 -0.09199993 -0.009473196 -0.04715085 -0.050856527 0.011020671 -0.011673042
0.047005285 -0.01669522 -0.014386048 0.008057378 0.07184984 -0.101199456 -0.060827687 -0.23656575
-0.13291483 0.08063985 0.008198657 0.055813964 -0.08575983 0.016033757 0.07345135 0.00819478
0.062143076 -0.0410212 -0.0030185864 0.044996563 0.07421232 0.011824036 0.073809884 -0.060473077
0.059726503 -0.12429594 -0.1611836 0.025006158 -0.048148498 -0.0073630763 0.015695935 0.06971582
-0.047458764 -0.018372834 -0.069779776 0.06558057 0.013182059 0.06614989 -0.025172466 -0.052087136
-0.03370054 -0.07703049 0.0029528504 -0.023060918 -0.08349466 -0.06987058 0.018230567 -0.006827294
-0.09141247 0.015446804 -0.030967524 -0.040551636 0.007211633 -0.08328566 -0.13341877 0.010886228
-0.07501407 -0.06386712 0.022707775 0.27602097 -0.079035275 0.034428023 0.018213194 0.04611788
0.105496526 -0.05914223 0.06871905 0.057040475 -0.022179855 -0.05005483 0.080498844 0.06320295
0.06444022 0.038613584 -0.124707915 -0.08291608 -0.06744962 0.014878596 -0.14037137 -0.04449591
0.0005190211 0.023639513 0.060568772 -0.0670684 -0.038996436 0.014166298 -0.0485956 -0.13767728
-0.18533269 -0.10797178 -0.02647163 0.07899245 0.0071914536 0.06706129 -0.13416338 0.016031634
-0.058508627 -0.061672408 -0.099666804 0.02339498 -0.028224384 -0.08310234 -0.10774346 0.024991795
0.003125504 -0.07451141 0.05012678 -0.07423389 -0.04523766 -0.077200785 0.00032557754 -0.06520644
0.07347958 -0.058514632 -0.020644847 0.0040513864 -0.092066936 0.07259507 0.039334178 0.06731305
0.12802988 0.038836095 -0.008545515 0.022375641 0.0179595 -0.020085309 -0.07924117 -0.013642489
0.021007339 -0.07462497 -0.040470205 0.07691057 0.013146161 -0.26535633 -0.05523694 -0.15255708
-0.14632976 -0.06558012 -0.062511496 0.067858025 -0.08518089 -0.04299912 0.02900465 0.085357025
-0.027550466 0.015340894 -0.13290483 -0.014684298 0.05240689 -0.060483806 -0.02076637 -0.061670877
-0.047612533 -0.11943028 -0.12288682 0.0012919309 -0.07804448 0.021785868 0.07307673 0.021250062
-0.0336062 -0.07802422 0.05324781 -0.07550877 0.026296282 0.057682894 0.015545366 -0.04060492
0.03564693 -0.020461356 -0.0021816297 -0.1737517 -0.11015548 0.07152439 -0.01654683 -0.04102398
0.054072604 -0.05586286 0.081787825 -0.06788012 0.040721357 -0.15226814 -0.36436263 0.069252
-0.011594231 0.058784302 0.016321674 0.12240244 0.06525298 0.06517419 -0.06905065 0.07857354
-0.029629052 -0.105408356 -0.062408175 0.044378012 -0.045059 0.028534446 0.046341736 -0.08546026
0.06224275 0.0021842604 -0.18757695 -0.18658844 0.015238899 0.0177269 -0.13165338 0.0032169535
-0.033629026 0.052161675 0.024969669 -0.08788992 0.004934374 -0.038191173 0.003767365 -0.17667715
-0.18148531 -0.10016372 -0.0673451 0.040406086 0.050839096 0.038344573 -0.14944784 0.027236223
0.028028417 -0.29838648 -0.19984451 -0.01773884 0.048268784 -0.038477384 -0.16981572 -0.06379406
0.022524508 0.056230877 0.05122307 -0.11405832 -0.10348462 -0.031061454 0.056213517 -0.14421554
0.025733562 -0.09285569 -0.09337498 0.021134991 -0.32560563 -0.06266981 -0.0023436493 0.2799141
00000000: 5d1f 5eb6 2cda 2e3d 766a bcbd 7735 1bbc
00000010: 4021 41bd ef4e 50bd 0b90 343c 4940 3fbc
00000020: 9d88 403d 6ac4 88bc 75b3 6bbc 1803 043c
00000030: 0226 933d a941 cfbd 7426 79bd 4b3e 72be
00000040: d31a 08be 8126 a53d a953 063c 2f9d 643d
00000050: daa2 afbd 3a59 833c a96d 963d 6643 063c
00000060: bd89 7e3d d905 28bd 7ad3 45bb 514e 383d
00000070: a1fc 973d 9ab9 413c a329 973d 9eb2 77bd
00000080: c7a3 743d df8e febd 500d 25be b7d9 cc3c
00000090: 5c37 45bd f645 f1bb c394 803c 2bc7 8e3d
000000a0: 1f64 42bd a082 96bc b3e8 8ebd 1b4f 863d
000000b0: 90f9 573c 9879 873d 7d36 cebc 5259 55bd
000000c0: 9409 0abd 29c2 9dbd 9c84 413b 40ea bcbc
000000d0: 40ff aabd 4f18 8fbd 4558 953c 7eb7 dfbb
000000e0: 7636 bbbd 9814 7d3c 9baf fdbc 7919 26bd
000000f0: 904f ec3b ac91 aabd ee9e 08be 265c 323c
00000100: faa0 99bd c4cc 82bd a805 ba3c 9f52 8d3e
00000110: 3fdd a1bd 6604 0d3d d633 953c 1ae6 3c3d
00000120: 900e d83d 1f3f 72bd 93bc 8c3d 46a3 693d
00000130: 87b2 b5bc 4b06 4dbd 94dc a43d 8c70 813d
00000140: 3cf9 833d 4729 1e3d dd66 ffbd e8cf a9bd
00000150: 0723 8abd 5bc5 733c 83bd 0fbe 5841 36bd
00000160: eb0e 083a a7a7 c13c f616 783d 285b 89bd
00000170: baba 1fbd c319 683c 2e0c 47bd 46fb 0cbe
00000180: dac7 3dbe 4f20 ddbd 08db d8bc cbc6 a13d
00000190: 49a6 eb3b 6e57 893d 2062 09be c654 833c
000001a0: bea6 6fbd 359c 7cbd 1c1e ccbd d4a6 bf3c
000001b0: d336 e7bc 8f31 aabd 9aa8 dcbd 98bb cc3c
000001c0: 41d5 4c3b 7099 98bd bd51 4d3d f007 98bd
000001d0: 204b 39bd 721b 9ebd 47b2 aa39 f48a 85bd
000001e0: 767c 963d 0aad 6fbd 621f a9bc 7ec1 843b
000001f0: 978d bcbd b9ac 943d e01c 213d 6ddb 893d
00000200: 441a 033e 9912 1f3d 7d02 0cbc 1f4d b73c
00000210: cd1f 933c f289 a4bc 3249 a2bd bf84 5fbc
00000220: 9517 ac3c fad4 98bd 16c4 25bd 4a83 9d3d
00000230: ff62 573c c9dc 87be 2140 62bd ec37 1cbe
00000240: 78d7 15be df4e 86bd 0706 80bd 26f9 8a3d
00000250: 5273 aebd d81f 30bd 299b ed3c aacf ae3d
00000260: 84b1 e1bc 6058 7b3c 3418 08be 6996 70bc
00000270: 9ba8 563d debd 77bd 3c1e aabc 9a9a 7cbd
00000280: 5c05 43bd dd97 f4bd 16ac fbbd 0256 a93a
00000290: c9d5 9fbd 4778 b23c 41a9 953d 9c14 ae3c
000002a0: a8a6 09bd 2acb 9fbd 601a 5a3d 58a4 9abd
000002b0: 4d6b d73c e644 6c3d feb1 7e3c 5851 26bd
000002c0: 8402 123d 939e a7bc acf9 0ebb f7eb 31be
000002d0: 3299 e1bd 617b 923d 388d 87bc c308 28bd
000002e0: 3c7b 5d3d 74d0 64bd 6080 a73d bb04 8bbd
000002f0: 70cb 263d 2eec 1bbe bd8d babe fed3 8d3d
00000300: bbf5 3dbc cfc7 703d 08b5 853c 21ae fa3d
00000310: 5ba3 853d 0c7a 853d 6d6a 8dbd 2aeb a03d
00000320: a0b8 f2bc 56e0 d7bd b79f 7fbd b8c5 353d
00000330: c98f 38bd 12c1 e93c d5d0 3d3d ca05 afbd
00000340: 41f2 7e3d cf25 0f3b 2c14 40be 0a11 3fbe
00000350: 93ac 793c 0138 913c 25d0 06be 86d3 523b
00000360: 97be 09bd 7ba7 553d 318d cc3c a1ff b3bd
00000370: 87b0 a13b 596e 1cbd e5e5 763b dbea 34be
00000380: 49d7 39be a322 cdbd 3aec 89bd da80 253d
00000390: a83c 503d 330f 1d3d db08 19be 801e df3c
000003a0: da9b e53c 1dc6 98be 0aa4 4cbe 0b51 91bc
000003b0: 7db5 453d 769a 1dbd 2ce4 2dbe 76a6 82bd
000003c0: 5185 b83c 5952 663d 48cf 513d 6997 e9bd
000003d0: bfef d3bd 9774 febc 2540 663d 3dad 13be
000003e0: 31cf d23c 202b bebd 623b bfbd 4a23 ad3c
000003f0: c8b5 a6be 0859 80bd e997 19bb e750 8f3e

4.bias f4 [8]
-0.18299362 -0.21949424 -0.19100174 -0.17481185 -0.08485203 -0.08943646 -0.19659075 -0.16980356
00000000: ae62 3bbe 19c3 60be f695 43be e101 33be
00000010: e7c6 adbd 762a b7bd 164f 49be fce0 2dbe
