Runs/9/final_model-4thSize.pth (torch, 75908 bytes, 6 tensors)

0.weight f4 [128, 5]
-0.17315492 -0.3448358 -0.2999188 0.24716654 0.22628598 -0.23624888 -0.30932197 -0.19008543
-0.12114905 0.23805787 0.0343509 0.061394967 -0.40107584 -0.3024265 -0.09352932 0.43426403
-0.016615702 -0.20444097 -0.2981283 0.35947502 -0.31314507 -0.06972961 -0.40310925 -0.17477293
-0.022794565 -0.031736694 -0.4035975 0.2568442 -0.46600634 -0.34143797 0.12904274 -0.28442788
0.19661987 -0.5010249 -0.20112626 0.27036154 -0.18057282 0.12509762 -0.21530576 0.17116122
0.42900807 -0.38606632 0.0041188863 -0.09930941 0.031426154 0.27046278 -0.38563207 0.2778358
0.024061892 -0.19829021 -0.2074653 -0.28594616 -0.008006226 -0.4041654 0.08984229 -0.43607378
0.16413876 -0.062633105 0.046364266 0.61835945 -0.20611124 -0.26485786 0.025012424 -0.17526317
0.22281037 0.3222748 0.18780252 0.113030724 -0.2860138 0.17263104 0.20975569 -0.1734435
-0.041985236 -0.27604887 -0.054581534 -0.18788758 0.48049092 0.03241608 0.08628203 0.16527571
-0.047934163 -0.5743762 0.22156179 -0.4586104 -0.20207825 -0.2613347 0.3457337 0.05195944
-0.13584886 -0.3801481 -0.40606242 -0.329687 -0.289454 -0.1550872 -0.019842306 0.35355893
-0.36914462 0.16791093 -0.19996977 -0.5010232 -0.06498409 -0.5237488 0.2796031 -0.2670339
-0.22305198 -0.05802778 -0.03340611 0.08391567 -0.40760368 -0.40774873 0.36276954 -0.035385367
0.16663618 -0.22445038 0.24420494 -0.25377637 0.35213292 0.028366432 -0.105584726 0.24831894
0.22652061 -0.3776487 0.062614694 -0.2613791 -0.10849773 -0.36991638 0.1316497 0.004599432
-0.410889 -0.17828631 -0.40901384 -0.45912397 0.16444916 -0.03301565 -0.14451914 -0.2736769
-0.14369789 -0.06038284 0.07390038 -0.037005153 0.42987022 0.05645012 -0.3209027 -0.2781656
-0.41440943 0.1528021 0.19495048 -0.07912558 0.30420873 0.17867006 -0.2592235 -0.46585605
0.22793268 0.2522552 -0.459832 0.07612161 -0.11790933 -0.18327902 -0.27267244 -0.35670716
-0.38795745 0.24174583 -0.3099113 0.05863671 -0.31559166 -0.34268937 -0.091424935 -0.20867346
0.12896347 0.29961 -0.13422841 0.033634644 0.23313002 0.28704524 0.30507728 -0.31658834
-0.10768121 -0.054495435 -0.1574838 0.25453624 -0.3855293 0.02892497 0.19231781 -0.44963807
-0.41535985 0.027574467 0.10490996 -0.08119221 -0.011217137 -0.45848995 -0.24577734 0.3183569
-0.34717602 0.13994925 0.5895174 -0.08089725 -0.55899376 -0.076521546 0.050404735 -0.40292886
-0.40773365 0.3305996 -0.15034832 0.29136902 -0.46678585 -0.10598343 -0.22886978 0.052559968
0.31888068 0.2981773 0.27980545 0.30846012 -0.2793765 -0.27875403 -0.19433604 -0.107994094
-0.627187 0.040289037 -0.038668282 -0.37387496 0.12760444 0.09023629 -0.4009138 -0.064266406
-0.40356874 0.39976436 -0.16351226 -0.080642544 0.2153343 0.04387397 0.08356525 0.19863544
0.21915916 -0.08146746 -0.23223145 0.08791578 -0.575135 0.18931162 0.16720228 0.39643618
0.33156234 -0.18188123 0.02398863 0.09804838 -0.39791387 0.39800987 -0.26271227 0.089560695
-0.11891766 0.09894746 0.1961132 0.12226823 -0.07537562 -0.123472385 -0.4428487 -0.4378928
00000000: 864f 31be 518e b0be f58e 99be 3a19 7d3e
00000010: 83b7 673e 3aeb 71be 735f 9ebe c1a5 42be
00000020: fe1c f8bd 71c5 733e 88b3 0c3d 4a79 7b3d
00000030: d059 cdbe a5d7 9abe 4d8c bfbd db57 de3e
00000040: a71d 88bc f958 51be 46a4 98be 1c0d b83e
00000050: 8d54 a0be 66ce 8ebd 5664 cebe adf7 32be
00000060: abbb babc 56fe 01bd 55a4 cebe 1581 833e
00000070: 6298 eebe f5d0 aebe c823 043e 88a0 91be
00000080: b856 493e 2b43 00bf 0bf4 4dbe d46c 8a3e
00000090: 15e8 38be 9719 003e 1d79 5cbe e344 2f3e
000000a0: f2a6 db3e 7caa c5be b9f7 863b bb62 cbbd
000000b0: b6b8 003d 197a 8a3e 9171 c5be 7e40 8e3e
000000c0: 721d c53c 970c 4bbe c971 54be 8967 92be
000000d0: 8c2c 03bc c4ee cebe 3cff b73d 1045 dfbe
000000e0: fe13 283e c945 80bd 75e8 3d3d ce4c 1e3f
000000f0: d30e 53be 739b 87be dbe6 cc3c 3078 33be
00000100: 6728 643e 3401 a53e 4e4f 403e a77c e73d
00000110: 6770 92be 31c6 303e 32ca 563e 2c9b 31be
00000120: b6f8 2bbd 4756 8dbe e390 5fbd 9a65 40be
00000130: e802 f63e b9c6 043d a2b4 b03d 093e 293e
00000140: 9d56 44bd 520a 13bf 18e1 623e fbce eabe
00000150: 9aed 4ebe a9cd 85be 0204 b13e 6cd3 543d
00000160: f71b 0bbe c6a2 c2be 6ae7 cfbe bccc a8be
00000170: 5133 94be 2ecf 1ebe 558c a2bc ad05 b53e
00000180: 8600 bdbe d8f0 2b3e e0c4 4cbe 0e43 00bf
00000190: 6116 85bd 6714 06bf 2328 8f3e abb8 88be
000001a0: bd67 64be 8aae 6dbd d8d4 08bd fbdb ab3d
000001b0: 6eb1 d0be 71c4 d0be eebc b93e 3ff0 10bd
000001c0: ada2 2a3e 52d6 65be dc10 7a3e faee 81be
000001d0: c44a b43e b860 e83c ce3c d8bd 5247 7e3e
000001e0: 05f5 673e 2c5b c1be 223c 803d 7bd3 85be
000001f0: 0f34 debd ae65 bdbe 2ecf 063e d5b6 963b
00000200: 0b60 d2be b090 36be 436a d1be 4c12 ebbe
00000210: 5c65 283e 6b3b 07bd d3fc 13be 611f 8cbe
00000220: 8a25 13be ff53 77bd 1559 973d b792 17bd
00000230: f317 dc3e 3e38 673d 5c4d a4be b96b 8ebe
00000240: 792d d4be 2778 1c3e 19a1 473e 980c a2bd
00000250: 3fc1 9b3e 49f5 363e f1b8 84be af84 eebe
00000260: 2f67 693e 9827 813e 1a6f ebbe a6e5 9b3d
00000270: 727a f1bd 7fad 3bbe b99b 8bbe 52a2 b6be
00000280: 5ca2 c6be 388c 773e b2ac 9ebe 0c2d 703d
00000290: 3b95 a1be fb74 afbe ff3c bbbd 7fae 55be
000002a0: 000f 043e 7b66 993e 2c73 09be 7bc4 093d
000002b0: a3b9 6e3e 98f7 923e 1733 9c3e de17 a2be
000002c0: f787 dcbd 9b36 5fbd 6f43 21be 9352 823e
000002d0: 1964 c5be 0ff4 ec3c f6ee 443e f636 e6be
000002e0: 0caa d4be d9e3 e13c 08db d63d 1a48 a6bd
000002f0: 15c8 37bc 32bf eabe 0ead 7bbe adff a23e
00000300: 0ec1 b1be db4e 0f3e 9dea 163f 75ad a5bd
00000310: 371a 0fbf 54b7 9cbd 3275 4e3d b14c cebe
00000320: 77c2 d0be 5a44 a93e e9f4 19be 522e 953e
00000330: 8efe eebe d70d d9bd d75c 6abe 1f49 573d
00000340: 5444 a33e b2aa 983e a942 8f3e 7cee 9d3e
00000350: 700a 8fbe d9b8 8ebe 0700 47be 022c ddbd
00000360: 548f 20bf 1e06 253d a262 1ebd 8a6c bfbe
00000370: bdaa 023e cecd b83d 9344 cdbe 1b9e 83bd
00000380: 90a0 cebe eaad cc3e c26f 27be eb27 a5bd
00000390: 9880 5c3e 31b5 333d 4224 ab3d 1767 4b3e
000003a0: 426b 603e 69d8 a6bd 15ce 6dbe 300d b43d
000003b0: 0c3c 13bf e8da 413e 1337 2b3e aff9 ca3e
000003c0: 8ac2 a93e 133f 3abe ce83 c43c 97cd c83d
000003d0: 5ebb cbbe f3c7 cb3e 3982 86be 996b b73d
000003e0: 1a8b f3bd f7a4 ca3d e6d1 483e c467 fa3d
000003f0: 885e 9abd 17df fcbd 11bd e2be 7c33 e0be

0.bias f4 [128]
0.2522771 -0.39392355 0.35949588 -0.36193356 -0.25962445 0.26588067 -0.23326337 0.42886624
-0.04450583 -0.0702897 0.70187116 0.3204204 0.33796784 -0.40468234 -0.3102531 -0.3469977
-0.36315018 -0.3114164 0.071355574 -0.4169952 0.2572139 -0.08446606 0.48320726 0.21810469
-0.2346597 0.46190995 -0.42675167 0.007154032 -0.26288 0.50974196 -0.23567893 0.08045716
-0.0054928437 -0.3175834 -0.14425077 -0.20545405 -0.19790363 0.34373027 0.15332001 0.40752152
-0.40556386 0.3808951 -0.0899508 -0.037293218 0.29979813 -0.5033564 0.06661697 0.29571941
-0.22933738 -0.029234195 -0.08297413 -0.038158566 0.0718271 0.27999684 0.18325931 0.22211868
0.3839692 -0.45676276 -0.40332752 0.10436204 0.41906968 -0.30659932 0.20836058 0.5225521
-0.23521218 0.421253 -0.052850474 0.27624306 -0.2614264 -0.09276317 -0.052506074 -0.4434722
-0.22990957 -0.14406954 0.14713503 -0.4699284 0.2736713 0.014894835 -0.07593007 0.15476686
-0.36706808 0.36325103 -0.3577185 0.03561813 -0.4440475 0.30645126 -0.17744136 -0.5380399
0.37600005 -0.3566385 -0.31489646 0.32436937 -0.44265264 -0.45060748 0.023957726 -0.031459633
-0.16384427 0.24254802 0.24117607 -0.11536888 0.3823126 0.2922821 -0.016550673 -0.36372727
0.26588443 -0.28615287 0.50567293 0.14147398 -0.24031213 -0.3444006 -0.15541165 -0.48698905
0.009317642 -0.09964725 0.34164473 -0.2715922 0.13329384 -0.4707489 -0.27773198 0.08010982
-0.079806775 -0.1149898 -0.15773949 -0.22597854 -0.36130384 -0.40188846 -0.124383144 0.5996627
00000000: 772a 813e 59b0 c9be d80f b83e 5b4f b9be
00000010: 7fed 84be 8321 883e 98dc 6ebe 5b94 db3e
00000020: bf4b 36bd 0cf4 8fbd d4ad 333f 250e a43e
00000030: 1f0a ad3e 8632 cfbe 7fd9 9ebe afa9 b1be
00000040: d2ee b9be f871 9fbe df22 923d 6580 d5be
00000050: 8ab1 833e 8bfc acbd f166 f73e d656 5f3e
00000060: a24a 70be 767f ec3e 327f dabe 5f6c ea3b
00000070: 3598 86be 737e 023f d155 71be b9c6 a43d
00000080: 50fd b3bb 4b9a a2be 79b6 13be 8c62 52be
00000090: 40a7 4abe 6afd af3e ecff 1c3e a9a6 d03e
000000a0: 11a6 cfbe af04 c33e 2038 b8bd c6c0 18bd
000000b0: 247f 993e f7db 00bf 7a6e 883d 8968 973e
000000c0: 6bd7 6abe 8d7c efbc 57ee a9bd 284c 1cbd
000000d0: 161a 933d bf5b 8f3e 54a8 3b3e 1473 633e
000000e0: 9c97 c43e cfdc e9be f280 cebe c4bb d53d
000000f0: 4d90 d63e 96fa 9cbe 7a5c 553e f9c5 053f
00000100: 76db 70be 79ae d73e bd79 58bd bb6f 8d3e
00000110: aed9 85be 9efa bdbd 9c10 57bd ca0e e3be
00000120: 6a6d 6bbe f786 13be 91aa 163e 759a f0be
00000130: a51e 8c3e 7709 743c 3981 9bbd 347b 1e3e
00000140: 59f0 bbbe 0afc b93e e126 b7be 51e4 113d
00000150: 325a e3be 2ee7 9c3e 30b3 35be fcbc 09bf
00000160: 1483 c03e 5299 b6be 1c3a a1be be13 a63e
00000170: 5ea3 e2be 06b6 e6be fe42 c43c d1db 00bd
00000180: cbc6 27be 825e 783e dcf6 763e 8546 ecbd
00000190: 7abe c33e 00a6 953e 4795 87bc 763a babe
000001a0: 0122 883e a182 92be c873 013f 8ede 103e
000001b0: 6214 76be 4755 b0be 3b24 1fbe a156 f9be
000001c0: 06a9 183c db13 ccbd 0fec ae3e 220e 8bbe
000001d0: 2e7e 083e 0006 f1be e332 8ebe 9e10 a43d
000001e0: bc71 a3bd c67f ebbd 7686 21be eb66 67be
000001f0: d1fc b8be 53c4 cdbe 97bc febd 7f83 193f

2.weight f4 [128, 128]
0.055907466 -0.05341567 -0.072590485 -0.05799481 0.023689795 0.023027005 -0.07716184 -0.04093898
0.007029852 0.07784717 0.045165278 -0.0283362 0.01657212 -0.015004679 0.008903122 0.07006448
-0.024939038 -0.08143357 -0.062167726 -0.041449666 -0.08298197 0.08396312 -0.020421475 -0.038068656
0.05097211 -0.04603534 0.08689491 -0.037663046 -0.02690168 0.08739016 0.016128618 0.02695155
0.017822921 0.0435256 -0.040312394 0.061087694 0.06836515 -0.038344823 -0.033954974 0.049640473
-0.05992599 -0.0729634 -0.04948218 -0.037719257 0.007925714 -0.007831917 -0.04345382 0.06515729
-0.041849237 0.037749033 -0.025200043 -0.030297356 -0.059618425 0.075347796 -0.012490302 0.020590842
0.030895073 -0.0786021 -0.05787639 0.06025426 -0.031965107 0.07899943 -0.033304114 -0.071113825
0.08571711 0.07106635 0.015609612 0.08649149 -0.03192179 0.036809497 -0.04416057 0.032177284
0.05770027 -0.039531793 0.039417386 -0.039691593 0.08789627 -0.085571155 -0.064651094 0.03145869
-0.02546775 0.022200461 -0.07384921 -0.08077433 0.07686604 0.01895822 0.03353555 -0.08132522
-0.030980378 -0.028458321 0.063705295 0.044318043 0.023249645 -0.01633161 0.022793058 0.063126884
0.08516071 -0.019505687 -0.061142873 -0.017403908 -0.030574176 0.014743779 -0.048579343 0.039074153
-0.073031835 0.050380614 -0.029833004 -0.009146993 -0.06626783 0.02149857 -0.03975022 -0.04139638
-0.082098976 -0.011611878 -0.084319584 -0.0616591 -0.056053422 0.07266739 -0.0021567806 -0.05916446
-0.021493355 0.07713344 -0.04871892 0.02467756 0.0672659 -0.011122068 0.0741872 -0.078391515
0.06825915 0.064342655 -0.040025607 -0.029999347 0.072243154 -0.057894643 0.047074106 -0.04192719
0.046277754 0.0599368 0.075286396 -0.011787152 0.035965957 0.045071665 0.033280805 0.07224011
-0.05226523 -0.016790241 0.002760313 -0.006473856 0.06483964 -0.085331276 -0.03910473 0.009812609
0.005186844 -0.096534364 -0.08388264 0.05114093 -0.030581446 -0.04977579 -0.0649604 0.08731167
0.05704756 -0.072933465 0.06777489 -0.06315627 -0.026366254 0.06746024 0.032815423 0.054294717
0.05699126 -0.037883624 0.04843071 -0.01422396 0.05045274 -0.059968684 0.0080585955 -0.05870227
-0.06328354 -0.091094844 0.020931358 0.019498782 -0.100382246 -0.087813675 -0.0680166 -0.07426942
0.04311015 -0.072767675 -0.0064767273 0.009149384 -0.009218709 0.01905457 0.055571802 -0.08725183
0.011679787 -0.08456407 -0.05237543 0.049919624 0.064563155 0.0825718 -0.08179258 -0.047248513
-0.0859998 0.019376425 -5.6223897e-05 0.068590924 -0.02428049 -0.035696704 0.061944097 0.03898403
-0.010926855 0.0121944 0.04977264 -0.023159113 0.016674802 0.014459831 -0.012555314 0.020226872
-0.03492479 -0.05101212 0.085423745 -0.054041617 -0.04910272 0.07051183 0.027486794 -0.00091769494
-0.011766986 -0.046334133 -0.09974776 0.019220892 0.044340365 -0.071058 -0.05316998 -0.00247724
-0.043900985 -0.005345927 0.07361424 -0.002554078 -0.0526421 0.060862567 -0.033721767 -0.048433043
-0.020946337 -0.054408334 -0.017474286 -0.03626063 -0.05433526 -0.05289291 -0.0350535 -0.033956036
-0.016459323 -0.07873324 -0.07342185 -0.07251499 0.07794081 -0.041474447 0.07499471 -0.06454054
00000000: 3aff 643d 64ca 5abd 52aa 94bd f78b 6dbd
00000010: 1a11 c23c 21a3 bc3c 0707 9ebd a2af 27bd
00000020: ac5a e63b 566e 9f3d 3aff 383d 5221 e8bc
00000030: 41c2 873c 2fd6 75bc 66de 113c f77d 8f3d
00000040: f44c ccbc a5c6 a6bd 96a3 7ebd 20c7 29bd
00000050: 73f2 a9bd dbf4 ab3d f04a a7bc e1ed 1bbd
00000060: 22c8 503d 8d8f 3cbd f5f5 b13d 9144 1abd
00000070: e960 dcbc 9df9 b23d 2a20 843c 7fc9 dc3c
00000080: 6001 923c e647 323d 9c1e 25bd 1737 7a3d
00000090: 0703 8c3d 760f 1dbd 5f14 0bbd cf53 4b3d
000000a0: f474 75bd d66d 95bd d4ad 4abd 827f 1abd
000000b0: dbda 013c 7151 00bc a2fc 31bd 2f71 853d
000000c0: 1b6a 2bbd bb9e 1a3d 5270 cebc 2932 f8bc
000000d0: 7332 74bd f24f 9a3d 20a4 4cbc 20ae a83c
000000e0: aa17 fd3c 23fa a0bd cb0f 6dbd 2ccd 763d
000000f0: d8ed 02bd 74ca a13d e569 08bd 20a4 91bd
00000100: 748c af3d 3c8b 913d 75bf 7f3c 7322 b13d
00000110: 6cc0 02bd 8ec5 163d b7e1 34bd 54cc 033d
00000120: 1e57 6c3d 17ec 21bd 2074 213d a793 22bd
00000130: f602 b43d ee3f afbd cb67 84bd d4da 003d
00000140: bea1 d0bc bedd b53c 413e 97bd 036d a5bd
00000150: f16b 9d3d 454e 9b3c 935c 093d d68d a6bd
00000160: 90ca fdbc 6d21 e9bc ec77 823d d686 353d
00000170: 0a76 be3c dec9 85bc 82b8 ba3c ab48 813d
00000180: bd68 ae3d 64ca 9fbc f370 7abd a492 8ebc
00000190: b276 fabc e48f 713c 22fb 46bd 380c 203d
000001a0: b791 95bd e75b 4e3d 5864 f4bc 45dd 15bc
000001b0: 6eb7 87bd c51d b03c 20d1 22bd 408f 29bd
000001c0: 8223 a8bd bf3f 3ebc bfaf acbd 418e 7cbd
000001d0: 4698 65bd a4d2 943d c658 0dbb 6f56 72bd
000001e0: d512 b0bc 23f8 9d3d 7e8d 47bd 9828 ca3c
000001f0: b4c2 893d 5639 36bc 75ef 973d bb8b a0bd
00000200: 74cb 8b3d 15c6 833d e4f1 23bd 31c1 f5bc
00000210: 38f4 933d ef22 6dbd c7d0 403d d8bb 2bbd
00000220: be8d 3d3d 4a80 753d c12f 9a3d e61e 41bc
00000230: 0a51 133d 119d 383d 7451 083d 9ff2 933d
00000240: 1114 56bd b08b 89bc 5ee6 343b a422 d4bb
00000250: a5ca 843d 2ac2 aebd 482c 20bd 11c5 203c
00000260: 67f6 a93b cfb3 c5bd a9ca abbd 2779 513d
00000270: f185 fabc b3e1 4bbd f509 85bd 76d0 b23d
00000280: b4aa 693d 245e 95bd 90cd 8a3d 1358 81bd
00000290: 0bfe d7bc 9828 8a3d 7769 063d 2364 5e3d
000002a0: ab6f 693d dc2b 1bbd 485f 463d 9d0b 69bc
000002b0: 88a7 4e3d b9a1 75bd 3308 043c cb71 70bd
000002c0: cd9a 81bd ef8f babd 3d78 ab3c e9bb 9f3c
000002d0: 3595 cdbd a8d7 b3bd 4a4c 8bbd 911a 98bd
000002e0: 4594 303d 3807 95bd ba3a d4bb 4ce7 153c
000002f0: 110a 17bc 5418 9c3c 429f 633d 16b1 b2bd
00000300: 945c 3f3c ed2f adbd 9e87 56bd 8578 4c3d
00000310: b039 843d 671b a93d de82 a7bd a887 41bd
00000320: aa20 b0bd 4fbb 9e3c f3d1 6bb8 6679 8c3d
00000330: e1e7 c6bc b536 12bd 18b9 7d3d b8ad 1f3d
00000340: 8d06 33bc 05cb 473c 65de 4b3d 2eb8 bdbc
00000350: 9899 883c ede8 6c3c ceb4 4dbc d3b2 a53c
00000360: 4c0d 0fbd 16f2 50bd a5f2 ae3d be5a 5dbd
00000370: ef1f 49bd 8268 903d fc2b e13c 7791 70ba
00000380: 51ca 40bc dcc8 3dbd 8e48 ccbd 2275 9d3c
00000390: 3e9e 353d db86 91bd c4c8 59bd 3159 22bb
000003a0: 85d1 33bd e32c afbb 10c3 963d 5162 27bb
000003b0: 3e9f 57bd 074b 793d d61f 0abd ba61 46bd
000003c0: a797 abbc 46db 5ebd 3c26 8fbc 0786 14bd
000003d0: a68e 5ebd 3ca6 58bd 4294 0fbd 7c15 0bbd
000003e0: b4d5 86bc e53e a1bd 325e 96bd bd82 94bd
000003f0: 6e9f 9f3d 1ce1 29bd d496 993d d52d 84bd

2.bias f4 [128]
-0.07333774 -0.04107997 -0.04616517 0.074031055 0.041608535 -0.0051933704 -0.101564184 0.15257747
-0.11668744 -0.02753776 -0.07566568 0.046174657 0.0008823932 -0.007871826 0.14836337 -0.022294333
0.17626168 -0.09664252 0.023292923 -0.049506746 0.036591955 -0.06815453 0.05740603 0.06139122
0.060684036 -0.05722306 -0.072867855 -0.08655938 -0.06461152 -0.01130298 0.02263308 -0.024784282
-0.06366418 -0.066747606 -0.047888774 0.0510344 0.011905989 0.05816668 -0.09032161 -0.11378478
-0.039152212 0.054356735 0.2520317 -0.06937148 -0.029507922 0.030853644 -0.017020961 -0.025831578
-0.056118097 0.021290854 0.21922274 -0.07086508 0.034042258 0.019783478 9.021625e-05 -0.05335703
0.038269732 0.01011064 -0.06813786 0.21192187 -0.06638739 0.02952345 -0.037201375 -0.037826546
0.03440066 0.035829615 0.0030234137 0.1188239 0.06403415 -0.038297404 0.007686552 -0.047467146
-0.10261496 -0.06376825 0.06022541 0.13994677 -0.10551847 0.07212546 -0.09086249 0.018107934
0.06885737 0.22648922 0.03758147 0.11756785 -0.008551142 -0.029179905 0.115372986 -0.06346428
0.07237998 0.1443008 -0.05754244 0.0097828265 0.045451798 -0.012412104 -0.0796546 -0.03724888
0.045358147 -0.10366632 0.15502745 -0.075425595 0.07773059 0.0327033 -0.08126571 -0.047280826
-0.036972832 -0.0029870633 0.047693197 -0.09147205 0.013216303 0.024347285 0.026801243 0.0043096296
0.046494454 0.014649073 0.009458975 -0.11318276 -0.066089995 -0.015284719 0.01003687 -0.110300414
0.060750403 -0.08134662 0.044084575 -0.0027019542 -0.10517252 0.008820308 0.07308913 -0.063613534
00000000: 1932 96bd 7843 28bd b017 3dbd 989d 973d
00000010: b66d 2a3d 262d aabb e200 d0bd 453d 1c3e
00000020: d3f9 eebd de96 e1bc 9cf6 9abd a321 3d3d
00000030: 6850 673a d5f8 00bc 91ec 173e 9ba2 b6bc
00000040: f17d 343e 83ec c5bd cdd0 be3c 96c7 4abd
00000050: 72e1 153d 9a94 8bbd 9622 6b3d 5c75 7b3d
00000060: d38f 783d ba62 6abd be3b 95bd 0b46 b1bd
00000070: 0b53 84bd 2230 39bc 0269 b93c 6808 cbbc
00000080: 5e62 82bd f8b2 88bd 0527 44bd 7209 513d
00000090: 5611 433c 2f40 6e3d 89fa b8bd ff07 e9bd
000000a0: 125e 20bd 2ba5 5e3d 4d0a 813e a212 8ebd
000000b0: 99ba f1bc c8c0 fc3c 8b6f 8bbc bf9c d3bc
000000c0: 17dc 65bd 286a ae3c ed7b 603e b621 91bd
000000d0: e56f 0b3d f610 a23c 7b32 bd38 e78c 5abd
000000e0: b9c0 1c3d 19a7 253c dd8b 8bbd 0c02 593e
000000f0: 1df6 87bd 2adb f13c 7860 18bd 02f0 1abd
00000100: b5e7 0c3d 13c2 123d 7724 463b f259 f33d
00000110: 5624 833d bddd 1cbd 79df fb3b e96c 42bd
00000120: cb27 d2bd ee98 82bd ebae 763d 354e 0f3e
00000130: 111a d8bd 83b6 933d 1d16 babd 1757 943c
00000140: 1805 8d3d caec 673e 07ef 193d 6ac7 f03d
00000150: 171a 0cbc b20a efbc ac48 ec3d 8ff9 81bd
00000160: f43b 943d 97c3 133e 9fb1 6bbd 2648 203c
00000170: aa2b 3a3d 235c 4bbc f321 a3bd 4892 18bd
00000180: 77c9 393d 024f d4bd 84bf 1e3e bc78 9abd
00000190: 3731 9f3d e5f3 053d a36e a6bd 8aa9 41bd
000001a0: d370 17bd 9bc2 43bb f159 433d b355 bbbd
000001b0: 3189 583c f573 c73c 488e db3c cb37 8d3b
000001c0: f870 3e3d aa02 703c d1f9 1a3c 5dcc e7bd
000001d0: 315a 87bd c26c 7abc af71 243c 2fe5 e1bd
000001e0: 6ad5 783d 0f99 a6bd 0792 343d 4513 31bb
000001f0: b164 d7bd 0e83 103c c1af 953d d047 82bd

4.weight f4 [8, 128]
-0.009557978 0.04437566 -0.079743445 -0.08315606 -0.028482577 -0.0012176962 0.03751097 -0.03134512
-0.025451161 -0.08761359 0.0681921 -0.14407924 -0.19181953 -0.085607804 -0.124770395 -0.41101775
-0.028257703 -0.07639189 -0.043623205 -0.024621503 0.07473624 -0.05872906 0.08033963 0.011393676
0.004040444 0.052707836 -0.00084304233 -0.049486235 0.021149106 -0.024167906 -0.08478817 -0.012481023
0.06443967 -0.04958877 -0.019302804 -0.15000248 -0.025696237 -0.07138903 -0.01410499 -0.011792635
-0.028655376 -0.05776219 -0.10883792 0.08040533 0.02851347 0.024414059 -0.040692367 -0.059525106
0.051177744 0.078235075 -0.05638785 0.050371215 -0.0035270755 -0.026363546 -0.21199143 -0.03193369
-0.1359136 0.024587698 -0.039014276 -0.16917084 0.042822607 0.029976528 0.029394751 -0.10718835
-0.072261535 -0.1151437 0.055952843 -0.06858304 -0.0024304644 0.07335345 -0.06472398 0.029669251
0.026557198 -0.08327311 -0.056463383 -0.21381405 -0.0804516 -0.03703826 0.083525635 0.07995239
0.0526005 -0.08498622 0.026669236 -0.17235447 0.013632498 -0.07574558 -0.08441934 0.0053912704
-0.04787928 -0.054316215 0.009249611 0.054344427 -0.08039712 0.02438755 -0.0679477 -0.088784344
0.06040187 0.053196933 -0.03804897 -0.0015012227 -0.15125453 0.04945314 -0.031081684 0.10797161
0.031399503 0.04486647 0.0036656838 -0.055082005 -0.06183203 0.058589533 0.034620747 0.045132745
-0.09125888 0.071186244 -0.013579082 0.06599989 0.015050638 -0.035655174 0.021504333 -0.0072519025
0.011432393 0.07274086 0.004188915 -0.0019628755 -0.0028814115 0.07269 -0.07668792 -0.085393526
0.08521037 0.060661305 -0.028184403 0.022104127 0.06063728 -0.022051433 0.075071864 -0.07906527
-0.16475627 -0.044621266 -0.086000435 -0.21647672 -0.037739534 0.0128221605 -0.15197392 -0.16387469
-0.13086511 0.087460466 0.07916294 0.007147695 0.0078093656 -0.080653705 -0.07174038 0.07225372
-0.0032026102 -0.042420857 -0.07068652 -0.07147285 0.0014795794 -0.01972623 -0.056874707 0.0025134524
-0.082056604 -0.04655567 0.014093632 -0.0007668662 -0.024629641 -0.03357557 -0.019291392 5.710898e-05
-0.0036731476 -0.042496417 -0.101068385 0.048966397 0.07908167 0.04969366 0.04641456 0.005835375
0.044259876 -0.13161202 -0.1606758 -0.072760314 0.062056717 -0.16435601 -0.14717057 -0.019813374
-0.14726426 -0.08958781 -0.07000618 -0.1017368 -0.044512097 -0.07690506 0.070629105 0.29661354
0.029910063 -0.11842224 0.041928202 -0.18358164 -0.060460296 -0.049490083 0.06075247 0.004791545
0.058793884 -0.021392897 -0.006722393 -0.03403921 -0.050026253 0.09073092 0.0056058574 0.013460165
-0.05727184 -0.014215946 0.013846235 -0.1819277 -0.06699261 -0.02008569 -0.00091375905 -0.02123133
-0.025593176 -0.18634224 0.0852112 0.050818305 0.05151962 -0.011260405 -0.005238852 -0.067283556
-0.015103866 -0.005376776 -0.10235807 0.03365265 -0.10717768 0.025454536 0.067268915 -0.07480428
-0.041479234 -0.08043869 0.042716037 -0.03347537 0.022872152 -0.06956466 0.009462472 0.24588881
0.043880958 0.06398461 -0.03759563 0.006756877 0.026442643 0.06561097 0.026302826 0.08177368
-0.17441998 -0.026147805 0.034920666 0.040325627 0.043209687 0.017359314 -0.0024013945 -0.012568201
00000000: 1199 1cbc 41c3 353d 8850 a3bd b94d aabd
00000010: 4b54 e9bc 1b9b 9fba 1aa5 193d be63 00bd
00000020: f47e d0bc c16e b3bd 4da8 8b3d 8289 13be
00000030: 576c 44be 2553 afbd 9f87 ffbd eb70 d2be
00000040: b37c e7bc 5a73 9cbd 3fae 32bd 09b3 c9bc
00000050: 500f 993d e28d 70bd 1b89 a43d 8aac 3a3c
00000060: b365 843b 2ce4 573d 9dff 5cba 14b2 4abd
00000070: e440 ad3c c6fb c5bc 6ca5 adbd 347d 4cbc
00000080: f2f8 833d 981d 4bbd ea20 9ebc 409a 19be
00000090: ea80 d2bc 6934 92bd 9e18 67bc e535 41bc
000000a0: aebe eabc 0c98 6cbd 6ae6 debd 8dab a43d
000000b0: 1595 e93c feff c73c 0aad 26bd 99d0 73bd
000000c0: c19f 513d b639 a03d f2f6 66bd 0c52 4e3d
000000d0: 8226 67bb 5df8 d7bc 4814 59be e7cc 02bd
000000e0: ef2c 0bbe 246c c93c 6fcd 1fbd 1f3b 2dbe
000000f0: c266 2f3d 5691 f53c 43cd f03c 9185 dbbd
00000100: dbfd 93bd 76d0 ebbd cf2e 653d 4475 8cbd
00000110: 6d48 1fbb 553a 963d 028e 84bd ee0c f33c
00000120: 7b8e d93c 188b aabd 2646 67bd 12f2 5abe
00000130: cfc3 a4bd 6eb5 17bd 7d0f ab3d 14be a33d
00000140: 9f73 573d 410d aebd 7179 da3c b17d 30be
00000150: d75a 5f3c 8020 9bbd 0ce4 acbd 41a9 b03b
00000160: 101d 44bd ae7a 5ebd ae8b 173c 4398 5e3d
00000170: 3fa7 a4bd 66c8 c73c 2a28 8bbd 91d4 b5bd
00000180: f467 773d 07e5 593d 3dd9 1bbd adc4 c4ba
00000190: 78e2 1abe 608f 4a3d 049f febc 3820 dd3d
000001a0: c49c 003d e7c5 373d f83b 703b ab9d 61bd
000001b0: 9543 7dbd 94fb 6f3d 7cce 0d3d 1ddd 383d
000001c0: f0e5 babd 18ca 913d cc7a 5ebc f32a 873d
000001d0: f396 763c 290b 12bd db29 b03c 5ea1 edbb
000001e0: ef4e 3b3c 29f9 943d 2a43 893b 96a3 00bb
000001f0: 10d6 3cbb 7fde 943d 8e0e 9dbd cde2 aebd
00000200: c682 ae3d fd77 783d fae2 e6bc b713 b53c
00000210: cc5e 783d 35a5 b4bc 47bf 993d f9ec a1bd
00000220: deb5 28be cac4 36bd ff20 b0bd 13ac 5dbe
00000230: c594 1abd 0a14 523c 0d9f 1bbe c4ce 27be
00000240: 8101 06be 791e b33d 2e20 a23d 3637 ea3b
00000250: b5e5 ff3b c52d a5bd 9fec 92bd c2f9 933d
00000260: e2e2 51bb 7ec1 2dbd 18c4 90bd 5c60 92bd
00000270: 72ee c13a e798 a1bc 74f5 68bd bcb8 243b
00000280: 4b0d a8bd 29b1 3ebd fae8 663c 8507 49ba
00000290: 1ac4 c9bc 8986 09bd fb08 9ebc 4d88 6f38
000002a0: 31b9 70bb b910 2ebd f1fc cebd fd90 483d
000002b0: 92f5 a13d 948b 4b3d 321d 3e3d ac36 bf3b
000002c0: d849 353d 4dc5 06be 3288 24be 5c03 95bd
000002d0: 2f2f 7e3d f14c 28be e2b3 16be a84f a2bc
000002e0: 71cc 16be d079 b7bd 665f 8fbd 625b d0bd
000002f0: 5152 36bd 6680 9dbd fea5 903d bbdd 973e
00000300: f305 f53c 5c87 f2bd e8bc 2b3d d3fc 3bbe
00000310: 37a5 77bd 1db6 4abd 95d7 783d 6502 9d3b
00000320: dbd1 703d 2840 afbc 8547 dcbb b36c 0bbd
00000330: 54e8 4cbd 22d1 b93d 57b1 b73b 0688 5c3c
00000340: e095 6abd 00ea 68bc 52db 623c 414b 3abe
00000350: 6c33 89bd bf8a a4bc 5589 6fba 54ed adbc
00000360: c8a8 d1bc 80d0 3ebe 3683 ae3d db26 503d
00000370: 3d06 533d 907d 38bc adaa abbb f6cb 89bd
00000380: 3576 77bc ab2f b0bb 1ca1 d1bd 5cd7 093d
00000390: f97f dbbd 0886 d03c 49c4 893d fd32 99bd
000003a0: 21e6 29bd 0abd a4bd 03f7 2e3d 781d 09bd
000003b0: 615e bb3c eb77 8ebd 7c08 1b3c 47ca 7b3e
000003c0: 85bc 333d 5d0a 833d e0fd 19bd cb68 dd3b
000003d0: 3e9e d83c 0b5f 863d 0679 d73c f678 a73d
000003e0: 279b 32be ec33 d6bc f908 0f3d 7c2c 253d
000003f0: a4fc 303d 1f35 8e3c b760 1dbb dbea 4dbc

4.bias f4 [8]
-0.18776609 -0.18354349 -0.18202397 -0.16133527 -0.10566359 -0.18007718 -0.10394431 -0.15014474
00000000: c145 40be d3f2 3bbe 7e64 3abe 1335 25be
00000010: 2766 d8bd 2766 38be c1e0 d4bd 8bbf 19be
