Runs/9/final_model-7thSize.pth (torch, 75888 bytes, 6 tensors)

0.weight f4 [128, 5]
0.14482112 0.016850406 0.042947672 -0.2713206 0.23004633 0.16419962 -0.19178136 0.21435419
-0.15848391 -0.08202571 -0.1690862 0.12933655 -0.0652714 0.13098158 -0.08648471 0.3862713
-0.16736332 0.20412041 -0.23948248 0.18422744 -0.42334244 0.13510102 -0.08697338 -0.30501926
-0.03742173 0.40083843 -0.23161991 -0.30694205 -0.1450588 0.33202633 0.004643903 -0.22804269
0.11105176 -0.33775765 0.50538963 0.096009925 -0.46780515 0.23034605 -0.14381328 -0.20317969
0.09515 9.520608e-05 0.11589983 0.20093545 0.4602384 -0.01126243 -0.06953582 -0.41576767
0.2155505 -0.4433023 -0.09310981 -0.22783364 -0.27777708 -0.064224824 0.33449617 0.108631015
-0.16105565 -0.16079004 -0.41747072 -0.388593 -0.11981283 -0.21958983 0.06144836 0.13984281
-0.28456837 -0.3793963 -0.3033336 0.26902187 0.22140294 -0.25588763 -0.12393204 0.37541115
-0.32473484 -0.009933787 0.42318922 0.3764165 0.11676552 0.31428105 -0.23441204 0.0459953
-0.12582323 0.38007078 -0.060589265 -0.40038854 -0.010905559 0.11556712 0.33970788 0.0109349005
-0.36010453 -0.36857653 -0.11154526 -0.41674677 0.19169524 -0.35648248 0.20468092 0.12320012
-0.26080692 -0.04529004 -0.10226605 0.08421514 0.15445322 -0.28638974 -0.23334952 -0.4243349
0.26916584 -0.1704561 -0.12436288 0.026352096 -0.1779746 0.38864416 0.31079376 -0.0641906
-0.29760018 -0.0067721717 0.027302949 -0.04291628 0.31734684 -0.4415604 0.40459558 -0.4359977
0.0639927 0.3914809 0.1662974 -0.258212 -0.25256208 0.3036607 0.4142123 0.11003518
-0.33840588 -0.10813778 -0.24443814 0.048122637 -0.13677356 0.089287296 0.1088211 0.34929004
-0.49925324 0.20589647 -0.14906238 -0.030241424 -0.3361242 -0.22377105 -0.035397425 -0.10993513
0.3073196 0.3339458 -0.13318627 -0.4175054 0.3084625 0.046516333 0.0045635616 0.21980682
-0.3995219 -0.23290212 -0.058673285 0.36169535 -0.02994456 -0.22335367 -0.21651022 0.003952073
-0.25493485 -0.09048011 0.11357531 0.18386744 -0.34297448 -0.27293822 0.14129302 -0.008603878
0.22082728 -0.25758028 -0.39409575 -0.23101583 -0.42293465 -0.16419385 -0.14455329 0.17458586
-0.40884137 -0.09631397 0.22116141 -0.536353 -0.23737948 0.088184625 0.31301793 -0.084470645
0.25469515 0.07293761 0.3753395 0.21902129 -0.33749992 0.09979934 0.03951625 -0.41830435
-0.04157383 -0.36888096 -0.421984 0.16997144 -0.058016375 0.07591189 -0.40445793 0.30201805
0.06116109 0.13497005 0.018142533 0.22214827 -0.22721168 0.4328412 -0.5995759 -0.069387145
0.067848474 -0.21960348 -0.30776134 -0.31821987 -0.20473158 0.25840962 0.33361912 -0.29507485
0.21400599 0.11596393 -0.16038421 -0.12147501 -0.16427633 0.0047330456 -0.13322361 0.032328784
0.08564403 0.33437344 0.04533894 0.017702397 -0.35976297 -0.22477736 0.42838442 0.16808403
-0.28204378 0.35397476 0.0007260248 -0.15976843 0.14294517 0.19755273 -0.14370443 -0.44951135
-0.21264909 0.13562573 0.12975793 -0.07705244 -0.13724414 0.026855715 0.32086802 0.06703359
-0.25444403 -0.4542818 0.11852023 0.016109237 0.0610965 -0.5119501 0.28074616 -0.4433094
00000000: fd4b 143e dd09 8a3c e6e9 2f3d 89ea 8abe
00000010: 4491 6b3e f223 283e 5562 44be aa7f 5b3e
00000020: 9b49 22be 18fd a7bd ef24 2dbe cd70 043e
00000030: 03ad 85bd 0920 063e e51e b1bd 5ac5 c53e
00000040: 4a61 2bbe f104 513e e53a 75be 1ea6 3c3e
00000050: 57c0 d8be ec57 0a3e 191f b2bd 7c2b 9cbe
00000060: 8747 19bd b23a cd3e c52d 6dbe 8227 9dbe
00000070: 4b8a 14be 5bff a93e e22b 983b 0684 69be
00000080: 1b6f e33d 92ee acbe 3761 013f daa0 c43d
00000090: 2884 efbe d6df 6b3e ca43 13be 560e 50be
000000a0: 01de c23d 60a9 c738 e45c ed3d 06c2 4d3e
000000b0: 5ea4 eb3e 0e86 38bc cc68 8ebd 80df d4be
000000c0: 45b9 5c3e 85f8 e2be 5bb0 bebd 394d 69be
000000d0: cc38 8ebe 4e88 83bd 1543 ab3e f079 de3d
000000e0: c6eb 24be 25a6 24be b9be d5be a9f5 c6be
000000f0: 6e60 f5bd 28dc 60be 47b1 7b3d f432 0f3e
00000100: f2b2 91be 3b40 c2be 8b4e 9bbe 3cbd 893e
00000110: 74b7 623e b403 83be 15d0 fdbd e435 c03e
00000120: a543 a6be 53c1 22bc 42ac d83e aab9 c03e
00000130: c322 ef3d 72e9 a03e b609 70be 9165 3c3d
00000140: ced7 00be a398 c23e 732c 78bd baff ccbe
00000150: 3bad 32bc 74ae ec3d 31ee ad3e 4c28 333c
00000160: 9f5f b8be 10b6 bcbe d771 e4bd d55f d5be
00000170: c24b 443e df84 b6be e097 513e 5850 fc3d
00000180: 7c88 85be 0d82 39bd dd70 d1bd fd78 ac3d
00000190: fc28 1e3e ada1 92be 2df3 6ebe 6d42 d9be
000001a0: 1bd0 893e 0b8c 2ebe f7b1 febd 5ae0 d73c
000001b0: f93e 36be 5efc c63e 5c20 9f3e 5c76 83bd
000001c0: 0d5f 98be 18e9 ddbb 6faa df3c fbc8 2fbd
000001d0: 497b a23e 3414 e2be 2727 cf3e 173b dfbe
000001e0: 9b0e 833d 2f70 c83e de49 2a3e 5d34 84be
000001f0: d14f 81be 6a79 9b3e a213 d43e 205a e13d
00000200: 8943 adbe 5777 ddbd fe4d 7abe 3e1c 453d
00000210: 5e0e 0cbe 42dc b63d 99dd de3d 25d6 b23e
00000220: 1f9e ffbe 86d6 523e cfa3 18be ddbc f7bc
00000230: 7918 acbe 3d24 65be e4fc 10bd ab25 e1bd
00000240: ff58 9d3e f2fa aa3e fb61 08be 45c3 d5be
00000250: ccee 9d3e e987 3e3d ee89 953b 0a15 613e
00000260: 228e ccbe e57d 6ebe 6653 70bd 2230 b93e
00000270: 4b4e f5bc d3b6 64be dbb4 5dbe 6480 813b
00000280: d286 82be a34d b9bd 2c9a e83d bf47 3c3e
00000290: 5a9a afbe 8fbe 8bbe 1eaf 103e 48f7 0cbc
000002a0: 8c20 623e 90e1 83be ebc6 c9be 6a8f 6cbe
000002b0: e48a d8be 6f22 28be c705 14be a3c6 323e
000002c0: a853 d1be 4240 c5bd 2378 623e 6e4e 09bf
000002d0: 9b13 73be 249a b43d e343 a03e f2fe acbd
000002e0: 6767 823e 5060 953d 802c c03e 1e47 603e
000002f0: cacc acbe 9963 cc3d cbdb 213d fd2b d6be
00000300: 5249 2abd f7dd bcbe 490e d8be fe0c 2e3e
00000310: 94a2 6dbd b177 9b3d 1c15 cfbe 1ca2 9a3e
00000320: 0d84 7a3d 9735 0a3e a69f 943c d67a 633e
00000330: 2eaa 68be 5d9d dd3e ce7d 19bf d91a 8ebd
00000340: 24f4 8a3d bcdf 60be e592 9dbe b7ed a2be
00000350: 28a5 51be 444e 843e 20d0 aa3e 0d14 97be
00000360: 6324 5b3e 7f7e ed3d c23b 24be e4c7 f8bd
00000370: 0e38 28be aa17 9b3b c56b 08be 306b 043d
00000380: 2366 af3d ff32 ab3e 53b5 393d 9e04 913c
00000390: da32 b8be 092c 66be 3455 db3e 381e 2c3e
000003a0: 0b68 90be 2e3c b53e b352 3e3a 569a 23be
000003b0: 3860 123e 434b 4a3e 4127 13be 5a26 e6be
000003c0: afc0 59be 79e1 0a3e 43df 043e abcd 9dbd
000003d0: ba89 0cbe 8400 dc3c d048 a43e e848 893d
000003e0: 7d46 82be a097 e8be bcba f23d 85f7 833c
000003f0: 5340 7a3d 290f 03bf f6bd 8f3e 73f9 e2be

0.bias f4 [128]
0.50288856 -0.39402056 -0.40909424 0.44896203 -0.1684449 -0.15828268 0.53492624 -0.32511538
-0.035838608 -0.4111272 -0.14098975 -0.3379838 -0.15281957 0.4471749 -0.38267422 -0.031473596
-0.3520186 0.36403155 0.39571795 0.5765071 0.32802573 0.32245773 0.39241555 -0.039689515
0.5026672 0.11773068 -0.039352063 -0.29418018 0.42951182 0.10489672 0.029680397 0.33403262
0.32284048 0.44878826 -0.2848108 -0.32673624 -0.035619892 -0.26471582 -0.3726262 -0.28804594
0.39455146 0.30716372 0.4688392 -0.2917099 0.3622401 0.17981574 -0.4309341 -0.54663485
-0.42535537 -0.3644882 0.019744808 -0.33649126 0.36618754 0.23947144 0.24904345 0.3696826
0.31724542 -0.13938262 0.5028012 0.32267982 -0.29438823 -0.51902837 0.28851065 0.17975204
0.27206597 -0.102555394 -0.372445 0.25384077 0.2970563 0.13806869 -0.42866337 -0.15539551
0.5133036 0.4383397 -0.22255868 0.05998316 0.389318 -0.15818587 -0.28114665 0.07493943
0.16702227 -0.32128823 -0.16584837 0.10950148 0.046686023 -0.3005001 -0.09686853 -0.14685716
-0.15615451 0.59600794 -0.15059312 -0.24718899 -0.34683692 0.29596773 0.35203388 -0.23821712
-0.30302346 -0.01590756 0.50947994 -0.008564948 0.10688158 -0.18533404 0.06023655 -0.19744216
-0.32043827 -0.13726357 0.02961301 -0.30227485 -0.21881421 0.30017737 -0.23292221 -0.23735884
-0.2724603 -0.23478378 -0.41441312 0.1283941 0.02812891 0.20304674 -0.058572266 0.12636672
-0.17573741 0.31283078 -0.29498732 0.12701379 0.11299876 -0.014759119 -0.03213582 0.039605603
00000000: 4ebd 003f 10bd c9be cd74 d1be 5ade e53e
00000010: d27c 2cbe db14 22be edf0 083f 8675 a6be
00000020: 81cb 12bd 447f d2be 9e5f 10be 360c adbe
00000030: bc7c 1cbe 1cf4 e43e e0ed c3be 75ea 00bd
00000040: c83b b4be 5862 ba3e 8b9b ca3e f895 133f
00000050: fdf2 a73e 2e19 a53e b1ea c83e 7991 22bd
00000060: ccae 003f c81c f13d a12f 21bd c99e 96be
00000070: f9e8 db3e 17d4 d63d 4e24 f33c 5306 ab3e
00000080: 594b a53e 93c7 e53e b9d2 91be f949 a7be
00000090: 2ae6 11bd d588 87be dcc8 bebe c27a 93be
000000a0: a602 ca3e 9044 9d3e b10b f03e 005b 95be
000000b0: 8977 b93e 9e21 383e 65a3 dcbe 43f0 0bbf
000000c0: 2ec8 d9be 339e babe ddbf a13c 9548 acbe
000000d0: ef7c bb3e 0038 753e 3f05 7f3e 0a47 bd3e
000000e0: fe6d a23e 51ba 0ebe 94b7 003f 4a36 a53e
000000f0: 0eba 96be 0bdf 04bf abb7 933e eb10 383e
00000100: 3b4c 8b3e 9008 d2bd 1cb1 bebe 6bf7 813e
00000110: c317 983e e161 0d3e c479 dbbe 0020 1fbe
00000120: dd67 033f 106e e03e 6ce6 63be e7b0 753d
00000130: b054 c73e 7afb 21be 74f2 8fbe d879 993d
00000140: e307 2b3e e47f a4be 28d4 29be 5042 e03d
00000150: d839 3f3d 26db 99be 0263 c6bd b961 16be
00000160: f8e6 1fbe fa93 183f 1535 1abe 1c1f 7dbe
00000170: 9c94 b1be 1589 973e c93d b43e 30ef 73be
00000180: e425 9bbe 9250 82bc 476d 023f ff53 0cbc
00000190: bbe4 da3d 35c8 3dbe 9aba 763d 472e 4abe
000001a0: 7c10 a4be d28e 0cbe fc96 f23c c5c3 9abe
000001b0: d510 60be d9b0 993e 2983 6ebe 320e 73be
000001c0: eb7f 8bbe 296b 70be f52d d4be be79 033e
000001d0: 9a6e e63c 7ceb 4f3e 79e9 6fbd 4766 013e
000001e0: 82f4 33be 5b2b a03e 9408 97be e70f 023e
000001f0: e56b e73d 3bd0 71bc d9a0 03bd 7c39 223d

2.weight f4 [128, 128]
0.03821308 0.055130225 0.04219954 0.053954467 0.009774318 0.0017207083 -0.009550244 0.04718579
0.046767198 0.055996574 -0.043015882 0.0056136544 -0.06390854 -0.06747449 0.039186485 -0.02376391
0.013944411 0.08006586 -0.024074469 0.058995884 0.030475026 -0.011569088 -0.026220765 -0.047792923
-0.002522415 -0.05880973 -0.028891506 -0.07649713 -0.0407124 -0.0008266472 -0.013852636 0.07725686
-0.008115829 0.026236055 0.0535743 -0.07120054 -0.07163341 0.08342367 -0.014846828 0.03948855
-0.084335506 -0.07289459 0.06288233 -0.065174475 -0.08159356 0.0421428 0.049414735 -0.04769974
-0.067424886 -0.057842493 -0.06104481 -0.020260306 -0.031974718 -0.037712555 0.014908404 -0.08569265
-0.01735682 -0.0621744 0.08252428 -0.037618518 0.01566238 -0.040650077 0.032735005 -0.046244197
-0.080109075 0.029839884 -0.032262675 6.2925246e-05 0.050226547 0.05835821 -0.08822765 0.08516227
-0.032421388 -0.08569743 -0.047106173 0.03225632 0.02696293 0.05045672 -0.08199957 -0.06097104
-0.01702817 0.059893336 0.06363017 0.087906174 -0.006410567 -0.04362579 -0.0055869548 0.0165794
-0.034940064 -0.08551239 -0.063905925 0.018035954 -0.010973227 -0.08275209 0.073121876 0.08598768
-0.08216131 0.06985377 -0.017971331 -0.028176928 0.043952968 0.02504961 -0.032346 0.012196708
0.073464505 -0.018965354 -0.025864234 0.034632128 0.02980702 0.06343867 -0.068857 0.022427475
-0.05187333 -0.047244005 0.031410687 -0.04049347 -0.00922743 0.018644437 -0.0804425 0.017865164
-0.018914104 -0.0369915 -0.050350647 -0.020019721 0.026632413 -0.07871934 -0.079417154 -0.038675718
-0.04291318 0.0011215555 -0.083697766 -0.01774046 0.08800355 -0.03230952 -0.14981465 0.06552233
0.0023755722 -0.07419587 -0.016537527 -0.051449172 0.031174682 -0.07453236 0.07515663 -0.042758375
-0.007856752 0.056720722 -0.14273943 -0.041509714 0.031707652 0.053816326 0.062443275 0.017753633
0.07266613 -0.06525234 0.030851172 -0.06836544 -0.19648066 -0.06774562 0.01792164 -0.068328984
0.037402835 0.0040407153 0.07891893 -0.09129712 -0.03406851 -0.10310453 -0.039616205 -0.067289606
0.025782406 -0.0022144269 -0.017126385 0.014355992 0.008333672 0.010138225 -0.05113193 0.0297857
-0.060237072 -0.07545354 -0.045098145 -0.004051998 -0.060834013 0.052718256 -0.006063709 0.035387516
-0.05700929 -0.046719212 0.047732286 0.018699313 -0.077285685 -0.11640305 -0.07083506 -0.022113971
0.045832634 -0.0377776 -0.06624517 0.014809228 0.04632436 -0.11984661 -0.08979586 -0.06558327
-0.027519556 -0.1805458 0.008002886 -0.072727345 0.065223 0.02777285 -0.04891906 0.11568278
0.019345392 0.043428555 0.012947274 0.046067577 -0.01304329 0.08461692 -0.06912093 0.07986308
0.052084558 0.0149178635 -0.046828058 -0.21092464 0.014456295 -0.049431328 -0.0376942 -0.064591266
-0.04018075 -0.011831284 0.02957075 0.0056180377 0.059525836 -0.06916614 -0.12004592 -0.083277464
-0.08449463 -0.0024247735 0.019213473 -0.05898273 0.05418655 -0.047553368 -0.08819054 0.081464306
-0.004782171 0.057038575 0.09849232 -0.04536167 -0.051553592 -0.0963262 0.008987984 -0.020943932
-0.0740768 -0.00061399024 0.029230246 0.012469904 0.02950958 -0.05601829 -0.02868347 0.02807117
00000000: 5285 1c3d 3bd0 613d 6dd9 2c3d 5cff 5c3d
00000010: 7624 203c 6489 e13a a078 1cbc e345 413d
00000020: f68e 3f3d aa5c 653d 6c31 30bd bff2 b73b
00000030: 7be2 82bd 1130 8abd 0282 203d 88ac c2bc
00000040: 1977 643c 92f9 a33d d237 c5bc aba5 713d
00000050: c3a6 f93c 468c 3dbc eecc d6bc 83c2 43bd
00000060: 1a4f 25bb 79e2 70bd e1ad ecbc 87aa 9cbd
00000070: 0cc2 26bd 5bb3 58ba 2bf6 62bc d838 9e3d
00000080: 41f8 04bc ffec d63c ba70 5b3d 97d1 91bd
00000090: 8ab4 92bd 07da aa3d 1c40 73bc bfbe 213d
000000a0: 18b8 acbd c249 95bd 73c8 803d 327a 85bd
000000b0: 861a a7bd ee9d 2c3d 1b67 4a3d cd60 43bd
000000c0: 0f16 8abd 40ec 6cbd 1f0a 7abd f1f8 a5bc
000000d0: ecf7 02bd 7b78 1abd 6142 743c a17f afbd
000000e0: e42f 8ebc 95aa 7ebd 7d02 a93d e015 1abd
000000f0: 644e 803c b280 26bd 2415 063d 8e6a 3dbd
00000100: 3a10 a4bd c672 f43c de25 04bd bcf6 8338
00000110: 5aba 4d3d 0509 6f3d b3b0 b4bd 8e69 ae3d
00000120: 4acc 04bd 2282 afbd 67f2 40bd 341f 043d
00000130: 5de1 dc3c b5ab 4e3d 64ef a7bd c5bc 79bd
00000140: a97e 8bbc b752 753d 8950 823d 2708 b43d
00000150: bc0f d2bb f5b0 32bd c612 b7bb 86d1 873c
00000160: 501d 0fbd 1f21 afbd 1ce1 82bd 23c0 933c
00000170: 0dc9 33bc ee79 a9bd ecc0 953d 4f1a b03d
00000180: 3044 a8bd 7e0f 8f3d 9d38 93bc 4dd3 e6bc
00000190: 0708 343d d734 cd3c 3d7d 04bd b3d4 473c
000001a0: 8f74 963d 3b5d 9bbc 3be1 d3bc 6bda 0d3d
000001b0: da2d f43c 22ec 813d e604 8dbd d3b9 b73c
000001c0: 2179 54bd ee82 41bd 7ea8 003d 7bdc 25bd
000001d0: a62e 17bc 38bc 983c 0abf a4bd f759 923c
000001e0: c0f1 9abc 6684 17bd 7b3c 4ebd 6600 a4bc
000001f0: 382c da3c 9b37 a1bd 76a5 a2bd 6e6a 1ebd
00000200: bbc5 2fbd 2801 933a bc69 abbd 7154 91bc
00000210: 353b b43d fd56 04bd 0369 19be 9230 863d
00000220: 7daf 1b3b 01f4 97bd b579 87bc 5ebc 52bd
00000230: 0c62 ff3c 6ca4 98bd b8eb 993d 6823 2fbd
00000240: 9bb9 00bc fd53 683d 492a 12be 1706 2abd
00000250: e2df 013d 826e 5c3d 85c4 7f3d 1170 913c
00000260: fbd1 943d 05a3 85bd 99bb fc3c 2e03 8cbd
00000270: 3a32 49be 37be 8abd 67d0 923c 11f0 8bbd
00000280: b733 193d fa67 843b 3fa0 a13d fcf9 babd
00000290: 6c8b 0bbd 7828 d3bd 9a44 22bd 22cf 89bd
000002a0: a035 d33c eb1f 11bb a24c 8cbc 6535 6b3c
000002b0: f489 083c cc1a 263c b76f 51bd 2401 f43c
000002c0: 26bb 76bd 6387 9abd d5b8 38bd 9fc6 84bb
000002d0: 162d 79bd 19ef 573d 14b2 c6bb 80f2 103d
000002e0: 9382 69bd a55c 3fbd ee82 433d 4d2f 993c
000002f0: f547 9ebd b964 eebd f911 91bd 5c28 b5bc
00000300: 00bb 3b3d afbc 1abd 8cab 87bd 67a2 723c
00000310: 9dbe 3d3d 2472 f5bd e4e6 b7bd 8550 86bd
00000320: b170 e1bc 00e1 38be 891e 033c 13f2 94bd
00000330: a393 853d e383 e33c 5a5f 48bd 18eb ec3d
00000340: 3a7a 9e3c 24e2 313d ce20 543c 5bb1 3c3d
00000350: 86b3 55bc a34b ad3d 468f 8dbd 418f a33d
00000360: 9e56 553d 0e6a 743c c7ce 3fbd a1fc 57be
00000370: 19da 6c3c 8178 4abd 3c65 1abd 6d48 84bd
00000380: 9294 24bd 00d8 41bc 5c3e f23c 8417 b83b
00000390: 5dd1 733d faa6 8dbd a3da f5bd 608d aabd
000003a0: 850b adbd f3e8 1ebb 9365 9d3c e097 71bd
000003b0: b7f2 5d3d 52c7 42bd 3e9d b4bd c2d6 a63d
000003c0: c2b3 9cbb 48a1 693d 57b6 c93d 29cd 39bd
000003d0: dc29 53bd ac46 c5bd 5642 133c 9c92 abbc
000003e0: 94b5 97bd 30f4 20ba 4574 ef3c 914e 4c3c
000003f0: 13be f13c 6f73 65bd 99f9 eabc 83f5 e53c

2.bias f4 [128]
0.08779516 0.05434516 0.019481095 0.0059163687 0.06928364 -0.10423228 0.043887157 0.27520764
0.010519864 -0.025683448 0.03247346 0.02475939 0.14723374 -0.037795868 0.062243965 0.017392846
0.05452209 -0.06644462 -0.037023656 0.12878269 0.06781557 0.12479999 -0.037423175 0.064226836
-0.04520754 0.045688033 0.070357844 -0.09607807 -0.0035908318 0.026124796 -0.0027093517 -0.05439097
0.04880088 0.07050526 -0.024846604 -0.0996787 0.049772013 0.056236412 -0.043537106 -0.07236302
0.21731028 0.14934468 0.009711421 -0.006419729 0.007684203 -0.0015671188 -0.09930304 0.04112898
-0.12433617 -0.057569906 -0.029234374 0.19862685 0.0076978425 0.013851625 -0.10377865 -0.07306225
-0.085036844 0.04315405 -0.07216939 0.06926694 -0.02781164 -0.068117715 -0.01729277 -0.02779533
0.011861232 -0.017143397 -0.06348375 0.04749609 0.034860503 0.053283386 -0.01664817 0.16564123
-0.09534621 -0.05825655 0.054113023 -0.031087926 -0.07002609 0.031103453 0.053267423 0.058658753
0.064587295 -0.08476513 -0.057028025 -0.0023692916 -0.020082675 -0.075064376 -0.043701377 -0.080464035
0.13887279 -0.09514173 0.078876086 0.04603138 -0.011391396 -0.0064875167 0.0057456885 -0.07481056
0.10690811 -0.05713624 0.018000154 -0.046541855 0.16280851 0.07555843 -0.012145552 -0.0943967
0.041119743 -0.008675768 0.035317045 -0.07378204 -0.08177344 0.0023278315 0.3151911 0.0026596498
-0.03856299 -0.08487935 0.0122279385 -0.05322553 -0.10155113 0.19979432 0.030106705 0.029473392
-0.02395498 0.0071362434 0.010437085 0.018264042 0.04091009 -0.083478205 -0.06118044 0.084603935
00000000: f3cd b33d 0899 5e3d d196 9f3c 19de c13b
00000010: 95e4 8d3d bc77 d5bd 05c3 333d 04e8 8c3e
00000020: 825b 2c3c 1866 d2bc e402 053d 34d4 ca3c
00000030: 71c4 163e d7cf 1abd 87f3 7e3d 717b 8e3c
00000040: 8e52 5f3d 1e14 88bd 1ea6 17bd 9cdf 033e
00000050: e4e2 8a3d 2397 ff3d 0b49 19bd 5c89 833d
00000060: 8b2b 39bd 6023 3b3d c617 903d 94c4 c4bd
00000070: 2954 6bbb ab03 d63c 618f 31bb 11c9 5ebd
00000080: 6ee3 473d 1065 903d 1b8b cbbc 5924 ccbd
00000090: bddd 4b3d 2758 663d f753 32bd 1033 94bd
000000a0: 9686 5e3e d0ed 183e a71c 1f3c 975c d2bb
000000b0: c4cb fb3b c867 cdba 645f cbbd dd76 283d
000000c0: f6a3 febd 6cce 6bbd ed7c efbc d664 4b3e
000000d0: 2f3e fc3b edf1 623c e789 d4bd a9a1 95bd
000000e0: cc27 aebd 4dc2 303d 8ccd 93bd d3db 8d3d
000000f0: 3dd5 e3bc 4d81 8bbd 91a9 8dbc 08b3 e3bc
00000100: 9d55 423c 4f70 8cbc c503 82bd 438b 423d
00000110: e3c9 0e3d ae3f 5a3d be61 88bc db9d 293e
00000120: e044 c3bd 6c9e 6ebd 9ea5 5d3d 1bac febc
00000130: d769 8fbd abcc fe3c f12e 5a3d 2944 703d
00000140: 5846 843d 5799 adbd 3896 69bd 1e46 1bbb
00000150: 6c84 a4bc 5abb 99bd 3700 33bd 54ca a4bd
00000160: ab34 0e3e abd9 c2bd c989 a13d 668b 3c3d
00000170: faa2 3abc 3c95 d4bb 5446 bc3b 4736 99bd
00000180: a4f2 da3d b107 6abd 0f75 933c aca2 3ebd
00000190: 46b7 263e 61be 9a3d 23fe 46bc 0f53 c1bd
000001a0: 2d6d 283d cf24 0ebc 9ba8 103d 0a1b 97bd
000001b0: d578 a7bd 888e 183b ba60 a13e 854d 2e3b
000001c0: 3af4 1dbd 3ad5 adbd b157 483c 0303 5abd
000001d0: 0afa cfbd e296 4c3e 56a2 f63c 2f72 f13c
000001e0: 3c3d c4bc 26d7 e93b 4f00 2b3c 799e 953c
000001f0: 5791 273d 9ff6 aabd 5798 7abd d444 ad3d

4.weight f4 [8, 128]
-0.016807668 -0.011131169 -0.10056118 0.03986991 -0.015287562 -0.037551362 0.016332652 -0.04863779
0.00882181 -0.076605044 -0.0010242857 0.036222126 -0.1126075 0.030705022 0.06336158 0.003782079
0.0583313 0.08281048 0.0068811816 -0.1789188 -0.07156448 0.016078787 0.0021884225 -0.03018347
0.05780317 -0.07388828 -0.02491472 -0.01529729 -0.05271933 -0.02955163 -0.059116464 -0.035275828
0.024686247 0.022602448 0.07072573 -0.052208472 0.012651893 0.0062777204 0.02052067 -0.047693267
-0.17068474 -0.16675152 0.052790996 0.036318857 -0.07912987 0.06923933 -0.004261439 0.007247238
0.04916946 0.011055698 -0.03012039 -0.30721548 0.051722113 -0.09678731 -0.016824765 0.071702324
0.020228526 0.053377893 0.034185328 0.02684897 0.045917135 -0.017019328 -0.0053001842 -0.019980885
0.036878508 -0.0590304 0.014706552 -0.017075976 0.050564542 -0.09527745 0.038921587 -0.06188574
0.022883127 0.009912233 0.054572828 -0.037931867 0.02999982 -0.06285325 -0.030775536 -0.026274642
0.06271631 -0.07635759 0.013412033 -0.015977848 0.039615296 -0.08064359 4.6287867e-05 0.061490037
-0.20249858 0.05775233 -0.12730663 -0.05627344 -0.017619748 0.06053287 -0.07019395 -0.0085051395
-0.016141597 -0.09648666 -0.026505627 -0.036090624 -0.06550645 -0.0638453 0.028115408 -0.0038058942
-0.013200298 -0.020555777 0.020395434 0.050146736 0.05428477 0.029836662 -0.15866515 -0.10013822
0.10623598 -0.023066804 0.07841967 0.048144363 0.06792156 -0.21864632 0.07679641 0.020454433
-0.086123064 0.016044496 -0.035026997 -0.062185578 -0.008205823 0.00604488 0.0346528 -0.14069647
0.033157095 0.020251844 -0.035099626 -0.019920526 0.06625729 0.0027477562 -0.049859803 -0.17913312
0.0061247903 0.005727294 -0.012072865 -0.06707672 -0.093954004 -0.007846642 0.07131055 0.013732907
-0.059392493 0.060268138 -0.029030321 -0.08589339 0.064482555 -0.054285616 0.035783276 -0.08038955
0.01540048 0.05729964 -0.0065950197 0.21543357 -0.03627277 -0.022755872 0.07597709 0.06693362
-0.06858589 -0.01003339 0.05734827 0.082000114 0.014999831 -0.004802233 -0.0016800787 0.07196795
-0.10017448 -0.082922615 -0.012060401 0.060353804 0.044587236 0.057762805 0.050873805 -0.028382493
0.054326896 -0.03633901 -0.047163762 -0.18601036 -0.0010392489 -0.090433694 0.0070967074 -0.06470452
0.06476073 -0.029807875 -0.04224484 -0.12326463 -0.001889949 0.06952078 0.0575332 -0.17468554
0.00903452 -0.016523568 0.03389738 -0.05160872 0.06328572 -0.031901646 -0.12901281 -0.03304294
0.06818448 -0.02081656 -0.08457195 -0.0146998195 0.03567153 -0.011562036 0.06267393 -0.033172574
0.09052162 0.0049979943 -0.0043865913 -0.043678053 -0.06036186 0.02457843 0.055971302 -0.06030077
0.016359303 -0.068028666 0.06724523 -0.05380906 0.02444003 0.070216544 -0.026621588 0.06209413
-0.007329542 -0.024672886 0.027958248 -0.012758534 -0.32283774 -0.09562085 -0.013915426 -0.06133208
0.030735206 -0.0140168555 -0.073341675 0.030384317 -0.00065916614 -0.07430001 -0.1674729 -0.010331764
0.035716124 -0.02614442 0.028274814 -0.03539825 -0.030330837 -0.03428155 -0.050247233 -0.09714331
0.027502716 0.0226412 0.037994247 -0.043789227 -0.035808444 -0.08083958 -0.05188591 -0.015167846
00000000: 3cb0 89bc 825f 36bc 05f3 cdbd a14e 233d
00000010: af78 7abc 75cf 19bd 0ecc 853c 6b38 47bd
00000020: 5a89 103c 1be3 9cbd 5341 86ba a75d 143d
00000030: c39e e6bd 1989 fb3c b7c3 813d c2dc 773b
00000040: cdec 6e3d 8a98 a93d 897b e13b 7d36 37be
00000050: 6690 92bd a9b7 833c a36b 0f3b 5343 f7bc
00000060: 04c3 6c3d bd52 97bd f419 ccbc 7ca1 7abc
00000070: 39f0 57bd 4316 f2bc 1b24 72bd 637d 10bd
00000080: d03a ca3c c528 b93c a7d8 903d 8dd8 55bd
00000090: e349 4f3c 56b5 cd3b f71a a83c 045a 43bd
000000a0: fbc7 2ebe e9c0 2abe 5f3b 583d 15c3 143d
000000b0: d70e a2bd 5acd 8d3d 8ba3 8bbb 3d7a ed3b
000000c0: ea65 493d f522 353c 09bf f6bc 594b 9dbe
000000d0: 91da 533d 6d38 c6bd 17d4 89bc abd8 923d
000000e0: 4bb6 a53c c7a2 5a3d ea05 0c3d 5ff2 db3c
000000f0: 9b13 3c3d 1e6c 8bbc 2bad adbb f4ae a3bc
00000100: eb0d 173d dcc9 71bd c0f3 703c ebe2 8bbc
00000110: c41c 4f3d d320 c3bd 3e6c 1f3d e77b 7dbd
00000120: 6575 bb3c eb66 223c c287 5f3d 725e 1bbd
00000130: 2fc2 f53c 34b9 80bd fa1c fcbc eb3d d7bc
00000140: 6971 803d 5e61 9cbd 25be 5b3c fae3 82bc
00000150: a643 223d 7728 a5bd 3825 4238 fadc 7b3d
00000160: ca5b 4fbe b58d 6c3d ab5c 02be fb7e 66bd
00000170: 4a57 90bc 51f1 773d d8c1 8fbd 2459 0bbc
00000180: 623b 84bc cc9a c5bd 5422 d9bc c3d3 13bd
00000190: 3f28 86bd 53c1 82bd 4952 e63c 4f6c 79bb
000001a0: 1046 58bc 9764 a8bc 5314 a73c aa66 4d3d
000001b0: b559 5e3d 046c f43c 1e79 22be 4415 cdbd
000001c0: 4092 d93d 98f6 bcbc 7e9a a03d 0633 453d
000001d0: 751a 8b3d d2e4 5fbe 7047 9d3d 0e90 a73c
000001e0: 4a61 b0bd bf6f 833c 7878 0fbd 4eb6 7ebd
000001f0: b771 06bc 2114 c63b 18f0 0d3d bc12 10be
00000200: bccf 073d 32e7 a53c a0c4 0fbd 5f30 a3bc
00000210: e7b1 873d b313 343b cb39 4cbd ac6e 37be
00000220: 77b2 c83b 06ac bb3b 44cd 45bc 855f 89bd
00000230: f56a c0bd 348f 00bc 440b 923d fdff 603c
00000240: 8b45 73bd b9db 763d ffd0 edbc e0e8 afbd
00000250: 6e0f 843d 985a 5ebd 7c91 123d 47a3 a4bd
00000260: 4b52 7c3c 07b3 6a3d 091b d8bb 9e9a 5c3e
00000270: c292 14bd 866a babc e099 9b3d 7e14 893d
00000280: c276 8cbd 1663 24bc 05e6 6a3d adef a73d
00000290: dac1 753c 0d5c 9dbb 1636 dcba ef63 933d
000002a0: 4728 cdbd 55d3 a9bd fd98 45bc 8d35 773d
000002b0: 1ba1 363d b198 6c3d 0d61 503d 6782 e8bc
000002c0: e185 5e3d 37d8 14bd ca2e 41bd 8079 3ebe
000002d0: 6837 88ba 4d35 b9bd 7f8b e83b ce83 84bd
000002e0: 46a1 843d a52f f4bc ed08 2dbd 2b72 fcbd
000002f0: 2ab8 f7ba e960 8e3d efa7 6b3d c4e0 32be
00000300: 8605 143c 6f5c 87bc fbd7 0a3d aa63 53bd
00000310: f29b 813d 4dab 02bd ef1b 04be 0958 07bd
00000320: 4ea4 8b3d 7e87 aabc 0f34 adbd 83d7 70bc
00000330: 4f1c 123d b26e 3dbc 305b 803d f7df 07bd
00000340: 6663 b93d 37c6 a33b 65bd 8fbb c2e7 32bd
00000350: ff3d 77bd b458 c93c 2a42 653d f1fd 76bd
00000360: f203 863c 9d52 8bbd deb7 893d e466 5cbd
00000370: 7536 c83c b1cd 8f3d 8415 dabc 6a56 7e3d
00000380: a82c f0bb cb1e cabc b208 e53c 2c09 51bc
00000390: fd4a a5be ddd4 c3bd 87fd 63bc 5937 7bbd
000003a0: 66c8 fb3c f4a6 65bc 2934 96bd 88e8 f83c
000003b0: e4cb 2cba 9b2a 98bd 047e 2bbe 8f46 29bc
000003c0: 124b 123d d32c d6bc 95a0 e73c c1fd 10bd
000003d0: 6078 f8bc d06a 0cbd 0bd0 4dbd 12f3 c6bd
000003e0: 604d e13c 0a7a b93c db9f 1b3d 555c 33bd
000003f0: e0ab 12bd 398f a5bd 5286 54bd 8f82 78bc

4.bias f4 [8]
-0.07727798 -0.09619207 -0.065854885 -0.10544048 -0.079710044 -0.23608735 -0.24668248 -0.1492306
00000000: eb43 9ebd 5900 c5bd edde 86bd 2ef1 d7bd
00000010: 053f a3bd e2c0 71be 559a 7cbe e8cf 18be
