Runs/9/final_model-6thSize.pth (torch, 75888 bytes, 6 tensors)

0.weight f4 [128, 5]
000000 fc e7 ac be 9c 45 3c 3e fe 49 c2 bc 2c 8d ae 3d
       -0.3377074 0.18385929 -0.023716923 0.0852302
000010 38 2a c5 be 5a bf 99 bd 81 24 d7 be e1 51 90 be
       -0.38508773 -0.075072005 -0.42020038 -0.2818747
000020 c8 36 c2 3e a3 e2 dc be 5a e6 c7 be 52 91 1b be
       0.3793242 -0.4314166 -0.39042932 -0.15192154
000030 64 c3 19 be 77 55 aa 3d 14 08 5e 3e 17 82 ca be
       -0.15015942 0.083170824 0.21682769 -0.39552376
000040 d0 60 a2 be 55 68 2c be 5b 99 8e be 98 2d d6 be
       -0.31714487 -0.16836675 -0.27851376 -0.4183166
000050 75 eb 27 bd 59 0b 93 be 23 04 5f 3e 42 91 76 be
       -0.040996034 -0.28719595 0.21778922 -0.24078849
000060 06 68 bf 3e 06 f8 02 3e ef 83 1d bd 42 57 b4 3c
       0.3738405 0.12789926 -0.0384559 0.022014264
000070 b9 eb d6 3d b4 6f 9e bd 22 e8 e5 bd 68 e6 2c bf
       0.10494179 -0.077361494 -0.112259164 -0.6753907
000080 9e ca 7f 3e 52 a3 48 3e a7 c8 2f be ad 0c a1 bd
       0.24979636 0.19593552 -0.17166387 -0.07863746
000090 d9 83 fd bd ad de 0a 3e 7d 4f 5a bd 18 6a 94 3e
       -0.123786636 0.13561507 -0.053298462 0.28987193
0000a0 0b f4 d1 be f8 23 64 be 1f a4 34 3c bb 2a de be
       -0.41006503 -0.22279346 0.011025458 -0.43391976
0000b0 8a 18 9b 3e e4 79 ae 3e 63 88 53 3e fd ba c4 3e
       0.3029216 0.3407737 0.20657496 0.3842391
0000c0 0d 90 a7 be 57 42 49 3e ff 19 0a 3e c4 4e 90 3e
       -0.3272709 0.19654213 0.13486479 0.28185093
0000d0 cb 0f 8c be 6e f9 87 3e 44 a2 5e 3e a5 39 4b be
       -0.273558 0.26557487 0.21741587 -0.19846208
0000e0 24 d7 98 3d 8c 06 e6 be df b5 bd 3e e4 3d b1 3e
       0.0746291 -0.4492687 0.3705282 0.3461753
0000f0 bc 94 cb 3d c5 34 4e 3e a8 c6 7d 3c 13 27 67 bc
       0.09940478 0.20137317 0.015489258 -0.014108437
000100 9f dd 27 bd 14 3a 9e be 54 4f fe be 55 a7 ab 3e
       -0.04098284 -0.30903685 -0.49669898 0.33526102
000110 21 4a 26 be 3a 55 df bd 22 cb 02 be 90 77 1f 3f
       -0.16239215 -0.109049276 -0.12772802 0.6229181
000120 76 22 ab 3e 35 cc d6 be e1 c8 f2 bd d8 30 a0 3d
       0.3342473 -0.41952673 -0.11854721 0.07821816
000130 42 58 16 bf f7 d1 1a be f9 c4 7b 3e d2 70 40 3e
       -0.5872842 -0.15119158 0.24586858 0.18793038
000140 9b 71 94 be 2e 74 59 3e 8d 16 9b 3e 8d 83 b3 bd
       -0.28992924 0.21235725 0.30290642 -0.08765326
000150 f8 39 f4 be 83 4a e3 3b 6c f5 10 be ad 44 dd be
       -0.47700477 0.0069363727 -0.14156121 -0.43216458
000160 8c da 4e be 3b 63 8d 3d 3d dc 81 3e 8d 46 ec be
       -0.20200557 0.06903692 0.2536334 -0.46147576
000170 e7 1f a3 3e d9 3e aa bd 7a 46 7b be 31 87 a5 bd
       0.31860277 -0.083127685 -0.24538603 -0.08082426
000180 a2 07 8f bf 35 3f 95 3e c0 f0 20 be 0c 2d 87 be
       -1.1174204 0.29149786 -0.15716839 -0.26401556
000190 60 be aa be 5b 11 75 3e ae 54 8e be 5b 8f 45 3e
       -0.3334837 0.23932402 -0.2779898 0.19292967
0001a0 c3 84 cd bd 8b a8 f4 bd af 2d f3 be 42 16 72 3e
       -0.10035088 -0.119462095 -0.4749579 0.23641303
0001b0 d2 ad af be aa 23 33 be 86 e7 e8 bd a7 e2 d3 bd
       -0.34312302 -0.17494074 -0.113722846 -0.10345965
0001c0 77 67 86 be 2b 11 c7 3e 50 b4 16 3d 42 80 04 3e
       -0.26250812 0.38880286 0.036793053 0.12939551
0001d0 c5 53 9a be 45 ef ea bd d0 f3 f4 bd b1 68 22 be
       -0.30142036 -0.11471418 -0.11960566 -0.15860249
0001e0 6b 50 13 3e e7 56 3c 3f 1f fa ac 3e df 23 bd be
       0.14386146 0.735701 0.33784577 -0.3694143
0001f0 ab 40 e7 3e 83 ad a7 3e 1e b5 54 be 80 82 88 be
       0.45166525 0.32749566 -0.20772216 -0.26662064
000200 79 b5 39 3e 95 90 82 be b3 2c 82 be 12 38 ec be
       0.18135633 -0.25500932 -0.25424728 -0.46136528
000210 1d f5 04 3e fe 0b 0b 3e c3 d5 b1 be bd 81 d0 bd
       0.12984128 0.13578793 -0.347334 -0.101809956
000220 59 54 a5 be d0 ac bc 3e 06 3b 9a be f1 b2 be 3e
       -0.32290915 0.36850595 -0.30123156 0.37245896
000230 6f 79 48 3e eb 79 3c be e2 5e 40 3d 21 54 d0 be
       0.19577573 -0.18405883 0.046965487 -0.40689185
000240 01 ca d7 be 57 d0 e1 3e f7 73 9c be f1 92 18 3e
       -0.42146304 0.44104263 -0.30557224 0.14899804
000250 4f ac d6 be 3f 46 cb 3d b5 36 62 3e ad d3 cb be
       -0.41928336 0.09925508 0.22091182 -0.39809933
000260 ed dd 25 bd cb 32 12 3d b8 11 43 bd b7 09 0a 3e
       -0.040494848 0.03569297 -0.04762432 0.13480268
000270 16 9c 83 be 31 9d a1 3e cd 0d c4 bd f2 6c 8a be
       -0.25705022 0.3156524 -0.09572945 -0.27036244
000280 98 f5 13 3d 33 68 2e be 05 71 d6 be 04 2d ca 3e
       0.03612289 -0.17031936 -0.41883102 0.3948747
000290 09 e2 1f be a9 25 3d 3e 33 7c 3a 3f 26 58 86 3e
       -0.1561357 0.18471397 0.7284576 0.26239127
0002a0 d7 51 85 be 17 ce 8e bb 2f a6 9d 3e 9f 97 0b bf
       -0.26039 -0.004358064 0.3079085 -0.5452823
0002b0 f7 fc af 3c 3e 08 39 3e 74 e6 1c 3e 04 a3 f8 3c
       0.021482928 0.1806955 0.15322286 0.03035117
0002c0 13 08 c8 3e 01 b0 e8 bd 89 88 9c 3d 0d 8c a1 3e
       0.3906866 -0.11361695 0.076432295 0.31552163
0002d0 85 b4 a0 3e b1 98 6b bf 57 02 6d 3e 11 e4 6c 3e
       0.31387725 -0.92029864 0.23145424 0.23133875
0002e0 70 23 f3 3d 73 db 2d be 01 34 25 bd e1 0a 31 3e
       0.118719935 -0.16978244 -0.040332798 0.17289306
0002f0 3d 52 23 3c db d2 3f 3e af 45 aa 3c e7 97 3f bf
       0.009968338 0.18732779 0.02078518 -0.7484116
000300 cb e3 52 be 1d 98 cb 3e d1 6d c4 be 5e 8c 8d 3e
       -0.20594709 0.3976449 -0.38365033 0.27646154
000310 ed 10 8b be 6c 4d d4 bd 54 00 da be 37 a6 49 3e
       -0.2716135 -0.103663296 -0.42578375 0.19692312
000320 e7 34 52 be 9e 5a 10 bf af db 1b 3e 80 18 83 3d
       -0.20527993 -0.5638827 0.15220521 0.064011574
000330 fd 2e c7 bd 43 a3 e1 be 5d c3 58 bf 9e ef cb 3d
       -0.09725759 -0.4406987 -0.846731 0.09957813
000340 63 a9 95 3d a9 58 96 bc 2a e9 18 be d3 67 76 3e
       0.073076986 -0.018352823 -0.14932695 0.24063043
000350 23 90 55 be e0 2d 02 3e 4b d9 86 3e 88 ed e1 3e
       -0.20855765 0.12712812 0.26337656 0.44126534
000360 fc c5 62 be b0 8f 95 be f0 dd e2 be 8a 5f 8b 3e
       -0.22145838 -0.29211187 -0.4430995 0.27221328
000370 82 20 a9 be 64 ac 0c bf 3d ab a1 3e 16 42 2a be
       -0.33032614 -0.5495055 0.31575957 -0.16626772
000380 0d ba 6b be 4d 7b 9d 3d 02 8a d2 be dc b2 82 be
       -0.23020191 0.076895334 -0.41120917 -0.25527084
000390 47 c9 fa 3e d2 66 7a 3e d6 25 23 bd fb c4 23 3f
       0.48981687 0.24453285 -0.039831005 0.63972443
0003a0 c9 43 45 bc 10 72 b3 bb cd 02 92 3c 71 a8 00 bd
       -0.012040087 -0.005476244 0.017823601 -0.03141064
0003b0 21 69 7f 3e d0 f4 9a be 74 b3 99 3e a5 04 b4 3e
       0.24942447 -0.30264902 0.30019724 0.35159793
0003c0 0d 3f 96 3d ba b7 75 bf e4 0c 99 3e 33 32 48 3e
       0.07336245 -0.9598347 0.29892647 0.195504
0003d0 bb e8 a1 bd c4 65 c4 3c 39 27 ca bd 51 cf dc be
       -0.07905718 0.023974307 -0.098707624 -0.4312692
0003e0 5e 34 a5 3e 71 fd 94 be 9f c4 ca be e2 03 b7 be
       0.32266515 -0.2909961 -0.39603135 -0.3574515
0003f0 86 d4 a3 be 25 14 a4 bd 6f a8 22 3e 54 94 9d be
       -0.3199808 -0.08011655 0.15884565 -0.30777228

0.bias f4 [128]
000000 3c 7e 38 3e df 12 a7 be 0a 8a 41 3e 32 6e 3e be
       0.18016905 -0.32631585 0.18900314 -0.18596724
000010 ed 56 cf 3e 53 ff 06 3c ad ef 56 be 8f 6c 94 be
       0.40496007 0.008239585 -0.20989867 -0.28989074
000020 fd 6c c0 be 07 f5 d2 be 1c c1 aa be ce cf 75 3e
       -0.3758315 -0.41202566 -0.33350456 0.24005052
000030 77 52 8e be c7 eb f3 be 7b a1 cf 3d c9 2c e8 be
       -0.2779729 -0.4764082 0.10138222 -0.45346668
000040 c2 3e 24 3e 9d c3 a3 3e 01 af d4 be f0 31 16 be
       0.16039565 0.3198518 -0.41539767 -0.14667487
000050 d0 76 cd 3e 65 38 d5 3e be 61 d3 be aa a2 f0 bd
       0.4012971 0.41644588 -0.4128551 -0.11749776
000060 c8 ff e6 bc 3d dc b7 be c0 f8 4e be 21 be da be
       -0.028198138 -0.35910216 -0.20212078 -0.42723182
000070 98 f8 18 3e 6e 4e a3 3e 74 98 1c 3d 77 98 cc bd
       0.14938581 0.31895775 0.038231328 -0.09990018
000080 cf 0e cf be d4 e1 86 3e 09 05 2c 3e 62 75 39 3e
       -0.40440986 0.26344168 0.16798796 0.18111184
000090 62 23 9b be 0f 6f 1f bf 02 00 b6 3e 70 a6 c2 bc
       -0.30300432 -0.62278837 0.3554688 -0.023761004
0000a0 e1 42 5c be 54 9e c5 be 56 f1 67 3c f2 9a cf 3d
       -0.21509887 -0.38597357 0.01415666 0.10136975
0000b0 05 0c b4 bb e7 9e b2 bd be 0a cd 3e 4d fd 12 3e
       -0.005494597 -0.087217145 0.40047258 0.14354439
0000c0 a0 be a6 bd 80 b2 51 be fe ee 6b be 8c 32 bb 3e
       -0.081418276 -0.20478249 -0.23040387 0.36562002
0000d0 6f 89 ec 3e f8 ec f7 bc e2 79 a9 be 9a 13 df 3e
       0.46198604 -0.030264363 -0.33100802 0.43569642
0000e0 18 a4 99 3d 64 ce 03 3e ea 84 bf be 40 92 4c be
       0.075020015 0.128717 -0.37406093 -0.19977665
0000f0 13 d9 72 be ca a1 9b 3e 8b a1 9a be 3e aa 53 be
       -0.2371562 0.30396873 -0.30201373 -0.20670411
000100 13 c9 b5 be 5f f3 ac bc 1c 9c 4e be 1e cc b3 3b
       -0.3550497 -0.021112142 -0.20176739 0.005486979
000110 23 47 e2 be 5a ba f2 be 2c cf 15 3f d8 1d 28 3e
       -0.44194898 -0.474078 0.58519244 0.16417634
000120 68 f7 55 3e 1b b3 9a be 81 02 eb 3e 06 48 dc 3e
       0.20895159 -0.30214772 0.45900348 0.430237
000130 ee 0b cc be 01 9a e0 3e ce b7 12 3e 13 4a 25 3e
       -0.39852852 0.43867496 0.14327928 0.16141538
000140 13 cb c0 3d 54 63 fe 3e e3 97 87 be 58 57 dd be
       0.09413733 0.49685156 -0.26483068 -0.432307
000150 81 e1 b0 bd 21 4d 8a 3e b1 ff ee 3d 89 92 c8 be
       -0.086367615 0.2701197 0.11669863 -0.39174297
000160 e5 5f 31 be 06 53 b9 be b2 eb 90 3d 8d ee 5f be
       -0.17321737 -0.36196154 0.07076205 -0.21868344
000170 b8 20 ee bd 95 41 00 3e 79 33 37 3e 63 21 d3 3e
       -0.11627334 0.12525018 0.17890729 0.4123641
000180 a5 21 9e 3e 6d f2 dd bd 96 d1 6d be ec d2 3b 3d
       0.30885044 -0.10837255 -0.23224482 0.045855448
000190 de 96 14 3d 21 44 2e be 76 fd b8 be b3 db 99 3e
       0.03627669 -0.17018177 -0.36130875 0.3005043
0001a0 72 8d fc bd 29 6b d4 be 0d 88 92 3d 63 3a f0 3e
       -0.12331666 -0.41488007 0.07154856 0.46919546
0001b0 f1 48 cb 3d 66 ec 85 be cb d6 9b 3e bb e7 0c 3e
       0.09926022 -0.2615692 0.30437312 0.13760273
0001c0 69 50 ec bc bf 13 c4 bd a8 06 af 3e 1b f2 82 be
       -0.028846936 -0.09574079 0.34184766 -0.25575337
0001d0 b2 13 df bd 35 b0 85 be 7c 6d 26 be f6 b2 d9 be
       -0.108924285 -0.26110998 -0.16252702 -0.4251935
0001e0 72 6c dc 3d 6e 5a 8f be 88 6d ba 3e bb 71 9a 3e
       0.10762872 -0.2799868 0.3641169 0.30164894
0001f0 0d 8a b2 3e 17 59 b2 be 11 ef 12 3e 46 c1 8d be
       0.3487095 -0.34833595 0.14349009 -0.27686518

2.weight f4 [128, 128]
000000 b6 fd 05 3c 1c cb ad 3d bc 73 1c 3d 23 85 c1 bb
       0.008178165 0.08486006 0.03819631 -0.0059057637
000010 3a c3 df 3b 3e 5d 4b 3d 2a 09 97 3d 74 72 82 bd
       0.0068286927 0.04964947 0.07374795 -0.063694865
000020 fb ef e2 3b 74 32 46 be 5f 66 d8 bd 29 b3 2b bd
       0.0069255806 -0.19355184 -0.10566401 -0.041918907
000030 67 6f f4 bc 36 2e 6a bd 5a bc 93 be 7f 1a 2e 3d
       -0.029838277 -0.057172976 -0.28854638 0.042505737
000040 96 fc c8 bd a5 e8 e2 bb 6d 82 78 3c 3b 5b e9 3c
       -0.09813802 -0.006924706 0.015167815 0.028485885
000050 c2 b5 0c bd e4 2a c0 3d 72 ee 68 bd df 29 53 3c
       -0.034353025 0.09383181 -0.056868024 0.012888401
000060 db 5b 9c be 85 6d 8b bd c7 49 28 3d 40 c6 0a bd
       -0.3053883 -0.068079986 0.041085985 -0.033880472
000070 7d e0 86 bd 4e b0 0a be 10 c0 90 bd cf b6 32 3d
       -0.065857865 -0.13543817 -0.07067883 0.04363137
000080 85 1d 48 3d 30 f7 bf be fe 31 41 bd df d9 31 bd
       0.048856277 -0.37493277 -0.047166817 -0.04342067
000090 d9 34 ae 3d fa 5a 5c bd b4 8f 4f 3d f8 9a 17 3c
       0.08506174 -0.0537977 0.050674155 0.009253256
0000a0 d4 94 7c 3d 5c f9 3e 3d be 1c 0e 3d 24 3a 02 bb
       0.06166537 0.046624526 0.03469538 -0.001987108
0000b0 9c d2 a7 bc e8 7e ac 3d 64 4a 25 be 30 66 43 bd
       -0.020486169 0.08422643 -0.16141659 -0.047704875
0000c0 22 b8 b4 3d aa 9b 11 3d 1a 07 51 bd c5 76 52 3d
       0.08824183 0.035548843 -0.051032163 0.0513828
0000d0 0d bf cf bd 92 4b 2b be f5 e7 34 ba 5e 53 12 bd
       -0.10143862 -0.16728047 -0.00069010194 -0.035724036
0000e0 5f ee 0d ba 4f d6 5a 3d 1b 4c b7 bd ea 64 96 3d
       -0.0005414243 0.053427037 -0.08950063 0.073434666
0000f0 01 bf ab 3d ba 1e 26 bd c6 41 a5 3d 19 ec 82 bd
       0.083860405 -0.040556647 0.08069186 -0.06392688
000100 f6 0b ab be c6 36 f9 bc 4a 6c 5e 3d fb 2a 28 bd
       -0.33407563 -0.030421626 0.05430249 -0.041056614
000110 5d c1 b1 bd f8 01 a3 3d 34 88 95 3d c1 73 40 bd
       -0.08679459 0.0795936 0.07301369 -0.04698539
000120 10 2c 37 3e fa f6 76 bd 9c 1a 5f 3d c4 e2 da bd
       0.17887902 -0.06029413 0.054468736 -0.10687783
000130 0b 10 00 3d 51 ab c9 bd 18 d8 9b be 7f 3c ac 3c
       0.0312653 -0.09847129 -0.30438304 0.02102494
000140 36 66 92 be ea ea 82 bd a5 98 87 3c 79 54 e0 bb
       -0.28593606 -0.063924626 0.016552279 -0.0068460074
000150 8c 66 74 bd 57 18 4e be 1b 8e 16 be de 28 ff bc
       -0.05966811 -0.20126472 -0.14702646 -0.031147417
000160 7a 88 af 3d 98 41 72 bd 7f 0e 7c bc 0f 95 6d bd
       0.08570953 -0.059144586 -0.0153843155 -0.05800348
000170 c0 7f aa 3d 8f 60 a9 bc a2 ff 19 3e 5b fa bd 3d
       0.08325148 -0.020675926 0.15038922 0.09276267
000180 0e 87 34 3c 2b 33 82 3d 69 6f e4 3b 24 92 67 be
       0.011018528 0.06357416 0.006971289 -0.22614342
000190 87 a0 fc bd 72 9f 8b bd ef 8e 6d 3d ae 07 74 bd
       -0.12335306 -0.06817521 0.05799764 -0.059577636
0001a0 fa ca 69 bc cb 34 f8 bb f6 8e b8 bd 04 f8 08 be
       -0.014269585 -0.007574653 -0.09011643 -0.1337586
0001b0 36 36 4e be fe fe 67 3d d4 f6 a2 3c 52 3c 64 3c
       -0.20137867 0.056639664 0.019893087 0.013930397
0001c0 6a b8 3c 3d c0 93 1e 3e b8 1c e6 bd d0 a5 80 bd
       0.04607431 0.1548605 -0.112359464 -0.06281626
0001d0 7d 82 e1 bc 8f ef 30 bd 98 e4 35 3c 64 0f c1 bd
       -0.027528042 -0.04319721 0.011101864 -0.09426764
0001e0 75 b1 ef 3d 0e 8b 49 3c f6 58 e7 b7 08 80 5b 3e
       0.11703769 0.01230122 -2.7578772e-05 0.21435559
0001f0 96 4c b0 be f0 ad 87 3c 71 f6 ad bd 59 ff a1 3c
       -0.3443343 0.016562432 -0.084942706 0.01977508
000200 0b 17 2b 3d 80 7b 7f bd 90 4a 5f bb bc b1 59 bc
       0.041770022 -0.06237364 -0.0034071542 -0.013287004
000210 4a d7 1a bd cc aa 47 bd a0 f7 71 bd c8 b5 9f 3d
       -0.037802972 -0.04874687 -0.059074044 0.07798344
000220 ce ae 96 3d 22 e0 bd bd 41 1b c4 bd c2 42 ca bd
       0.0735756 -0.092712656 -0.09575511 -0.09876014
000230 f8 01 7e 3d 34 f1 d9 3c f0 e1 aa bd 28 c4 e8 b9
       0.062013596 0.026604272 -0.083438754 -0.00044396636
000240 14 9f 9a 3d b5 33 31 bd 03 8f c8 bd e5 d0 09 3d
       0.07549873 -0.043262202 -0.09792902 0.033646483
000250 87 ff 59 3d 4e 4d 2e bd 45 d2 24 bd 04 c1 70 bb
       0.053222205 -0.042554192 -0.04023959 -0.003673614
000260 98 d5 9d bd 18 5d b1 bc d8 b0 ae bd 66 80 a0 bc
       -0.077067554 -0.021650836 -0.08529824 -0.019592475
000270 ec 70 47 3d 30 a6 24 3c c8 1e 21 3d 61 c6 95 bd
       0.048691675 0.010049388 0.039335996 -0.073132284
000280 26 de 5c bd 56 b2 31 bd c9 92 35 3b d8 88 53 bd
       -0.053922795 -0.043382965 0.00277059 -0.051644176
000290 53 84 3a 3d c2 cb 94 3d 6d ee 2e 3d 37 86 3a bb
       0.04553635 0.07265426 0.04270785 -0.0028461346
0002a0 c0 05 bf bd d3 dc 5b bd 87 9c a8 3c 35 78 b1 3d
       -0.093272686 -0.05367739 0.02058245 0.08665506
0002b0 a5 cf 4d bd 5a 06 02 bd 10 79 97 bd e1 7b d9 3b
       -0.050246853 -0.03174434 -0.07396138 0.006637082
0002c0 84 6a 62 3d 78 87 9d bd f8 8c b3 3c 93 40 b2 bd
       0.055277362 -0.07691854 0.021917805 -0.08703723
0002d0 ed 25 11 bd c2 bb 9a bc e7 54 38 3d 84 26 20 3d
       -0.03543656 -0.018888358 0.045002844 0.03909923
0002e0 de 3d 90 bd 3a ce 40 bc e4 c3 96 3c 48 a2 8b 3d
       -0.0704305 -0.011767918 0.018403955 0.06818062
0002f0 d8 17 7e bd e4 d9 7a 3c 18 f5 b7 bd d2 9c a9 bc
       -0.062034458 0.015310738 -0.08982295 -0.02070466
000300 a3 a2 3f 3d 75 b0 29 bc f5 15 98 3c 2e d2 47 bd
       0.04678596 -0.010357012 0.018565157 -0.048784427
000310 b8 ed 90 bd a5 cf c8 bc 9a 47 35 bd 9c 39 e2 3c
       -0.07076591 -0.024513075 -0.044257738 0.02761536
000320 04 f2 d4 bc 6f b3 c7 bc da b3 97 3d 79 5b 22 bd
       -0.025994308 -0.024377553 0.07407351 -0.039638016
000330 d7 e4 fc 3c 87 6f 95 bd c1 27 2a 3d de f7 96 3c
       0.030870838 -0.07296663 0.04154182 0.01842874
000340 c2 24 96 bd 0b aa 58 bc a1 1d 81 3d 65 32 2e 3d
       -0.0733123 -0.013224135 0.063044794 0.04252853
000350 9b f4 5f 3d ff d8 15 3d 9b f4 d4 bb df 5b 2a bb
       0.054676633 0.036583897 -0.006498886 -0.00259947
000360 86 62 ed bc 61 4c dd bc 4c a8 79 bd 18 ee 01 bd
       -0.028977644 -0.02701396 -0.060951516 -0.031721205
000370 3f 6a b3 bd f6 b0 d5 bb 90 c4 90 3d ec 0b 84 bd
       -0.08760499 -0.0065213395 0.07068741 -0.064475864
000380 61 17 45 bd 89 e2 a4 3d 8e 04 46 bd 1f 17 84 bc
       -0.048118 0.08051021 -0.048344187 -0.016124306
000390 17 f4 42 bd 0a 26 d5 bc b6 41 64 bd ca 6c 3f bd
       -0.047596063 -0.026019115 -0.05572673 -0.04673461
0003a0 00 2e 4d 3d 2e ce 02 3d 31 bc 26 3d 0a 40 96 3c
       0.050092697 0.03193491 0.040706817 0.018341083
0003b0 0e d0 ba bc 06 37 02 3d 22 da 36 3d e2 0b b2 3c
       -0.022804286 0.031790756 0.04464162 0.021734182
0003c0 71 ab c3 bd 87 a5 a2 bd a9 e3 83 3d 93 9a 8e bc
       -0.09554184 -0.07941728 0.06439907 -0.017407691
0003d0 5b 70 83 3d 1f d4 b4 3d ea cb 5b bd 32 4d 56 3d
       0.064179145 0.088295214 -0.053661264 0.052319713
0003e0 47 82 87 3d b7 e6 b5 bd 28 d1 15 bd da 11 23 bd
       0.06616645 -0.08881896 -0.03657642 -0.039811946
0003f0 e7 62 f7 3c d3 18 bb bd ea 5b 17 3d 89 50 04 bd
       0.030198528 -0.09135594 0.03695289 -0.032303367

2.bias f4 [128]
000000 f6 c1 f1 bd d8 ea 7c 3c 4a 06 78 bc 74 88 4d 3d
       -0.11804573 0.0154368505 -0.015138218 0.05017896
000010 19 b1 14 3d 97 76 00 bd f8 f7 51 bd dc 6d ef 3d
       0.036301706 -0.031363096 -0.051261872 0.11690876
000020 fb 8e a5 bd 17 ec 46 3d 53 8a f5 bd 04 26 9d 3d
       -0.08083912 0.048564997 -0.11989274 0.076732665
000030 d2 83 07 ba 85 54 86 bd 40 f7 08 be 86 b1 9c 3d
       -0.0005169484 -0.065590896 -0.13375568 0.076510474
000040 8f ee 22 3e 69 33 d0 3c 62 cc 7c 3d db 5f d2 bd
       0.15911315 0.02541514 0.061718352 -0.10272189
000050 cc dc 54 3c be 69 8b 3d c2 2d 57 3e f9 c0 f5 3d
       0.012992095 0.06807278 0.21013549 0.11999697
000060 45 c4 f2 3c 03 b1 4d 3c df cd 36 bc 7e 65 5d bd
       0.029634604 0.01255441 -0.011157482 -0.05405187
000070 45 6a 86 3d 19 58 d2 bb 26 ab 23 bd 20 f0 d2 bd
       0.06563238 -0.0064191935 -0.03995814 -0.102997065
000080 40 ab 5a 3d 39 04 53 3d c8 f0 92 3d 7d 62 ba bd
       0.053385973 0.0515177 0.07174832 -0.091008164
000090 44 c1 36 bd 90 43 4c bd 14 53 42 3d e2 aa 6d bd
       -0.044617906 -0.04986912 0.04744251 -0.058024295
0000a0 44 f8 5f 3d d1 16 75 3d 65 a3 50 bc ed 3e 1b bd
       0.054680124 0.059836213 -0.012734269 -0.037901808
0000b0 d4 c0 21 3e e3 90 48 bc 89 46 01 3d 6c d9 76 bc
       0.15796214 -0.012241575 0.03156141 -0.015066486
0000c0 a4 5e ce bc 95 67 e3 bd ec 6a a2 bd 2e 8d 7f 3c
       -0.025191613 -0.11103741 -0.0793055 0.015597625
0000d0 82 81 75 bc 0d 61 51 3c bd 62 fd bc d8 f5 25 3c
       -0.01498449 0.012779486 -0.030930871 0.0101294145
0000e0 3f d2 d0 3d 05 e9 92 bc 1e 3b 41 bd 33 1f 43 bc
       0.10196351 -0.017933378 -0.04717552 -0.011909294
0000f0 2f 9e 5f bc ca c3 d4 bd 5e 64 ba 3d fe bc 1d bd
       -0.013648554 -0.10388906 0.09101175 -0.038510315
000100 03 96 29 3c 5a 3a 80 bd b1 ef c5 bd 09 da 54 bd
       0.010350707 -0.0626113 -0.09664858 -0.051965747
000110 cc af 5a 3d 62 ae bd bc 7a 0f 66 3e 04 ff 9a 3d
       0.05339031 -0.023154441 0.22466841 0.075681716
000120 5b f1 f7 bc 92 4c 3f bd 9c aa aa bd 46 59 98 3d
       -0.030266454 -0.046703883 -0.083333224 0.074389026
000130 ee 23 79 3c da 15 03 bd f2 e8 cd bd 46 68 28 3d
       0.01520632 -0.03200326 -0.100541964 0.041115068
000140 b3 b3 ac 3c 33 50 ef 3b cb b1 5d 3d 1c 88 a6 bc
       0.021081781 0.0073032617 0.054124635 -0.020328574
000150 c3 3c 9d bb 11 ef 5a bc 05 e7 01 bd 91 b2 99 3d
       -0.004798503 -0.013362662 -0.031714458 0.07504762
000160 22 2f 13 bd b6 ab af bd e1 39 2d bd 87 5f ba 3d
       -0.03593362 -0.08577673 -0.042291526 0.09100252
000170 9f 59 a0 bd 33 79 f3 3c 19 3f 21 bd 37 d0 99 3d
       -0.07829594 0.029720878 -0.039366815 0.07510417
000180 ce e9 16 3c 84 70 5a bd 5a 69 43 3d 71 49 98 bd
       0.009211017 -0.05332996 0.047707893 -0.07435883
000190 7c 7f 6d bc 8f 84 18 be 10 72 02 be fe b5 4a 3d
       -0.014495727 -0.14894317 -0.12738824 0.049489968
0001a0 76 bc 7c 3d c0 fc 11 3c a6 a5 9e 3d 4d ed c6 bd
       0.061703168 0.008910358 0.07746439 -0.0971323
0001b0 fb c1 8e bd f5 72 d5 bc 72 2a 01 bd cd 8f 9c 3b
       -0.069705926 -0.026055792 -0.03153462 0.0047778846
0001c0 dd 65 60 bd f3 23 36 3d 42 77 93 bd ed cc 75 3c
       -0.054784644 0.044467878 -0.07200481 0.015002471
0001d0 87 a4 39 bc 5a c6 ac bd 40 2e 16 be 17 b8 50 3d
       -0.01133073 -0.0843627 -0.1466608 0.05095681
0001e0 57 69 bd bd 78 bf ff bb 2a 41 dc bc 11 cf e4 bc
       -0.092486076 -0.0078048073 -0.026886541 -0.027930768
0001f0 ca 0b 92 bd 65 39 42 bd 08 33 3c bb cd 0a 04 bd
       -0.07131155 -0.047418017 -0.002871694 -0.032236863

4.weight f4 [8, 128]
000000 c7 34 16 3d 4c 0c 74 3d e1 97 4d bd 08 31 2a bd
       0.036671426 0.05958204 -0.05019367 -0.041550666
000010 f1 62 84 3c b6 b2 f5 bc 01 9a c1 bd aa 94 ac bd
       0.01616046 -0.029992443 -0.09453202 -0.08426793
000020 45 95 b3 bc e8 52 4a 3d ee 35 88 bc 00 b1 42 bd
       -0.021921763 0.04939547 -0.016627278 -0.04753208
000030 55 e3 1c 3d 32 2a b3 bd 61 cb 47 bd ed 9d de 3c
       0.03830274 -0.087482825 -0.04877794 0.027174914
000040 18 15 e3 bd 1a 1f 15 3c f8 5e 04 bd 8f 06 43 bd
       -0.11088008 0.0091016535 -0.03231713 -0.047613677
000050 71 ac 32 bd de 93 e8 3c d4 11 fd bc d6 b1 2f bd
       -0.043621484 0.028390821 -0.03089229 -0.042894207
000060 a2 8a b4 3c 98 dd 9b 3d 2b 9e 2f bd 07 f2 12 bd
       0.022038762 0.07610625 -0.04287545 -0.035875347
000070 8b 19 0c 39 7e 89 32 3d 97 6a 9d 3d e6 54 9f bc
       0.00013360956 0.043588154 0.07686346 -0.019449662
000080 ce b8 49 3c d3 3e a7 bd d2 b3 8e 3d c9 8b a2 bd
       0.012312127 -0.0816628 0.06967892 -0.07936818
000090 e9 4f 6f 3d 77 d8 d3 bd 90 07 cf 3b f7 0f 6b bd
       0.058425818 -0.10344022 0.00631804 -0.057388272
0000a0 d1 11 c9 bb 3a bf d7 bd f5 2e 80 3d 49 2f 0e bd
       -0.006136157 -0.105345204 0.06258956 -0.034713063
0000b0 14 e4 73 bd eb dc 4e bc c4 f0 ad 3d 97 61 5a bd
       -0.059543684 -0.012625913 0.08493188 -0.053315725
0000c0 cf 3f 58 3d 6b 15 01 3d e3 99 8c bd af bc e7 3d
       0.052795228 0.031514566 -0.06865289 0.113152854
0000d0 e2 2a 99 3d 28 af e9 bb 47 1b b8 3b a9 37 3b bd
       0.07478882 -0.007131476 0.005618486 -0.04570738
0000e0 e1 4f b7 bc f6 77 3e bc e6 73 f3 3d bd 8f 9a bd
       -0.022376956 -0.011625281 0.1188734 -0.07546947
0000f0 b0 83 98 3c 8e 74 6c bd bf 58 c6 bc 0f 30 93 bc
       0.018617481 -0.057728343 -0.02421224 -0.017967252
000100 67 e7 08 3c 39 52 47 3d af 72 c3 3d 03 05 94 3c
       0.008355952 0.048662398 0.095433585 0.018068796
000110 f6 32 81 bd 3e 01 d6 3a dd 79 4c bd e6 bb bc 3b
       -0.06308548 0.0016327274 -0.049920905 0.005759704
000120 a2 9a 80 bb 33 27 0d bd 02 8b 5b 3b 7d 07 52 3b
       -0.0039246837 -0.03446121 0.0033499603 0.003204792
000130 16 4d aa bd e8 54 5b bd 15 49 22 3d 4e b1 c2 bc
       -0.08315484 -0.05354777 0.039620478 -0.023766186
000140 9c ba ec 3c 10 48 19 bd bc 75 9e 3c 23 ab b6 3d
       0.028897576 -0.03742224 0.01934325 0.089193605
000150 89 ba a7 3d ee b8 8a 3d 21 e8 ad 3c 2a 81 23 bd
       0.08189876 0.06773554 0.021228852 -0.039918102
000160 06 34 cd bc de 63 52 bd 65 8e 24 bd 3b 41 23 be
       -0.02504922 -0.051364772 -0.04017486 -0.15942852
000170 ae e0 d8 bc 70 c4 90 3d 1e c6 0a bd 80 d5 18 3b
       -0.026474323 0.070687175 -0.033880346 0.0023320615
000180 d9 87 1d bd b7 20 ae bd 9f 99 c2 38 97 8c ed 3c
       -0.038459633 -0.085023336 9.279255e-05 0.028997703
000190 9b 3e c1 3b 27 04 4b 3d 00 af ea 3c c0 4f 6a bd
       0.0058973557 0.049564507 0.0286479 -0.05720496
0001a0 03 55 9e bd 31 28 e5 3c de 74 e4 bb c5 f3 b2 3d
       -0.077310584 0.027973266 -0.0069719395 0.087379016
0001b0 30 72 81 bd 4c 72 51 bd 2c 11 a4 bd 87 3c 88 bd
       -0.06320608 -0.051134393 -0.08011088 -0.0665217
0001c0 7b bc 4c 3c d9 8a 23 bc aa 7d 51 3d 6f 0b 48 3c
       0.012496109 -0.009981834 0.051145233 0.012209757
0001d0 23 89 26 bd 80 61 88 3d f3 45 be bb 0c 47 6f 3d
       -0.040658128 0.06659222 -0.0058066784 0.058417365
0001e0 70 c8 4b bd bb d1 1b 3d da 24 f7 3c 01 da 90 3c
       -0.0497517 0.03804181 0.03016894 0.017682077
0001f0 99 31 4e 3b 76 07 2f 3a d0 90 e1 3c cd f7 aa 3d
       0.0031462668 0.0006676832 0.027534872 0.083480455
000200 57 7d 3e bc fd d5 31 3d 56 c9 ea 3c 91 62 eb 3c
       -0.011626563 0.043416966 0.028660458 0.028733524
000210 65 d8 8d 3c 36 c6 20 bd 5e d1 9b bc 69 1d fe bd
       0.017315099 -0.03925153 -0.019020732 -0.12407953
000220 2a 95 7b 3d 0d 6b 2b 3d e6 6f 65 3d 9d af 86 bc
       0.06142155 0.04185014 0.056014918 -0.01644116
000230 76 5e 18 bd 24 88 46 bd c4 f2 99 bd ab 0f d5 bd
       -0.03719946 -0.048469678 -0.07517007 -0.10403379
000240 c6 4f 87 3d 42 8b 6d 3d 1a 3a e1 ba 51 ba e1 bc
       0.066070125 0.057994135 -0.0017183453 -0.027554663
000250 97 e3 fc 3c e5 4c cf ba 01 c6 4e bc 68 0c cd 3c
       0.030870242 -0.0015815763 -0.01262045 0.02503033
000260 41 40 46 bd df 30 b2 bb 15 ee 09 bd 7c 56 a1 bd
       -0.04840112 -0.005437955 -0.03367432 -0.07877824
000270 98 32 c5 3c 57 d5 87 bd b0 23 bd 3c c5 1d 63 3c
       0.024071977 -0.06632488 0.023088306 0.013862078
000280 77 50 83 3d 55 ba 8e 3c a8 76 d3 bc 72 1f 98 3d
       0.06411832 0.017422834 -0.025813416 0.07427873
000290 f6 8e b6 bb d5 b3 57 bd 99 1a 55 bb 35 34 c5 3c
       -0.0055712415 -0.052661736 -0.0032517074 0.024072746
0002a0 2b 26 1f 3c c9 fc 23 bd 02 2c 70 3d a7 c9 cd bb
       0.00971369 -0.040035997 0.05863572 -0.0062801423
0002b0 0a eb 9e bd e5 26 64 3c 4b a7 e1 3c f1 f1 61 bc
       -0.07759674 0.013925289 0.027545592 -0.0137905935
0002c0 87 d4 97 3d 58 7f 4f bd 3c 54 03 3a 5e 88 42 3d
       0.07413583 -0.050658554 0.00050098053 0.04749333
0002d0 c2 07 92 3d 15 e9 dd bc 4f dc 30 3d a2 66 5b 3d
       0.07130386 -0.027088681 0.043178853 0.053564675
0002e0 ac 94 d6 3c 25 59 9a bd ba 7f 9f 3d a1 f0 83 bd
       0.02619394 -0.07536534 0.07788034 -0.06442381
0002f0 69 b9 f1 3c ef 38 7d bd 78 9a 47 3d 04 04 5e bd
       0.029507356 -0.061821874 0.048731297 -0.05420305
000300 ad 1d 55 3a c7 4a 8b 3d 8c 4e 0d 3e 46 38 0c bc
       0.0008129727 0.06801372 0.13799495 -0.0085583385
000310 d1 25 5a bc 3f 97 50 3c 5e dd 6c be b4 e5 84 3d
       -0.01331468 0.012731372 -0.2313132 0.06489125
000320 e2 73 0e bd 5c a3 e3 bc 7c ed d8 bd 41 bb 6d bb
       -0.034778483 -0.027787857 -0.105921715 -0.0036274942
000330 b8 1c 9f 3d 54 ac c3 3c 6d ec 48 3d b8 16 06 bd
       0.077691495 0.023885883 0.0490536 -0.03273651
000340 6d 52 0c 3c d5 48 12 3d 1e 80 88 bd 21 53 04 3c
       0.008564574 0.03571399 -0.066650614 0.00807646
000350 04 c3 20 bd 9e 05 71 3d 15 59 d2 ba 84 82 95 bd
       -0.03924848 0.058843248 -0.0016048277 -0.073002845
000360 7d e6 ed 3b 5c 34 aa bc 47 bc 99 3d 5d 10 18 be
       0.0072601424 -0.02077692 0.07506614 -0.14849992
000370 5a ad 9b 3c 46 e3 6d bd 18 8a 13 3d b9 a1 0c 3c
       0.019003559 -0.058078073 0.03602037 0.00858348
000380 27 33 22 3d f9 30 01 bb 3d 32 22 3d 01 a1 c1 3c
       0.039599564 -0.0019713028 0.039598692 0.023636343
000390 70 8e f4 bb dd 5c a2 bd 05 f7 32 3e f3 95 19 bb
       -0.007463269 -0.079278685 0.17477043 -0.0023435324
0003a0 be aa f0 bd 6f 2b 13 3d e9 1e 0c 3d 41 65 b0 3d
       -0.117513165 0.035930093 0.034209166 0.08613063
0003b0 31 59 3e bd e5 de b1 bb 81 60 8e 3d 76 0e 4a bd
       -0.04647178 -0.0054281824 0.069520004 -0.049330197
0003c0 fd 45 92 3c 3f 1e 27 bd fd 10 80 3c 15 59 35 bd
       0.017855639 -0.04080033 0.0156331 -0.04427441
0003d0 ea c1 24 3d d6 3e 81 3d f5 75 1c bd 6a b0 c1 bc
       0.040223993 0.06310813 -0.03819843 -0.023643691
0003e0 e3 15 b4 bd 15 f3 dd 3b 17 2d 11 3c 11 11 60 3d
       -0.08793237 0.0067733624 0.008860848 0.054703776
0003f0 db a2 f2 bc a8 8e a8 3d 32 ea 74 3d 28 3e ad bc
       -0.029618671 0.082303345 0.05979366 -0.021147802

4.bias f4 [8]
000000 75 f5 3f be fb 2a 21 be 96 56 62 bd c1 c8 5f be
       -0.18745978 -0.15739052 -0.055258356 -0.21853925
000010 54 d7 02 be 05 e2 06 be 20 49 9a bc be 98 7d bd
       -0.12777454 -0.13172157 -0.018833697 -0.061913244
