Runs/9/final_model-3rdSize.pth (torch, 75888 bytes, 6 tensors)

0.weight f4 [128, 5]
00000000: af56 bf3e 75c3 ef3e be56 01be f5c7 1ebe
00000010: 4b1d e33e 7f2d 85bd 0d49 c2be 4f51 753e
00000020: 1ba3 c1be ae4e 47bd 8502 e03e 8b5d 9c3e
00000030: 3a56 11be d04a 273e 75b4 1ebf 0283 823e
00000040: 38f5 333e 41f1 a43d c051 d3be 3b32 21be
00000050: a522 4d3e 1f7e 19bd 865a 32bd af61 963c
00000060: 195e ddbd 3e20 11be 5948 9f3e 6b97 733e
00000070: c9d3 723d 6308 c5be 8015 0c3e 5675 8abe
00000080: 053a 10bb 8158 6bbe 5f1a 493d d867 2b3e
00000090: 4482 e7bd 5df9 2b3e 9a71 eabe 614f 8bbe
000000a0: 3555 a73e 5692 ddbe 49b1 74be 1a4b a03e
000000b0: 9c8e 72be 0c2c 87bc 5205 35be 683c 23be
000000c0: 5eab d2be 1197 063d cca3 e7bd 9b9a 9ebe
000000d0: 3262 0bbe f3b3 80be 5e23 c0be b111 27be
000000e0: 9f89 a13e 4a32 2fbe d6d7 7d3e a2a3 01bf
000000f0: a06a b3be 3195 a83d d0de 99be 28ec 943e
00000100: de66 6cbe 68fb 22bd a0b3 b0be a40f 9dbe
00000110: b34c 0bbd 0a49 d13e 833a 73be 4b8d 2fbf
00000120: f678 f53d 6e88 bdbb ca52 c8be d323 c1bc
00000130: 2d33 a6be aab7 e0be 10f9 063c df72 943d
00000140: d14f b9be ff83 113d 1b7e d2be 6707 26be
00000150: 5fbd 773e 3fc8 b03e cff0 a0bb 69d3 103e
00000160: 8f93 97be 3a51 fabe 2bc7 c2be ea5c a83e
00000170: 6f77 3fbe 660b c3be c331 3c3e 09ca 59be
00000180: 1ffe b3bd 9a9b cebe 26b7 89be 371c 103d
00000190: 4384 18bd 0a0d d7bc 49e9 0e3e 9f0d 76be
000001a0: 111e c2be 7849 37be b4be 29bf 6a51 453c
000001b0: c9da 02be 0069 943e d03f 0a3e a28d e6be
000001c0: 24ef 3d3d 6a3b 06be 5e2b d13e dfee 223e
000001d0: 7033 27be 086d 4bbc 4658 7f3e 69ed 18be
000001e0: f580 b2bc ca44 663e 834f 183e b970 a0be
000001f0: a035 8abe c111 cd3e 69a4 ccbe 472f 113d
00000200: 74b8 89bd 9f13 98be a998 823e 0802 b13e
00000210: e413 f1bd 6eef c6bc f77f 0c3d d5a4 c5be
00000220: 700a 563e e7a6 bbbe a4ae 023e bcf6 123e
00000230: 4f96 efbd b61e 663e debe fc3d d965 383d
00000240: 114e f2be c5b6 c6be 0031 aebe ec02 11be
00000250: 7423 4cbe 4f59 8dbe 944d afbe de06 88be
00000260: e163 3ebe c5b8 98be 11a4 a63d 5196 b53e
00000270: 4bb0 92bd 3e61 e43c b76c 7abd 6539 39bd
00000280: 3736 673e e4f5 8abe b1a0 33bd 3b14 933d
00000290: 13bc b8bd dea3 603d d0a6 0fbf bec6 193c
000002a0: e513 043c 7af7 853e 6f94 57be 0f32 ae3e
000002b0: cc9d 92be fd38 3cbe 798f 9ebe e603 d53e
000002c0: 3935 93be 4655 843e 8573 8e3e bbcf d0be
000002d0: d980 34be 2c62 923e 9949 03be f8d7 abbe
000002e0: a86c 263e ec9f b53e 267d 0f3d 0170 393e
000002f0: bdfd 58bd 58fb 0ebe 2945 d0be 2b94 6b3e
00000300: 11ea 57bd 5a80 4ebe 59b2 fc3e 77be cfbe
00000310: 5ed1 fbbe 5600 a13e 72f8 23be c9c8 17bf
00000320: 8d4e d73e a86b 9e3e 9305 aebe f4c4 cd3e
00000330: 3aa8 b3be fa0a 863e 1459 c5be 8b95 bb3d
00000340: 8635 9bbe d41f de3e 14f3 eebd 6683 9ebd
00000350: 25e7 31be e15a 763e 6d0e 223d 165a 913e
00000360: bc76 9fbe 9d40 d4be e387 41bd c9cd 7bbe
00000370: 895b dfbe 4949 bd3e 60d4 923e c5af cf3d
00000380: d1d3 83bd fdd1 71bc 66d8 753e 05bb 603e
00000390: ba9f aabe 2884 7a3e 21d5 2b3e 85f9 d13e
000003a0: c69d 51be 9e0a 1c3e 32e9 75be 2fc6 e1be
000003b0: ff4a 9b3e 464e 87be 340e 3abe c8ee 5d3e
000003c0: f398 0bbd 526f e43e fc97 cbbe 9ceb 18be
000003d0: c99e 17be 50a1 c4be 28fd 7d3e ca26 f93d
000003e0: b201 893e 242e 803e a11a b63e 22f4 bd3d
000003f0: 7675 ddbd 2e07 263a 9234 87be 3265 86be
0.37370822 0.4682881 -0.12630746 -0.15505965 0.44358286 -0.06502818 -0.37946358 0.23956798
-0.37819752 -0.04865902 0.43751922 0.30540118 -0.14193049 0.16337132 -0.61994106 0.25490576
0.17574012 0.08053828 -0.41273308 -0.15741818 0.20032747 -0.037473794 -0.04354336 0.018357126
-0.10808963 -0.14172456 0.31109884 0.2378823 0.059284005 -0.3848296 0.13680077 -0.27042645
-0.0022007239 -0.2298298 0.049097415 0.16738832 -0.11304143 0.16794343 -0.45789796 -0.27209
0.32682195 -0.43275708 -0.23895754 0.31307298 -0.23687214 -0.016500495 -0.17677811 -0.15941012
-0.41146368 0.032858912 -0.11310539 -0.3097733 -0.13611677 -0.2513729 -0.37526983 -0.16315342
0.3155031 -0.17109028 0.24789366 -0.5064031 -0.35042286 0.08231581 -0.30052805 0.29086423
-0.23086116 -0.03979054 -0.34512043 -0.30675995 -0.034008693 0.40876037 -0.23752789 -0.6857497
0.11985962 -0.005784086 -0.39125663 -0.023576653 -0.3246092 -0.43890125 0.008238092 0.072484724
-0.36193708 0.035526272 -0.41111836 -0.16213761 0.24193333 0.34527776 -0.004911519 0.14143147
-0.29604766 -0.48890096 -0.38042578 0.32883388 -0.18697904 -0.38094634 0.18378358 -0.21268477
-0.08788704 -0.4035309 -0.26897544 0.035183158 -0.03723551 -0.026251335 0.13956179 -0.24028634
-0.37913564 -0.1789912 -0.66306615 0.012043336 -0.12778772 0.2898636 0.13500905 -0.45029932
0.04637064 -0.13108602 0.408534 0.15911435 -0.16328216 -0.012416132 0.24936017 -0.14934315
-0.021790007 0.22487178 0.14874081 -0.31336 -0.26994038 0.40052608 -0.39969185 0.035445478
-0.06724635 -0.2970247 0.25507095 0.34571862 -0.11771372 -0.02428409 0.034301724 -0.3860232
0.20902419 -0.36650774 0.12761933 0.14351934 -0.11698591 0.22472653 0.123410925 0.045019004
-0.47325185 -0.38811317 -0.3402176 -0.14161271 -0.199354 -0.276072 -0.34238875 -0.2656774
-0.18592788 -0.29828468 0.08136762 0.35466245 -0.071625315 0.0278784 -0.061138835 -0.04522075
0.22579275 -0.27140725 -0.04385442 0.07181593 -0.09020247 0.054843776 -0.5611391 0.009385763
0.008061384 0.26165372 -0.21052717 0.34022567 -0.28636014 -0.18381114 -0.30968836 0.41604537
-0.28751543 0.25846308 0.2782251 -0.40783486 -0.17627276 0.28590524 -0.12821044 -0.3356321
0.16252387 0.35473573 0.03503146 0.18109132 -0.05297636 -0.13963068 -0.40677765 0.2300574
-0.052713457 -0.2016615 0.49354818 -0.40575 -0.49183172 0.3144557 -0.16012743 -0.5929075
0.42052117 0.3094151 -0.33988628 0.40189326 -0.35089284 0.2618025 -0.38544524 0.091593824
-0.30314273 0.43383658 -0.11667457 -0.07739906 -0.17373331 0.24058105 0.03956454 0.28389043
-0.31145275 -0.41455546 -0.047248732 -0.2459022 -0.43624523 0.36969975 0.28677654 0.10140947
-0.06436885 -0.014759538 0.2400833 0.21946342 -0.33324987 0.24464476 0.16780521 0.4101068
-0.20470342 0.15238425 -0.24014738 -0.44096515 0.30330655 -0.26426905 -0.1816948 0.21673119
-0.03408141 0.4461618 -0.39764392 -0.14933628 -0.14806665 -0.38404322 0.24803603 0.121656016
0.26759106 0.25035203 0.3556719 0.0927508 -0.108134195 0.00063334673 -0.26407295 -0.2624908

0.bias f4 [128]
00000000: cb70 1a3f 3829 ae3e 74b5 063d eeee c43e
00000010: 9c45 713e 0721 b33d 2be5 113e d184 37be
00000020: bcd0 99bd a482 453e 7e1d 68be c7de 49be
00000030: e959 4a3e bd0c e4be c87e 94bd cd71 e0be
00000040: cc88 a43e 7bbf d5be fd56 a7be bb6a 38be
00000050: 5da0 633e ab03 133f f05d 973e 9eae babe
00000060: 0807 c6bd ac54 04be 279c b13e 5823 0a3e
00000070: 8733 cabe 4eff b9be 7736 d43e bd4a 703e
00000080: 4bb2 74bd 8e94 243e df9d abbe 29e9 efbe
00000090: 628e 6ebe e75b afbd fead 1d3f c0a9 51bd
000000a0: 21df ccbe 8a35 9fbe 4590 b1be 946a 573c
000000b0: 521b 803d 5eef 0dbd 4d0c 8abd 609d d0be
000000c0: aa3c aabe 31b8 4b3e beee a13d 44f3 dabe
000000d0: 2235 8bbe 12b0 13be 3a14 1e3f 2052 93be
000000e0: 1602 bbbe 732e 233f 211e 813e f165 583e
000000f0: 9834 a83e 0d41 e0be 2a47 8a3e c479 973e
00000100: c746 d33e 937f 90be 8376 983e 5427 73be
00000110: df99 8b3d 1c18 bfbd 19fd 0abf e10a dfbe
00000120: 96c9 12bf 04ae 243e 1c39 0cbe 40cf aabe
00000130: e8d3 ae3e db9a 9ebc 765d c33c 6af8 adbe
00000140: d048 11be 65ae 263e bfc4 c7be 0f2d 9a3e
00000150: c962 bcbe 0b1a d5be 726a babd 4900 82bd
00000160: 4d3d 06be d73c c53e 0f6d 0ebe 96dd 94bd
00000170: 789e 3fbe b7f1 9ebe e2c5 193e a273 f83e
00000180: 8107 55be 565f 9c3e 82c9 bbbd 20eb 323e
00000190: f838 3a3e 3978 4abe 015f 9fbe 00ca 00bf
000001a0: 9269 d3be a4f7 a73e 4658 bd3e d33f b9bd
000001b0: b12c 1f3e 90b8 323e 049b 113e f804 573e
000001c0: 6243 19bf ba73 03be ccbb 8dbd 0ee9 193d
000001d0: 7264 b1be 5b98 aebe ed98 403e ba84 83be
000001e0: 03db a83e 6053 963e 4bdb 72be 78bf a0bd
000001f0: 20c7 8b3d 89b3 97be 53b4 c63d 9dca 3e3e
0.6032836 0.34015822 0.03288789 0.3846354 0.2356171 0.08746534 0.14247577 -0.17921759
-0.07510516 0.19288117 -0.226675 -0.19713889 0.1976086 -0.4454097 -0.07250744 -0.43836823
0.32135618 -0.4174765 -0.32683554 -0.18009464 0.22229142 0.5742747 0.29563856 -0.36461347
-0.0966931 -0.12922925 0.34689447 0.13490045 -0.39492437 -0.36327595 0.41447803 0.2346601
-0.059740346 0.16072294 -0.33518884 -0.46857575 -0.23296502 -0.08562451 0.61593616 -0.051187277
-0.40013984 -0.31095535 -0.3468038 0.013147969 0.06255211 -0.034652106 -0.067406274 -0.40745068
-0.33249408 0.19894482 0.079068646 -0.42763722 -0.27188975 -0.14422634 0.61749613 -0.28773594
-0.3652503 0.6374275 0.252183 0.21132638 0.32852626 -0.4379963 0.2700742 0.29585087
0.41264936 -0.2822233 0.29777917 -0.23745471 0.06816458 -0.093307704 -0.54292446 -0.43562987
-0.57338846 0.16082007 -0.1369366 -0.33361244 0.34146047 -0.01936095 0.023848277 -0.33978587
-0.14187932 0.16277464 -0.39017293 0.30112502 -0.36794117 -0.41621432 -0.09102334 -0.06347711
-0.13109322 0.3852298 -0.1390879 -0.07268827 -0.18712795 -0.3104379 0.15016893 0.4852572
-0.20803644 0.30541486 -0.09169294 0.17472506 0.18185794 -0.19772424 -0.3112717 -0.5030823
-0.4129148 0.32806122 0.3698141 -0.09045377 0.15544392 0.17453218 0.1421929 0.20997989
-0.59868443 -0.12837115 -0.06920585 0.037575774 -0.34646946 -0.34100613 0.18808337 -0.256872
0.32979593 0.29360485 -0.23716466 -0.0784902 0.068250895 -0.29629162 0.09702363 0.18631978

2.weight f4 [128, 128]
00000000: e38e 2e3d e599 99bd 8738 80bd 16af a23d
00000010: c19c e9bd d2be eebc e59d 90bd fb83 d03c
00000020: 06af 15bd f85e ad3d e6a7 253d 7781 083b
00000030: 7c47 a8bc cc7d 033d 6d89 423d 85ad aabd
00000040: 2086 4f3d 2e4f 9a3c e54d 63bd 8e95 a83d
00000050: e07e 263d 9a44 033c 97d3 14bd 71d0 f6bc
00000060: 5dee 8b3d 41c2 21bd 9919 e3bc e5a3 f83c
00000070: d470 1d3d 906c 633c 97de 3c3d bcf4 1f3d
00000080: af9e ab3c 4e5c 6f3d 3726 aebd 4f7c 56bc
00000090: 05c1 02bb 2cd3 1ebd 2e0d 253d 42ae 7c3c
000000a0: b88c 6fbb e14d aabd f04f 163d 129f 90bc
000000b0: 664e 43bd 8a0e abbd 2727 35bc d1bc b13b
000000c0: 7ae7 7d3d 6b48 9f3c 9d4d 013c c8c8 96bd
000000d0: b70d d5bd c5bc 4b3d b5c3 05bd 8ebb 76bd
000000e0: a71e 26bd b769 bdbd 2eed fdbb fa2f 97bd
000000f0: 85a5 5e3e f4e4 c0bd 01f2 4abd 0435 253d
00000100: 9b66 a7bb 5e08 04bd c8e5 883d 93ec babc
00000110: 96fe 5a3d 1f36 a9bd 6610 2e3d 5fda 833d
00000120: 549e fe3c b191 f7bc 4bfd 88bd 8213 16be
00000130: 235a a6bd c489 97bd 9c60 7cbd 70ea 11bb
00000140: a810 60bd 66d3 81bd 0e65 4bbd 8676 5cbc
00000150: 4d97 fc3c 1702 63bd 41a0 de3a 4a83 9a3a
00000160: fcd3 533d 354f 29bd abdf 8bbc a302 813c
00000170: 7fb3 393d b1ce 25bc 6772 aabb 536b 9bbc
00000180: 8257 ef3a e355 273d 3194 eebb ac32 153d
00000190: c386 56bd 0e5e 92bd 162b babd be72 033d
000001a0: 4522 d33b a6ae 11ba ac64 9bbd ed1e a6bd
000001b0: 8dc8 01bd 2cc7 313d ed55 e6bc 31e0 e63c
000001c0: bfd9 d1bc 604b 843c 1aa9 e5bc ad40 f93b
000001d0: 8cdd ebbd f0a5 613c d3b3 cbbd 7fe6 b9bc
000001e0: 91a6 6a3d a8fb 80bd c115 5fbd e7f0 b9bc
000001f0: 1956 7dbd 5d1e b2bd 2d45 8d3d 52b0 623d
00000200: e452 8cbd ffb6 9abc 9914 74bc 964d 823c
00000210: 02b5 9fbc 8abf edbd b80c f63c e67b 1ebd
00000220: c2ce 7b3d 87a4 99bc 9535 31bc d6d2 86bd
00000230: 7af9 813d 7d65 ecbc e43c 80bd 2033 c3bc
00000240: d4e8 81bd 7dae afbc 4cd6 a53d 9bd0 8cbd
00000250: ae2a a5bd acbb a33d 73e0 d9bc e8e4 6139
00000260: badc adbd 4365 a5bd c2b6 0cbc 8849 2abc
00000270: 7f66 8fbd 545b 973a b1b5 873d 15d5 673c
00000280: 480b 55bc f8cf b5bd e34a 70bc 78d9 273d
00000290: ad33 a53d b3a5 38bd 7772 67bc 8e99 9cbd
000002a0: 4ea1 aebd 613a 9f3d 1b6f df3c a3d1 99bd
000002b0: 203d 8fbd b182 85bd 23bf 4f3d 1b41 a43d
000002c0: b924 97bd c119 97bc 998e 063d 60a8 be3c
000002d0: b205 cfbd 7f32 6b3d 2878 febc a7d2 5dbd
000002e0: 2c57 dbbc 9f3b 97bd b85a aabc 53cd 113d
000002f0: b2ba 643d dbd6 4bbd 934b 2a3d 74d3 513d
00000300: b125 b7bb 9e3c 753d 198f 44bd 295f bebd
00000310: 5769 1f3d da7e 803c e3c3 e83a cef9 a73d
00000320: 25b6 6ebd 6051 543d 7ac2 0d3d d97e bb3b
00000330: 17b4 08bd 624b 0dbd d515 39bd c032 04bc
00000340: 6a34 10bd cf74 ac3c bfd0 a5bd b9e7 65bc
00000350: d3e5 b2bd 89bb 3ebd a31d a6bd bea7 9cbd
00000360: f5f7 973c f808 03bc d086 b3bd 6975 6abd
00000370: 4b49 923d 5c3d 51bd e54b 88bc ec81 a6bc
00000380: c4e0 473c 1d0b b4bd b222 813c b3a8 c3bd
00000390: b6e7 913d 9b2e c1bb 9b10 65bd e248 d4bc
000003a0: 5884 47bd 5440 993d d313 45bd feb5 19bd
000003b0: b3ef 00bd bcc7 0dbd 6af5 813d c87e c0bd
000003c0: 7031 81bd 0e2a 67bd adaa 5d3d eb9a aa3d
000003d0: d425 96bd 43da b4bd 4b2c 3fbd 230f a53d
000003e0: 737b 8c3d 054b f43c 1e31 4fbd dbfe 16bd
000003f0: 3d55 073d 9193 8bbd cfed 1c3d d246 1e3d
0.042616736 -0.07500056 -0.06260782 0.07943551 -0.114068516 -0.029143725 -0.07061366 0.025453558
-0.03654387 0.084653795 0.040443324 0.002082912 -0.020541899 0.03210239 0.04749434 -0.083338775
0.05066502 0.018836584 -0.055494208 0.0823165 0.04064834 0.008011961 -0.0363346 -0.03012869
0.068325736 -0.039491896 -0.027722167 0.030351589 0.03843768 0.013880864 0.046110716 0.039051756
0.02094969 0.058437638 -0.08503383 -0.013091161 -0.0019951474 -0.038775608 0.040295772 0.015422406
-0.003655238 -0.083156355 0.036697328 -0.017653976 -0.04768219 -0.083523825 -0.011056698 0.00542412
0.06198833 0.019443711 0.00789204 -0.07362515 -0.104030065 0.04974057 -0.032657344 -0.06023746
-0.040556576 -0.09248679 -0.0077492213 -0.07382198 0.21742828 -0.09418669 -0.0495472 0.040333763
-0.005108667 -0.032234542 0.06684452 -0.022817886 0.05346545 -0.08262276 0.042496108 0.06438135
0.031081356 -0.030220838 -0.06688937 -0.14655879 -0.08122661 -0.073993236 -0.06161557 -0.002226498
-0.054703385 -0.06339149 -0.04965692 -0.013455993 0.030833865 -0.055421915 0.0016985015 0.0011788395
0.051715836 -0.041335303 -0.017074427 0.015748328 0.045337196 -0.01012008 -0.005201626 -0.018972075
0.0018260332 0.040853392 -0.0072808494 0.036425278 -0.052374613 -0.07146846 -0.09090249 0.03209185
0.006443294 -0.00055573357 -0.07587561 -0.081113674 -0.0316854 0.043402836 -0.028117144 0.028183075
-0.025616525 0.016149223 -0.028034735 0.007606587 -0.11516866 0.013772473 -0.09946408 -0.022692917
0.057287756 -0.062979996 -0.054464106 -0.022697879 -0.061849687 -0.086971976 0.0689796 0.055343933
-0.06851748 -0.018886087 -0.014897489 0.015906136 -0.019495491 -0.11608799 0.030035362 -0.038692378
0.061476476 -0.01875521 -0.010815998 -0.065831825 0.06346412 -0.028856987 -0.06261614 -0.02382809
-0.063432366 -0.021445507 0.080975145 -0.06875726 -0.08064781 0.0799478 -0.026596284 0.00021542946
-0.08489366 -0.08075955 -0.008588495 -0.010393508 -0.070019715 0.0011547604 0.06626452 0.014149924
-0.013003178 -0.088775575 -0.014666292 0.04097888 0.08066497 -0.045079898 -0.014126412 -0.07646476
-0.0852686 0.07774807 0.027274659 -0.07510688 -0.069940805 -0.06519068 0.05071939 0.080202304
-0.07380051 -0.018444898 0.032850835 0.023273647 -0.10108508 0.057421204 -0.031063154 -0.05415597
-0.026774965 -0.07384419 -0.020795211 0.035596203 0.05584211 -0.04976545 0.04157598 0.051227048
-0.00558921 0.059872262 -0.04798803 -0.09295494 0.03891882 0.015685488 0.0017758574 0.08201943
-0.058279175 0.051835418 0.034609295 0.0057219085 -0.033374872 -0.03449572 -0.045186836 -0.00806874
-0.035206236 0.021051792 -0.08096456 -0.014032298 -0.08735242 -0.046565566 -0.081111215 -0.07649182
0.018550852 -0.007997744 -0.08765948 -0.057240877 0.07142886 -0.051083907 -0.016637752 -0.020325623
0.012199584 -0.08791182 0.015763614 -0.09553661 0.071242735 -0.0058954484 -0.05592404 -0.02591366
-0.048710197 0.07482973 -0.04811461 -0.037527077 -0.031478595 -0.03461431 0.06345637 -0.093991816
-0.063082576 -0.05643659 0.054117847 0.083303295 -0.07331434 -0.088306926 -0.0466731 0.08059528
0.068594836 0.029820928 -0.05058395 -0.036864143 0.033040274 -0.068152554 0.03831273 0.03864176

2.bias f4 [128]
00000000: 82d8 633d 3a9e c3bb 8715 2fbd 8083 e6bc
00000010: 6bf4 22bc e00b b5bc b842 bc3c 8cc3 8a3b
00000020: 1b25 94bd 25e3 c5bd bfea 4a3d 489c fbbb
00000030: d92e ebbc 2817 d8bd cdd3 a33c 094c 42bd
00000040: 7694 43bc bcc2 0f3d b6d3 7dbd a787 5e3d
00000050: 9348 41bd ca58 27bc a668 08bd 572e 683d
00000060: 996a 91bd 5e85 83bd f422 4e3c 7f8c eabc
00000070: 7ffa 99b9 3821 d53c 778c 823d 42d8 c8bc
00000080: 8afc 7cbd 0928 11ba 1da1 edbc d361 fb3a
00000090: c7b6 053d bd12 b7bd b343 aebd aba6 9e3c
000000a0: fb4a 99bd d294 bfbd 37ca 013c 5e1b 6bbd
000000b0: 6292 863d b5ef 213e c67b dbbd e849 f73b
000000c0: 48ac 8b3d d8c9 8dbd 3d4d 90bd eef4 a6bd
000000d0: d4af a1bc fd96 9dbd 1b14 573a 50ae 91bd
000000e0: c031 1fbd bb46 8c3d 6e8e 21bd 4961 2ebc
000000f0: 67f3 bcbd 4b5f 863d 4e77 c53c 6981 bcbd
00000100: 1735 203b 2872 c1bd b5ef 953e 44a9 853e
00000110: b3b2 1cbc 4b18 04bd a42f d0bd 030e 643e
00000120: 1667 253d a7f9 c7bd c7a7 e0bd 8416 84bd
00000130: 4cc5 b7bd 6f97 47bd 04bb 82b9 e5f2 4f3d
00000140: 1ba4 0e3c 0955 eabc 6179 9dbd d989 8cbd
00000150: 02e4 82bb 5576 82bc ac34 8a3e dd6c 473e
00000160: 4cb8 533d 4afc 93bd 9fd1 323d f9d8 05bc
00000170: fa39 773d 26ec 5abd 09b6 42bc d1f4 7cbd
00000180: 41a6 523d 94a8 403c 1527 86bd d264 3f3c
00000190: b843 dc3b 4be2 8ebc 2d1c 7c3e c043 e7bc
000001a0: 434b 85bb e218 a53b 1378 a3bd ddb4 25bd
000001b0: a4d3 80bd b5b1 823d 68cd 91bd 3bd2 493e
000001c0: ac9b 703d 55f4 f5bc f091 0e3c 2a41 b43d
000001d0: 211f 0c3d 0b81 05bd cb2d 953d 0331 a33d
000001e0: cde6 bfbd f40f c9bd 5603 ec3c 9e35 98bd
000001f0: b2e2 f1bd 64c5 353c a612 063d 7671 173e
0.0556264 -0.00596979 -0.04274514 -0.028138876 -0.009945969 -0.022100389 0.022981033 0.004234737
-0.0723364 -0.09662465 0.049540278 -0.0076785423 -0.028708862 -0.10551292 0.019998455 -0.047435794
-0.011937251 0.035097823 -0.06196948 0.054328587 -0.047188353 -0.01021404 -0.033302926 0.056684818
-0.0710041 -0.06421922 0.012581576 -0.028631447 -0.00029369068 0.026016816 0.06374448 -0.024517182
-0.061764278 -0.0005537277 -0.029007489 0.0019178934 0.032645013 -0.08939121 -0.08509006 0.019366583
-0.074850045 -0.09354557 0.007921747 -0.057399146 0.06570889 0.15814097 -0.10716967 0.007546652
0.068199694 -0.06923264 -0.07045982 -0.081521854 -0.019737162 -0.07694814 0.0008204595 -0.071133256
-0.038865805 0.06849428 -0.039442472 -0.010643312 -0.09226113 0.065611444 0.02410474 -0.092043705
0.0024445707 -0.09445602 0.29284444 0.26105702 -0.00956409 -0.03224973 -0.10165337 0.2227097
0.040381514 -0.09764414 -0.10969501 -0.06449607 -0.08973178 -0.048728403 -0.0002493487 0.05076875
0.008706118 -0.028605001 -0.07689167 -0.0686223 -0.003994466 -0.015925566 0.2699331 0.19475122
0.05168943 -0.07225855 0.04365694 -0.008169406 0.060358025 -0.053447865 -0.011884221 -0.061756913
0.051428083 0.011758942 -0.06550423 0.011681752 0.00672194 -0.01744189 0.24620123 -0.028230548
-0.00406781 0.0050383667 -0.07981887 -0.040455688 -0.06290367 0.06381551 -0.07119256 0.19709103
0.05874221 -0.030023733 0.008701786 0.088014916 0.034209374 -0.032593768 0.07284125 0.079683326
-0.09370194 -0.09817496 0.028810184 -0.07432102 -0.11810817 0.011094425 0.03273263 0.14789376

4.weight f4 [8, 128]
00000000: d8cf abbd f52e 7a3d 79f6 77bc e779 6b3d
00000010: 0a7b 21bc 126e 3bbd 3a6d b23c a42b 35bd
00000020: ef57 f6bc 69e6 c1bd dc09 da3c e1a8 ed3a
00000030: 1e7f 7e3d e35e d33d 9a94 b13c 49b5 00bd
00000040: e089 993d edb6 943d 8d38 d33c 07e8 95bd
00000050: ee30 cdbb ab6c 87bd f6ac 8f3c ef41 9c3d
00000060: 330b 1a3d 884d 0ebc 5c30 903d d098 213c
00000070: 1e81 093c 2e66 873d e9c3 0bbd 9e0c 963d
00000080: ce7a 10bd 475b e9bd f72f 973d 5db9 be3d
00000090: 8af0 1cbd 7fa4 adbc d808 8a3d cfd7 42bd
000000a0: f71a 08bb 62ea 06be 6812 33bd fdc8 0a3c
000000b0: b19b 1cbd fdb8 d8bb 454e 723d a3b9 18bd
000000c0: fc1a 10be 142c 0b3a f7b7 43bd b04a 9a3d
000000d0: 893a a5bd d323 6bbd afcd b0bc 2c11 3c3d
000000e0: 762f c2bb ef6e 8439 8697 73bc 78ba 78bd
000000f0: 4564 0cbd fc8e 913d 38ec a13b aed4 abbd
00000100: 38d0 143d 1a0b 033d d5b3 b0bd 6da1 20be
00000110: fa01 083b dff2 16bd e20e 19bb 360b 32bd
00000120: 9950 7a3d c3de b03c bff7 b63c 29d8 8d3d
00000130: d43c 93bc 3d8f 453d 7a15 e4bb a82e c4bc
00000140: f791 643d f787 fabc 6877 06bd 899e 44bd
00000150: 2309 cebc 1a99 a23b 8fe5 05be a76b 3bbe
00000160: f5ae 9abd 6cfa bebc c71b f1bc b3fb bdbc
00000170: 798c a3bd d509 7bbd 5342 a03d f855 f2bb
00000180: 7199 babc af32 903c f1de 5c3d 4698 76bd
00000190: 007e 4dbd 3bc7 213d 0055 cdbd 3594 d63b
000001a0: df5f 71bd 418e 0b3d 4693 38bd 6e66 8a3d
000001b0: c0c3 9d3c b344 bcbc 2205 15bd e9ce ecbd
000001c0: d62e 65bd b915 31bd 36d2 773d 5f1f ecbb
000001d0: cb4a aabd cda3 c73c 88f6 353d bad6 7bbd
000001e0: 145c e3bb f846 abbd 720f 6cbd 0acd 2c3d
000001f0: a217 0f3d 9227 90bc 0819 7fbd 1d8c 20be
00000200: c8f5 08bc bd08 b3bd 2d46 753d a5d5 e23b
00000210: a90a 933c ef40 573d 8714 1cbc 2ce7 a73d
00000220: 11de 423d 450a 943b e4dd 963d 6e40 ca3d
00000230: 5ad5 003d f496 eebc 9db6 2ebd 10b3 a33d
00000240: 31fc 503c 4ad2 a73a c91f 653c cb95 513d
00000250: 5553 b1bd 0084 74bc a9b1 603d ebff 02bd
00000260: fc0f 2b3d 64fb 92bc 2380 d13c 3a1e dbbb
00000270: 30c5 babc bcaa 853d 0021 14bc d3b7 a6bd
00000280: f2ff 63bd 0e1e db3d 81f5 1dbd 4360 81bd
00000290: 10c4 86bd 062d 233d af55 433d c60c aa3d
000002a0: a3c1 21bd b978 79bd 370e 57bd 1e1b e63d
000002b0: 0417 e0bd 7c7a 99be 2368 a9bb 10ab 1c3d
000002c0: 7816 773e 928f 28bc c4a5 d1bc 1ea9 073d
000002d0: b02c 42bd 01a3 49bd bc4c abbd fd72 773d
000002e0: 9d8e 9d3d 439b e5bc f9a1 133d aa86 9fbd
000002f0: a75f 08bd bf79 a4bd 396b 19be 920a 82bd
00000300: 4178 28bd 60ea a3bd 1809 38be 26b5 b5bd
00000310: 58cb 443d a07a 3fbb 0ae4 2fbd ce6f bebb
00000320: 8ab3 713d 619b 99bc 84ae d43c 5563 69bd
00000330: 6091 b6bc e220 cf3c e9b6 60bd 2519 8e3d
00000340: 862b 7bbd 8b5f 38bb ae05 3d3d 6bb5 24bd
00000350: dcfe 2abc 50b4 7ebd c054 27be 468a 04be
00000360: 0575 a3bd 957e 033d 3f03 083d 5b5a 163d
00000370: 3e49 373d 3aca e6bb 3b7e 3b3d e0bb 903d
00000380: 7956 0f3d 54cf 75bd 08ac bc3c a01c 4ebd
00000390: 99e9 0bbd cdfe 04bd 47c6 adbd 96b9 ae3d
000003a0: afcc 22bd ff58 07bd 271e 3bbd da03 5d3d
000003b0: 3768 a73d ef13 5ebd 0f92 00bd 45d6 d3bd
000003c0: 6244 a13c 1313 adbd 3982 c73d f8b3 283d
000003d0: 5654 043b 87c6 7d3d f0cd 7bbd d35e c0bd
000003e0: 15e3 67bd 65a8 f4bc 2dbd 853c 9256 94bd
000003f0: f7a8 483c 6e15 9abd 7dc4 c23c c1a4 0ebe
-0.083892524 0.061079938 -0.015134447 0.057489302 -0.009855995 -0.045759268 0.021780599 -0.044231072
-0.030071227 -0.094677754 0.02661603 0.0018131995 0.062132947 0.103208326 0.021677304 -0.031422887
0.07497001 0.07261453 0.025783801 -0.07319646 -0.0062619364 -0.06612524 0.017538529 0.07629763
0.037608337 -0.008685477 0.07040474 0.0098630935 0.0083926 0.06611286 -0.03412238 0.07326625
-0.035273366 -0.11394363 0.073821954 0.09312699 -0.038315333 -0.021196602 0.06739968 -0.047569092
-0.0020768025 -0.13175347 -0.043718725 0.008470771 -0.038234416 -0.006613849 0.059156675 -0.037286412
-0.14072794 0.00053089974 -0.047782864 0.07533777 -0.08067805 -0.05740721 -0.021582453 0.045914814
-0.005926068 0.00025259654 -0.014867669 -0.060724705 -0.034275312 0.0710735 0.0049414895 -0.08390175
0.036331385 0.03199301 -0.0862805 -0.15686579 0.0020753131 -0.036852714 -0.0023354818 -0.043467723
0.06111202 0.021590596 0.022334931 0.06925995 -0.017973341 0.048232306 -0.006960568 -0.023948029
0.055803265 -0.030582411 -0.03282872 -0.048002753 -0.025150841 0.004962099 -0.13075851 -0.18302785
-0.07552902 -0.02331277 -0.02943219 -0.023191309 -0.079857774 -0.061288673 0.0782515 -0.007395502
-0.022778245 0.017602293 0.05392355 -0.060203813 -0.05016899 0.03949664 -0.10025978 0.0065484294
-0.05892932 0.03407121 -0.045062326 0.06757818 0.01925838 -0.022981977 -0.03638185 -0.115629025
-0.05595287 -0.043233607 0.060503207 -0.007205888 -0.08315047 0.024370098 0.044424564 -0.061484076
-0.006938467 -0.083631456 -0.057631917 0.042187728 0.034934647 -0.017596994 -0.06227973 -0.15678449
-0.00835938 -0.08741901 0.059881378 0.006922441 0.01794942 0.05255216 -0.0095263785 0.081983894
0.04757506 0.004517826 0.07366541 0.0987557 0.031453468 -0.029124714 -0.042654622 0.07993138
0.01275544 0.001280376 0.013984629 0.051168244 -0.086584724 -0.014924049 0.05485693 -0.031982344
0.04176329 -0.017942138 0.025573796 -0.006686953 -0.022799104 0.065267056 -0.009041071 -0.081405304
-0.05566401 0.10699092 -0.03856421 -0.063171886 -0.06580365 0.03983786 0.047689136 0.083032176
-0.039491307 -0.060906146 -0.05250379 0.11235641 -0.1094189 -0.2997626 -0.005169885 0.038249075
0.24129665 -0.010288136 -0.025591739 0.033120267 -0.0474059 -0.04922772 -0.08364245 0.060412396
0.07693217 -0.028028136 0.03604314 -0.07789357 -0.033294346 -0.08031034 -0.14982308 -0.063496724
-0.041130308 -0.08003688 -0.17972219 -0.08872442 0.048045486 -0.0029217377 -0.042942084 -0.005811668
0.059009112 -0.018750848 0.025962122 -0.056979496 -0.022286117 0.025284234 -0.054861937 0.0693839
-0.061320804 -0.002813312 0.046147995 -0.040212076 -0.01043674 -0.06218368 -0.16340923 -0.12943372
-0.07981304 0.03210314 0.03320622 0.036707263 0.044747584 -0.0070431503 0.04577468 0.07067084
0.034994576 -0.060012177 0.02303125 -0.050320268 -0.034158323 -0.03246956 -0.08485084 0.085314915
-0.039745983 -0.033043858 -0.045683052 0.05395875 0.08174174 -0.05421823 -0.031389292 -0.10343603
0.019685928 -0.08450904 0.09741635 0.041187257 0.002019187 0.06195691 -0.061475694 -0.09393086
-0.056613047 -0.029865453 0.016325558 -0.072430745 0.012247316 -0.07523619 0.023775334 -0.13930036

4.bias f4 [8]
00000000: 4328 12be 14ab 01be d9aa 2ebe 5240 67be
00000010: 4b0f f6bd 8dab fcbd 6c48 26be 66a6 43be
-0.14273171 -0.12662917 -0.1705736 -0.2258313 -0.12014636 -0.12337408 -0.16238564 -0.19106445
