Runs/6/final_model-3.pth (torch, 75888 bytes, 6 tensors)

0.weight f4 [128, 5]
000000 44 b4 81 bc 0d 31 b6 3e 74 37 bc bd 0a bc 64 3e
       -0.015833028 0.35584298 -0.09190264 0.22337356
000010 ba c3 df be a9 57 ca bd 38 a6 33 be ef d8 22 be
       -0.43704015 -0.09880001 -0.17543876 -0.15903066
000020 db 5f 1a be 9b 32 ab 3e 24 bb 35 be e0 16 a3 3e
       -0.15075628 0.33437046 -0.1774717 0.3185339
000030 86 85 8e 3e 26 99 79 3e 70 1e 8c be aa cd 3f be
       0.27836245 0.24374828 -0.27366972 -0.18730798
000040 21 f5 51 be 43 db c8 bd 02 f0 0a 3e cd 8f 2b 3e
       -0.20503666 -0.09807446 0.13568118 0.16754074
000050 61 4c dc be 80 a8 b0 3e 45 5f 69 bd 37 89 05 3e
       -0.43027022 0.34503555 -0.05697562 0.13040625
000060 fa b6 c3 be ca b9 c7 bd 56 b2 f6 bd 2e 7d 4d 3d
       -0.38225538 -0.09752233 -0.12045734 0.05016821
000070 a4 30 b0 be 25 ee 85 bc 9f 79 06 be 26 c7 4e be
       -0.3441211 -0.016348908 -0.13132332 -0.20193157
000080 9a a1 be be 42 cb f4 3d 1c 90 3d be 3d e9 a2 be
       -0.37232667 0.11952831 -0.18512005 -0.31818572
000090 b2 c6 b6 3d b8 6b 2e 3e c5 51 88 ba c3 8c b2 be
       0.08924617 0.17033279 -0.0010400346 -0.34873018
0000a0 57 0c 4e 3e 6f ee 96 3e 84 19 7a 3e 06 84 dc be
       0.20121895 0.29478785 0.24423796 -0.43069476
0000b0 68 e3 d5 be 81 1c 43 3e b5 d3 ab 3c 2d 65 5a be
       -0.4177506 0.19053842 0.020974973 -0.21327658
0000c0 8f 81 0c bd 55 bb 58 3c 91 33 73 bd ff 57 45 3e
       -0.034303244 0.013228257 -0.05937535 0.19271849
0000d0 8b 43 a2 3d 53 e0 e7 3c 8a c3 d6 be 73 83 d7 3e
       0.07923039 0.028305208 -0.4194606 0.42092475
0000e0 10 66 b2 3e cd 1e 54 3b f9 62 13 bd 33 f0 ae 3c
       0.34843493 0.0032366992 -0.03598306 0.02135477
0000f0 b5 8a bf be de 90 8b 3e b6 e6 d6 3e 46 af 42 3e
       -0.37410513 0.27258962 0.41972893 0.19012174
000100 74 37 8a be 84 ad a2 be dd 76 b3 3e c4 43 f4 3c
       -0.26995432 -0.31773007 0.35051623 0.02981747
000110 2b 35 12 bd 38 fa 5a be a3 7d ce 3e ae d9 c1 bd
       -0.035695236 -0.21384513 0.40330228 -0.09465347
000120 d2 81 0c 3e e2 75 e6 3d 00 3f a8 be c7 af 62 3e
       0.13721398 0.11252953 -0.32860565 0.22137366
000130 8f 91 a8 3e fa 0d 9b 3e 8e c5 51 3e 7a c3 92 3d
       0.32923552 0.302841 0.20485517 0.071661904
000140 60 1e e1 be ed 58 30 be 21 52 b9 be c0 60 c2 be
       -0.43968487 -0.17221422 -0.36195472 -0.3796444
000150 1b 3f 99 be 1d 5b 61 bd e3 a6 17 bf 3a d8 0f be
       -0.29930958 -0.055018533 -0.59239024 -0.14047328
000160 1e 19 2b 3e a7 16 c5 bd 94 85 9e be ca a8 83 be
       0.167088 -0.09623461 -0.30961287 -0.25714713
000170 f6 ab d2 be 2b 71 c4 3b f3 b1 d9 3e 27 fb 9c be
       -0.4114682 0.005994936 0.42518577 -0.30660364
000180 62 ec 64 be cb c4 a2 3e 0f 0f d0 be ab 8c 74 be
       -0.22355798 0.31790766 -0.4063649 -0.23881786
000190 7b 00 d2 be 64 51 87 be f2 ba 1a 3e d9 2e 7e 3e
       -0.41015992 -0.26429284 0.15110376 0.24822558
0001a0 98 1b 4e 3e d8 50 0e 3e 62 c4 a8 be 5d 11 69 be
       0.20127714 0.13898027 -0.32962328 -0.2276053
0001b0 d3 d3 94 be fc e6 f3 3d 04 8f c2 3d 41 79 bb 3e
       -0.2906786 0.11909291 0.09499934 0.36615947
0001c0 0f 06 32 3d 55 73 ad be 27 ce 7d 3e 85 c3 db be
       0.04346281 -0.33877054 0.24785672 -0.42922607
0001d0 be 4d e3 be 56 a9 c5 3e 67 70 da 3d 9f 7c a8 bd
       -0.4439525 0.38605756 0.1066597 -0.082268946
0001e0 7d 40 4a be 7f f8 b6 3e f9 dd a1 bd b0 42 5c bd
       -0.19751163 0.35736462 -0.07903666 -0.053774536
0001f0 36 61 df be d0 44 ca be 53 1f 09 3e 12 74 b5 be
       -0.43628854 -0.39505625 0.13390855 -0.35440117
000200 8a a6 53 be f9 94 2c be c6 fb c9 3e a8 83 de be
       -0.20668998 -0.16853704 0.394499 -0.4345982
000210 9c c5 e3 be 93 ab 0f be 08 d5 b1 bd 4b c5 22 bd
       -0.444867 -0.14030294 -0.086832106 -0.039738934
000220 c4 90 97 3e b5 7f 78 bc 85 86 c3 be 10 9e a0 3d
       0.29602635 -0.0151671665 -0.38188568 0.07842648
000230 fc 26 24 be a5 54 e6 3e f4 25 11 be 8a 84 f7 3c
       -0.16030496 0.44986454 -0.14174634 0.030214567
000240 b2 ed c8 3d 10 d9 c0 3e ed 79 d4 be 4b 0b b4 be
       0.09810962 0.37665606 -0.41499272 -0.35164866
000250 b6 3c aa 3e 72 52 59 be 4d 0a da be fa 45 85 be
       0.33249444 -0.21222857 -0.42585984 -0.2602995
000260 e0 a4 89 3e be 91 85 be 6a 21 37 be fd b5 5e 3e
       0.26883602 -0.26087755 -0.1788384 0.2174911
000270 fa 62 15 be 1b d1 6e bc 6e a3 9b be d1 10 e3 3e
       -0.14588538 -0.014576222 -0.30398124 0.44348767
000280 ac af cf be 40 10 fa be 04 95 df 3d 50 0d f6 3d
       -0.40563715 -0.48840523 0.10917094 0.12014258
000290 02 f7 e0 be 85 50 d2 be 76 47 5c be de 80 86 be
       -0.43938452 -0.41077057 -0.21511635 -0.26270193
0002a0 9c 80 ac 3e 65 28 9e 3e 35 15 f1 3d 37 a4 f7 be
       0.3369187 0.30890194 0.11771623 -0.48367473
0002b0 c5 56 b6 3e dd 71 0a 3e b9 99 67 be 83 ab b7 be
       0.35613075 0.13519998 -0.22617234 -0.3587304
0002c0 ec 07 b8 3e e5 2f aa 3e ad 9e 14 bd 53 42 7f be
       0.35943544 0.33239666 -0.036284138 -0.24927644
0002d0 de 4f 4e bd 1b fe 88 3e 22 38 9d 3e c6 39 0d be
       -0.050369136 0.26756367 0.30706888 -0.1379157
0002e0 13 35 c6 3d 1e 77 80 3e d8 d6 98 3d 00 77 8f be
       0.09678092 0.2509088 0.07462853 -0.28020477
0002f0 e6 19 6a 3e 42 04 ee bd 2a 2a 4e be 9d 58 3d 3e
       0.22861442 -0.11621906 -0.20133272 0.18490835
000300 e9 58 17 be 2c f5 0b be d0 43 8b bd af 5c 73 be
       -0.1478001 -0.13667744 -0.068000436 -0.23765825
000310 1b 22 01 bd aa 6f d3 3d af 21 8c be e0 87 bb 3e
       -0.031526666 0.103240326 -0.2736945 0.36627102
000320 d8 2d 68 3e 5d d3 9c be ac 82 b0 be 6f 16 c1 3d
       0.22673738 -0.30630007 -0.34474695 0.09428107
000330 67 49 48 3e 8c 4b 3c be 03 b1 3e be f3 8f df be
       0.19559251 -0.18388194 -0.18622212 -0.43664512
000340 1c 83 78 be b7 4b 44 3d 1a 48 57 be 53 f8 cb bc
       -0.24268764 0.04792377 -0.21023598 -0.024898684
000350 2d 11 85 be 0b a4 bf be e2 8f a0 3e ea f9 6f 3e
       -0.25989667 -0.37429842 0.31359774 0.23435178
000360 03 57 9f 3e 94 b4 c9 3d c1 ca 8b 3a 76 7d ae be
       0.31121072 0.09848896 0.0010665284 -0.34080094
000370 fb 6f e2 be 2d ea aa be fd e1 90 be 06 85 8d be
       -0.4422606 -0.33381787 -0.28297415 -0.2764055
000380 6b 54 f7 bd eb cb 50 3d fd 56 4f be 64 70 b6 3e
       -0.12076648 0.05097572 -0.20248027 0.35632622
000390 6d 0e 75 3e 67 8f cd be d2 5f b7 be d3 0a a3 be
       0.23931284 -0.4014847 -0.35815293 -0.31844196
0003a0 45 38 d5 be 65 a4 bb 3e a9 72 aa 3e 0d 31 c4 3e
       -0.41644493 0.3664886 0.33290604 0.38318673
0003b0 2b 24 21 be 99 99 9b 3e d7 ad 9a be 7b 3f 3c be
       -0.15736453 0.30390623 -0.30210754 -0.18383591
0003c0 af a9 87 3e a3 79 08 3e 86 2b 64 3e 61 5a f0 be
       0.26496646 0.1332765 0.22282228 -0.46943954
0003d0 02 6d 54 be e7 04 80 3e 15 50 48 3e c8 7d 0f 3e
       -0.20744708 0.2500374 0.19561799 0.14012825
0003e0 29 16 98 3e 39 42 5d be 24 64 95 3e 52 dd 47 3e
       0.29704407 -0.21607293 0.29177964 0.19518021
0003f0 7b 3c 09 3e 45 63 b3 3e 75 e6 9d 3e 49 72 95 3e
       0.13401978 0.35036674 0.30839887 0.29188755

0.bias f4 [128]
000000 13 8f 90 be 84 ea 98 3d d5 8b bf 3e 55 bf 94 be
       -0.28234157 0.07466605 0.3741137 -0.29052225
000010 92 a6 a7 be 77 9d a5 3c e6 24 8b 3d 37 4d b3 3e
       -0.3274427 0.020216687 0.06794147 0.35019848
000020 21 46 7f be 97 5b 17 bd 31 dd d8 be 5e 47 79 be
       -0.24929096 -0.03695258 -0.42356256 -0.2434363
000030 78 25 9e 3d e3 ca 9e 3e 82 45 3b 3e f4 49 84 3e
       0.0772199 0.31014165 0.18288234 0.25837672
000040 e6 f3 c6 3d 98 5e 04 3d dc f8 ec bd 9a dd 47 3e
       0.09714489 0.032316774 -0.11570904 0.19518128
000050 5c 72 28 bd 6d 27 82 3e 9a 73 77 3e 26 d0 42 3e
       -0.041124687 0.25420704 0.24165192 0.19024715
000060 8b 6c 88 3e 80 e9 8d 3e 9d 50 a9 3c ec 25 51 3d
       0.26645312 0.2771721 0.020668322 0.051061556
000070 fc 4c 8e bd f5 ea d8 be 9c 80 82 3e 64 40 4d 3e
       -0.06948277 -0.42366758 0.25488746 0.20044094
000080 65 d0 cb be 02 61 9a be 3c 40 88 3d 94 cc bd 3e
       -0.3980743 -0.30152136 0.06652877 0.37070143
000090 b9 9d 4f 3e e6 af c8 3e f3 bd c4 bd 33 34 bc bc
       0.2027501 0.391967 -0.096065424 -0.02297411
0000a0 d3 54 c4 be ec 12 ba 3e e3 0f fa bd 0a ae ba bd
       -0.38345966 0.3634256 -0.122100614 -0.091152266
0000b0 87 10 79 3e 22 67 5a bd 8c 8c 88 3d 1d 36 f1 be
       0.24322711 -0.05332101 0.06667432 -0.47111598
0000c0 82 e0 05 bf b8 2e 87 be f4 57 ff be 62 2e a0 be
       -0.52295697 -0.2640283 -0.4987179 -0.31285387
0000d0 26 1f c8 be 5e 9e 7f 3e 84 a2 8e be ba 11 43 be
       -0.39086264 0.24962756 -0.27858365 -0.19049731
0000e0 a6 dc 93 3e b4 29 05 bd 4a 2f 64 3c 46 ad ce be
       0.2887928 -0.032510474 0.01392729 -0.40366572
0000f0 f3 bd 78 3a 42 b9 9c be ab 8f 87 be 75 0b a9 be
       0.0009488754 -0.3061009 -0.26476797 -0.33016554
000100 a6 12 40 3e a4 1a be be 1d 98 8a 3e 29 55 db be
       0.18757114 -0.371297 0.27069178 -0.4283841
000110 ad 8e f0 3e 39 c9 c0 3e 62 6b a7 3e 93 7f 8f 3e
       0.46983853 0.3765352 0.32699114 0.2802702
000120 6e 19 e1 3e c3 f8 92 3e ff 41 1b 3e f1 d9 19 be
       0.43964714 0.28705415 0.15161894 -0.15024544
000130 f4 c0 a1 be 17 59 74 be 8b 89 c9 3d 94 82 90 3e
       -0.31592524 -0.2386211 0.09840687 0.28224623
000140 b0 fa b8 be 1b 57 01 3f 85 12 c9 be 01 58 aa be
       -0.3612876 0.5052354 -0.39271942 -0.33270267
000150 38 fd a7 3e d5 4a 27 bf b5 ae 79 3e 13 9b e0 be
       0.32810378 -0.6534856 0.24383052 -0.43868312
000160 05 e7 aa bd c8 28 0f 3e e2 01 5c 3e 9c 60 c6 3e
       -0.08344845 0.139804 0.21485093 0.38745582
000170 10 b0 b7 bc 87 16 02 3f 76 2b 9b be 33 42 ae 3e
       -0.02242282 0.50815624 -0.30306596 0.3403488
000180 9a 9a 2e 3e 79 3b 6d 3e f5 cf 53 3e b7 b7 03 3f
       0.17051163 0.23167218 0.20684798 0.514522
000190 41 a9 08 3f a2 41 49 bd 85 b9 88 3e 2c 8f 06 bf
       0.5338326 -0.049134858 0.2670404 -0.5256221
0001a0 68 95 02 3f 09 a6 1c bd 94 03 40 bd 05 3b 19 bf
       0.51009226 -0.03824428 -0.046878412 -0.5985568
0001b0 27 20 4a bd 98 d4 d0 3e bf dc 95 be 4c 9d 57 3e
       -0.04934707 0.40787196 -0.29269978 0.21056098
0001c0 fb 65 b7 3e b1 38 50 be 1a d6 b0 be 42 83 4f 3e
       0.35819992 -0.20334126 -0.34538347 0.20264915
0001d0 e1 46 a9 be 1d 8e 9f bd 98 db b9 bb f6 45 9e 3e
       -0.3306189 -0.07790778 -0.0056719296 0.3091275
0001e0 8d 86 86 be af b6 ab be 57 ad 78 3e 7d 5b a8 3e
       -0.2627453 -0.33537814 0.24284874 0.328823
0001f0 a5 45 98 3e 04 37 c4 be 5d e6 01 3f 1b 56 7e be
       0.29740635 -0.38323224 0.5074213 -0.24837534

2.weight f4 [128, 128]
000000 41 a9 9b 3c 32 45 8a bd 4c 0e 84 bc 3e ee ff bc
       0.019001605 -0.06751479 -0.016120099 -0.031241532
000010 9e 10 f4 3d ef 28 13 bd 0e dd 98 bb b0 32 a9 3d
       0.11917232 -0.03592771 -0.0046650236 0.08261621
000020 0c b8 de bc 73 eb b0 bd 9c c6 6c bd f8 d6 d4 bc
       -0.02718737 -0.086386584 -0.057806596 -0.025981411
000030 10 4c b4 bd 16 88 22 3d 20 fe 8f 3c 73 37 84 bd
       -0.0880357 0.039680563 0.01757723 -0.064558886
000040 ad c8 54 bc c9 6c 62 bd 0e 8d af 3d 0a 85 ac bd
       -0.012987298 -0.055279527 0.08571826 -0.08423813
000050 cf 58 71 bd c7 b5 16 bd 41 0b 89 3c 25 7c 1e 3d
       -0.058922585 -0.03679445 0.016729 0.038692612
000060 58 62 ca bc c0 6f a8 bd c4 39 54 3d 58 de b8 3c
       -0.024705097 -0.082244396 0.051812902 0.02256696
000070 e4 85 c7 3b 39 81 6c bd 1a 87 c0 bd c4 dd 98 3d
       0.006088959 -0.057740424 -0.094007686 0.074641734
000080 43 9e d7 bd db 94 be bd bd 83 94 3c cc 8f e5 bc
       -0.10528233 -0.09305736 0.018129224 -0.02802267
000090 be 4e 2f bd 07 a8 d3 3c 13 4e a6 bd 1b e7 9a bd
       -0.042799704 0.025836958 -0.0812036 -0.07563611
0000a0 dc cb 9b 3d 50 88 3a bd 1c b2 ad bd 3f b3 b5 3d
       0.076072425 -0.045540154 -0.08481237 0.08872079
0000b0 54 99 84 bd 00 ba 95 3d fe 07 6d bd b0 25 57 bc
       -0.064745575 0.07310867 -0.05786895 -0.013131544
0000c0 1b 30 ae bc 2f c7 69 bd 48 a8 71 3d d8 dd 05 3c
       -0.021263173 -0.057074722 0.058998376 0.008170567
0000d0 2f 5a e1 bc 92 09 a4 bd 5c 16 9c 3d 5c a2 bc 3b
       -0.027508823 -0.08009638 0.07621452 0.0057566594
0000e0 b6 d5 85 bd c9 e8 01 3d 3c b8 c0 bd e6 20 98 3d
       -0.06534903 0.03171614 -0.0941014 0.0742815
0000f0 fd 9b c4 bc f2 76 cb bd 80 dd 8b bb 57 ba ee bc
       -0.024000162 -0.099347964 -0.004268348 -0.029141588
000100 8f 7e ac 3c 83 4f 9b 3c 62 12 4a 3d 3e b5 67 bb
       0.021056442 0.018958813 0.049333937 -0.0035355831
000110 e2 9b 12 3c c9 76 aa 3d 21 7f 80 bc 9e 41 d9 3c
       0.008948298 0.08323438 -0.01568562 0.026520547
000120 27 fc 01 3d 29 bb 92 bd dc f5 fb 3c 52 45 a8 bd
       0.03173461 -0.07164604 0.030756883 -0.08216347
000130 75 3d b0 3d b3 59 1d bd 74 40 a9 3c 38 5a 38 3c
       0.08605472 -0.038415622 0.020660616 0.011251979
000140 91 63 61 3d 0c ca f6 3c c2 c8 a5 bd 88 4b ba bd
       0.055026595 0.03012564 -0.08094932 -0.09096438
000150 ab 2c 54 bc d7 fb 3c bc b0 5b c0 bd ad c3 1f bd
       -0.012950103 -0.011534653 -0.09392488 -0.03900497
000160 f8 8f d6 bc 56 94 51 bc 02 49 92 b9 49 fe 84 3c
       -0.026191697 -0.012791714 -0.00027901685 0.016234534
000170 34 86 d9 3c 03 da c2 bc b9 3f ba 3c d9 4d bf 3d
       0.02655325 -0.023785597 0.022735463 0.0934102
000180 f1 fc 88 bd 3c ef 7e bc 2c 3e 17 bb e9 40 14 3d
       -0.0668887 -0.015559968 -0.0023077829 0.036194716
000190 d0 25 4b 3d ea fc 95 3d 71 34 e1 bc 1b bd ee bb
       0.049596608 0.0732363 -0.027490826 -0.0072857267
0001a0 08 eb fd 3d 3c bc a1 3d 24 53 04 be 9a 58 06 3d
       0.12398344 0.07897231 -0.1292234 0.03279934
0001b0 a6 17 90 bc 5f 3c 66 3d 16 fa b8 bd db 1e 7b 3d
       -0.017589401 0.056209918 -0.09032075 0.061308723
0001c0 f6 f6 3a bd a0 b8 14 be 27 d5 9a bc 77 a1 e7 3c
       -0.045645677 -0.14523554 -0.018900467 0.028275235
0001d0 54 01 c1 3c ad 14 5e bd 9f 81 df bd 9b 2b a9 3c
       0.023560204 -0.054218937 -0.10913395 0.020650676
0001e0 93 ef 9e bd 90 02 86 3d 49 fc 95 bd 48 c9 5d 3b
       -0.07760539 0.065434575 -0.0732351 0.0033841897
0001f0 3f e0 68 3d 8d 91 2f bd 73 cb b4 bc e3 16 90 bd
       0.056854483 -0.042863417 -0.022069668 -0.07035615
000200 ec 46 91 bd 0a c6 02 bd ba 3a b5 3c e8 0b 2e 3d
       -0.070936054 -0.031927146 0.02212273 0.042491823
000210 15 d2 06 bd 0d b5 27 bd 26 be 0c bd 2c 7b 36 3d
       -0.032915194 -0.040944148 -0.034361027 0.04455106
000220 c2 4c d1 3d e0 e1 ae 3d a8 ac fd 3c 42 4f 31 3d
       0.102197185 0.08539176 0.030966118 0.043288477
000230 f9 81 cb 3d 94 73 77 3c 0d 7f 25 bc 36 e8 b2 3d
       0.099369 0.01510324 -0.010101092 0.08735697
000240 b6 fe ab 3d 4b 47 4a bd 88 0c f8 bc dd fa 01 3d
       0.08398192 -0.049384397 -0.030279413 0.031733382
000250 23 d6 11 3c 3a a6 3f bd 0f c3 59 3e 58 96 e7 3d
       0.008901152 -0.046789385 0.21265815 0.11307973
000260 88 25 8f 3d 57 cf b9 3c 13 ee 5b bd 5a f1 51 3d
       0.069895804 0.022681875 -0.053693842 0.05125556
000270 a1 1b 2e bd e2 ba 2f 3c 09 aa 2e 3d c3 e0 26 3d
       -0.042506818 0.010725709 0.042642627 0.040741693
000280 a1 dc 97 3d 78 d1 8c 3c f8 f0 75 3d c6 63 b9 3d
       0.074151285 0.017189726 0.06004426 0.090522334
000290 8c 53 1e bd 21 b7 a2 bc b7 e1 7e 3d 7a b5 9e 3d
       -0.038653895 -0.019862713 0.062226977 0.07749458
0002a0 6d e4 c4 3c e0 50 89 3d e8 2c 62 bd 37 03 23 bd
       0.024034703 0.06704879 -0.055218607 -0.039797988
0002b0 1b 1c ad bc 9c 2a 9e 3d 16 da 8b 3c 71 f4 6c bc
       -0.021131566 0.07722971 0.017071765 -0.014462576
0002c0 74 25 9d 3d 1b 0c 03 3d 72 c9 6e 3d 59 1a 3c bd
       0.07673159 0.031993967 0.058297582 -0.045923565
0002d0 10 e7 0a 3e 6c 76 1d 3e b4 dd d6 bc 81 8e f5 3d
       0.13564706 0.15377206 -0.026228763 0.11990071
0002e0 ab 7f 0b bc d2 22 e1 bd c7 43 e2 3c 25 03 da 3d
       -0.008514325 -0.109929696 0.02762021 0.10645131
0002f0 b8 7d 1b 3e bc fa 5e 3d 82 3a 4f bc 21 80 d7 bd
       0.15184677 0.054438338 -0.012648227 -0.105224855
000300 49 bd e6 3c 22 61 97 3d ee 43 87 3d 6a 9f a8 3d
       0.02816643 0.073915735 0.066047534 0.08233531
000310 af c7 64 3e 27 71 54 bd 7c d2 10 3e 96 30 e2 bc
       0.22341798 -0.051865723 0.14142793 -0.027611058
000320 9d 2d c4 3d 24 37 3d 3d 4c 17 2d bd 05 6a 35 3e
       0.095790125 0.046195164 -0.042258546 0.17716224
000330 4e 1b d6 bc ba 4f 29 3e 58 bd 48 3d 42 56 58 bc
       -0.026136067 0.1653432 0.049008697 -0.013204159
000340 5e 9c 73 bc 53 e6 c8 3d c6 0a 10 bc 3a 4b 39 3b
       -0.014868824 0.09809556 -0.008791631 0.0028273598
000350 d0 dc 53 bd bf af b5 3c 35 78 08 bb 90 67 1b 3d
       -0.051724255 0.022178529 -0.0020823602 0.03794056
000360 25 56 41 3b cd 60 3b 3b a5 51 6d 3d 3f 4e e7 3d
       0.002950081 0.0028591633 0.05793919 0.11294221
000370 ac f4 99 bd 7e 74 6b 3e 2e d1 9e 3c c9 c4 84 bb
       -0.075173706 0.22993657 0.019386854 -0.004051779
000380 59 8a 97 3d dc d9 cb 3d 23 cc 02 3e 5f e0 4f 3e
       0.073994346 0.09953663 0.12773184 0.20300435
000390 41 0a 6f 3e fc 9b 24 3d 07 fa 2b 3c 32 a3 24 bd
       0.23343755 0.04018782 0.010496623 -0.040194698
0003a0 52 18 3a 3e 06 0e 69 bd ba 9f c6 3d 15 7d 3c 3c
       0.1817334 -0.05689814 0.09698434 0.011504431
0003b0 7e 97 22 3d 01 ea 0c 3d 68 d9 34 3d 57 5b a6 3d
       0.039695255 0.03440285 0.044152647 0.081228904
0003c0 d9 15 30 3d 09 3d ff 3d 2a 34 40 3d 6c c7 a1 3c
       0.042989586 0.124628134 0.046924748 0.019748412
0003d0 02 34 85 bd ce 66 81 bb 4d 66 0d bc 19 21 b3 3d
       -0.0650406 -0.003949023 -0.008630347 0.08746547
0003e0 69 73 1e 3d 83 32 08 3d bc 36 0c 3d af 1b 1a 3e
       0.038684282 0.033251297 0.034231886 0.15049623
0003f0 f6 ea 81 3d cf 39 83 3d 41 e0 ab 3d 56 03 0f 3b
       0.06343643 0.064075105 0.083923824 0.0021822057

2.bias f4 [128]
000000 55 dd 3e 3d aa 4f b9 3d 68 59 11 3d f4 9e 58 bd
       0.046597797 0.09048398 0.035485655 -0.052885965
000010 11 e1 31 3e 09 8d 32 bd 65 ad 1f 3d ac 19 68 bd
       0.17371012 -0.043591533 0.03898372 -0.056665108
000020 dd 6e 15 bd 34 c0 31 3d 90 7c 63 bd c7 be 6e bd
       -0.03648268 0.04339619 -0.055538714 -0.05828741
000030 06 33 56 3d a0 32 ed bd 7c 5c 7b 3c b0 94 a4 bc
       0.052294753 -0.115819216 0.015341874 -0.020090431
000040 e9 0e a4 bd 75 0e 29 bd f6 00 be 3c 64 1a 40 bd
       -0.080106564 -0.041273553 0.023193818 -0.046900168
000050 d4 1e a0 3d 39 50 c5 bb 32 94 8d bd 2e 49 80 3d
       0.0781838 -0.006021526 -0.06913032 0.06263958
000060 0e 33 c2 bd 9b 6f 9e bd 11 e7 8d bd 21 6c 60 bd
       -0.09482394 -0.07736131 -0.06928838 -0.05479062
000070 1c 25 98 bd ff 03 90 3c 82 6c 23 3d 9e f2 1c bd
       -0.07428953 0.01758003 0.039898403 -0.038317315
000080 3d 3c 15 bd 34 46 14 3d 4b 2a ba 3d cd fc 34 bd
       -0.0364344 0.036199763 0.09090098 -0.044186402
000090 c9 bb 8a bc 2d f5 90 bc 3b a1 6b 3d c7 e5 ca bc
       -0.016935246 -0.017695034 0.05752681 -0.02476777
0000a0 b8 6f 81 bd a9 8f 53 3c 44 c0 a5 bd 64 98 9d bd
       -0.06320137 0.012912669 -0.080933124 -0.07695082
0000b0 53 d4 bb bd b9 8b f3 3d 44 f4 77 bd 5c 8e c6 3d
       -0.09171357 0.11891884 -0.060535684 0.09695122
0000c0 50 11 42 3e c7 8d 93 3c 71 69 97 3d 03 6a ab bd
       0.18951917 0.01801194 0.07393158 -0.083698295
0000d0 c2 5b 33 3d 72 4e 46 3e 7f 1c 78 bd 56 ed 8a bd
       0.04378868 0.19365862 -0.06057405 -0.067835495
0000e0 53 bb aa 3d 54 85 32 3d c2 c0 79 3c 33 fa 70 bd
       0.083365105 0.043584183 0.015243711 -0.05883236
0000f0 a6 58 3b bc bc 1f 8e bd 11 3c 1c bd 8c a4 52 3d
       -0.01143471 -0.069396466 -0.03814322 0.051426455
000100 55 0e b9 3c 6e 1a d3 3d fc 2b 26 bd 8e 3b c7 ba
       0.022589842 0.103077754 -0.04056929 -0.0015200244
000110 c7 43 97 bb b2 c8 0a 3d 5f 0d ca bc 5e 28 bd 3c
       -0.004616234 0.033882804 -0.024664579 0.023090538
000120 50 8b 35 3d 00 98 83 bc 95 f1 c2 3d e2 fe 55 bd
       0.044322312 -0.01606369 0.09518734 -0.05224503
000130 18 d5 2f 3e 48 ba e7 3b c8 f4 41 3d 44 1e 39 3d
       0.17171133 0.007071767 0.047352582 0.04519488
000140 7b fb 98 bd 9d 59 7e bb 24 09 3a 3d 11 71 1f 3d
       -0.07469841 -0.0038810738 0.045418873 0.038926188
000150 56 3f 36 bd da e3 17 bd 8e 85 21 3c 5c e1 16 3d
       -0.044493996 -0.03708253 0.009858502 0.036836013
000160 f8 d5 84 bd 6b be e0 bc ce f5 92 3d d0 3e d7 bd
       -0.06486124 -0.027434548 0.0717579 -0.105100274
000170 fb ee b9 3c 81 87 06 3d ad 8a fc 3c e4 e1 9d ba
       0.022696963 0.03284407 0.030827845 -0.001204547
000180 99 6b a3 3c cf c8 9a 39 6b 98 9b 3d ab 5b 48 3d
       0.019948767 0.00029522783 0.07597431 0.048915546
000190 ab dd a6 bc 7c 56 28 3d d7 21 a6 bc 17 41 d2 3c
       -0.020369371 0.041098103 -0.020279808 0.025665803
0001a0 d5 b0 25 bc ce 81 40 bd 6f 26 c3 bd 95 ba 0a 3d
       -0.010112961 -0.04699879 -0.09528815 0.033869345
0001b0 39 8c f5 3d 49 37 2b 3e 9f 34 56 bc 8a ac 71 3d
       0.11989636 0.16720308 -0.013074069 0.059002437
0001c0 67 3a 78 bc 7b 3b a1 bd 13 ad 03 bc 44 e7 7f 3d
       -0.015150643 -0.07872673 -0.00803687 0.06247641
0001d0 91 77 78 bc d5 41 a0 3d 14 33 cc 3d 47 45 63 3e
       -0.015165226 0.078250565 0.0997068 0.22194396
0001e0 00 c8 60 3d 78 36 0d bd a0 13 5b bb 5b 31 12 3e
       0.054878235 -0.034475774 -0.0033428445 0.1427664
0001f0 45 22 fe 3d aa 1a 99 3b 84 5a 86 3d d9 fe 87 3c
       0.1240888 0.004672368 0.06560233 0.016601013

4.weight f4 [8, 128]
000000 56 75 9a bd 28 6d 1b bd 71 6a a6 bd 96 a3 50 bd
       -0.07541911 -0.037945896 -0.08125771 -0.050937258
000010 4c c5 1b bd 1e 84 20 be 00 8c 34 bd 62 49 24 3d
       -0.038029954 -0.15675399 -0.044078827 0.040109046
000020 39 c5 09 bb 9b 1f 00 bd 4a c9 a7 bd c0 61 f9 bd
       -0.0021022095 -0.03128014 -0.0819269 -0.121768475
000030 71 e0 d6 3c 66 26 01 bd dd 8c e0 3b 4d fd 06 3d
       0.026230069 -0.03153076 0.0068527297 0.03295641
000040 03 93 bc 3a 26 f6 89 3d c8 86 3d bd 06 7d ad bd
       0.0014387075 0.06736402 -0.046271116 -0.08471112
000050 8f 53 26 be ef d8 7d 3d a1 ed 09 be 24 37 b3 bd
       -0.16242813 0.061974462 -0.13469554 -0.087507516
000060 62 4b c1 bd f4 cc 85 3d 5d 8a 09 bd 9a 57 d1 bc
       -0.09438206 0.06533232 -0.03357922 -0.025554467
000070 cb 48 d2 3c 51 c5 56 3b 68 e7 40 3d 18 77 8a bd
       0.025669476 0.0032771418 0.047095686 -0.067609966
000080 39 7a 0e bd c7 3b 21 3d 3c ad de bd 2f 78 20 3d
       -0.03478453 0.03936365 -0.108728856 0.039177116
000090 19 e9 71 bd 15 b2 54 3d f2 c3 f1 bc 62 7f d5 3a
       -0.05906019 0.051927645 -0.02951238 0.0016288573
0000a0 95 69 c1 3c 40 a8 3f 3b 75 20 4f 3d 6f 88 6d 3d
       0.023609916 0.0029244572 0.050568063 0.05799144
0000b0 f5 d7 8f 3d 6f e2 1d be f4 01 35 bd 8b f4 05 bd
       0.070236124 -0.15418409 -0.044191316 -0.032703917
0000c0 aa ba b7 bd 79 25 6c bc 02 28 0b bc a2 83 76 3d
       -0.0897115 -0.014413231 -0.008493425 0.06018413
0000d0 08 6a 32 bc ca 97 fe bd c1 02 88 3c cb e8 bd 3c
       -0.010889538 -0.12431295 0.016602876 0.023182293
0000e0 71 7d 1f bd fb cd 6f 3d dd 81 4b bd dd cf 3e 3c
       -0.03893799 0.058546048 -0.049684394 0.011646238
0000f0 2a ed 54 3d 24 12 b1 3d 79 40 7f 3d 6f 1e ad bd
       0.05198399 0.08646038 0.062317345 -0.0845307
000100 3a 07 d7 bc 04 3b 09 be 74 5a ff bc 59 c0 35 3d
       -0.026248563 -0.13401419 -0.031171061 0.04437289
000110 b3 da e7 bc 86 6e 9a 3c 3f 64 07 3b d6 bb 5f 3d
       -0.028302526 0.01885153 0.0020659117 0.054622494
000120 74 13 02 3d 71 52 1a bd f5 f9 a1 bd ee 06 98 3b
       0.031756833 -0.03767628 -0.07909004 0.004639498
000130 6a 90 c9 bc 96 f6 b3 3d 8b f7 e9 bd bd 51 dc bc
       -0.024604995 0.08787267 -0.11424168 -0.026894445
000140 a6 11 8f 39 4f d3 0f 3d 88 6d b4 bb 65 43 0d 3d
       0.00027288235 0.03511363 -0.005506221 0.0344881
000150 de 30 0d bd 4c 2d f8 3c f2 b6 85 3d bb cd 46 bc
       -0.03447043 0.030295037 0.06529035 -0.012134011
000160 72 a4 ad bb ae c3 a4 3c c2 ab 57 bc 99 69 80 bd
       -0.0052991444 0.020112839 -0.013163509 -0.06270141
000170 ff a5 9e 3c 7b 13 09 be 23 c8 64 bd 1f 84 a6 3d
       0.019366262 -0.13386337 -0.055854928 0.08130669
000180 e0 1c 0e 3d 4b 8c 87 bd c7 ec b0 bd 12 01 0a bd
       0.034695506 -0.06618556 -0.08638912 -0.033692427
000190 78 7b 7c bd 47 f4 78 bd c7 48 44 bb 79 bd 44 3d
       -0.061641186 -0.060779836 -0.0029950605 0.048032258
0001a0 e7 49 09 bc 7f 02 0f bc 17 55 c5 bc b4 c3 9f 3d
       -0.008379436 -0.008728622 -0.024088426 0.07800999
0001b0 4a 36 1a bd 0b 5f 0c be 04 b1 75 bd 34 aa 97 bd
       -0.03764943 -0.13708131 -0.05998327 -0.074055105
0001c0 f6 e0 84 3b 3d 2b 3a 3d da c8 89 bd ee 52 4c bd
       0.0040551377 0.04545139 -0.067277625 -0.049883775
0001d0 05 d5 96 bc 6e dc b6 bd 7f 69 a1 3b 30 ed f1 bd
       -0.018412123 -0.089287624 0.004925906 -0.11812818
0001e0 a9 6b d8 bb 76 bb 5b 3d c6 60 f1 3c ca 19 94 bd
       -0.006604631 0.053645574 0.02946509 -0.072314814
0001f0 de bb 08 be ff 0a 3f bd 2c 8d 80 3b a6 0d 35 bd
       -0.13352916 -0.046641346 0.003923079 -0.04420247
000200 67 8f 55 bc c3 b9 d7 bd 9c 93 bd bc 4e 7a 86 bd
       -0.013034678 -0.10533478 -0.023141675 -0.065662965
000210 a1 3f db bd e3 30 2e bd 2d 17 ad bd 76 be f7 bb
       -0.107054956 -0.04252709 -0.08451686 -0.0075605465
000220 5b f2 54 bb 66 bf 7b bd fe 8b 40 bd 3e 4e 3e bd
       -0.0032493088 -0.06146183 -0.047008507 -0.046461336
000230 ee 58 1e 3c 1a d0 2c bd cc 9c 64 bc 2a d5 4e bc
       0.009664757 -0.04219065 -0.013953399 -0.012624064
000240 24 9a 79 bd b1 3c 52 3d 3c c3 75 bd 21 ac fe bb
       -0.060938016 0.05132741 -0.060000643 -0.007771984
000250 55 df 84 bd 56 c2 a9 bd 09 0d cb bc e5 29 8e bc
       -0.0648791 -0.0828902 -0.02478649 -0.017353961
000260 07 84 91 3c 45 29 7c bd 61 66 1e 3d 22 b4 42 3d
       0.01776315 -0.061562795 0.038671855 0.04753507
000270 5a dc 44 3d 47 b0 35 3c bb 02 61 3d 06 ae 50 3d
       0.048061706 0.011089391 0.054934245 0.05094721
000280 f3 62 9d 3d ee 52 97 3d ef de 7e bd d7 a6 71 bd
       0.07684889 0.073888645 -0.062224325 -0.058997
000290 88 a8 d3 bb fc c0 ee bb 67 22 11 bd b4 e6 17 bc
       -0.0064592995 -0.007286189 -0.0354332 -0.0092713125
0002a0 aa e8 9d 3d b2 dc b7 bd 2e bb cb 3c 07 6c 82 bd
       0.07710393 -0.08977641 0.024869528 -0.06368261
0002b0 6f 26 95 bd 2f 71 99 bd 63 9d 47 bd db d9 c5 bd
       -0.07282721 -0.07492291 -0.04873408 -0.09660693
0002c0 58 d3 0a be 89 06 5c 3b 63 c1 64 bd ec 24 f9 3c
       -0.13557184 0.0033573231 -0.05584849 0.030413114
0002d0 81 dc b7 bd 70 45 d3 bd b7 d2 8a 3d 9e 19 25 3d
       -0.08977605 -0.103159785 0.06778472 0.040307634
0002e0 0f 31 cc bd 4e 72 1b bd f5 ed 70 3d 63 f5 1d 3c
       -0.09970295 -0.037950806 0.058820684 0.009641024
0002f0 fc 5d 8e bc 85 7e a7 bd e6 67 da 3b ae 0a 57 be
       -0.0173788 -0.081784286 0.0066652177 -0.21000168
000300 e3 4f fb bb 20 a8 d8 bd f1 87 63 3d 7a 10 42 3d
       -0.0076694353 -0.10578942 0.055549566 0.047378995
000310 2a 64 31 3d 29 ca e9 bd 7a 72 79 3d f2 0c 1c bd
       0.043308415 -0.11415512 0.06090019 -0.038098283
000320 ad d1 ab 3d 10 b9 5f bd d2 d8 65 bc db 47 64 bc
       0.08389602 -0.05461985 -0.014028745 -0.013933147
000330 49 4d 32 bd 0d 8b cb bb 24 8b fa 3b c9 56 3f bd
       -0.043530736 -0.0062116445 0.0076459814 -0.046713624
000340 f2 17 93 bd fb 71 00 bd 52 fa 56 3d b7 07 10 3d
       -0.071823016 -0.0313587 0.052484818 0.035163607
000350 e0 3e 85 bd 72 a2 ab 3a a1 fe 0f 3d 10 77 f9 bc
       -0.06506133 0.0013094677 0.035154942 -0.030452281
000360 ec 86 05 bd d3 88 62 3d a8 4b 92 bd 50 1c 04 bd
       -0.032599375 0.055306267 -0.071433365 -0.032253563
000370 1b ee 1d be 23 55 ed bd 20 b8 1f 3d 60 13 ba bd
       -0.15422861 -0.11588504 0.038993955 -0.09085727
000380 52 c5 89 bd c3 eb f3 3c ce cc b9 bb fe b2 cd bc
       -0.06727089 0.029775506 -0.0056701666 -0.025109764
000390 18 a3 a1 bc 5c 30 08 bc 2b da ef 3c c7 fc 22 3b
       -0.01973109 -0.008312311 0.029278835 0.0024869905
0003a0 cc ae c4 3c 08 8a b7 bd fb f4 98 3a f9 9e 7d 3d
       0.02400913 -0.08961874 0.001166969 0.061919186
0003b0 4b cc 48 be 1f 4b 30 bd 31 80 ec bc 9a 8e d6 bd
       -0.19609182 -0.04304039 -0.02886972 -0.10476418
0003c0 2d a4 b2 bd 92 07 58 bc 2f f0 5b bc 60 fe 82 bc
       -0.0872272 -0.013185399 -0.013423963 -0.015990436
0003d0 e7 7c 84 bd 88 11 71 3d 78 f6 f8 bd 1e 5f 0a be
       -0.06469136 0.05885461 -0.12156385 -0.13512847
0003e0 b9 b4 ba bd 44 b8 7d 3c 8e 92 fc bb 17 f2 44 bd
       -0.09116501 0.015485827 -0.0077079004 -0.048082437
0003f0 3e f8 b0 bd c6 95 a6 bd dc da 00 bc 34 a8 80 3b
       -0.086410984 -0.08134036 -0.00786468 0.0039263014

4.bias f4 [8]
000000 f7 65 f1 bd 87 59 14 be 3a 6b 3f be bd 0b 9f bd
       -0.117870264 -0.14487277 -0.18693247 -0.07765911
000010 9c 72 a2 bd 5f 86 27 bd 7e be bc bd 96 7d 3a be
       -0.07932016 -0.04089963 -0.09216021 -0.1821197
