ddqn/ack-size/best_double_dqn_model-ack-medium.pth (torch, 76092 bytes, 6 tensors)

0.weight f4 [128, 5]
00000000: ab3b 9dbe 0091 d13e fd72 29be 0dfb ca3d
00000010: 720d aabe bca8 a63d f96c 6f3d 0b83 703d
00000020: c077 a4be 8a3f b03e 9935 313e f1e3 54be
00000030: 5fa9 fe3d b089 913e da41 a43e aed1 b73e
00000040: 061d d73d 7101 7bbe 8d06 b73e 3ab4 a5bd
00000050: aa1d 5bbd e3a9 c7bd fab5 afbc 8605 1bbe
00000060: e1b8 e3bd 6803 d3be f33c c03d b3c5 7ebe
00000070: 0943 ae3d c8a5 58be 312b 96be b386 6b3e
00000080: 8030 42bd 082e 21be 20cd 3d3e cb81 b1bd
00000090: 5f1c 023e 522f 3b3e 56e0 6ebe 38ea a43e
000000a0: 1208 823e 2c94 0cbc 3ebe fabd f9bf 69be
000000b0: 12e9 21be b8b9 bb3e 5a7b 2b3e a5a7 b4be
000000c0: 1702 69be cb90 d63e 0f66 d3be bacc b33d
000000d0: b5b3 a9bc ec91 953e 2826 39bb 5d60 32be
000000e0: ccfe aabe 86a6 78be 2050 9ebe 32d7 573d
000000f0: df87 40be dbce 89bd aa99 b3be d366 783e
00000100: 64fc e53e 6b83 2cbe 2ec3 863e 20c1 b7be
00000110: e0a7 6dbe 1142 e43e 040a fabc c08f 6b3e
00000120: a76f 7f3e 3f70 6abd 62cf e1be ba1e d4be
00000130: 4323 be3e 76ce 6abe a2fb e1bd cc99 5fbe
00000140: b090 91bd bee6 fcbd 06be 883e ec40 31be
00000150: 475f 02bf 4783 e0bd fd8e 09bf cac5 b23d
00000160: c797 f3bd 1121 213e 0e6e 7bbe 43bb b6be
00000170: ace0 a53e 71af 503e fa14 e03e 33e8 5cbe
00000180: 2198 f4be 0faa eabe 65e6 c93e cdf8 b13e
00000190: 74c3 693e 410f bebd 8fae bd3e fa1a 09be
000001a0: 9d73 2bbe 70c8 b03e db98 24be 7cf7 3cbe
000001b0: 87dd d3be 7bba 943e a498 df3e f7d9 11be
000001c0: 5dc2 883e 96e5 9d3e 74ff 253e 9df2 a7be
000001d0: e727 d03e e25a 9d3e 2ab2 a1be 00c8 94be
000001e0: 0658 9d3d 6c39 87bc 3633 20bd 4a81 3f3d
000001f0: bb64 973e 7055 b23e d840 a43e 4740 4b3e
00000200: 82d4 303e 8c96 cdbe 730b d1be 4b1a 8e3e
00000210: 0705 bf3a e2e4 b1bb 5a61 403e 8541 293e
00000220: 22a2 39be 7130 bc3e 83c5 8ebe 22fb 0abe
00000230: 906a 85be 340a 71be f315 1b3e 3eea 4ebe
00000240: 173e 8ebe 1b60 73be 6e84 eabe e79c 2a3e
00000250: 902a a5be e939 5b3d 3926 e1be 7fdb 45bc
00000260: db9a 73be cab8 9c3e a780 8ebe adb7 ccbd
00000270: 6310 87be 62c3 c73d 5df7 f83d 644c 72be
00000280: 78d7 933e 7093 e3bd e32c 64be ca5d 893e
00000290: bf7a de3e 600d ee3d 4344 a13d d4ca 89be
000002a0: 0816 243e 14bb 0b3d 2136 403e 462a ab3e
000002b0: 6a43 9f3e 7454 5a3e 4b46 453e b59a 9c3e
000002c0: d40f d4bc f088 a23e a0fd df3d c576 08bf
000002d0: 70c5 a0be e212 28be fc9b 8b3e 08c6 22be
000002e0: 4036 3f3d 7058 1abc 9108 acbe f578 29be
000002f0: 3b4b cd3d 6c0f 853e 5b89 d43e 9b20 d8be
00000300: f0b8 a0bd c285 5a3e 14c0 b23e 68c3 953e
00000310: b027 e6b9 2f38 62bd 22a9 103e c80a 2fbe
00000320: 903b ce3e f9ab aebe 6690 ccbe 9818 d8be
00000330: 64db 50be 0285 d1be 5bfa 833e c0cc debd
00000340: 1353 293e 7dc6 b93e e799 ae3e 627c 403e
00000350: 362f 73bd f412 7abd 59ed 8e3d d826 d2be
00000360: 4938 773e 940c 99be 326d 943e 1165 8ebe
00000370: 1bfa 5fbe 8c27 c93e d71c a7be 9852 2c3e
00000380: 4ec8 4e3e d67a b33c bf6b 6e3e 0a16 5a3e
00000390: d9e9 56be 5815 01bf df2a 9ebe 26ea dd3e
000003a0: 061a d3be 478e 783d f18a 73bc 08a4 823d
000003b0: 09f2 46be f341 46be b13a 9a3e 2acd c83d
000003c0: 7f3e 173e a496 ee3c 2293 9a3e cb6d a23d
000003d0: 52de 883d 689c b4bd 439d 7abb 7f7d d0be
000003e0: 788b 0ebe 406f 70be a8ed c5be 9412 b83c
000003f0: b53f fd3d 7693 65be 6346 783e 4967 33be
-0.30709586 0.4093094 -0.16547771 0.099111654 -0.33213383 0.08137652 0.058453534 0.058718722
-0.32122612 0.34423476 0.17305602 -0.20790078 0.12434649 0.2842536 0.3208149 0.3590216
0.10503583 -0.24512269 0.35747185 -0.08091016 -0.053495087 -0.097492 -0.021449078 -0.15138826
-0.11119247 -0.41213536 0.09386625 -0.24880104 0.0850888 -0.2115699 -0.29329827 0.23000602
-0.047409534 -0.15740216 0.1853528 -0.08667334 0.12706135 0.1827977 -0.23327765 0.32209945
0.25396782 -0.008580249 -0.12243317 -0.22827138 -0.15811566 0.3666513 0.16746274 -0.35284153
-0.22754703 0.41907343 -0.41288802 0.08779283 -0.020715574 0.29212892 -0.0028251503 -0.17419572
-0.3339752 -0.24282274 -0.30920506 0.05269546 -0.1880183 -0.06728908 -0.35078174 0.24257974
0.4491912 -0.16847007 0.26320785 -0.3588953 -0.2320857 0.44581655 -0.030522354 0.23004055
0.24944936 -0.057235952 -0.44103533 -0.41429693 0.37136278 -0.22930321 -0.11034323 -0.21836013
-0.07107675 -0.12348698 0.26707476 -0.17309922 -0.5092663 -0.10962539 -0.5373381 0.087291315
-0.118941836 0.1573527 -0.24553701 -0.35689744 0.32397974 0.20379426 0.43766004 -0.21572952
-0.47772315 -0.4583287 0.3943359 0.34760132 0.22828466 -0.09280253 0.3704724 -0.13389197
-0.16743322 0.34527922 -0.16073935 -0.18453783 -0.4137995 0.29048523 0.43671143 -0.14243303
0.26710787 0.30839223 0.16210729 -0.32802287 0.40655443 0.307334 -0.3158124 -0.29058838
0.07682805 -0.016506873 -0.03911134 0.04675416 0.2956904 0.3483081 0.32080722 0.19848739
0.17268565 -0.4015392 -0.40829048 0.27754435 0.0014573642 -0.0054288963 0.18787137 0.165289
-0.18128255 0.36755708 -0.27885064 -0.13572362 -0.26057863 -0.23539048 0.15145092 -0.20206544
-0.27781746 -0.2376713 -0.4580416 0.16661416 -0.32259035 0.053522024 -0.43974474 -0.012076258
-0.23789541 0.30609733 -0.2783253 -0.09995971 -0.2637969 0.09754063 0.12156556 -0.23661953
0.28875327 -0.11112106 -0.22282748 0.26829368 0.43453023 0.11623645 0.07874348 -0.26912558
0.16024029 0.03411396 0.18770649 0.3343069 0.3110612 0.21321279 0.19265096 0.30586782
-0.025886454 0.317451 0.10937047 -0.5330623 -0.31400633 -0.16413453 0.27267444 -0.15895855
0.046682596 -0.009420499 -0.33600286 -0.16550048 0.10024115 0.25988328 0.41511044 -0.42212376
-0.07847774 0.21340087 0.3491217 0.29250646 -0.00043898588 -0.055229362 0.14127019 -0.17093956
0.40279818 -0.3411558 -0.39953917 -0.42206264 -0.20396191 -0.4092179 0.25776944 -0.10878897
0.16535597 0.36284247 0.34101793 0.18797448 -0.059371196 -0.06105323 0.06978864 -0.4104526
0.24142565 -0.2989241 0.2898956 -0.27811483 -0.21872751 0.39287984 -0.3263919 0.16828382
0.20193598 0.021909159 0.2328329 0.2129747 -0.20987643 -0.5042319 -0.30892083 0.43342704
-0.41230792 0.06068256 -0.014864669 0.06378943 -0.19428267 -0.19361095 0.30122903 0.09804757
0.14769934 0.029124565 0.30190378 0.079310976 0.06683029 -0.088188946 -0.0038240708 -0.40720746
-0.1392039 -0.23479939 -0.3865788 0.022469796 0.12365667 -0.22419533 0.242456 -0.17519869

0.bias f4 [128]
00000000: 617a 453e de93 aabd 3f12 313e 0a96 363e
00000010: f31b a93e 6303 04be 584d 963e 9f5c 4dbe
00000020: 2c75 9a3c 2229 dcbe ded6 2abe 8402 993d
00000030: 18b8 963e b11c 4ebe 8510 173e 4940 8f3e
00000040: 9dbc 14bc 49f0 9a3e 9d32 ff3d af6f 763e
00000050: 3e3b c5be bca1 4d3e d4e6 543e f9e6 2d3e
00000060: 00bc 78be 8af2 4fbe cbd9 89bc f1ef a2be
00000070: 0a7c 92be 8dbc d03e 0205 f03d 0e91 be3e
00000080: ac97 e3be fde2 033f d350 b7be 0012 a4be
00000090: 7f48 ee3d 3084 3a3e 0f32 b3bd 5dbf 61be
000000a0: 6a09 a5be 65cc b7be 78dd 123e 8521 82be
000000b0: 984e a23e 916e fb3d 04b1 9bbe 78d8 c93e
000000c0: f367 d93e e24a ccbe 6fb4 fb3d 1601 38be
000000d0: 52f0 3a3d c2c8 37bd 3c07 aabe 38e1 c9be
000000e0: 2e66 cabe 7bbe 8cbe bd4c e33e 5126 973d
000000f0: 2f07 89be dd2a b1be 6e59 473e 871f 55be
00000100: 5317 b43e 5542 fa3e 632c 093e 0c37 afbe
00000110: c9aa bb3e d723 bb3e 8e47 113d c443 97be
00000120: 9af7 de3e 1d3c 903e c99d 893e 77f1 17be
00000130: f232 043d 0b4d 733e d43a 92be 0ab4 403e
00000140: 263f 903e 9d40 b83d 3833 a3be 7e3e 2fbe
00000150: e20d b43e cc0c abbe 32d2 a43e b262 d63d
00000160: 3ced 97bd 64a7 ccbe 31c5 c13e b953 4ebe
00000170: 6166 d8be a2e4 913e c251 0a3e 31ec cd3e
00000180: 0f06 ae3e 4379 16bd 076a d0bd f2af 55be
00000190: 6ca4 ed3e bfce c23e c027 4f3e 5e0d bb3e
000001a0: 2d63 7e3e 33fd 8f3e eb1e 8cbe 3bd4 0bbe
000001b0: fb81 263e 887b 21be dac4 a8be 21da f93e
000001c0: 309c 89bd aac0 403e 3d38 3f3e 54b6 e6be
000001d0: 816e 023f fc3e d1be 8742 0b3e e10a c73e
000001e0: 7629 d0be 115d c43d d5a9 3cbe 808b b53e
000001f0: bec1 b6be eda9 8ebe 5b62 b1be 8756 18be
0.19284965 -0.08328985 0.17292117 0.17830673 0.33029136 -0.12891917 0.29355884 -0.20054863
0.0188547 -0.43000132 -0.16683528 0.07471183 0.29437327 -0.20128132 0.14752395 0.27978733
-0.009078172 0.30261448 0.124608256 0.24066041 -0.3852176 0.20081228 0.20791179 0.1698264
-0.24290466 -0.20307365 -0.016827485 -0.31823686 -0.2861026 0.40768853 0.11719705 0.37220043
-0.44451654 0.5151823 -0.3580385 -0.32044983 0.11634921 0.18214488 -0.08749782 -0.22045656
-0.32233745 -0.35898128 0.14342296 -0.25416198 0.31700587 0.12276948 -0.3040849 0.39422965
0.4246212 -0.3990088 0.12290274 -0.17969164 0.045639344 -0.044869192 -0.33208644 -0.3942964
-0.39531082 -0.27489075 0.44394484 0.07380355 -0.26763293 -0.34603015 0.19467708 -0.20812808
0.35174045 0.48878732 0.13395838 -0.34221685 0.36653736 0.3655078 0.03546863 -0.2954389
0.4354828 0.28170863 0.26878193 -0.14838205 0.032275148 0.23759858 -0.28560507 0.1881868
0.28173178 0.08996699 -0.31875014 -0.17113683 0.35166842 -0.334082 0.32191616 0.104680434
-0.07418296 -0.3997146 0.37845758 -0.20149125 -0.4226561 0.28494745 0.1350775 0.40219262
0.33988997 -0.036736738 -0.10176473 -0.20867899 0.46414506 0.3804836 0.20230007 0.36533636
0.2484252 0.28122863 -0.2736734 -0.13655178 0.16260521 -0.1576978 -0.32962686 0.48799232
-0.067192435 0.18823496 0.18673797 -0.4506098 0.50949866 -0.40868366 0.13599597 0.38875487
-0.40656632 0.095880635 -0.18424161 0.35457993 -0.3569469 -0.27864018 -0.34645352 -0.14876758

2.weight f4 [128, 128]
00000000: dfee 98bd 6e78 503d bda3 8cbd aeb6 26bd
00000010: 687f 9cbd 27dd 383c 8041 c9bb eb3f c1bd
00000020: 8ca3 55bd eb2a 623d 1036 38bd 870e 6abd
00000030: 1a8f 0a3d b365 ffbc 4248 a23d 6aba 5abc
00000040: ac9d 9d3c 4e95 8abd 1266 c4bc 48fa 043c
00000050: 8238 80bd 71e2 19bd c400 603d 934e 1d3b
00000060: 7324 543d 4752 fcbc 02a8 9e3d 2566 72bd
00000070: 82c7 ac3d 343d 0abd 50d7 743c 8388 acbd
00000080: d8d5 05bc b669 c3bd 17c2 18bd bde9 203d
00000090: 9d99 8d3c dc18 9b3d 6257 3d3d bc7e 753d
000000a0: e7ce 83bd 0df9 8a3d 5a0d 5ebd 9b5e 9abd
000000b0: 480c 40bd 344a 99bd 552e ba3c 8dcb 503b
000000c0: 68a8 7fbd eaa4 863d 9dc4 8ebd 28c0 a1bd
000000d0: f881 073d 0d90 c5bd 00ed 883d dd3e 4fbd
000000e0: f1c8 04bd 0c94 15bd a646 843d 0a6a 343d
000000f0: f99a a0bd f090 9a3d 2d3f 80bd 92b8 9a3d
00000100: fca4 1a3d 7084 cb3c 0cf0 e9bc 08a0 49bc
00000110: e543 88bd 5515 a7bd 1106 5dbd f4bf 12bd
00000120: 2ad9 373d a3f7 b2bc d957 743c dac2 98bd
00000130: ed1a 503d d246 f4bc e7f2 3ebd b25e 96bc
00000140: 69f1 32bd 3b97 35bd 52fa 9b39 ecaf 4d3d
00000150: 43f9 8f3d 7fe3 92bd 7873 803d 849b 623d
00000160: 56d5 203d a33f 3cbd d3ec a1bb 030a 8dbc
00000170: 9340 bcbc fdd9 683c fcab 50bd 12ef 97bd
00000180: 87c9 b0bc 7f05 c1ba e622 533d 9917 003c
00000190: 6382 fdbc 2a16 6cbd 391c 44bc 8b2e d0bc
000001a0: 90b3 783d 7e4a 183d 7dd5 8b3b b2e2 a2bd
000001b0: 96b8 afbc db2b b63c 91c8 9cbd b96b 8ebc
000001c0: 7655 a1bd dd89 933d dc5e d239 7950 ec3c
000001d0: db41 e9bc eda8 4b3b 26c7 c83b 8c11 66bd
000001e0: f306 813c 697c 503d bfca 8b3d 1b83 853d
000001f0: b9c3 eebc f073 793d e2fa 15bc 8383 5b3d
00000200: 3626 b53d 622a 91bd d6f2 cf3d 7ad2 923d
00000210: c81f 0a3d 5f0e 31bd c229 c33d 7304 623d
00000220: 925d 483d 4f56 be3c ff7a d1bc 85ff 5b3d
00000230: fe52 003e 21b0 8e3d c93f a53d bc2c 423b
00000240: e2a4 8bbd 693e babc 14bc e43d 2446 013d
00000250: e0bf 4f3c a6ad 9abd 31aa e43d a178 513d
00000260: 74f3 8e3d b58d 123d 8af4 9b3a 958d a23d
00000270: 7ccc 473d 85c0 713c 8543 88bd 51a3 de3d
00000280: 49a0 323d 9388 eb3d 17fe d43d 63a5 04bd
00000290: 5c9f fb3c 6e93 c93d 8fbe 253c 11f3 213d
000002a0: 5111 94bd fa67 ac3d 9eaa 033e 0c62 97bb
000002b0: 2073 c43c 63aa cabc 2010 9d3d 98ee 0dbd
000002c0: add4 f5bc 3657 b63b 6aa4 c5bc 26a6 82bd
000002d0: c9fa 4abd 3a46 20ba b0c0 a43c ea4f 3bbc
000002e0: 2d0e 76bd b8fd 943d 0240 c43d f31d 663b
000002f0: b3c3 01bc 4d03 a6bd 4fdf d53d 402c f6bc
00000300: edb2 75bc 33d5 41bd cb46 2c3d 1eed 57bd
00000310: 1e49 ce3c b949 e33d 548d e1bc 0b27 453d
00000320: 109e 5d3d 3225 653d aedc 1abd 0636 ef3c
00000330: 6cc3 0cbd 9123 61bc d9a4 d23d 2c37 3a3e
00000340: 5b0e a93d 7603 cebc b2b5 ed3c 0d08 993d
00000350: f7df 6d3d 58a9 3cbd 3259 49bd 616f 9cbd
00000360: 5638 7cbd b553 73bb bb35 9b3c 8274 913d
00000370: 51f5 91bd 9ac4 b33d 87ec 4e3d a4b8 293e
00000380: fe51 833d fc0e bf3d 70dc 893d 817d 223b
00000390: faf9 f63d 028a 0a3d 6d50 073d b7db 19bd
000003a0: b7d4 a73d eba1 06bd 92c7 92bc b4f9 123d
000003b0: 78d1 d23c aad3 3c3d dbe8 12bd b258 f53d
000003c0: 77f0 b1bd da79 ce3d 404d bf3c 0195 063d
000003d0: a8c3 f43d dc27 793d 65e3 e03d 1bf6 92bc
000003e0: a0ed 0bba 6aa1 273d 85d8 743d feda 76bd
000003f0: 7660 8f3c 5125 8a3c 68ee 4c3d a5a5 903b
-0.07467436 0.0508961 -0.06867168 -0.04070156 -0.07641488 0.011283196 -0.0061418414 -0.094360195
-0.052157924 0.05521671 -0.044973433 -0.05714276 0.03382788 -0.031176424 0.07923938 -0.013350109
0.019240223 -0.06766759 -0.023974452 0.008116312 -0.06260778 -0.037569467 0.05468823 0.0024003133
0.051792573 -0.030800952 0.07746889 -0.059179444 0.084364906 -0.033749774 0.014943913 -0.08424475
-0.00816866 -0.09541647 -0.037294473 0.03928541 0.017285163 0.07573101 0.046225913 0.059935316
-0.06435948 0.06785784 -0.05421195 -0.07537576 -0.046886712 -0.07484856 0.022727171 0.0031859607
-0.062416464 0.065744236 -0.06971095 -0.07897979 0.033082932 -0.09646616 0.06685829 -0.05059706
-0.032418195 -0.03651814 0.064587876 0.04404644 -0.07842059 0.07547176 -0.0626205 0.07554735
0.037754998 0.024843425 -0.028556846 -0.012306221 -0.06653575 -0.08158366 -0.053960864 -0.035827592
0.04488484 -0.021846598 0.014913523 -0.0745904 0.05080693 -0.029818926 -0.04661837 -0.018355701
-0.043687258 -0.044333678 0.00029750407 0.0502166 0.07029965 -0.07172298 0.06272024 0.055324093
0.039265953 -0.045959126 -0.0049415617 -0.017216688 -0.02298001 0.014212129 -0.050945267 -0.07418646
-0.02158047 -0.0014726369 0.051546954 0.007818126 -0.030945962 -0.057638325 -0.011969619 -0.025412818
0.06071812 0.037180416 0.004267393 -0.07953395 -0.021450322 0.022237709 -0.076554425 -0.01738535
-0.078776285 0.0720403 0.00040124997 0.028846966 -0.028473785 0.003107603 0.006127256 -0.056169078
0.015750384 0.050899897 0.0682578 0.06519147 -0.029146062 0.060901582 -0.009154053 0.053592216
0.08845179 -0.07088162 0.10153739 0.071690515 0.033721715 -0.043226596 0.09529449 0.055180024
0.04891736 0.023234515 -0.025571344 0.05371048 0.12531659 0.06967188 0.08068807 0.0029628715
-0.06818558 -0.022734838 0.111686856 0.031561032 0.012680024 -0.07552652 0.11165274 0.05114043
0.06980029 0.035779674 0.001189844 0.07937161 0.048778996 0.014755373 -0.06653503 0.10870994
0.04360989 0.11500659 0.10400026 -0.032384288 0.030715637 0.09842573 0.0101162335 0.039538447
-0.07229865 0.084182695 0.12858054 -0.0046198424 0.023980677 -0.02473945 0.07669091 -0.03465137
-0.030008638 0.0055645956 -0.02412625 -0.063793465 -0.049555574 -0.000611398 0.020111412 -0.011432627
-0.060072113 0.072749555 0.09582521 0.0035113066 -0.0079201935 -0.08106098 0.10442983 -0.030050397
-0.0149962725 -0.047322463 0.0420597 -0.052716367 0.02518135 0.11098046 -0.02753321 0.048132937
0.05410582 0.055943675 -0.037808113 0.029200565 -0.034366056 -0.01374139 0.102853484 0.18185109
0.08254691 -0.025148135 0.029017303 0.07472239 0.058074918 -0.046059936 -0.04915733 -0.07638431
-0.061577164 -0.003712875 0.01894652 0.071023 -0.071268685 0.08777733 0.05051854 0.16574341
0.06412123 0.0932903 0.06731498 0.0024794044 0.12059398 0.03382302 0.033035684 -0.037563052
0.08194869 -0.03286926 -0.017917428 0.035882667 0.025734648 0.046100296 -0.0358666 0.11979808
-0.08688443 0.10081835 0.023352265 0.032856945 0.11951381 0.06082903 0.10980872 -0.017939618
-0.0005337838 0.04092542 0.0597768 -0.06026744 0.01750205 0.016863497 0.05003205 0.0044142776

2.bias f4 [128]
00000000: c5ca 1b37 0389 eb3d f667 ea3d 3522 8c3d
00000010: ea2f ab3c 588a d83b 1ee6 0d3c 8c32 aabc
00000020: b2fc 8abd 22f3 0c3c 2fd6 a6bd 771e 883d
00000030: 704c 1a3e 0584 363d 328f abbd 7694 a63d
00000040: df28 a3bc 0f56 5c3c 683c d4bc 16f6 263c
00000050: e538 b3bd cf57 8abd c4fc debd afda a73d
00000060: 63b5 063d 5ba4 8abd 1153 bb3d 6f0d b1bc
00000070: 8081 b33c ae01 523b 686b 10bd e4ab 9fbd
00000080: ede7 bc3c a759 b13c c877 2cbd 8780 ad3c
00000090: 9263 05bd 4b42 1d3d f100 c3bb 9331 c0bd
000000a0: 4650 913d 880a 043d a099 46bd d81d 20bd
000000b0: 15a0 9abd aa75 d73c 2d33 523c e819 663d
000000c0: a577 76bd 424c 3ebd 8b68 a13d 1aed cabb
000000d0: c604 8b3b 6579 f53c 72a9 90bc d8b3 063d
000000e0: 6f0a 8a3d a07a 32bd 6326 c8bd a592 383d
000000f0: 9af1 0abd c101 30bd 3ecb 0dbc 3150 8c3d
00000100: 1639 28bd fbb7 a03b addd afbd 1f81 473c
00000110: 71aa 55bd 7a66 863d 19c4 623d 7c31 0bbd
00000120: b933 ddbd cbd7 a33d d7ba 223b ab77 a7bd
00000130: c4d9 8f3b 5db9 bf3c f0cd 3b3d 0384 fa3c
00000140: 8ebf 3b3d 3a28 a3bd 2f15 243e d1a3 87bd
00000150: 69c5 5e3d 596e cbbc 2890 033b cbdb 0fbb
00000160: 99d0 a03d c112 1ebd d87e 29bd a406 a83d
00000170: a187 6c3c b600 b3bd 9283 4d3a 9fee e13d
00000180: 50cc 4c3d 27a6 413d 51ee a2bb 026a 0d3e
00000190: ee4a 0f3b 5f6d 78bd 53fb a03d 53f7 e23c
000001a0: aa03 94bd cb4a 473d 404b 9fbd a120 81bd
000001b0: a764 a6bc ef45 a4bd 4ef7 4f3d 4a3d a9bd
000001c0: 5404 b8bd 3b5c 9dbc 01f3 51bd f18a 273e
000001d0: 0d97 813d 9cb0 61bb 6e84 9cbc 88e1 bc3d
000001e0: 1861 3bbd 2fe4 6e3d da67 ec3c 5af7 bebd
000001f0: 179f 0e3e b467 b83c 62ad 573d 2ef9 283d
9.285931e-06 0.11500742 0.1144561 0.06842462 0.02089687 0.0066082887 0.008660821 -0.020776056
-0.06786479 0.008602889 -0.08146321 0.06646436 0.15068221 0.044559497 -0.08376922 0.081337854
-0.01991695 0.013448252 -0.02590771 0.010190507 -0.08751086 -0.067550294 -0.10888055 0.081960075
0.032887828 -0.067696296 0.09146703 -0.021612851 0.021912336 0.0032044458 -0.03525868 -0.077964574
0.02305981 0.021649195 -0.04210642 0.02117945 -0.03256566 0.0383933 -0.00595104 -0.093844555
0.07095389 0.032236606 -0.048486352 -0.03909096 -0.075500645 0.026301224 0.012829584 0.05617705
-0.060172696 -0.046459444 0.07881268 -0.0061928155 0.0042425124 0.029965112 -0.017658923 0.032886356
0.06740271 -0.043573976 -0.09772947 0.045061726 -0.033921815 -0.042970423 -0.008654414 0.06851233
-0.041070066 0.0049047447 -0.08587203 0.012176781 -0.0521645 0.065625146 0.055362795 -0.03398274
-0.10800881 0.080001436 0.0024830604 -0.08177122 0.0043899734 0.023403818 0.045850694 0.030580526
0.045836978 -0.07966657 0.16023706 -0.066230424 0.054387484 -0.024832891 0.0020074937 -0.0021951075
0.07852287 -0.038592104 -0.041380733 0.082043916 0.014436633 -0.0874037 0.0007839735 0.110318415
0.049999535 0.047277596 -0.004972257 0.1380997 0.002186473 -0.06065118 0.07860436 0.027705824
-0.07227261 0.048655313 -0.07778025 -0.063050516 -0.020311667 -0.08021151 0.050772958 -0.08263643
-0.089852005 -0.019209018 -0.051257137 0.16361596 0.06327639 -0.0034437543 -0.019106116 0.09222704
-0.045746893 0.05832308 0.028858114 -0.09324522 0.13927875 0.022510387 0.052655585 0.04125326

4.weight f4 [8, 128]
00000000: 85b8 b13c 50f2 c7bd fb2f 0fbe 1a1e 473d
00000010: babf 81bd 06de 023d a760 4d3d f020 6ebd
00000020: 1127 0dbd 3adf fdbc 288b 943d dcb3 c8bd
00000030: fa4d afbd 974d 2a3c 94f8 a93d df58 7d3d
00000040: 3f22 7a3c b7ea 7a3a 41b4 9cbd 025c 14bd
00000050: 43f9 453d d221 81bd 3907 c6bc 416e bdbc
00000060: 53a1 cb3c 2f3d a3bd e928 70bc 8c73 9cbb
00000070: fa2f 82bd 922a 50bc ae2d 86bc 04e2 093c
00000080: 59ff d83c af8f 3dbc aa8a 253d 9be9 9ebd
00000090: b99e 903d a084 37bd 5894 6fbd d106 2e3d
000000a0: 6141 86bd 3e05 d13a b6a0 13bc 3015 dcbd
000000b0: c667 38bd e9a4 58bd a841 bdbd bb5a 8a3c
000000c0: 9916 3f3d 3ba7 bdbd f160 80bd e1b7 aebd
000000d0: a254 3dba 5830 06bd 097f ccbd ae49 d9bc
000000e0: a4a6 acbd 4482 423d 5fe3 b03d 2f44 8b3d
000000f0: db04 5a3d 9249 b43c f753 8a3d 0106 a8bd
00000100: 8220 9b3c f231 c73c 15bf 0c3d 33bc c1bb
00000110: 8156 0b3d 06bf 063d 6560 193d 8e2e 753c
00000120: a487 793d fe4b c5bd 2057 90bc f143 19b7
00000130: c21f b8bc 07e7 88bd 636e ffbc 7be8 583c
00000140: ab49 90bd c9b0 5b3d 95b4 9cbd d355 8a3d
00000150: 4e9d 8c3d be4e adbd eec6 71bd 5323 0b3c
00000160: 9079 3cbc 3534 41bd 12cb 8b3c c399 c4bd
00000170: 47b4 a03d 4fe0 00bd 6230 fabc 75fa 87bd
00000180: 1f17 99bd 2fc0 bd3d f6db 033d 135d 1fbe
00000190: fcc8 15b9 9aa0 9f3d b78c c7bd 1e7f febc
000001a0: ce97 9cbd 2303 fbbd e2e1 333d 28cf 4abd
000001b0: c928 d23c fb01 833d da88 5abd 445b 8e3d
000001c0: 37c4 1abd 5193 e4bc 41f0 cb3c 48e6 0bbe
000001d0: b4c5 83bd 0842 5d3d 396c c33d 2dba f03c
000001e0: 44ec 52bb 4ece 8abc b09e 993d cf5c 1b3d
000001f0: 17d1 48be c4d9 1c3a bcee e2bd 740c 043d
00000200: ac56 a23d 7cb5 90bd 45a6 9b3d a300 75bc
00000210: 49a6 96bc d623 9c3d 509b 8bbd 0e8d 9b3d
00000220: 8a73 a1bb 8567 a3bd fcd8 873d 8cb2 3fbd
00000230: c9ab 0cbe ae55 b1bd 215d d03b 36b6 d738
00000240: d418 92bd 303d bc3c 6745 3ebb ad96 ac3d
00000250: 149f 763b 2bba 22bd f7ea e2bc 9a0e 293d
00000260: 0323 313d a594 f0bc 2c66 c4bd 93cc 523d
00000270: 5519 0dbd 1cf0 83bd 5760 9b3d c7d8 a2bd
00000280: f41a f83c b486 cdbc 0100 9e3c d8c1 edbb
00000290: 5287 98bd d805 3fbd 50ed 83bd 5c82 763d
000002a0: 4b78 97bd 37ce 103d 0f50 1abc c8af ce3c
000002b0: 33ed 7fbd dd3e 56ba 681a fe3c 67d9 91bd
000002c0: de46 8f3b 495e 4ebc a55c 95bd cde3 a83d
000002d0: 9468 73bd 85ca 94bd 79ca 51bc 2edf 15be
000002e0: f273 84bd 477a 82bb a662 21bd 8103 66bd
000002f0: ae7f 9cbd 6fca 8cbb 1ed6 303d 89cb 02bd
00000300: 296a 013d cd0b 4cbd 7c29 c93c 76db 3bbc
00000310: 4f72 743d 7dba 65bd 30c9 f8bd d4de 283d
00000320: 7c94 8b3d 1c7d 07bd 3b85 a7bb 4502 b53b
00000330: 5cb0 893d 759a 8fbd 24b2 f53c 183a 97bb
00000340: 1829 ad3d 9ae3 84bd 4583 01be bb99 55bd
00000350: 4037 573d 3700 6bbd d074 6d3c 335e b1bd
00000360: 85bb 0cbd f8f9 b83b 3c0b ee3c 7812 44bd
00000370: d776 67bb eecf 3a3c ec00 c73a 2a98 90bc
00000380: b2fd 503d a774 67be c1f6 aabd e254 1d3d
00000390: b13a 83bd 9c6d 4fbd 6cf1 dcbd 78b5 393d
000003a0: dc53 843d 54bd aebd 85a7 81bd 9751 d6bd
000003b0: 08cc e9bc e100 9b3d 86f3 0bbd 4478 343d
000003c0: 119d d73c 7699 aebd ffe6 80bd d20d 2ebe
000003d0: 67da febd 4c52 b23d e929 b5bc 6a42 edbd
000003e0: 1560 38bb 7e60 363c 4956 7dbb 0e46 873d
000003f0: ea9b b7bc ec4b afbd ad2f 08be ac5f 353d
0.021694431 -0.09763014 -0.13983147 0.04861269 -0.06335397 0.03195002 0.050141003 -0.05813688
-0.034461085 -0.030990232 0.072531044 -0.097999305 -0.08559795 0.010394475 0.08299366 0.061852332
0.015266954 0.00095717184 -0.07651568 -0.036220558 0.048333418 -0.06305279 -0.024173366 -0.023123862
0.024857199 -0.07970654 -0.014658191 -0.0047745164 -0.06356807 -0.012705462 -0.016379204 0.008415703
0.026488947 -0.011569901 0.040415443 -0.077594005 0.07061524 -0.044804215 -0.05849108 0.04248697
-0.06555439 0.0015946997 -0.009010484 -0.10746229 -0.04502084 -0.052891646 -0.092410386 0.016888967
0.04665241 -0.09260412 -0.0626849 -0.08531166 -0.0007222389 -0.032760948 -0.099851675 -0.026524391
-0.08430222 0.047487512 0.086371176 0.06800114 0.053227287 0.022007737 0.06754296 -0.0820427
0.0189364 0.024315808 0.034361918 -0.0059123277 0.034018043 0.032897018 0.037445445 0.014964713
0.060920373 -0.09633635 -0.01761967 -9.1353295e-06 -0.02247608 -0.0668469 -0.031180566 0.013239021
-0.07045301 0.053635392 -0.07651631 0.06754651 0.06865941 -0.084622845 -0.059027605 0.008492309
-0.011503592 -0.04716893 0.017064605 -0.0959964 0.07846885 -0.031463917 -0.030540649 -0.06639568
-0.07475113 0.09265172 0.032192193 -0.15562849 -0.0001428462 0.07794304 -0.09743636 -0.031066474
-0.07646142 -0.12256458 0.04391659 -0.049513966 0.025654214 0.06396862 -0.053353168 0.06951001
-0.03778478 -0.027902277 0.024894835 -0.13662064 -0.06434193 0.05401805 0.09542126 0.02938565
-0.0032184282 -0.016944077 0.0750097 0.037930306 -0.19611011 0.00059833773 -0.11080691 0.03223844
0.079266876 -0.070658654 0.07600073 -0.014953765 -0.018389838 0.07624023 -0.06816733 0.075952634
-0.0049271034 -0.07978729 0.06633183 -0.046801135 -0.13737406 -0.0865892 0.006358758 0.00010285938
-0.07133642 0.022978395 -0.0029033066 0.084271766 0.003763144 -0.039728325 -0.02769993 0.04127369
0.04324628 -0.029367754 -0.095898 0.05146463 -0.034447987 -0.064422816 0.07586735 -0.07951503
0.03028629 -0.025088646 0.019287111 -0.007255774 -0.07447685 -0.046636432 -0.06441748 0.060182914
-0.07395991 0.03535291 -0.0094185015 0.025230303 -0.06248207 -0.00081728195 0.03101845 -0.07121544
0.0043724617 -0.0125957215 -0.07293061 0.082465746 -0.059425905 -0.0726519 -0.012804621 -0.14635918
-0.06467427 -0.0039818618 -0.03940072 -0.056155685 -0.076415405 -0.004296593 0.043172948 -0.031932388
0.031595383 -0.04981594 0.024555914 -0.011465898 0.059679326 -0.056086052 -0.121477485 0.04122813
0.068154305 -0.033078298 -0.005112318 0.005523952 0.06723091 -0.07011882 0.02999217 -0.0046150796
0.08455104 -0.06488724 -0.12647732 -0.052148562 0.052542925 -0.05737325 0.014493182 -0.08660545
-0.03435852 0.005645033 0.029058091 -0.047869176 -0.0035318637 0.011402113 0.001518277 -0.017650682
0.051023193 -0.22603093 -0.08347846 0.03841103 -0.06407679 -0.05064164 -0.10788235 0.045339078
0.064613074 -0.08532205 -0.0633078 -0.10464781 -0.028539672 0.07568527 -0.03416779 0.044060007
0.026320012 -0.08525364 -0.06294059 -0.1699746 -0.12444001 0.08707103 -0.02211471 -0.11584933
-0.0028133441 0.011131404 -0.0038656166 0.06605159 -0.022413213 -0.08559403 -0.13299437 0.044280693

4.bias f4 [8]
00000000: b98f 1bbe fdfe 84bd 4c8c 07be be05 d7bd
00000010: 24e5 e4bd a79f 49bd 8a66 35bd b432 8ebd
-0.15191545 -0.06493948 -0.13237113 -0.10499142 -0.111765176 -0.049224522 -0.044287242 -0.069432646
