ddqn/ack-size/final_double_dqn_model-ack-tiny.pth (torch, 76082 bytes, 6 tensors)

0.weight f4 [128, 5]
0	0x3d7dc7d6	0.061958157
1	0xbeadeb50	-0.33968592
2	0xbecd775b	-0.40130123
3	0x3e0f5835	0.13998492
4	0xbec923df	-0.3928518
5	0x3ea0e18e	0.31422085
6	0x3e34c571	0.17653443
7	0x3e84f498	0.2596786
8	0xbe89a2ef	-0.2688212
9	0xbb48c74f	-0.0030636375
10	0xbe950709	-0.2910693
11	0x3e554bf4	0.20829755
12	0x3e753fc5	0.23950107
13	0x3e1b2c9d	0.15153737
14	0x3ec9b8c8	0.3939879
15	0x3dcf2f9e	0.10116504
16	0x3bd2fbc6	0.006438705
17	0xbc8e0ee3	-0.017341083
18	0xbda30a5c	-0.0796096
19	0xbe272a74	-0.16324788
20	0xbed52f6b	-0.4163774
21	0x3ea4f8c0	0.3222103
22	0xbcf85f63	-0.030318921
23	0xbeee2d0c	-0.46518743
24	0xbe409916	-0.18808398
25	0x3d003b8c	0.03130679
26	0xbe698958	-0.22806299
27	0xbd1aa8aa	-0.037758507
28	0xbe385468	-0.18000948
29	0x3ee8be04	0.4545747
30	0x3ea92045	0.33032432
31	0xbcdb6af2	-0.026784394
32	0x3dcd7a4a	0.100330904
33	0xbeacc50f	-0.33744094
34	0xbe98ad40	-0.2981968
35	0xbd6d8370	-0.057986677
36	0x3d75b736	0.059989177
37	0xbd939b3f	-0.07207345
38	0xbd5769d6	-0.052591167
39	0xbd587819	-0.05284891
40	0xbd219248	-0.039446145
41	0xbe853391	-0.26015905
42	0x3ec64206	0.38722247
43	0xbe813c03	-0.25241098
44	0x3ec0d567	0.37662813
45	0x3ebae06e	0.3649935
46	0xbddd3796	-0.10801618
47	0xbe83c1ea	-0.25733882
48	0x3d61f345	0.05516364
49	0x3f1bfb78	0.60930586
50	0x3ec26ba7	0.37972757
51	0xbe2dbdcf	-0.16966937
52	0xbed0f1ac	-0.4080938
53	0xbebd41b9	-0.36964205
54	0xbdf61624	-0.12015942
55	0xbe21c414	-0.15797454
56	0xbe7a90fe	-0.24469373
57	0x3dba3454	0.09092012
58	0x3e945bac	0.2897619
59	0xbd4d2b64	-0.05009021
60	0xbe70f123	-0.23529486
61	0x3e0d26d2	0.1378434
62	0x3e378ce4	0.1792484
63	0x3dce9137	0.10086291
64	0xbee50bcd	-0.44735566
65	0x3ebb4a84	0.36580288
66	0x3d86381e	0.06553672
67	0xbe009fe7	-0.12560998
68	0xbec3e358	-0.38259387
69	0xbecd6ef1	-0.40123704
70	0x3ece5cf7	0.40305302
71	0xbecd45b6	-0.40092248
72	0x3e966cd9	0.2937992
73	0x3d8784cc	0.06617126
74	0x3db1010f	0.0864278
75	0xbd9f1203	-0.07767107
76	0xbd79c790	-0.060981333
77	0x3eae68fd	0.34064475
78	0x3d4084f0	0.04700178
79	0xbe70b230	-0.23505473
80	0x3cf09bbc	0.029371135
81	0x3e45c629	0.19313873
82	0x3bca3c70	0.0061717555
83	0xbd00783f	-0.031364676
84	0x3e341f49	0.1759006
85	0xbea5234a	-0.32253486
86	0xbe90c3d4	-0.28274405
87	0xbe9d760f	-0.30754134
88	0x3e9e9eb7	0.30980465
89	0xbe98b626	-0.29826468
90	0xbedbe58c	-0.42948568
91	0xbe2679e1	-0.1625743
92	0x3d65422a	0.055971302
93	0xbd37af0c	-0.044844672
94	0xbd6e478e	-0.05817371
95	0xbe915ebd	-0.28392592
96	0xbee7ab30	-0.45247793
97	0x3ddf3979	0.10899634
98	0xbde769cf	-0.11299478
99	0x3dfdf848	0.124008715
100	0x3d954377	0.072882585
101	0xbcf15e7f	-0.029464005
102	0xbe80447f	-0.25052258
103	0xbea2d915	-0.31806245
104	0xbe4e006f	-0.20117353
105	0x3e9704e3	0.29495916
106	0x3efd4797	0.4946868
107	0xbe87b473	-0.2650486
108	0xbed5b9c5	-0.41743293
109	0xbeb901ad	-0.3613409
110	0x3e82834b	0.25490794
111	0x3e452c91	0.19255282
112	0xbe1437c4	-0.14474398
113	0xbe453679	-0.19259061
114	0xbea5bd11	-0.3237081
115	0xbe7b21ca	-0.24524608
116	0x3dfb6ed2	0.12276997
117	0x3d832da2	0.06405188
118	0xbd595a55	-0.053064663
119	0xbf03937a	-0.51396906
120	0x3d09f373	0.033679437
121	0x3df57e68	0.11987001
122	0x3e30d655	0.17269261
123	0xbef1229c	-0.47096717
124	0x3e6bfa80	0.23044777
125	0x3e8bee2e	0.27330154
126	0xbe5cbce0	-0.21556425
127	0x3eac8959	0.33698538
128	0xbe1885cd	-0.14894791
129	0x3e51fe3d	0.2050714
130	0xbe288e85	-0.16460617
131	0xbe0e9d1f	-0.13927124
132	0xbc3b8828	-0.011446036
133	0xbe88955a	-0.26676446
134	0xbee42e65	-0.44566646
135	0x3ec95f7e	0.39330667
136	0xbe125698	-0.14290845
137	0xbe90a454	-0.28250372
138	0xbe19e012	-0.15026882
139	0xbd9f15c2	-0.07767822
140	0xbe5aae4f	-0.21355556
141	0x3da42b40	0.08016062
142	0x3e0f9893	0.14023046
143	0xbe799afe	-0.24375531
144	0x3dfd4687	0.12366968
145	0x3e2cb4c4	0.16865832
146	0x3eb4bbc8	0.35299516
147	0xbd9224ac	-0.07135901
148	0xbe3f6da7	-0.18694173
149	0x3ec0284b	0.3753074
150	0x3e948957	0.29011032
151	0xbe0b4ec8	-0.13604271
152	0xbee49455	-0.44644418
153	0xbee0d843	-0.43914995
154	0xbde38adb	-0.11110469
155	0x3edad391	0.42739537
156	0x3ed4841a	0.41507035
157	0x3eb0d360	0.34536266
158	0xbbeb625e	-0.007183357
159	0xbe8c74f1	-0.2743297
160	0xbe22e06c	-0.15905923
161	0xbedb1abf	-0.42793843
162	0x3da32988	0.07966906
163	0xbe573d3a	-0.2101945
164	0xbe38f16f	-0.1806085
165	0x3ea50cca	0.3223632
166	0x3e3a585a	0.18197766
167	0xbd71020f	-0.058839854
168	0xbeabbaea	-0.33541042
169	0x3caddd46	0.021223675
170	0xbeb5ddef	-0.35520884
171	0xbda0d685	-0.07853416
172	0x3dc0673a	0.09394689
173	0xbe54f3fd	-0.20796199
174	0x3e75eab0	0.24015307
175	0x3e91ebd9	0.2850025
176	0x3e8cc459	0.2749355
177	0x3e9894e8	0.29801106
178	0xbef23ca8	-0.47311902
179	0xbed5860b	-0.4170383
180	0x3dc80109	0.097658224
181	0xbeb51e9c	-0.35374916
182	0x3ea12473	0.3147312
183	0xbedb2670	-0.42802763
184	0x3eee4e32	0.46544033
185	0xbebaf5de	-0.36515707
186	0x3e835714	0.25652373
187	0xbeb0f922	-0.34565073
188	0x3e83e605	0.25761428
189	0x3e2a5c6e	0.16636822
190	0xbe198407	-0.1499177
191	0x3e8e59ba	0.2780283
192	0xbdc96b9c	-0.09834978
193	0xbec0be32	-0.37645108
194	0x3e27e814	0.16397125
195	0xbe15cd80	-0.14629173
196	0xbeebe791	-0.4607511
197	0x3e6210e5	0.22076757
198	0xbf0fb9b8	-0.5614276
199	0xbe9b07d3	-0.30279407
200	0x3e15d574	0.14632207
201	0x3e99d7da	0.30047494
202	0xbec30816	-0.38092107
203	0x3e5e980d	0.2173769
204	0x3ebac1f6	0.36476105
205	0x3ec6cc90	0.38827944
206	0x3e25db27	0.16196881
207	0xbea1622c	-0.31520212
208	0x3e86d22a	0.26332217
209	0xbdb1e7f7	-0.08686822
210	0x3ce03d1e	0.027372893
211	0xbccc6e1b	-0.024954846
212	0x3d993b9b	0.07482072
213	0xbdc127b1	-0.09431399
214	0x3edd1f67	0.4318802
215	0xbe8ced96	-0.27525014
216	0xbeb6a4bf	-0.35672566
217	0xbe2bf766	-0.16793594
218	0x3e01d49f	0.12678765
219	0xbe394aac	-0.18094891
220	0xbd637c27	-0.055538323
221	0xbdf07eed	-0.11742959
222	0xbe895e2e	-0.26829666
223	0x3e7f0fac	0.24908322
224	0x3eb4aa60	0.35286236
225	0xbd30b6bb	-0.043143015
226	0xbebba53b	-0.36649498
227	0xbe78ed6f	-0.24309324
228	0x3d36c9bf	0.044625994
229	0x3eac9789	0.33709362
230	0xbea9ffd1	-0.33202985
231	0x3ec3467f	0.38139722
232	0xbe9830ba	-0.29724675
233	0x3a841cb8	0.001007936
234	0x3f05dba4	0.5228827
235	0x3e8670fe	0.2625808
236	0xbd660bf9	-0.05616376
237	0xbe796fd1	-0.24359061
238	0x3e925a09	0.28584316
239	0xbe2caf09	-0.16863646
240	0x3e03adcd	0.12859268
241	0xbed054d1	-0.4068971
242	0x3e35f2f9	0.17768468
243	0xbe9de34e	-0.30837482
244	0xbe8ad976	-0.27119035
245	0xbe86fd7d	-0.2636527
246	0x3e79665c	0.24355453
247	0x3dea5c93	0.114434384
248	0xbe690404	-0.22755438
249	0xbee2b879	-0.44281366
250	0x3ebba2e2	0.36647707
251	0xbe28537a	-0.16438094
252	0xbebc78b7	-0.36810848
253	0xbec66759	-0.38750723
254	0x3da7e3a1	0.08197714
255	0x3ddb2fdc	0.10702488

0.bias f4 [128]
0	0x3e3326ff	0.17495345
1	0xbed65ae7	-0.41866228
2	0x3d8f32a7	0.06992083
3	0x3e500d39	0.20317544
4	0x3e0b0de7	0.13579522
5	0x3e9d7433	0.30752715
6	0x3eadb9e9	0.339309
7	0x3ec2cf16	0.3804862
8	0xbe692f13	-0.22771864
9	0x3f0097bc	0.5023153
10	0xbe0bf5aa	-0.13667932
11	0x3ead886c	0.33893144
12	0xbc9378a6	-0.018001866
13	0x3d96e930	0.07368696
14	0xbd3d7b46	-0.04626014
15	0xbe939940	-0.28827858
16	0xbe7b4a11	-0.24539973
17	0xbedb7034	-0.42859042
18	0xbe497236	-0.19672474
19	0xbed41e3a	-0.4142931
20	0x3ec2f75d	0.38079348
21	0x3ea0b69f	0.3138933
22	0xbe9c63e5	-0.30544963
23	0xbdeb6b77	-0.11495107
24	0xbebc8d80	-0.36826706
25	0xbe169491	-0.14705111
26	0xbe7fdf39	-0.24987496
27	0xbe633317	-0.22187458
28	0xbdbb3050	-0.09140074
29	0x3e007115	0.12543137
30	0x3e8e97f5	0.2785031
31	0x3e027679	0.12740506
32	0x3f004f7e	0.50121295
33	0x3f162cdf	0.5866222
34	0xbe6d0602	-0.23146823
35	0xbce7f39e	-0.028314408
36	0x3eeff323	0.46865186
37	0x3e78f661	0.24312736
38	0x3ef73318	0.4828117
39	0xbe3f99f0	-0.18711066
40	0x3eb897dc	0.3605336
41	0x3ec67d5c	0.38767517
42	0xbecbc44b	-0.39798197
43	0xbe0d0233	-0.1377037
44	0x3cbc5242	0.022988442
45	0xbe5ffd32	-0.2187393
46	0x3f0e2227	0.5552086
47	0x3e396616	0.18105349
48	0xbeb188ad	-0.34674588
49	0x3b6b579f	0.003591038
50	0xbe0e905c	-0.13922256
51	0x3eb0de60	0.3454466
52	0x3e9ac384	0.30227292
53	0x3dc4be57	0.09606617
54	0x3c25870e	0.010103
55	0x3ee51e92	0.44749886
56	0x3ea90e67	0.330188
57	0xbedd6123	-0.43238172
58	0xbee13a5f	-0.43989846
59	0xbed1f4f0	-0.41007185
60	0x3ec8de5c	0.39232147
61	0xbdab72c4	-0.08371499
62	0x3e744a5e	0.23856494
63	0x3eb936a2	0.36174494
64	0xbe83c301	-0.25734714
65	0xbe9f919d	-0.31165782
66	0x3e7b5893	0.24545507
67	0xbc83656b	-0.01603957
68	0x3e426cba	0.18986788
69	0xbd6badec	-0.05753891
70	0xbeb4492a	-0.3521207
71	0xbe2e752c	-0.17036885
72	0xbeb4fc22	-0.35348612
73	0xbedeed6e	-0.4354052
74	0xbe9d7690	-0.30754519
75	0x3b912b01	0.0044301753
76	0xbf09f4c4	-0.5388911
77	0xbecfe856	-0.40606946
78	0xbef09470	-0.4698825
79	0x3ded4789	0.1158591
80	0xbecd5660	-0.4010496
81	0x3ef8e941	0.4861546
82	0x3e212984	0.15738493
83	0xbe09a4da	-0.13441792
84	0x3e6de2f4	0.23231107
85	0xbefbd501	-0.49185947
86	0xbe04115b	-0.12897246
87	0x3eccbf5e	0.39989752
88	0x3e293226	0.16523036
89	0x3eb40158	0.35157275
90	0xbe2e680a	-0.17031875
91	0x3e3cc69d	0.1843514
92	0x3e484775	0.19558509
93	0x3eadabeb	0.33920226
94	0x3ec0f861	0.37689498
95	0xbeaccba1	-0.33749107
96	0xbe85bf09	-0.2612231
97	0xbe463e8e	-0.193598
98	0xbd7ce2ac	-0.06173961
99	0x3eecf0a7	0.46277353
100	0x3f28a51d	0.6587694
101	0xbe062454	-0.13099796
102	0xbef405b5	-0.47660604
103	0xbe4bda27	-0.19907437
104	0x3eb452e9	0.35219505
105	0x3f1cd4a3	0.6126196
106	0x3d7d973f	0.061911818
107	0xbe2f8dd7	-0.17143951
108	0xbdefcfdc	-0.11709568
109	0xbe059580	-0.13045311
110	0x3ee03883	0.43793115
111	0x3c8e1cf0	0.017347783
112	0x3dbc089e	0.09181331
113	0xbf02c52b	-0.51082104
114	0x3e4030f6	0.18768677
115	0x3e21e771	0.15810944
116	0x3f0cee74	0.5505135
117	0xbe413cd8	-0.18870866
118	0xbeba29d3	-0.36360034
119	0x3ee1b164	0.4408065
120	0xbe5fb3cf	-0.21845935
121	0xbe9d5efe	-0.30736536
122	0xbd4f5d15	-0.05062588
123	0xbe9e1613	-0.30876216
124	0xbed39eb2	-0.41332012
125	0x3e2f6f1d	0.1713223
126	0x3f05fe9b	0.5234162
127	0x3c569843	0.013097825

2.weight f4 [128, 128]
0	0xbc7ba61c	-0.015359428
1	0x3b4a2d5d	0.0030849793
2	0x3cebeb9a	0.028798867
3	0xbc066576	-0.008202901
4	0x3e0900b0	0.13379169
5	0x3de464b8	0.11152023
6	0xbda3d710	-0.08000004
7	0x3ddd7985	0.10814194
8	0xbde43a6d	-0.11143956
9	0x3e09904b	0.1343395
10	0x3d2c5018	0.04206857
11	0xbda2abb5	-0.07942907
12	0xbc929c75	-0.01789687
13	0x3d9edf99	0.077574916
14	0x3ce39049	0.027778761
15	0xbdecdce6	-0.115655705
16	0xbd9b838e	-0.075934514
17	0x3d80a66c	0.062817425
18	0xbd44740e	-0.04796224
19	0x3cecb9c4	0.028897174
20	0xbd4b5966	-0.049645804
21	0x3d929a18	0.07158297
22	0x3d24c565	0.040227313
23	0xbd7425af	-0.05960625
24	0x3d2e6761	0.04257906
25	0xbd769915	-0.060204584
26	0x3cd34d83	0.025793796
27	0x3c494898	0.012285374
28	0xbd22f564	-0.039784804
29	0x3dc47dea	0.09594329
30	0x3c574b0a	0.013140449
31	0x3cd92dc9	0.02651109
32	0x3d2a6d81	0.041608337
33	0xbc39d3bd	-0.011341986
34	0xbda13284	-0.07870963
35	0x3cfcf227	0.030877186
36	0x3d753246	0.059862398
37	0x3db46c4a	0.08809717
38	0x3de2e030	0.110779166
39	0xbde3e0d3	-0.11126866
40	0xbaadd877	-0.0013263364
41	0x3d26be77	0.040708985
42	0x3d211747	0.03932884
43	0x3d28f1e9	0.04124633
44	0x3cdb431c	0.026765399
45	0x3da48fea	0.08035262
46	0x3daa13fc	0.08304593
47	0x3cd06e27	0.02544315
48	0x3d0b0edb	0.033949714
49	0x3b8b0e04	0.004243614
50	0xbd13d082	-0.03608752
51	0xbd0a5cfb	-0.03378008
52	0xbd3c48f2	-0.045968004
53	0x3d4c5bb4	0.049892142
54	0x3cd767cf	0.026294617
55	0x3dc348a8	0.095353425
56	0x3d831729	0.06400902
57	0xb986a54a	-0.00025681622
58	0xbb98e6d6	-0.0046661897
59	0x3d5ae28e	0.053438716
60	0x3deacd07	0.11464887
61	0xbdd94148	-0.106081545
62	0xbc8c7f4d	-0.017150545
63	0xbd7b58ba	-0.061363913
64	0x3b3d31b4	0.0028868737
65	0x3d3b1890	0.04567772
66	0x3db4731d	0.088110186
67	0xbb975803	-0.004618646
68	0x3dcbdd26	0.0995429
69	0xbd92168d	-0.071332075
70	0x3c822a9e	0.015889462
71	0x3cbfae13	0.023398435
72	0xbd8d84fc	-0.069101304
73	0xbdd27ea4	-0.10278061
74	0x3d0073b4	0.031360343
75	0xbc872cb3	-0.016500806
76	0xbd03053b	-0.03198741
77	0x3bfd2604	0.007725479
78	0xbcaef7ac	-0.021358334
79	0xbdd13317	-0.10214823
80	0x3d1cf915	0.03832348
81	0x3e12f682	0.14351848
82	0x3c372fcd	0.01118083
83	0xbb4a5aa4	-0.003087678
84	0xbd8013a0	-0.06253743
85	0xbd84536f	-0.06461226
86	0xbe44c445	-0.19215496
87	0xbd0448de	-0.032296054
88	0x3d76ffc2	0.060302503
89	0x3c0eda1c	0.0087189935
90	0xbdbf011f	-0.09326386
91	0xbcc7d2cd	-0.02439251
92	0xbc6b1e09	-0.014350423
93	0x3d29940d	0.041400958
94	0x3d89a93b	0.06721731
95	0x3d508153	0.050904583
96	0xbd814134	-0.06311265
97	0xbc6ead5c	-0.014567699
98	0x3d53740b	0.05162434
99	0x3d61925f	0.05507123
100	0x3e662594	0.22475272
101	0xbcdfa2e6	-0.027299356
102	0xbd93276a	-0.07185252
103	0xbda06e0f	-0.07833492
104	0x3df3b7d8	0.119003
105	0x3e66d3a5	0.22541673
106	0x3d1c7a63	0.038202655
107	0xbc92baaa	-0.017911274
108	0x3d2f2ee3	0.042769324
109	0x3d714f8b	0.05891375
110	0x3d6ec735	0.058295447
111	0xbbd1d714	-0.006403813
112	0xbc1b4f28	-0.009479322
113	0xbdf4f65a	-0.1196105
114	0x3d38a69a	0.04508076
115	0xbd65b341	-0.056079153
116	0x3db6c6e4	0.08924654
117	0xbccb2a51	-0.024800451
118	0xbd5edd8a	-0.054410495
119	0xbc49726d	-0.012295348
120	0xbcb4d0f5	-0.022072295
121	0xbcea5ded	-0.02860924
122	0xbc6d2725	-0.014474665
123	0xbdca267b	-0.09870621
124	0xbce5f80d	-0.028072381
125	0x3c342fd4	0.010997731
126	0x3e11eed7	0.14251266
127	0x3d8bed1b	0.06832334
128	0x3d0c3fa8	0.034240395
129	0xbce7fe36	-0.02831946
130	0x3b963c68	0.0045848377
131	0x3d908a12	0.07057585
132	0x3ca1fe45	0.019774565
133	0xbc42bdcc	-0.011886071
134	0x3c6427e6	0.013925528
135	0x3c8a8286	0.016907942
136	0x3c030ea1	0.007999093
137	0xbd3e3a9d	-0.046442617
138	0xbd350dec	-0.04420273
139	0xbcb089cc	-0.021550082
140	0x3ce23807	0.027614607
141	0x3dafd478	0.08585447
142	0x3c89714b	0.016777655
143	0xbdb80f38	-0.08987278
144	0xbdb5eaa9	-0.088826485
145	0x3d39c58f	0.045354422
146	0xbd3e3ef9	-0.046446774
147	0xbd8f71c9	-0.07004125
148	0xbc766685	-0.015039091
149	0x3d80472c	0.06263575
150	0xbd92b84a	-0.071640566
151	0x3d8cecfb	0.06881138
152	0xbd18bbb1	-0.03728837
153	0x3d403505	0.046925563
154	0x3d171fa8	0.036895424
155	0x3d8b7129	0.06808693
156	0x3b82515a	0.003976983
157	0x3d318c9b	0.043346982
158	0x3d925550	0.07145178
159	0xbd0970c2	-0.0335548
160	0x3cc6b628	0.02425678
161	0x3d86bed4	0.06579366
162	0xbcdd1d1d	-0.026991421
163	0x3a0c5c4b	0.0005354329
164	0xbd70cca3	-0.058788907
165	0xbd7a84a2	-0.061161645
166	0x3c8aa763	0.01692552
167	0xbc8db9c4	-0.017300494
168	0x3d882a6d	0.06648717
169	0xbd8282a5	-0.06372575
170	0x3cefef85	0.029289017
171	0xbd9477df	-0.07249426
172	0xbda6b39a	-0.08139725
173	0xbd50cd59	-0.050977085
174	0xbdb8cc22	-0.0902331
175	0xbdaa6c82	-0.083214775
176	0xbd7f07d9	-0.062263343
177	0xbd6e47c5	-0.058173914
178	0xbd007c38	-0.031368464
179	0xbd4257df	-0.04744708
180	0x3d16df30	0.036833942
181	0x3d74bd6d	0.059750963
182	0x3cf7f5ed	0.030268634
183	0xbb07b2fe	-0.0020706053
184	0xbce8e181	-0.028427841
185	0x3d50865a	0.050909378
186	0xbd94c0a7	-0.07263308
187	0x3d837f4c	0.06420764
188	0xbd88b7d1	-0.06675685
189	0xbd98625e	-0.07440637
190	0xbdca206b	-0.098694645
191	0xbc67aa61	-0.014139743
192	0x3d8c1413	0.06839766
193	0xbd77cd93	-0.060498785
194	0xbdb084c0	-0.0861907
195	0x3ca3ee82	0.02001119
196	0xbd78f0b4	-0.060776427
197	0x3d773d42	0.060361154
198	0xbd9dcf83	-0.07705595
199	0xbd0e51da	-0.03474603
200	0x3d4dd703	0.05025388
201	0xbd5e5170	-0.054276884
202	0xbc9fb868	-0.019497111
203	0xbd1dddb7	-0.038541522
204	0x3cf65ab1	0.030072542
205	0x3d33c46e	0.0438885
206	0xbd978c06	-0.07399754
207	0x3c1f75bd	0.009732661
208	0xbda0d3ef	-0.07852923
209	0xbc47d934	-0.012197781
210	0xbdafd70f	-0.08585941
211	0xbdb3ee91	-0.08785737
212	0xbd8bc181	-0.06824017
213	0xbcef8939	-0.029240238
214	0xbb2cf22a	-0.0026389458
215	0xbdb6b8f9	-0.089219995
216	0x3d2f5f99	0.04281578
217	0xbd28a3bf	-0.041171785
218	0xbc2ee9b7	-0.010675839
219	0xbc31d345	-0.010853593
220	0x3d889c75	0.06670467
221	0x3ccf3c5c	0.025297336
222	0x3d92c4d7	0.071664505
223	0x3d24aacf	0.04020196
224	0xbd8cb262	-0.06869961
225	0xbda0f1c3	-0.078586124
226	0xba336bdd	-0.0006844381
227	0xbd1d926f	-0.038469728
228	0xbc8535ee	-0.016261067
229	0x3a76ebcf	0.00094192935
230	0x3d8781ef	0.0661658
231	0x3b32c88c	0.002728018
232	0xbd46a67d	-0.04849862
233	0xbcfb2650	-0.030657917
234	0xbda54985	-0.08070663
235	0x3d7817db	0.060569625
236	0x3c79d3bb	0.015248234
237	0xbd83cea0	-0.06435895
238	0x3d650fb9	0.055923197
239	0xbcb861e5	-0.022507617
240	0xbd5e5462	-0.054279692
241	0xbc9b9bb3	-0.018995142
242	0x3d9a04c3	0.075204395
243	0x3c5d92b9	0.013523751
244	0x3d1799ec	0.037012026
245	0xbd54b61c	-0.051931486
246	0x3d69e639	0.057104323
247	0x3d5180b4	0.05114813
248	0xbd39d842	-0.045372255
249	0xbdbc6d00	-0.092004776
250	0xbb7ebeab	-0.0038870971
251	0xbd69fe51	-0.0571273
252	0x3d364538	0.044499606
253	0x3d9af1ed	0.07565675
254	0xbceb3dcb	-0.028715989
255	0xbc2b054d	-0.0104382755

2.bias f4 [128]
0	0x3dc5f66f	0.09666144
1	0xbcbc946d	-0.023019994
2	0xbda2e803	-0.07954409
3	0x3c96a950	0.018391281
4	0xbcb942e5	-0.022614906
5	0xbdb7ceb2	-0.08974971
6	0xbddd5ff4	-0.10809317
7	0xbccb0c9d	-0.024786288
8	0x3ba6b67d	0.0050876723
9	0xbd74a562	-0.059728034
10	0x3d24c2c8	0.04022482
11	0xbd9a5ec2	-0.07537605
12	0x3d020f47	0.03175285
13	0x3e23eb56	0.16007742
14	0x3d323d5a	0.04351554
15	0xbcabf0d3	-0.020988857
16	0x3d270669	0.040777598
17	0xbdcd5fa4	-0.100280076
18	0x3d0876ff	0.03331661
19	0x3d47704d	0.048691083
20	0x3d07f551	0.033192936
21	0x3e0d4f5a	0.13799801
22	0x3d74065e	0.059576385
23	0x3d809304	0.06278041
24	0xbc660477	-0.01403915
25	0xbcdcf468	-0.02697201
26	0x3c848d70	0.016180724
27	0x3b907cc1	0.004409403
28	0x3d49341b	0.049121957
29	0xbd260109	-0.04052833
30	0x3cf143ae	0.029451218
31	0xbdc1518c	-0.09439382
32	0xbd0b64bb	-0.03403161
33	0xbd04181f	-0.032249566
34	0xbb7d0a2d	-0.0038610802
35	0xbd128e36	-0.035780154
36	0x3d082764	0.03324069
37	0x3d8e510a	0.06949051
38	0x3d7c7531	0.0616352
39	0x3d891a1d	0.06694434
40	0x3d69ee4c	0.057112023
41	0x3d1e05c9	0.038579736
42	0xbcf5c4b7	-0.030001028
43	0x3d4762a7	0.048678067
44	0xbcaf0aaf	-0.021367399
45	0x3e4055dd	0.18782754
46	0xbcafae8c	-0.021445535
47	0xbcc1acbe	-0.02364194
48	0xbd8b2e81	-0.06795979
49	0x3d0e303b	0.034713965
50	0x3d0676d8	0.032828182
51	0xbd8179d5	-0.06322066
52	0x3d7c90d1	0.061661545
53	0xbd4fbc99	-0.05071697
54	0xbda93e55	-0.08263842
55	0xbd4ed018	-0.050491422
56	0x3c8b6fb3	0.017021036
57	0x3d3fc6db	0.046820503
58	0x3d89db15	0.0673124
59	0x3df57e0c	0.11986932
60	0x3d953b84	0.07286742
61	0x3da88e3d	0.08230255
62	0x3b896438	0.004192855
63	0x3e618609	0.22023787
64	0xbdaf767b	-0.0856752
65	0x3cd62b74	0.026143767
66	0xbcbe19e6	-0.023205709
67	0xbcd9c798	-0.026584432
68	0xbce36069	-0.027755933
69	0x3c84f33d	0.016229266
70	0xbc2c93f7	-0.010533324
71	0x3d671901	0.05642033
72	0x3e4d9342	0.20075706
73	0xbd514cfb	-0.051098805
74	0x3e8561dc	0.26051223
75	0x3c925293	0.01786164
76	0xbda75b19	-0.081716724
77	0xbd1d7c90	-0.03844887
78	0xbcbc3a8a	-0.022977132
79	0x3da08915	0.07838646
80	0xbdeed4af	-0.1166166
81	0x3df8ec2c	0.12154421
82	0x3d593806	0.053031944
83	0x3ded1ce6	0.115777776
84	0x3c02a979	0.007974976
85	0x3e0016c4	0.12508684
86	0x3cbf3e43	0.023345118
87	0x3d1850dc	0.03718649
88	0x3e1ed8fd	0.15512462
89	0x3dd50dfe	0.104030594
90	0xbbab457a	-0.005226788
91	0xbd6ef503	-0.05833913
92	0x3bf10532	0.0073553557
93	0x3d1a39c8	0.03765276
94	0xbd9e1dcf	-0.07720529
95	0x3c214654	0.009843428
96	0x3e13361c	0.1437611
97	0xbd4f3b7e	-0.050593846
98	0x3d0a5e97	0.033781614
99	0xbdafb061	-0.085785635
100	0x3db6cb64	0.089255124
101	0x3cb6eba2	0.022329155
102	0xbc03b63d	-0.008039054
103	0xbdc43483	-0.09580328
104	0x3d642e27	0.055708077
105	0x3ac9692f	0.001536643
106	0x3e232cbe	0.15935037
107	0xbd1d3788	-0.038383037
108	0x3b9af1a9	0.004728515
109	0x3cf3b276	0.029748183
110	0x3c0478c8	0.008085437
111	0xbdc3c346	-0.0955873
112	0x3d9956d4	0.07487264
113	0xbcabb4f6	-0.020960312
114	0x3d9240e9	0.07141287
115	0xbd4053f9	-0.046955083
116	0x3dc9a0f1	0.0984515
117	0xbd15d8f9	-0.036583874
118	0xbdb948ef	-0.09047114
119	0x3e759325	0.23981912
120	0xbdbab911	-0.0911733
121	0x3dbfd6af	0.093671195
122	0xbc42a4ee	-0.011880143
123	0xbcbac061	-0.022796812
124	0xbcd3120b	-0.02576544
125	0x3e0a9c04	0.13536078
126	0x3d68c4c2	0.056828268
127	0xbb69cdb6	-0.0035675592

4.weight f4 [8, 128]
0	0xbd8620a2	-0.06549193
1	0xbcbd2b0f	-0.023091821
2	0x3d13cc98	0.036083788
3	0xbc9a7f44	-0.018859513
4	0xbd6e980a	-0.058250464
5	0x3da3ea5f	0.08003687
6	0xbcd0439a	-0.02542286
7	0x3c880037	0.016601665
8	0xbc3fadb8	-0.011699133
9	0x3d182955	0.037148792
10	0xbcbe12fa	-0.023202408
11	0x3cc81223	0.02442271
12	0x3c12ded6	0.008964261
13	0xbddaa260	-0.10675502
14	0xbc58af95	-0.013225456
15	0x3d16a44d	0.036777783
16	0xbdaf6ed5	-0.085660614
17	0xbc3371e7	-0.010952449
18	0xbd94d504	-0.07267192
19	0xbd3277a0	-0.043571115
20	0xbcc36807	-0.023853315
21	0xbe2bf5b3	-0.16792946
22	0xbcc7a995	-0.024372855
23	0x3da1b984	0.078967124
24	0x3c954b19	0.018224286
25	0xbd7f04b1	-0.062260333
26	0xbb044796	-0.002018427
27	0xbd7b871d	-0.06140815
28	0x3d7d1f0f	0.061797198
29	0xbd163334	-0.036669925
30	0x3d1116b7	0.035422053
31	0xbcf4e7b4	-0.02989564
32	0x3d851e77	0.06499951
33	0x3d9c0661	0.07618404
34	0x3d8e413d	0.06946037
35	0x3d25dc29	0.040493164
36	0x3d64ddfc	0.055875763
37	0x3ca9ce6e	0.020728316
38	0x3d841b7a	0.06450553
39	0xbe35a0c8	-0.17737114
40	0xbdd59a8d	-0.10429869
41	0x3d13efe1	0.03611744
42	0x3d81b2b2	0.063329116
43	0xbce8098c	-0.028324865
44	0x3d7c583c	0.061607584
45	0xbe25996a	-0.16171804
46	0x3d094603	0.033514034
47	0xbdce284c	-0.1006628
48	0x3c6269b8	0.013819151
49	0x3d1417a1	0.036155347
50	0xbcd38987	-0.025822414
51	0xba308ef9	-0.0006735172
52	0x3c91bc7f	0.017790077
53	0xbc1aa872	-0.009439575
54	0x3cb4743c	0.022028081
55	0x3c8b2f31	0.016990276
56	0xbcc39c33	-0.023878193
57	0xbce02632	-0.027361963
58	0x3c1e66a1	0.009668023
59	0xbd7a801b	-0.061157327
60	0x3d9c7b3e	0.07640694
61	0xbe2dfb6a	-0.16990438
62	0xbd8d08d9	-0.06886453
63	0xbe2c039a	-0.16798249
64	0xbcadab8b	-0.021199962
65	0xbd3ad978	-0.04561755
66	0xbd459886	-0.04824116
67	0xbcd4515b	-0.0259177
68	0xbc83cc0d	-0.01608851
69	0xbd05d342	-0.032672174
70	0xbd5249c7	-0.05133989
71	0x3c43b549	0.011945077
72	0xbda8663c	-0.08222625
73	0xbd9c99df	-0.07646536
74	0xbe2a3687	-0.16622363
75	0xbcf5fdf7	-0.030028326
76	0x3d0cd765	0.034385104
77	0xbcc205f6	-0.023684483
78	0x3cfb52ae	0.030679073
79	0xbd91b009	-0.07113654
80	0x3cea0c1e	0.028570231
81	0xbda46c92	-0.08028521
82	0x3c61e054	0.013786394
83	0xbbe45e3d	-0.006969242
84	0xbcaf943c	-0.021432988
85	0xbe1f99d1	-0.1558602
86	0xbcf3a54d	-0.029741907
87	0xbd066e76	-0.032820188
88	0xbdbe1b03	-0.09282496
89	0xbd0269a7	-0.03183904
90	0xbd9cc2da	-0.076543525
91	0xbd51e09f	-0.051239606
92	0xbc7dffba	-0.0155028645
93	0xbcfbbf6f	-0.030730931
94	0x3b6728c6	0.0035272106
95	0x3d8e83b0	0.06958711
96	0xbe338a43	-0.17533211
97	0x3c39800e	0.0113220345
98	0x3d83f549	0.06443269
99	0x3d8b60d2	0.068055764
100	0xbd23e67d	-0.040014733
101	0xbcaed0a9	-0.021339731
102	0x3d8e1333	0.06937256
103	0x3c92a69d	0.017901713
104	0xbb92b798	-0.0044774525
105	0x3cb7bb58	0.0224282
106	0xbe10a991	-0.14127184
107	0xbc9cc9e5	-0.01913924
108	0xbd83b712	-0.06431402
109	0x3c4b2266	0.012398338
110	0x3c7a0ae5	0.0152613865
111	0x3bd153a5	0.006388145
112	0x3cc6c345	0.024263034
113	0x3cd28c56	0.025701683
114	0xbd7d6906	-0.061867736
115	0xbc13fdbf	-0.009032666
116	0xbd14adea	-0.03629867
117	0xbd84890f	-0.06471454
118	0xbe06e5c8	-0.13173592
119	0xbdcc105e	-0.09964059
120	0x3d181bf2	0.037136026
121	0xbdc59a41	-0.09648562
122	0xbc83a5f2	-0.01607034
123	0xbd24c538	-0.040227145
124	0xbcd10f64	-0.025520034
125	0xbdb296bc	-0.087201566
126	0xbd48bf46	-0.049010538
127	0x3ce91067	0.028450204
128	0xbdb67232	-0.089085
129	0x3ca8e201	0.02061558
130	0x3cbe3542	0.023218755
131	0x3d3584d2	0.04431612
132	0x3d59a60d	0.053136874
133	0x3da6eaf8	0.081502855
134	0x3c941d4b	0.018080374
135	0xbd53243a	-0.05154822
136	0xbd999e5b	-0.07500907
137	0xbc9f7bb9	-0.019468175
138	0xbd87dd5d	-0.066340186
139	0xbb48138d	-0.0030529231
140	0x3d5200f7	0.05127045
141	0xbe17dc99	-0.14830245
142	0xbd946634	-0.07246056
143	0xbd6ed16f	-0.0583052
144	0xbdd8427b	-0.10559555
145	0x3cd0321c	0.025414519
146	0xbd3d45b5	-0.046209056
147	0x3d777e8e	0.060423426
148	0x3d53975a	0.051658012
149	0xbd5baa0f	-0.053628977
150	0x3d9b0205	0.075687446
151	0x3c4be601	0.012444974
152	0xbdc80bb9	-0.09767861
153	0xbddb318c	-0.1070281
154	0x3ca1a037	0.019729717
155	0xbdb63d95	-0.088984646
156	0x3a891a75	0.0010460155
157	0xbd7b77eb	-0.06139366
158	0x3cf4f977	0.02990411
159	0x3d7a3650	0.061086953
160	0xbc718a1a	-0.014742399
161	0x3d500a11	0.05079085
162	0x3aa39e11	0.001248302
163	0xbc2cdc6a	-0.010550598
164	0x3d207b4b	0.03918008
165	0xbd646cd9	-0.055767868
166	0xbd8fbbbd	-0.0701823
167	0xbd48ad10	-0.04899317
168	0xbd55b3d7	-0.05217346
169	0xbc969467	-0.01838131
170	0x3d0f2993	0.034951758
171	0x3d3b8536	0.045781337
172	0xbcef0cd2	-0.029180918
173	0xbd1ca071	-0.038238946
174	0xbd6c38dd	-0.057671417
175	0xbda6ac68	-0.08138353
176	0x3cf98df3	0.030463194
177	0xbd372eb7	-0.044722285
178	0x3cfe7504	0.031061657
179	0x3d807653	0.062725686
180	0xbd25e868	-0.040504843
181	0xbda1aa7b	-0.07893845
182	0xbb024b49	-0.00198813
183	0x3d35a7e5	0.04434957
184	0xbc42cc8d	-0.011889589
185	0x3d32c8be	0.043648474
186	0x3d68e9fc	0.05686377
187	0x3dacff60	0.084471464
188	0xbd39b5fb	-0.045339566
189	0xbd41026d	-0.047121454
190	0x3d258e90	0.04041916
191	0xbe29718e	-0.16547224
192	0xbd8bfbd5	-0.068351425
193	0x3b7c110e	0.0038462314
194	0x3d0b8a5b	0.034067493
195	0x3b611627	0.003434548
196	0x3d0b5ee3	0.034026038
197	0xbd9b018f	-0.07568657
198	0xbd76bb22	-0.060237058
199	0xbd91c51a	-0.07117672
200	0xbc8be7ee	-0.017078366
201	0xbd5af6bb	-0.053457957
202	0xbdee8060	-0.11645579
203	0xbd2d15df	-0.042257186
204	0x3d78cf5f	0.06074464
205	0xbded424d	-0.115849115
206	0xbdba045d	-0.090828635
207	0xbdeeec91	-0.11666215
208	0xbc60f5f5	-0.013730516
209	0xbdeadd69	-0.11468012
210	0x3d846e8e	0.06466399
211	0xbe3dc376	-0.18531594
212	0xbb2b0bf1	-0.0026099647
213	0xbe04c3af	-0.12965272
214	0x3c0bec8a	0.008540282
215	0xbd9506be	-0.072766766
216	0xbc6bf095	-0.014400621
217	0xbd752718	-0.059851736
218	0xbd91bd6c	-0.071162075
219	0xbdee4945	-0.11635069
220	0xbdac8dff	-0.08425521
221	0xbca5e072	-0.020248625
222	0x3d969e53	0.07354417
223	0x3daf5678	0.085614145
224	0xbdf1489b	-0.117814265
225	0x3d5c9633	0.05385418
226	0x3c464ba3	0.012102994
227	0x3d9668ce	0.07344209
228	0xbdaaa954	-0.08333078
229	0x3d218edc	0.039442882
230	0xbd6a08bb	-0.057137232
231	0x3d9b8676	0.07594006
232	0xbce4221e	-0.0278483
233	0xbc1c11c4	-0.00952572
234	0xbe2812b7	-0.16413389
235	0x3d40b97e	0.0470519
236	0xbc5cbe06	-0.0134730395
237	0xbd85b6a4	-0.065289766
238	0x3c01cb4a	0.007922003
239	0xbd86d2ac	-0.06583151
240	0xbcd68e22	-0.026190821
241	0x3da7ef7c	0.08199975
242	0xbc6ba928	-0.014383592
243	0xbd45f40e	-0.04832845
244	0xbcbe9c16	-0.023267787
245	0xbd838e42	-0.06423618
246	0xbc245d17	-0.01003196
247	0xbe157a97	-0.14597546
248	0xbd81bbc2	-0.0633464
249	0x3df36f89	0.11886508
250	0xbd73d72a	-0.05953137
251	0xbd1bffb3	-0.03808565
252	0x3b80ed51	0.0039345403
253	0xbe2cea86	-0.16886339
254	0xbc85fa17	-0.016354604
255	0x3aab409f	0.0013065523

4.bias f4 [8]
0	0xbddb1eff	-0.106992714
1	0xbe4936c4	-0.19649798
2	0xbe5df71f	-0.216763
3	0xbe62ed78	-0.221609
4	0xbe1d9a97	-0.15391003
5	0xbe3d21d5	-0.18469937
6	0xbe84d0cc	-0.2594055
7	0xbe85d2c2	-0.26137358
