ddqn/ack-size/final_double_dqn_model-ack-large.pth (torch, 76082 bytes, 6 tensors)

0.weight f4 [128, 5]
0.005431215 -0.35999358 -0.0024376477 0.3556082 -0.004131126 0.3689322 -0.03707057 0.10105877
-0.14314212 -0.39903298 0.3032683 0.11763738 -0.16991872 0.18887663 -0.44193262 0.3126516
0.12218675 0.083820276 0.38702446 0.44955695 -0.3852836 -0.18229926 -0.2838511 -0.44123006
-0.030368816 0.14589404 -0.41540334 -0.17625874 0.14687224 -0.03650068 -0.21226364 -0.18424226
0.37378722 -0.24006936 0.06954388 0.2543779 0.1272996 -0.118278004 -0.2694997 0.3082058
-0.21781749 -0.3514563 0.04547099 -0.44647816 0.107566476 0.14462104 -0.24990886 0.10983445
-0.19980584 0.0055350717 0.3843305 0.124757126 -0.228703 0.09243955 0.52104104 0.087252945
0.41948703 -0.18471733 -0.22839394 0.21436942 -0.12386924 -0.16727123 0.12716073 -0.34167314
-0.027744478 -0.21735106 0.380668 -0.17776802 0.2279765 -0.44161102 -0.23265769 -0.44376367
-0.17530057 0.030747278 0.1873204 -0.4101174 0.28018132 0.14057112 -0.19862048 -0.4943789
0.05217535 -0.053592596 0.053893596 -0.3903006 -0.19884923 0.23533091 -0.003939692 0.124017335
-0.32986218 -0.00919347 -0.14931154 -0.5816264 -0.2814499 0.46032548 -0.0029524947 0.3799125
-0.38576648 -0.32885888 0.22279139 0.40540475 0.35730422 -0.159112 -0.34950843 0.06768093
-0.34799758 -0.31255746 -0.044075202 0.18092023 -0.39745286 0.009375587 -0.036986597 -0.52683645
-0.03692583 -0.1260138 0.37207785 -0.26113823 -0.23839858 -0.2786175 -0.37565398 -0.0351428
0.37592918 0.09870667 0.07610178 -0.26386464 0.22553855 -0.06893494 -0.18191718 0.039614026
-0.23523724 -0.3788411 0.29596052 -0.22022893 0.049595434 0.1443449 0.047413487 -0.44037575
-0.2673522 -0.2721437 -0.42765036 0.28804913 0.3238827 -0.4471404 -0.097822 -0.16457771
-0.16519384 -0.103145845 -0.4975395 0.29737645 0.023700673 -0.10108255 -0.14245093 0.18095079
-0.19174236 -0.14265624 0.13361916 0.07136112 0.21578538 -0.098122254 0.101938754 -0.3778405
-0.1665914 0.29458445 -0.23731092 0.18518808 -0.29297936 0.013698203 0.19981232 0.12505305
-0.22556216 -0.42103454 0.39220044 0.10326343 -0.16381095 0.0773928 -0.35948208 0.30180034
0.38781914 -0.03783507 0.124425784 -0.3228284 0.22831686 0.33882216 0.024106486 -0.23829931
0.009349628 -0.025474453 0.3782759 -0.26868084 0.26181906 0.28591505 0.11654891 0.094734445
-0.111157246 -0.18729095 0.22474319 0.3510409 0.056589637 -0.3963761 -0.12355315 -0.106575996
0.0499967 -0.19258331 -0.43198732 0.08097823 -0.20580453 0.3724264 -0.09345536 -0.21192119
0.27351215 0.06735901 -0.20568484 0.37800974 0.15789948 -0.52693623 0.052332748 0.31352267
0.18025592 0.3791471 0.019507414 0.07127455 0.09736949 0.35807478 0.07026856 -0.34518388
0.22944064 0.17367572 -0.3188249 -0.4379518 0.14740628 -0.15531369 0.077726625 0.32301882
-0.113811344 -0.23477097 -0.011771292 0.19532706 0.05705098 -0.2944266 0.2335442 -0.2072088
0.024097884 0.4380408 -0.4339186 0.20231445 -0.09739961 0.43561184 0.35795814 0.18718672
-0.3060939 0.13031654 0.44408774 0.25463477 0.32891437 -0.2680486 0.38374007 -0.26121148
00000000: 55f8 b13b 1451 b8be f1c0 1fbb 4712 b63e
00000010: 665e 87bb aee4 bc3e 4fd7 17bd e7f7 ce3d
00000020: d993 12be 0d4e ccbe fc45 9b3e deeb f03d
00000030: 2cff 2dbe e068 413e fe44 e2be df13 a03e
00000040: 0c3d fa3d f7a9 ab3d 1228 c63e 542c e63e
00000050: e443 c5be a8ac 3abe ee54 91be e8e8 e1be
00000060: 06c8 f8bc 3f65 153e bfaf d4be 2c7d 34be
00000070: ad65 163e bd81 15bd a45b 59be 01aa 3cbe
00000080: 0a61 bf3e bed4 75be 066d 8e3d d23d 823e
00000090: d45a 023e bd3b f2bd ddfb 89be 27cd 9d3e
000000a0: 8c0b 5fbe 15f2 b3be ca3f 3a3d c998 e4be
000000b0: d04b dc3d 8a17 143e 1ce8 7fbe e2f0 e03d
000000c0: e799 4cbe 8c5f b53b f8c6 c43e aa80 ff3d
000000d0: 1f31 6abe f250 bd3d f262 053f acb1 b23d
000000e0: 01c7 d63e 8a26 3dbe 1ae0 69be a883 5b3e
000000f0: 28af fdbd 2649 2bbe 6c36 023e c8ef aebe
00000100: 6348 e3bc 4791 5ebe ebe6 c23e d208 36be
00000110: ac72 693e d71a e2be d13d 6ebe fe34 e3be
00000120: fe81 33be b7e1 fb3c ebd0 3f3e e8fa d1be
00000130: ed73 8f3e e0f1 0f3e 2b63 4bbe 3b1f fdbe
00000140: d2b5 553d e983 5bbd 88bf 5c3d 7bd5 c7be
00000150: 229f 4bbe 96fa 703e 8818 81bb cdfc fd3d
00000160: b2e3 a8be 35a0 16bc 20e5 18be 78e5 14bf
00000170: 341a 90be c8af eb3e a47e 41bb e483 c23e
00000180: 2f83 c5be 3160 a8be 6d23 643e 3691 cf3e
00000190: 94f0 b63e 42ee 22be c5f2 b2be 4d9c 8a3d
000001a0: bd2c b2be 8807 a0be 3388 34bd 2743 393e
000001b0: f17e cbbe 109c 193c 427f 17bd c1de 06bf
000001c0: 8a3f 17bd c309 01be fd80 be3e e9b3 85be
000001d0: c21e 74be f4a6 8ebe b855 c0be e6f1 0fbd
000001e0: ca79 c03e b926 ca3d 40db 9b3d 4419 87be
000001f0: 94f3 663e c32d 8dbd 7f48 3abe 5142 223d
00000200: 08e2 70be 76f7 c1be 2388 973e b183 61be
00000210: 9524 4b3d 26cf 133e a534 423d ee78 e1be
00000220: 63e2 88be 6b56 8bbe fdf4 dabe 2d7b 933e
00000230: f4d3 a53e 96ef e4be e756 c8bd 0f87 28be
00000240: 9328 29be 213e d3bd 7fbd febe ba41 983e
00000250: ea27 c23c 5e04 cfbd a8de 11be 2a4b 393e
00000260: 1c58 44be 7a14 12be 76d3 083e c725 923d
00000270: d8f6 5c3e 52f4 c8bd 44c5 d03d 4f74 c1be
00000280: f096 2abe c6d3 963e a201 73be f2a1 3d3e
00000290: 6401 96be 6d6e 603c 9a9b 4c3e e80d 003e
000002a0: c4f9 66be d791 d7be 7fce c83e c77b d33d
000002b0: 0fbe 27be 1e80 9e3d 090e b8be 9385 9a3e
000002c0: 3b90 c63e f2f8 1abd f2d2 fe3d c449 a5be
000002d0: e5cb 693e 197a ad3e f77a c53c bc04 74be
000002e0: 2f2f 193c cdaf d0bc 61ad c13e 8990 89be
000002f0: 260d 863e 7563 923e 32b1 ee3d 2204 c23d
00000300: 69a6 e3bd 33c9 3fbe 1423 663e a2bb b33e
00000310: 89ca 673d cff1 cabe 6f09 fdbd 8444 dabd
00000320: 57c9 4c3d 8f34 45be 712d ddbe ead7 a53d
00000330: 6cbe 52be acae be3e 8665 bfbd de01 59be
00000340: c909 8c3e 85f3 893d 0c9f 52be 7e8a c13e
00000350: 67b0 213e 4be5 06bf dd5a 563d 0b86 a03e
00000360: 0295 383e 921f c23e 03ce 9f3c 64f8 913d
00000370: a869 c73d 9455 b73e f6e8 8f3d f1bb b0be
00000380: 7df2 6a3e 0cd8 313e 043d a3be 383b e0be
00000390: acf1 163e 8d0a 1fbe 232f 9f3d b962 a53e
000003a0: ec15 e9bd cd67 70be 61dc 40bc d103 483e
000003b0: 4aae 693d 15bf 96be 3626 6f3e 8b2e 54be
000003c0: ed68 c53c e246 e03e 942a debe 852b 4f3e
000003d0: 7279 c7bd 8408 df3e 4a46 b73e e0ad 3f3e
000003e0: 57b8 9cbe b371 053e 785f e33e 7d5f 823e
000003f0: 7767 a83e ab3d 89be 9479 c43e 83bd 85be

0.bias f4 [128]
0.04904588 -0.18875457 0.07728461 0.14618696 0.15373628 0.46949202 0.21916759 0.7083027
-0.2689362 0.349204 -0.08888198 -0.31182486 -0.12771466 0.030393472 -0.42729765 0.3730946
-0.19281714 -0.21709141 0.06442333 0.26372644 -0.16905624 -0.2438373 0.33057576 -0.43976584
-0.17985317 -0.27341387 0.46292225 -0.22616807 -0.27813315 0.16469999 -0.19795598 -0.14858778
-0.047956504 -0.3882818 0.5314217 0.33126134 0.3348441 -0.33390203 0.63355297 -0.2478827
0.1767427 -0.15066434 -0.43249154 -0.064316675 -0.1211679 0.115236424 -0.30377874 0.56936693
-0.3525652 -0.07565813 -0.47485307 0.3930741 -0.28595346 0.06968577 -0.35288295 0.2545453
-0.11667289 0.61185634 -0.22992074 0.4641274 -0.2184961 0.027019758 -0.13738619 0.36387405
-0.06333802 -0.08787938 0.24232192 0.4362098 0.017433295 0.18469319 0.35371152 -0.15779515
-0.107071616 -0.5606979 0.33707368 0.5496111 0.49731755 -0.13540907 0.06179353 -0.22038293
-0.20601244 0.5678005 -0.431349 -0.14770147 0.42033604 0.4052447 -0.17665155 -0.43431923
-0.2403494 0.24046774 0.071757734 -0.3806004 0.12837471 -0.3522717 -0.41903812 0.46590972
-0.53505117 -0.06385592 -0.127098 -0.032697015 -0.051910333 0.28710294 0.4433895 -0.05157948
0.36661026 -0.10947894 0.18149571 0.14306766 -0.08752862 -0.18581262 0.15259631 -0.037291557
0.026493525 0.27463615 -0.34706083 0.28627902 -0.3110833 0.014250781 -0.20083462 -0.41377228
-0.36632138 -0.36164072 -0.36809474 -0.11053001 0.103422605 -0.35635585 -0.2039111 -0.50939727
00000000: 55e4 483d e148 41be 6547 9e3d 09b2 153e
00000010: 0b6d 1d3e 4261 f03e 786d 603e 5353 353f
00000020: 01b2 89be deca b23e c107 b6bd 82a7 9fbe
00000030: a2c7 02be bbfb f83c c2c6 dabe 4106 bf3e
00000040: db71 45be 364d 5ebe 61f0 833d 2707 873e
00000050: 141d 2dbe 7cb0 79be 3a41 a93e fd28 e1be
00000060: 6e2b 38be e7fc 8bbe 2504 ed3e 9a98 67be
00000070: 7867 8ebe 1da7 283e f9b4 4abe 6527 18be
00000080: 0a6e 44bd dfcc c6be 410b 083f 169b a93e
00000090: b070 ab3e 35f5 aabe 8730 223f f6d4 7dbe
000000a0: 0afc 343e c147 1abe 886f ddbe 76b8 83bd
000000b0: e026 f8bd 1301 ec3d e388 9bbe 08c2 113f
000000c0: 6d83 b4be a6f2 9abd f11f f3be 0241 c93e
000000d0: 7e68 92be 6ab7 8e3d 13ad b4be c353 823e
000000e0: 32f2 eebd 9ea2 1c3f 5870 6bbe 1ba2 ed3e
000000f0: 71bd 5fbe 8a58 dd3c f7ae 0cbe b34d ba3e
00000100: 5db7 81bd 1bfa b3bd 3d23 783e e456 df3e
00000110: 45d0 8e3c 3620 3d3e ad19 b53e 0d95 21be
00000120: 5d48 dbbd e689 0fbf ec94 ac3e 50b3 0c3f
00000130: 68a0 fe3e ada8 0abe 361b 7d3d 10ac 61be
00000140: edf4 52be 605b 113f c7d9 dcbe 0e3f 17be
00000150: 4936 d73e 3c7c cf3e 25e4 34be 175f debe
00000160: 271e 76be 2d3d 763e b8f5 923d 0ede c2be
00000170: a974 033e f55c b4be 2a8c d6be b88b ee3e
00000180: 1df9 08bf e5c6 82bd fa25 02be 4eed 05bd
00000190: ee9f 54bd 28ff 923e f303 e33e 0145 53bd
000001a0: 57b4 bb3e 7f36 e0bd 03da 393e 5480 123e
000001b0: 3542 b3bd aa45 3ebe 3542 1c3e 08bf 18bd
000001c0: f308 d93c 1c9d 8c3e f5b1 b1be 2a93 923e
000001d0: 4f46 9fbe 1c7c 693c 97a7 4dbe f6d9 d3be
000001e0: 7a8e bbbe f928 b9be ea76 bcbe 8f5d e2bd
000001f0: 3bcf d33d 4674 b6be 12ce 50be dc67 02bf

2.weight f4 [128, 128]
-0.0057333726 0.0043852003 -0.061647173 -0.071167216 0.07898177 0.040486336 0.06871125 -0.04916122
-0.03978239 0.01097525 0.053501863 0.07901302 0.08621954 0.05792729 0.04086981 0.009240623
0.059110627 -0.07149016 0.023867507 0.007255991 0.04784134 -0.07993326 -0.05576067 -0.012147069
0.01466627 -0.085373364 -0.031082299 -0.06790348 -0.065548256 -0.009550581 0.057289727 -0.07275641
0.03937742 0.058774907 0.078698024 -0.06383279 0.08323076 0.07446523 -0.053836446 -0.0025823058
-0.0065943697 -0.01678944 -0.03830944 0.03564731 -0.027791906 -0.015541218 -0.03457113 0.07273922
0.07736234 0.033703916 -0.037435453 0.056655657 -0.05915409 0.00247657 -0.003118972 -0.05574873
-0.07923903 0.04419193 -0.020605162 -0.0723354 -0.021436045 -0.04561151 0.004376402 -0.082177565
0.05963588 -0.044377703 -0.08033893 0.044025365 0.084309414 0.083849296 0.06312324 0.06259595
-0.06517777 -0.058526356 -0.032788806 -0.061588958 -0.07207262 -0.04779067 -0.086360686 -0.00954645
0.07014271 -0.014003807 -0.05994289 -0.012514874 -0.0304441 0.008115375 -0.05183487 0.052674647
-7.5095144e-05 0.06260919 -0.08690715 0.045410458 0.050133094 -0.0722412 0.044192698 -0.0579074
-0.025217133 -0.044977333 0.06258172 0.044300456 -0.039191227 -0.05741939 -0.06792508 -0.07642789
0.07402065 0.07835128 -0.08326925 0.061256967 -0.018925441 -0.020125741 -0.030163202 -0.037453186
0.028272117 0.05489586 0.08777334 0.030248329 -0.07273207 -0.083463654 0.046456818 -0.0061659785
-0.039088674 0.015906684 -0.060701523 -0.03169956 -0.010264791 0.026045814 0.056877162 -0.016189795
-0.034799468 -0.07243265 -0.037767634 -0.02773549 -0.03990471 0.06286437 -0.04591049 -0.0092940265
-0.025631921 -0.07160417 -0.014543959 0.021278847 -0.06587978 -0.01960825 -0.0714594 -0.007901195
0.03525211 0.01768555 -0.0065994323 -0.06883841 0.05822682 0.036914878 -0.086127296 -0.01640509
-0.086467616 -0.02513737 -0.08448561 0.020698212 -0.039861254 -0.080303654 -0.033715095 0.00503913
0.050071415 -0.10354027 0.0034380765 -0.049866367 -0.09927807 0.021825263 0.06459216 -0.056359734
-0.017960731 0.055788364 0.07083839 -0.093971655 0.031216888 -0.043419767 -0.04032117 0.02297417
-0.08435815 0.055889882 -0.023667226 0.0011069658 -0.00087382033 0.025208741 0.032894667 -0.048784528
-0.0008775711 -0.009844188 0.022397382 0.014934685 0.019376835 -0.03913811 0.033940244 -0.014284501
0.0437075 -0.020639593 0.04204105 0.040887605 0.08082356 -0.019667933 0.021621523 -0.036407236
0.04946544 0.04890109 -0.041005652 -0.0803503 -0.07446821 0.06441063 -0.077284366 0.06864367
-0.07659529 -0.06227553 0.08360867 0.08215334 0.029949825 0.010822658 0.015323645 0.03260164
-0.07544772 -0.05596039 -0.0049509183 -0.05368246 -0.030759877 -0.079685815 0.0011715369 -0.08377066
-0.0609669 0.0021245114 -0.101502836 0.013572546 0.05692545 -0.0014017854 -0.06230897 0.07899421
-0.08563422 0.031858906 -0.06550231 0.065176174 -0.07904598 0.07353197 0.071438186 0.030691676
0.04269073 0.050067756 -0.005379696 -0.011443676 0.06521029 0.053398706 0.0028978381 0.080382764
-0.08828173 0.03456856 -0.070530735 -0.07988616 -0.0019193001 0.056521535 -0.027067475 0.016983194
00000000: 04df bbbb bab1 8f3b bf81 7cbd 1ec0 91bd
00000010: 32c1 a13d 00d5 253d 7cb8 8c3d 475d 49bd
00000020: dcf2 22bd 89d1 333c c524 5b3d 94d1 a13d
00000030: df93 b03d 2b45 6d3d 1a67 273d fb65 173c
00000040: fc1d 723d 6f69 92bd ca85 c33c aac3 ed3b
00000050: 48f5 433d 0db4 a3bd 4d65 64bd 8004 47bc
00000060: cc4a 703c 3bd8 aebd 4ea0 febc fb10 8bbd
00000070: 2a3e 86bd 0a7a 1cbc a2a8 6a3d 5001 95bd
00000080: 384a 213d f5bd 703d 6e2c a13d c4ba 82bd
00000090: e474 aa3d 3a81 983d 9b83 5cbd e73b 29bb
000000a0: 9515 d8bb 028a 89bc 5cea 1cbd ea02 123d
000000b0: daab e3bc 98a0 7ebc 759a 0dbd 4df8 943d
000000c0: 2670 9e3d 1e0d 0a3d eb55 19bd c30f 683d
000000d0: 8f4b 72bd f34d 223b ab67 4cbb c858 64bd
000000e0: 1348 a2bd 9902 353d 28cc a8bc 9524 94bd
000000f0: a59a afbc 22d3 3abd ec67 8f3b b64c a8bd
00000100: c144 743d 65c5 35bd bd88 a4bd f153 343d
00000110: 6aaa ac3d 2eb9 ab3d c246 813d 4e32 803d
00000120: ec7b 85bd 55b9 6fbd 8e4d 06bd b444 7cbd
00000130: cf9a 93bd 26c0 43bd dfdd b0bd b768 1cbc
00000140: fba6 8f3d 3970 65bc ad86 75bd 300b 4dbc
00000150: e865 f9bc 5af6 043c cd50 54bd 5fc1 573d
00000160: 667c 9db8 3f39 803d 60fc b1bd 5100 3a3d
00000170: 5c58 4d3d 32f3 93bd 6703 353d 4f30 6dbd
00000180: 2994 cebc 273a 38bd d82a 803d 6574 353d
00000190: fb86 20bd 9830 6bbd 4e1c 8bbd 3a86 9cbd
000001a0: 2398 973d a376 a03d 1289 aabd 96e8 7a3d
000001b0: 8709 9bbc bdde a4bc d218 f7bc 8368 19bd
000001c0: ed9a e73c 7bda 603d 82c2 b33d 58cb f73c
000001d0: 8df4 94bd feee aabd 8149 3e3d fa0b cabb
000001e0: 721b 20bd bc4e 823c 29a2 78bd 66d7 01bd
000001f0: a72d 28bc 085e d53c 07f8 683d 76a0 84bc
00000200: e389 0ebd 9257 94bd 3cb2 1abd 8a35 e3bc
00000210: 1f73 23bd 09bf 803d a30c 3cbd f945 18bc
00000220: 09fa d1bc 35a5 92bd c949 6ebc fa50 ae3c
00000230: faeb 86bd 7ba1 a0bc 4e59 92bd 0474 01bc
00000240: 8464 103d 49e1 903c 0d40 d8bb 27fb 8cbd
00000250: 3f7f 6e3d 0e34 173d 8263 b0bd f863 86bc
00000260: ef15 b1bd e3ec cdbc cb06 adbd 4c8f a93c
00000270: 8e45 23bd 3e76 a4bd d718 0abd 491f a53b
00000280: af17 4d3d ec0c d4bd 5a51 613b ad40 4cbd
00000290: 4d52 cbbd e5ca b23c e548 843d 77d9 66bd
000002a0: 6222 93bc 5782 643d b813 913d 3674 c0bd
000002b0: 8fba ff3c edd8 31bd d027 25bd 5434 bc3c
000002c0: f7c3 acbd caec 643d c5e1 c1bc 9c17 913a
000002d0: 1711 65ba 9082 ce3c 8fbc 063d 49d2 47bd
000002e0: cd0c 66ba 8449 21bc b77a b73c 9cb0 743c
000002f0: 2bbc 9e3c 484f 20bd ed04 0b3d 8a09 6abc
00000300: a306 333d 5d14 a9bc 3c33 2c3d c379 273d
00000310: d386 a53d a51e a1bc 9f1f b13c c11f 15bd
00000320: 469c 4a3d 824c 483d 8bf5 27bd b38e a4bd
00000330: ca82 98bd b8e9 833d 4447 9ebd 0d95 8c3d
00000340: fedd 9cbd a014 7fbd 063b ab3d 0340 a83d
00000350: 5659 f53c 8551 313c 0710 7b3c 4c89 053d
00000360: 5684 9abd b936 65bd 503b a2bb 24e2 5bbd
00000370: 23fc fbbc 5132 a3bd 418e 993a f48f abbd
00000380: 6eb8 79bd 633b 0b3b b8e0 cfbd 625f 5e3c
00000390: a92a 693d 1dbc b7ba b137 7fbd b7c7 a13d
000003a0: fe60 afbd 7c7e 023d 1326 86bd 167b 853d
000003b0: dce2 a1bd ee97 963d 2f4e 923d 1c6d fb3c
000003c0: 7adc 2e3d d913 4d3d 2948 b0bb 427e 3bbc
000003d0: f98c 853d 9ab8 5a3d a8e9 3d3b b89f a43d
000003e0: 0dcd b4bd c397 0d3d 6b72 90bd 5b9b a3bd
000003f0: 0691 fbba 2083 673d 9cbc ddbc 5720 8b3c

2.bias f4 [128]
0.0271636 0.0098195085 0.009605393 0.107349 -0.078253604 -0.029656447 0.22834128 -0.026998343
-0.024987245 -0.02577486 -0.111069396 -0.0744822 -0.087551065 0.25111392 -0.111224584 -0.005434692
0.10597093 0.01224053 0.22024831 -0.09845486 0.14831851 0.044215444 -0.038907737 0.04833002
-0.02576945 -0.08818794 -0.083065264 0.061100475 0.017951714 -0.0059187976 -0.09209841 -0.062937066
-0.07561699 -0.05939866 0.034756266 0.13169484 0.03479506 -0.07516021 0.04459063 -0.04742164
0.2614833 -0.10603276 0.052436307 0.1479259 0.04602637 0.031859342 -0.06358998 0.105320625
0.011039144 0.15160224 -0.08409191 0.04905545 0.17155828 -0.0490058 0.037231073 0.014714816
0.030537872 -0.023454264 -0.06889013 -0.0012014504 -0.021448657 -0.05822555 -0.04340941 -0.042292263
0.08178206 -0.07083666 0.2578421 -0.010970414 -0.04797251 -0.04111526 -0.041636832 -0.04805367
0.06299227 -0.10282957 -0.005186939 -0.09897858 0.0074219806 -0.053553183 0.14152598 0.036842298
0.060072433 0.04268326 -0.07962146 0.15943809 -0.009912298 0.048447087 -0.0019786053 0.021992123
-0.06641542 -0.004781602 0.037998166 -0.013301346 -0.028992841 0.10145825 -0.053433 -0.051219124
0.12000663 0.07522429 -0.04623935 -0.018544698 -0.02338917 0.06622619 0.034440387 -0.09972375
-0.05933584 0.06594672 0.0010494026 -0.08016734 -0.03651837 0.006152011 0.18766932 0.09459473
0.1956364 -0.08894207 0.107323475 0.06334317 0.0052803946 0.0045851762 -0.037483003 -0.081361756
0.004241265 -0.09762926 0.19288374 -0.06333609 0.090775475 0.02245955 0.08065768 0.1202743
00000000: 3386 de3c 01e2 203c f05f 1d3c cbd9 db3d
00000010: 6d43 a0bd 14f2 f2bc 4cd2 693e a12b ddbc
00000020: 0db2 ccbc cd25 d3bc 5a78 e3bd 208a 98bd
00000030: f94d b3bd 0192 803e b7c9 e3bd 8015 b2bb
00000040: 4907 d93d 818c 483c c688 613e b4a2 c9bd
00000050: cfe0 173e 411b 353d b85d 1fbd b3f5 453d
00000060: 741a d3bc e19b b4bd 1f1e aabd 7e44 7a3d
00000070: 790f 933c 79f2 c1bb 179e bcbd 26e5 80bd
00000080: 15dd 9abd 024c 73bd 965c 0e3d 03db 063e
00000090: 4485 0e3d 99ed 99bd aaa4 363d 323d 42bd
000000a0: 24e1 853e b427 d9bd 74c7 563d e379 173e
000000b0: 2686 3c3d f17e 023d 773b 82bd 57b2 d73d
000000c0: 87dd 343c 9e3d 1b3e 6138 acbd 5eee 483d
000000d0: f9ac 2f3e 4eba 48bd 9c7f 183d 6916 713c
000000e0: 8f2a fa3c 2823 c0bc 4516 8dbd fc79 9dba
000000f0: 18b5 afbc ea7d 6ebd 11ce 31bd a73a 2dbd
00000100: 5a7d a73d d012 91bd e103 843e 40bd 33bc
00000110: d37e 44bd 7a68 28bd 628b 2abd edd3 44bd
00000120: 1702 813d 4f98 d2bd 33f7 a9bb 48b5 cabd
00000130: 1634 f33b 955a 5bbd 30ec 103e f3e7 163d
00000140: 830e 763d a4d4 2e3d 9310 a3bd bd43 233e
00000150: 3167 22bc 7470 463d 7dab 01bb d328 b43c
00000160: cf04 88bd fcae 9cbb f7a3 1b3d e4ed 59bc
00000170: 6582 edbc 58c9 cf3d 90dc 5abd 25cb 51bd
00000180: 09c6 f53d 310f 9a3d 7965 3dbd 0deb 97bc
00000190: a59a bfbc 99a1 873d 5d11 0d3d f73b ccbd
000001a0: 230a 73bd 130f 873d 1c8c 893a c62e a4bd
000001b0: 4994 15bd cf96 c93b 632c 403e e2ba c13d
000001c0: e954 483e 4327 b6bd 69cc db3d 10ba 813d
000001d0: 2907 ad3b 3f3f 963b c787 19bd fea0 a6bd
000001e0: 4ffa 8a3b d9f1 c7bd 5183 453e 5ab6 81bd
000001f0: 7ee8 b93d 17fd b73c db2f a53d 5f52 f63d

4.weight f4 [8, 128]
-0.035825 0.04515464 0.0004404869 -0.12165931 -0.010486378 0.00943241 -0.14948487 0.069744825
0.01840066 -0.08714717 0.004672842 -0.096101165 -0.0038070327 -0.17745149 0.055929374 0.049202252
0.018354489 0.06577009 -0.073806494 0.029173307 -0.1482306 -0.031445235 -0.008107241 -0.030529879
-0.06051656 0.04885101 0.024425874 -0.056871183 -0.0418433 -0.027119352 0.00072609435 0.018414546
0.09463512 0.02536627 -0.055366922 -0.119271025 -0.01304657 -0.004995471 0.0013113805 -0.019955669
-0.20229104 -0.086457476 0.05887595 -0.124322385 -0.08447023 -0.047556512 -0.021011056 -0.0060355277
0.0721386 -0.13503696 -0.066710696 0.017709661 -0.10640362 0.04454366 0.052104007 -0.04762004
-0.10071982 0.056217797 0.04651106 0.0072493325 -0.009067673 -0.06801017 0.021840043 -0.05931897
0.019519849 -0.03322671 -0.15573463 -0.025429588 0.044887763 0.074433945 0.047557127 0.033178363
-0.09060272 -0.024157967 0.0467916 -0.02714442 -0.029339535 0.059610333 -0.10243985 0.07830567
0.06619864 0.0029673246 -0.044501275 -0.091922775 -0.00032972533 0.01867434 0.060221188 0.030460492
-0.027257273 -0.085282125 -0.008940969 0.06411464 -0.06573856 -0.08305088 -0.049974877 -0.019109529
-0.12739466 -0.07976729 -0.017666103 0.0342753 0.01193804 -0.050411522 -0.12090457 -0.05100371
-0.043673508 -0.061231162 0.065317884 -0.007004892 0.02175237 -0.10105182 -0.18133591 -0.105497666
-0.1565589 -0.03714453 -0.11600386 -0.049532548 -0.042339165 -0.037610043 -0.0070930123 -0.0400369
0.076779105 0.045530677 -0.15423666 0.07068706 -0.0548827 -0.07597079 0.010900498 -0.09090765
0.08793377 -0.020632276 -0.048663136 -0.19765706 0.050549753 -0.03893429 -0.04996596 0.059556775
0.055429626 0.0063027306 -0.07715356 -0.055574145 -0.028944481 -0.19210227 -0.04080152 0.007893748
-0.096613474 -0.06836947 -0.075714774 0.044158295 -0.08364399 -0.034806646 0.06980741 -0.01291557
-0.044629786 -0.06259806 0.030799583 -0.13448629 -0.035183597 0.11002325 -0.016292904 -0.070993654
-0.14603636 0.045001708 0.042659827 -0.13392128 0.0089891115 0.008128762 -0.02688235 0.005872106
-0.14115585 0.00056778186 -0.05585857 -0.1624527 -0.10223369 -0.06504151 -0.058174293 0.015513963
0.023653781 -0.08155785 -0.04742706 -0.021262707 -0.1546629 0.038360067 -0.08464659 0.022346802
0.016535645 -0.07213029 -0.011578456 -0.020444866 -0.01801704 0.03763319 -0.05546264 0.01706899
0.054050025 0.041833002 -0.16022778 -0.21644899 -0.020878652 0.04343403 0.055800144 -0.027025985
-0.15849781 -0.012980636 0.025874 -0.022400018 -0.06192488 -0.06737876 -0.08726288 0.018901166
-0.0031144395 -0.07852058 -0.055796716 -0.014420523 -0.009882961 -0.04163854 0.010211859 0.067995176
-0.004020946 -0.05342662 -0.07874401 -0.047937572 -0.07962934 -0.031077784 0.007862254 0.02011336
-0.17658947 -0.18819106 0.07618707 0.024564605 0.028585734 -0.14531367 -0.09887124 0.039728023
-0.0071211816 -0.11970987 -0.028497865 0.05665656 0.03305738 -0.0064345836 -0.1767229 -0.10385188
-0.14519683 -0.010963193 -0.12237546 0.051370297 0.031029088 -0.06474226 0.009340902 0.040801
0.040807717 -0.115526505 0.049773745 0.012769599 -0.10918183 -0.07017226 -0.1808822 -0.17506866
00000000: 3cbd 12bd 12f4 383d 27f1 e639 8428 f9bd
00000010: 0fcf 2bbc 658a 1a3c 9012 19be 60d6 8e3d
00000020: fbbc 963c 377a b2bd a41e 993b b0d0 c4bd
00000030: 697f 79bb d8b5 35be 3316 653d 4d88 493d
00000040: 275c 963c 78b2 863d dc27 97bd dcfc ee3c
00000050: c3c9 17be b8cc 00bd 3cd4 04bc cc19 fabc
00000060: 36e0 77bd ff17 483d c518 c83c c2f1 68bd
00000070: e163 2bbd 6729 debc 5e57 3e3a 1ada 963c
00000080: 0fd0 c13d edcc cf3c 6dc8 62bd 5e44 f4bd
00000090: 48c1 55bc 0cb1 a3bb a1e2 ab3a 127a a3bc
000000a0: 6225 4fbe 9e10 b1bd e827 713d bc9c febd
000000b0: bafe acbd 9eca 42bd 611f acbc adc5 c5bb
000000c0: 67bd 933d 2147 0abe 9e9f 88bd da13 913c
000000d0: 24ea d9bd 6a73 363d 036b 553d 3b0d 43bd
000000e0: 3146 cebd a244 663d 6282 3e3d cf8b ed3b
000000f0: 9490 14bc ea48 8bbd e4e9 b23c 73f8 72bd
00000100: 17e8 9f3c bb18 08bd e678 1fbe b651 d0bc
00000110: 3bdc 373d d370 983d 43cb 423d 09e6 073d
00000120: eb8d b9bd eee6 c5bc 8ca8 3f3d fa5d debc
00000130: 7759 f0bc f729 743d fccb d1bd b95e a03d
00000140: 2793 873d 7277 423b f846 36bd 0242 bcbd
00000150: fcde acb9 eefa 983c 7eaa 763d 4888 f93c
00000160: a54a dfbc 65a8 aebd 247d 12bc 894e 833d
00000170: f0a1 86bd 9416 aabd 75b2 4cbd 968b 9cbc
00000180: bf73 02be 085d a3bd 81b8 90bc 4264 0c3d
00000190: c597 433c 507c 4ebd d19c f7bd 44e9 50bd
000001a0: fee2 32bd 87cd 7abd 62c5 853d 4b89 e5bb
000001b0: 0732 b23c 42f4 cebd 1fb0 39be 290f d8bd
000001c0: fa50 20be dd24 18bd 6f93 edbd a4e2 4abd
000001d0: d56b 2dbd fd0c 1abd 806c e8bb bcfd 23bd
000001e0: 5d3e 9d3d 607e 3a3d 37f0 1dbe 61c4 903d
000001f0: afcc 60bd 9396 9bbd 0198 323c ca2d babd
00000200: 9f16 b43d 0505 a9bc ff52 47bd 9d66 4abe
00000210: 420d 4f3d 9079 1fbd 1ba9 4cbd cef1 733d
00000220: 2d0a 633d 2387 ce3b b002 9ebd b7a1 63bd
00000230: fa1c edbc 75b6 44be 7f1f 27bd c754 013c
00000240: 49dd c5bd 4b05 8cbd 5910 9bbd 54df 343d
00000250: 8a4d abbd 6a91 0ebd 30f7 8e3d d49b 53bc
00000260: b9cd 36bd 6933 80bd 684f fc3c c6b6 09be
00000270: ad1c 10bd df53 e13d b278 85bc 1f65 91bd
00000280: 8e8a 15be b653 383d 12bc 2e3d a922 09be
00000290: 1147 133c 802e 053c 6038 dcbc cc6a c03b
000002a0: 298b 10be 32d7 143a f5cb 64bd 005a 26be
000002b0: e65f d1bd 7c34 85bd 2b48 6ebd 472e 7e3c
000002c0: 93c5 c13c cd07 a7bd e042 42bd 212f aebc
000002d0: f45f 1ebe 721f 1d3d 315b adbd a410 b73c
000002e0: c375 873c 0cb9 93bd 90b3 3dbc fe7b a7bc
000002f0: 7998 93bc 4325 1a3d cb2c 63bd 44d4 8b3c
00000300: 8f63 5d3d 1559 2b3d c012 24be cea4 5dbe
00000310: b509 abbc e2e7 313d b18e 643d 9965 ddbc
00000320: 404d 22be bcac 54bc b6f5 d33c 3e80 b7bc
00000330: f1a4 7dbd e0fd 89bd e1b6 b2bd 9ed6 9a3c
00000340: a01b 4cbb 66cf a0bd 198b 64bd 0f44 6cbc
00000350: 25ec 21bc 2c8d 2abd a44f 273c 0e41 8b3d
00000360: 24c2 83bb dfd5 5abd 8a44 a1bd 305a 44bd
00000370: b514 a3bd d696 febc afd0 003c c6c4 a43c
00000380: dfd3 34be 28b5 40be f707 9c3d b63b c93c
00000390: a12c ea3c 1bcd 14be 017d cabd dab9 223d
000003a0: cd58 e9bb 732a f5bd 5b74 e9bc b610 683d
000003b0: 2d67 073d 33d9 d2bb d9f6 34be 4bb0 d4bd
000003c0: 7aae 14be f79e 33bc fc9f fabd a969 523d
000003d0: b730 fe3c 9797 84bd 950a 193c f31e 273d
000003e0: fe25 273d 2999 ecbd 8edf 4b3d 9537 513c
000003f0: b99a dfbd 79b6 8fbd 2f39 39be 3345 33be

4.bias f4 [8]
-0.21077022 -0.2113593 -0.17233719 -0.21308227 -0.06740277 -0.09372945 -0.17990847 -0.1778402
00000000: 26d4 57be 936e 58be 2979 30be 3d32 5abe
00000010: 770a 8abd 3af5 bfbd ed39 38be be1b 36be
