ddqn/ack-size/final_dqn_model-ack-medium.pth (torch, 75968 bytes, 6 tensors)

0.weight f4 [128, 5]
0.13141486 -0.843344 0.049829666 0.23301733 0.22923157 0.3453757 0.030562392 -0.28732985
0.36674178 -0.31453058 -0.29452285 -0.67251164 0.3252003 -0.07747303 -0.0067557218 0.293421
-0.17862703 -0.38146096 -0.20797752 0.4058469 0.21586093 -0.96524507 0.07925356 -0.06876724
0.11668703 0.1643798 -1.0098456 0.27560169 -0.4120148 0.1990408 -0.32159406 -0.3816242
-0.4182004 -0.44006696 -0.27844086 0.32031426 -0.50195235 0.112751536 -0.14696983 -0.43339327
-0.3968873 -0.6964247 0.12158392 -0.2427508 -0.30953303 -0.23152144 0.24763735 -0.17553999
-0.20376748 0.023525046 0.043579746 -0.851515 0.30081084 -0.3003845 -0.11330271 0.083909966
0.27006254 0.27767798 -0.483509 0.3104356 -0.41952142 -0.0945171 0.10863315 0.094681844
-0.43970028 0.20275247 -0.4732837 0.20921512 -0.19036035 0.11279479 -0.050359648 0.46170384
0.068436906 -0.40421084 -0.47185138 -0.049976174 0.8634876 0.021332152 -0.26602197 -0.17706954
-0.25706366 -0.35103428 0.20409642 0.122274175 -0.123530045 0.4295644 0.31647232 -0.08842949
-0.29639247 -0.18867986 0.2764414 -0.027585343 -0.16587703 -0.101933904 -0.071304716 0.039859846
-0.80995864 -0.04223417 -0.00813297 0.026608786 -0.06445695 -0.76045114 -0.12604475 0.0610517
0.012078761 0.09291687 -0.17065957 -0.2071265 0.23004329 0.3316911 -0.1437657 -0.08493116
0.039864805 -0.25911275 -0.09853398 -0.15305442 -0.65876836 0.15807264 -0.22054699 -0.17396234
0.21335606 0.34693477 -0.37796038 -0.36549458 0.01471289 0.2982726 -0.22560099 -0.06875571
-0.26858672 -0.1841028 0.3540197 -0.5223024 0.28197357 -0.41453874 -0.3545869 0.17837699
-0.40552163 -0.34391084 -0.18855606 -0.40904272 -0.27802157 -0.21398327 0.28727785 -0.4843045
0.20541643 0.11193993 -0.124331616 -0.3689394 -0.18286863 -0.16961862 0.12888505 -0.62342936
0.31681025 0.033945523 -0.40473196 0.017798375 0.12436977 0.24636647 -0.47231597 0.32294056
0.3419324 -0.11631749 -0.35354725 -0.041421518 -0.3850785 -0.26166996 -0.065694526 -0.24579477
-0.015097749 -0.03553539 0.36679882 -0.65740037 -0.2077813 0.36046356 -0.3948379 0.3919654
-0.927449 -0.33210537 0.38969514 0.25477308 -0.368254 -0.70725435 0.06349663 0.17125845
0.14842346 0.286001 -0.6637102 -0.09344464 0.36957923 0.064121835 -0.1394985 0.05644383
-0.37121326 -0.38509247 -0.41662043 -0.43881163 -0.11417605 -0.19317657 -0.2498491 0.18760972
-0.11362401 -0.023688767 -0.17269889 0.0028943627 -0.018265443 0.24340303 -0.2310475 -0.40970114
0.29609418 -0.3055831 0.1302582 -0.11785027 -0.03943757 -0.20336418 -0.035263613 0.2602088
-0.23007083 -0.3966207 -0.41665673 0.09267883 -0.23003079 -0.71833956 0.29345024 -0.049326345
0.15459651 0.16944915 0.060896147 -0.18455657 0.3915444 0.31251535 -0.090135686 -0.35175183
-0.2008885 0.19460778 0.4763615 0.2151538 -0.82740515 0.13033248 0.12275056 0.1636757
0.030988408 0.25075924 0.36783344 -0.45227215 -0.4031267 0.0031246173 -0.6712471 0.12091417
0.09418979 -0.31414878 0.24022825 0.009823277 0.050174978 -0.17629464 -0.41588843 -0.36307988
00000000: 9e91 063e 64e5 57bf 311a 4c3d 189c 6e3e
00000010: aebb 6a3e 15d5 b03e fb5d fa3c e61c 93be
00000020: 94c5 bb3e 270a a1be b3cb 96be b929 2cbf
00000030: a780 a63e 2eaa 9ebd 1a5f ddbb 473b 963e
00000040: 01ea 36be da4e c3be 0ff8 54be 2acb cf3e
00000050: a60a 5d3e 4d1a 77bf b14f a23d d7d5 8cbd
00000060: 9cf9 ee3d 2e53 283e 9f42 81bf aa1b 8d3e
00000070: 9bf3 d2be 5ad1 4b3e faa7 a4be 3f64 c3be
00000080: 5d1e d6be 7550 e1be cd8f 8ebe 3b00 a43e
00000090: f37f 00bf 47ea e63d 427f 16be b9e5 ddbe
000000a0: d034 cbbe e448 32bf fe00 f93d aa93 78be
000000b0: 1d7b 9ebe f513 6dbe a594 7d3e c1c0 33be
000000c0: 6ca8 50be 99b7 c03c ad80 323d e3fc 59bf
000000d0: e103 9a3e ffcb 99be 400b e8bd fdd8 ab3d
000000e0: a345 8a3e cf2b 8e3e 7e8e f7be 6af1 9e3e
000000f0: 83cb d6be 2e92 c1bd 0f7b de3d 8ee8 c13d
00000100: 6520 e1be 589e 4f3e 3e52 f2be 7d3c 563e
00000110: d3ed 42be f400 e73d eb45 4ebd 7264 ec3e
00000120: a628 8c3d b9f4 cebe 8196 f1be d1b3 4cbd
00000130: 860d 5d3f c4c0 ae3c 0834 88be b851 35be
00000140: d99d 83be c4ba b3be a7fe 503e e26a fa3d
00000150: 52fd fcbd ddef db3e a908 a23e 851a b5bd
00000160: c1c0 97be 4b35 41be ba89 8d3e a8fa e1bc
00000170: abdb 29be b9c2 d0bd 3508 92bd 1444 233d
00000180: 7359 4fbf bdfd 2cbd 2640 05bc abfa d93c
00000190: 0102 84bd edac 42bf e011 01be 5911 7a3d
000001a0: ffe5 453c 334b be3d 62c1 2ebe f818 54be
000001b0: 7890 6b3e 6ad3 a93e 5137 13be 63f0 adbd
000001c0: 4749 233d 6daa 84be 2fcc c9bd 4cba 1cbe
000001d0: 0ba5 28bf cbdd 213e 12d7 61be 2f23 32be
000001e0: 037a 5a3e 6fa1 b13e 0684 c1be 1b22 bbbe
000001f0: 550e 713c 30b7 983e f203 67be cbcf 8cbd
00000200: 3384 89be 7285 3cbe 1242 b53e 9cb5 05bf
00000210: d75e 903e 6c3e d4be 6a8c b5be 75a8 363e
00000220: 88a0 cfbe 1515 b0be d714 41be 0c6e d1be
00000230: d858 8ebe 6e1e 5bbe 1516 933e c2f6 f7be
00000240: af58 523e c340 e53d 93a1 febd a0e5 bcbe
00000250: ea41 3bbe 81b0 2dbe 71fa 033e 1199 1fbf
00000260: f434 a23e 760a 0b3d 0739 cfbe e6cd 913c
00000270: 94b5 fe3d 7e47 7c3e 66d3 f1be 7758 a53e
00000280: c311 af3e dd37 eebd 2504 b5be 9ca9 29bd
00000290: 0229 c5be 9bf9 85be da8a 86bd a0b1 7bbe
000002a0: 8d5c 77bc 8f8d 11bd 0ecd bb3e 644b 28bf
000002b0: 9fc4 54be ae8e b83e 3128 cabe b0af c83e
000002c0: 4c6d 6dbf b709 aabe 1f86 c73e 9e71 823e
000002d0: ca8b bcbe 9f0e 35bf 850a 823d 605e 2f3e
000002e0: 52fc 173e b96e 923e e9e8 29bf e75f bfbd
000002f0: 7d39 bd3e 4f52 833d b2d8 0ebe a531 673d
00000300: aa0f bebe d72a c5be 464f d5be ebab e0be
00000310: 22d5 e9bd 14d0 45be 71d8 7fbe c31c 403e
00000320: b4b3 e8bd f20e c2bc fad7 30be 59af 3d3b
00000330: 69a1 95bc a53e 793e b797 6cbe 59c4 d1be
00000340: a899 973e 6375 9cbe 6862 053e 7b5b f1bd
00000350: 4a89 21bd b33e 50be 9470 10bd 163a 853e
00000360: b097 6bbe de11 cbbe 0854 d5be 66ce bd3d
00000370: 318d 6bbe 1ae5 37bf 1c3f 963e 6c0a 4abd
00000380: 8c4e 1e3e 1484 2d3e 3d6e 793d 66fc 3cbe
00000390: 8278 c83e 0302 a03e 0f99 b8bd d118 b4be
000003a0: b7b5 4dbe 4347 473e a8e5 f33e 4751 5c3e
000003b0: d3d0 53bf e175 053e a564 fb3d 9a9a 273e
000003c0: 67db fd3c 8463 803e aa54 bc3e 3790 e7be
000003d0: 9f66 cebe 61c6 4c3b dad6 2bbf d9a1 f73d
000003e0: 94e6 c03d 1cd8 a0be 65fe 753e cff1 203c
000003f0: 4784 4d3d 9586 34be 54ef d4be 9be5 b9be

0.bias f4 [128]
-0.28142828 -0.15029164 -0.1894002 0.17989446 0.25001985 0.07750462 0.079472646 -0.07904137
0.3236598 -0.42210716 -0.21514575 -0.12374149 -0.49966082 -0.1757246 0.3731424 0.0901394
0.13938318 -0.093235195 -0.15604992 0.34248108 0.39671543 0.6227632 -0.112269774 -0.0002800991
0.068343446 -0.019750929 0.2281968 0.22946088 0.14815979 0.26968133 0.27359 -0.107837915
0.11773111 -0.10019892 0.25131184 0.38099313 -0.3422272 -0.20746171 -0.078928545 0.12836733
0.0062826076 0.21869393 0.338054 -0.22297238 -0.35705173 0.2384199 0.0020495497 0.012179823
-0.086782366 -0.49968976 0.41531572 -0.054986205 0.39494544 0.2376989 0.11097095 0.30486888
-0.19023545 -0.14946705 -0.4112947 0.24183999 -0.2912184 -0.5017361 -0.2923182 0.11773495
-0.31976876 0.35078585 -0.07280509 0.25628608 0.011788531 0.36306465 -0.52637964 0.33893618
0.25509632 0.32550454 0.39922896 0.17256668 0.61858165 0.061702237 -0.17531724 0.35339618
-0.102125876 0.13273284 0.16624504 0.36422616 -0.19991128 0.17125686 0.030233087 0.037155535
-0.49288988 -0.22269894 -0.36297867 -0.04229556 0.33138844 0.1373543 -0.12646428 -0.090676636
0.3002691 -0.016672745 -0.006861416 -0.29245338 -0.12918814 -0.18436678 0.42709163 0.3369574
0.10730312 -0.33023062 -0.074122 -0.26163635 -0.43907237 -0.11620436 -0.24999171 0.17062971
0.3847597 -0.29328787 -0.36104614 -0.3766925 -0.16067164 0.2662538 0.4606107 -0.37112156
0.12572269 -0.0030081125 0.33495757 -0.27583328 -0.36959028 0.2812476 -0.21168543 0.51267844
00000000: 5e17 90be 0de6 19be 20f2 41be 4136 383e
00000010: 9a02 803e beba 9e3d 8ec2 a23d 71e0 a1bd
00000020: bdb6 a53e 6e1e d8be 2b4f 5cbe 2e6c fdbd
00000030: 8bd3 ffbe 26f1 33be 850c bf3e 019b b83d
00000040: 77ba 0e3e 18f2 bebd 8dcb 1fbe ae59 af3e
00000050: 491e cb3e 696d 1f3f b2ed e5bd 44da 92b9
00000060: a6f7 8b3d b3cc a1bc 6cac 693e cbf7 6a3e
00000070: 33b7 173e ac13 8a3e fd13 8c3e 20da dcbd
00000080: 021d f13d 1735 cdbd f2ab 803e 8811 c33e
00000090: 6738 afbe d870 54be 4aa5 a1bd ba72 033e
000000a0: 55de cd3b 4df1 5f3e 6a15 ad3e df52 64be
000000b0: 7ccf b6be 5924 743e bd51 063b e18d 473c
000000c0: f4ba b1bd 56d7 ffbe 43a4 d43e 3739 61bd
000000d0: 4a36 ca3e 5767 733e bd44 e33d c617 9c3e
000000e0: 15cd 42be e40d 19be 3895 d2be e7a4 773e
000000f0: 941a 95be c771 00bf bbaa 95be 051f f13d
00000100: bbb8 a3be 349a b33e d61a 95bd ee37 833e
00000110: af24 413c 9ce3 b93e d1c0 06bf 0b89 ad3e
00000120: fc9b 823e 88a8 a63e bd67 cc3e 52b5 303e
00000130: 5e5b 1e3f 7cbb 7c3d 5d86 33be 58f0 b43e
00000140: 5f27 d1bd 1eeb 073e 243c 2a3e da7b ba3e
00000150: 8bb5 4cbe f55d 2f3e 61ab f73c 6730 183d
00000160: 105c fcbe 310b 64be 57d8 b9be 1c3e 2dbd
00000170: bfab a93e 9ba6 0c3e da7f 01be acb4 b9bd
00000180: dfbc 993e 4895 88bc bbd5 e0bb 73bc 95be
00000190: e549 04be a5ca 3cbe c1ab da3e ae85 ac3e
000001a0: bdc1 db3d fd13 a9be 46cd 97bd 33f5 85be
000001b0: 18ce e0be 8dfc edbd d4fd 7fbe 8eb9 2e3e
000001c0: 39ff c43e d429 96be 0adb b8be d7dd c0be
000001d0: 1b87 24be 6b52 883e 2ad5 eb3e a503 bebe
000001e0: 73bd 003e c123 45bb 8f7f ab3e 053a 8dbe
000001f0: f03a bdbe afff 8f3e 11c4 58be e53e 033f

2.weight f4 [128, 128]
0.00970881 -0.0121845165 0.11343407 -0.027578928 0.029640656 -0.026268922 -0.079587534 0.06420456
0.09653525 -0.054243658 -0.04743659 0.030855937 0.047214843 0.06188584 0.10222249 0.12096014
0.043754328 0.0679521 0.04088496 0.08938429 -0.04959727 -0.102206826 0.009057547 0.009898879
0.06145036 0.06437873 0.116645135 -0.052368913 0.034470905 -0.059288338 0.027460812 0.061833497
-0.0351648 -0.0036332058 0.0060542286 0.06588923 0.06694379 0.11667331 -0.046511218 -0.05599488
-0.076508604 -0.070996046 0.118726246 -0.051558744 0.0021425774 -0.08800897 0.25638184 0.058404017
0.18997088 -0.024483696 0.12095198 0.06391433 -0.02488979 0.14715005 -0.026801866 0.031646997
-0.067401536 -0.014907782 0.030945726 -0.08928918 -0.012106394 -0.054955013 0.009656465 -0.083051585
0.07771204 0.01528329 0.0660458 0.022932693 -0.1436719 0.003053895 0.045174286 0.11832244
0.03528666 0.09827461 0.0825108 -0.016675046 0.17004304 -0.009279464 -0.0070549552 -0.05857902
0.06840447 -0.032329593 0.028133927 0.0035422882 -0.008261597 -0.07891379 -0.017369213 0.035918828
0.097943164 -0.0033734038 0.021690655 0.016004674 0.021960137 0.015067541 0.08996751 0.011313675
0.1756227 -0.014972867 0.035154317 0.062423054 0.017395725 -0.095525816 -0.08882653 -0.0058816653
-0.05533585 0.09417543 0.04556261 0.078083366 0.014543138 0.051704045 -0.006474936 0.05139719
0.0226184 -0.007401135 -0.08696024 -0.0855625 -0.032809783 0.07317441 0.10872419 0.09036036
-0.049796194 0.08541422 0.01035813 0.042236876 -0.08216474 0.03243021 0.053747892 -0.08103427
0.06948046 -0.024493208 -0.033570956 0.006952586 0.004691766 -0.003306473 0.03728521 0.044687144
0.0474316 0.034440067 0.045929063 -0.06601668 -0.07249713 -0.034288134 0.0753614 0.03362074
-0.00085552834 -0.0696833 0.07257585 0.059772722 -0.003621215 0.030389668 0.058945917 0.027689477
0.07468452 0.030983191 0.083138585 -0.005672755 0.04653169 0.061073627 0.012423974 -0.04930884
0.021419471 -0.05464854 0.07590067 0.06903266 0.028668096 -0.03731742 -0.072707854 0.022422418
0.08216037 0.021364449 0.03308379 -0.013851994 -0.025915107 0.08804842 -0.00028616656 -0.05692677
0.062554814 -0.022699386 -0.06637289 0.041557603 -0.03201247 0.037757054 -0.039336253 -0.061073996
0.017855428 0.07786268 -0.0047981236 -0.015406623 0.013540676 0.06308728 0.003156388 0.07177923
-0.037973825 -0.027276007 -0.06781323 -0.058146592 0.013650521 0.038810123 -0.05069459 -0.08609087
-0.045997143 -0.019764079 -0.012066706 0.017721865 0.033411838 -0.07765526 -0.032556374 0.027021345
-0.020323673 0.05243363 -0.005440157 -0.043165527 -0.06645539 0.0066508357 0.025406342 -0.06916263
-0.07357296 0.07682601 0.052797094 -0.053652547 -0.04603381 -0.07468626 -0.05846375 0.0746595
0.039229684 0.036961794 0.06927718 -0.08481252 -0.026049891 -0.030872302 -0.014593515 -0.075132266
-0.07749973 -0.005365768 0.025452565 -0.028823229 0.0034103016 -0.021912841 0.044128317 -0.082221545
0.020390002 -0.019506635 -0.067124896 0.028474115 0.030330747 -0.07385547 -0.011046889 0.063974164
0.04098409 -0.073444635 -0.03175354 -0.07222641 0.085767604 0.017894952 0.08296809 0.008720678
00000000: b311 1f3c 91a1 47bc 1f50 e83d 34ed e1bc
00000010: f6d0 f23c ec31 d7bc cafe a2bd ae7d 833d
00000020: 46b4 c53d 992e 5ebd df4c 42bd 97c5 fc3c
00000030: 5a64 413d 027c 7d3d 065a d13d f3b9 f73d
00000040: bd37 333d 782a 8b3d fd76 273d 1c0f b73d
00000050: 8226 4bbd d051 d1bd 1b66 143c e82e 223c
00000060: 5fb3 7b3d ffd8 833d a5e3 ee3d c980 56bd
00000070: 5d31 0d3d 54d8 72bd 7ff5 e03c 1f45 7d3d
00000080: f708 10bd 141b 6ebb 8d62 c63b eff0 863d
00000090: d319 893d 6bf2 ee3d 8c82 3ebd e35a 65bd
000000a0: 8bb0 9cbd 6066 91bd bf26 f33d 432f 53bd
000000b0: 7c6a 0c3b 0c3e b4bd 7b44 833e 0d39 6f3d
000000c0: ba87 423e 0892 c8bc acb5 f73d 84e5 823d
000000d0: ace5 cbbc 81ae 163e 968f dbbc 48a0 013d
000000e0: d109 8abd c53f 74bc e481 fd3c 3fdd b6bd
000000f0: e659 46bc 8218 61bd 2636 1e3c f316 aabd
00000100: 7d27 9f3d c466 7a3c 0543 873d 58dd bb3c
00000110: ba1e 13be db23 483b ac08 393d 0953 f23d
00000120: bf88 103d 3344 c93d 6cfb a83d 1b9a 88bc
00000130: c31f 2e3e e508 18bc 412d e7bb 8ef0 6fbd
00000140: a517 8c3d 096c 04bd 1f79 e63c bc25 683b
00000150: a65b 07bc 8e9d a1bd e149 8ebc 9f1f 133d
00000160: 6d96 c83d 5314 5dbb 9ab0 b13c 3c1c 833c
00000170: bfe5 b33c d9dd 763c e340 b83d fe5c 393c
00000180: 70d6 333e c250 75bc f9fd 0f3d 51af 7f3d
00000190: 7b81 8e3c 0aa3 c3bd afea b5bd fcba c0bb
000001a0: d8a7 62bd 0cdf c03d dc9f 3a3d 2cea 9f3d
000001b0: 5846 6e3c 9fc7 533d b32b d4bb dc85 523d
000001c0: 394a b93c 3885 f2bb 3618 b2bd 643b afbd
000001d0: 8d63 06bd 77dc 953d caaa de3d da0e b93d
000001e0: 18f7 4bbd a7ed ae3d 25b5 293c 9300 2d3d
000001f0: fd45 a8bd 8ad5 043d c026 5c3d 4cf5 a5bd
00000200: c54b 8e3d fba5 c8bc b381 09bd 85d2 e33b
00000210: 63bd 993b 69b1 58bb 60b8 183d de09 373d
00000220: a347 423d 0711 0d3d 1d20 3c3d c133 87bd
00000230: 6079 94bd b771 0cbd 1457 9a3d e7b5 093d
00000240: 8945 60ba 1eb6 8ebd a6a2 943d 3ed4 743d
00000250: e851 6dbb c1f3 f83c 4671 713d 0bd5 e23c
00000260: 33f4 983d 76d0 fd3c 9044 aa3d 85e2 b9bb
00000270: 0398 3e3d 5728 7a3d ed8d 4b3c 11f8 49bd
00000280: e377 af3c 26d7 5fbd cf71 9b3d ff60 8d3d
00000290: 5bd9 ea3c 27da 18bd dbe7 94bd 38af b73c
000002a0: b243 a83d 7f04 af3c de82 073d 79f3 62bc
000002b0: eb4b d4bc bb52 b43d a008 96b9 0b2c 69bd
000002c0: bd1c 803d 10f4 b9bc 82ee 87bd 4e38 2a3d
000002d0: 821f 03bd 24a7 1a3d 0d1f 21bd ba28 7abd
000002e0: 8c45 923c 7876 9f3d 9439 9dbb 0f6c 7cbc
000002f0: b6d9 5d3c e733 813d 67db 4e3b fd00 933d
00000300: 718a 1bbd ef71 dfbc aae1 8abd 1f2b 6ebd
00000310: 6fa6 5f3c 5df7 1e3d 21a5 4fbd 6950 b0bd
00000320: 8067 3cbd 47e8 a1bc 6fb3 45bc 722d 913c
00000330: dada 083d b909 9fbd d559 05bd de5b dd3c
00000340: d57d a6bc a5c4 563d 5843 b2bb 56ce 30bd
00000350: c319 88bd 41ef d93b f620 d03c 23a5 8dbd
00000360: 6cad 96bd f556 9d3d c441 583d c6c2 5bbd
00000370: f38d 3cbd 1cf5 98bd af77 6fbd 14e7 983d
00000380: 4eaf 203d 4065 173d 32e1 8d3d 30b2 adbd
00000390: 9566 d5bc e9e7 fcbc a319 6fbc f2de 99bd
000003a0: 2eb8 9ebd 53d3 afbb e681 d03c b11e ecbc
000003b0: 5e7f 5f3b 8f82 b3bc e5bf 343d c563 a8bd
000003c0: ef08 a73c 61cc 9fbc c778 89bd 8c42 e93c
000003d0: 3078 f83c 8941 97bd 03fe 34bc e304 833d
000003e0: efde 273d 246a 96bd 0010 02bd 71eb 93bd
000003f0: eda6 af3d 6f98 923c 2deb a93d 2de1 0e3c

2.bias f4 [128]
-0.019408094 -0.02799108 -0.05312915 0.037823655 0.062982276 0.009821301 -0.07577556 0.09292312
-0.100904785 0.07414934 -0.032325927 -0.07563559 0.036452394 0.042842265 0.04910513 -0.025943166
0.052836847 -0.004666622 0.2274477 -0.07052766 0.057030696 -0.08620014 -0.022189105 0.009606218
-0.050549023 -0.079092406 0.08043139 -0.029900061 0.12183668 -0.050429333 -0.024194833 -0.07034775
-0.034798373 -0.03984262 -0.013538466 0.07153871 0.084104076 -0.022109076 -0.089801624 -0.08794185
0.040608197 0.035835925 -0.0679656 0.0031872103 0.009199177 0.050953478 -0.08338163 -0.0006888193
-0.020004282 0.048484255 -0.018813878 -0.111767605 0.013661039 0.0087135965 -0.015727116 0.047971636
0.008482196 -0.018650483 -0.054863803 -0.034227762 0.16062813 0.026935246 -0.06667561 0.19462071
-0.03418519 -0.11903944 0.09052972 0.113331914 0.06675505 0.051512513 -0.004424361 0.066822685
0.11264814 -0.07658838 0.16969706 -0.1040303 -0.10752747 -0.0767602 0.106847845 -0.005354273
-0.015044711 -0.1017158 0.0198203 0.04472764 -0.05408175 0.0038297484 0.0047542844 0.019227002
-0.046118453 0.10837238 0.066219695 0.001888772 -0.09656613 0.050895486 0.02895141 0.059235025
0.043674994 -0.051450912 -0.0078138495 0.04562015 0.06791209 0.10598482 0.15989326 0.057017
-0.049537435 0.14175183 -0.008848342 -0.0382603 -0.056027364 -0.031300947 0.020735431 0.040976476
-0.012082046 0.08025488 0.047700454 0.08396733 0.053509403 -0.09451295 -0.026431512 0.052544195
-0.046018187 0.026917707 0.053120296 -0.06647506 -0.11415629 -0.093710065 0.06283316 0.07926834
00000000: b9fd 9ebc 8d4d e5bc f49d 59bd faec 1a3d
00000010: dafc 803d 86e9 203c 3830 9bbd 7a4e be3d
00000020: 2ba7 cebd 9cdb 973d 3168 04bd d5e6 9abd
00000030: 1b4f 153d 5f7b 2f3d 7622 493d c386 d4bc
00000040: 736b 583d 76ea 98bb 0de8 683e ce70 90bd
00000050: 0599 693d b389 b0bd edc5 b5bc 6663 1d3c
00000060: 7e0c 4fbd 33fb a1bd 36b9 a43d f9f0 f4bc
00000070: 8285 f93d fd8e 4ebd 3e34 c6bc 7b12 90bd
00000080: bd88 0ebd 0432 23bd 71d0 5dbc e382 923d
00000090: c23e ac3d 181e b5bc eae9 b7bd db1a b4bd
000000a0: c854 263d b1c8 123d 8c31 8bbd 84e0 503b
000000b0: 25b8 163c 98b4 503d fdc3 aabd e191 34ba
000000c0: 05e0 a3bc 6d97 463d 901f 9abc 6ae6 e4bd
000000d0: 8dd2 5f3c 79c3 0e3c 27d6 80bc e87d 443d
000000e0: e9f8 0a3c e6c8 98bc deb8 60bd 6932 0cbd
000000f0: b37b 243e 4ea7 dc3c 398d 88bd a74a 473e
00000100: c505 0cbd f3ca f3bd a567 b93d 901a e83d
00000110: dfb6 883d c9fe 523d 3bfa 90bb 55da 883d
00000120: 11b4 e63d 5eda 9cbd 11c5 2d3e d70d d5bd
00000130: 5d37 dcbd 7434 9dbd 0bd3 da3d e672 afbb
00000140: 177e 76bc 6050 d0bd 2f5e a23c 5434 373d
00000150: d384 5dbd 84fc 7a3b d4c9 9b3b f281 9d3c
00000160: b4e6 3cbd 57f2 dd3d 319e 873d ac90 f73a
00000170: 77c4 c5bd c977 503d 822b ed3c 6da0 723d
00000180: 8de4 323d 31be 52bd a905 00bc 32dc 3a3d
00000190: 7e15 8b3d 920e d93d 0fbb 233e a88a 693d
000001a0: c4e7 4abd 6427 113e a3f8 10bc d5b6 1cbd
000001b0: f37c 65bd 6c35 00bd 5add a93c f3d6 273d
000001c0: c6f3 45bc ac5c a43d 8d61 433d 10f7 ab3d
000001d0: ad2c 5b3d 0190 c1bd e686 d8bc 9538 573d
000001e0: 917d 3cbd 8682 dc3c ab94 593d 1424 88bd
000001f0: c6ca e9bd 10eb bfbd acae 803d 7057 a23d

4.weight f4 [8, 128]
0.06938068 0.016982187 -0.08346055 0.011137199 -0.03918128 -0.04682055 -0.07135612 0.09162576
0.06688575 -0.044945013 -0.085019864 0.0465402 -0.08800877 -0.020202415 0.036400825 0.071335025
0.0060330676 0.11782931 0.06230836 -0.055276126 -0.021232165 -0.071726054 -0.031379353 -0.042667955
-0.08718695 0.0679482 -0.05694566 -0.067507856 -0.0023846468 -0.03190459 -0.08204937 0.0568085
0.021442058 0.10248936 0.01532829 0.015375454 0.13212682 -0.057302028 -0.02635966 0.0076073376
-0.037222806 -0.035020076 0.043342177 0.09427329 -0.09673812 0.03269827 -0.029249776 -0.004761556
0.053278897 0.04917657 0.05855117 -0.15344477 -0.04148058 0.015254872 0.0018448833 0.001950123
0.045459393 0.031182276 0.026489427 -0.052404877 -0.02126006 0.15856189 0.009796382 0.16818924
-0.037562948 -0.020279204 -0.007532131 0.0727348 0.2044839 -0.00043483023 -0.016434751 0.06616431
-0.027542794 -0.021824334 -0.021520723 0.05400715 0.09411187 0.08631449 0.007478452 0.018894421
-0.012599051 -0.033841953 -0.010306529 -0.07516693 0.08477344 -0.030481102 -0.029775636 0.063216306
-0.051137805 0.0647422 0.02136691 -0.03644037 0.043115616 0.008299564 0.007813469 0.041539863
0.087682165 -0.024345914 0.0027594636 0.015068599 0.020759111 0.17985766 0.08222625 0.07674247
-0.008863313 -0.034661386 -0.008230576 0.00077864697 0.060537666 0.06307718 -0.017585728 -0.018236436
0.01818612 0.14164788 -0.021434756 0.08335441 0.06697788 -0.030936167 0.073813744 0.03782824
0.15131691 -0.1902565 -0.062657654 -0.05593933 0.07008163 0.035723083 0.0393344 0.025740806
0.022891536 0.034955878 -0.023849996 0.0829388 0.019555055 0.03852955 0.036184635 0.1259194
0.039368887 0.06395551 0.033301204 0.011880788 0.013779519 0.029004507 0.04357036 -0.027669406
0.0057889773 0.02177913 0.047801208 0.026055122 0.050349083 -0.08474431 0.031768702 -0.004527397
0.08105908 -0.043892328 0.06297507 -0.0028906025 -0.044345282 0.025529532 0.09083391 0.013801701
0.033450473 -0.018182013 0.11333214 -0.056969482 0.17521486 0.06207407 -0.009993176 -0.027096635
0.022142824 0.08656672 -0.036854375 -0.024316136 -0.014405852 -0.088912524 -0.021716436 0.08414749
-0.018825147 0.06655967 0.08522725 -0.031854626 -0.0070834574 -0.04273694 -0.010916262 0.001052993
0.09458869 0.05956264 0.034659598 0.03618913 0.07937806 0.08169824 -0.040988047 0.11076315
0.02681169 -0.06055227 0.06473386 -0.026021475 -0.009048356 -0.04694119 0.0448353 0.077703506
0.02512135 -0.012510587 0.11618419 -0.005731887 -0.025298718 0.03635054 -0.050521888 -0.07477659
0.06830562 -0.06987521 0.0904428 0.05394259 -0.078062646 0.010085828 0.0564282 0.023654992
0.030735083 0.00044638375 0.070289604 0.043302923 -0.03938115 -0.02672641 0.017360467 -0.036867227
-0.01769709 0.0044656815 0.010354079 -0.088046886 0.1102649 0.1378594 0.042646788 0.027050564
-0.0051336214 0.026668377 0.007479952 0.037761584 0.040732335 -0.057338037 0.065302104 -0.050001614
0.07108987 0.010884431 -0.0050170356 0.054722223 -0.038013063 0.041813955 -0.07884347 -0.05377698
0.14685005 0.012050909 0.072009124 0.07902055 -0.057857275 -0.036512077 0.009382447 0.04302318
00000000: 7517 8e3d 3a1e 8b3c 5ded aabd cc78 363c
00000010: 8d7c 20bd e8c6 3fbd 2823 92bd 49a6 bb3d
00000020: 65fb 883d 4318 38bd e51e aebd f0a0 3e3d
00000030: f13d b4bd 897f a5bc 0819 153d 1918 923d
00000040: 0ab1 c53b 7e50 f13d 0d37 7f3d 3869 62bd
00000050: 14ef adbc 1ce5 92bd a387 00bd 98c4 2ebd
00000060: 128f b2bd 6d28 8b3d da3f 69bd 8f41 8abd
00000070: bc47 1cbb 63ae 02bd 8009 a8bd 08b0 683d
00000080: 41a7 af3c f1e5 d13d 8223 7b3c 54e9 7b3c
00000090: 414c 073e 88b5 6abd 37f0 d7bc f946 f93b
000000a0: f176 18bd 3671 0fbd 9187 313d 5b12 c13d
000000b0: a31e c6bd 9fee 053d 3a9d efbc d406 9cbb
000000c0: f93a 5a3d 5f6d 493d 5ad3 6f3d a020 1dbe
000000d0: 8ae7 29bd 92ef 793c 03d0 f13a 459b ff3a
000000e0: a133 3a3d f971 ff3c 5b00 d93c 7fa6 56bd
000000f0: 9429 aebc 0c5e 223e 0181 203c cd39 2c3e
00000100: 9bdb 19bd 9320 a6bc 18d0 f6bb fcf5 943d
00000110: 3a64 513e edf9 e3b9 2ca2 86bc 2781 873d
00000120: 6da1 e1bc f2c8 b2bc 3a4c b0bc 9a36 5d3d
00000130: b9bd c03d a7c5 b03d cd0d f53b 79c8 9a3c
00000140: 406c 4ebc dc9d 0abd b7dc 28bc 1ff1 99bd
00000150: b39d ad3d 81b3 f9bc 09ec f3bc 8d77 813d
00000160: e075 51bd 8f97 843d a809 af3c 7f42 15bd
00000170: 009a 303d e5fa 073c 1004 003c b425 2a3d
00000180: b592 b33d 1571 c7bc 1ed8 343b 49e2 763c
00000190: 030f aa3c 9b2c 383e 3c66 a83d 282b 9d3d
000001a0: 6e37 11bc 19f9 0dbd 8ad9 06bc 1d1e 4c3a
000001b0: 58f6 773d 9c2e 813d f20f 90bc 9464 95bc
000001c0: 0ffb 943c 240c 113e f197 afbc b8b5 aa3d
000001d0: b32b 893d d86d fdbc a92b 973d c9f1 1a3d
000001e0: d2f2 1a3e 9ad2 42be a852 80bd a420 65bd
000001f0: f586 8f3d 5e52 123d 1c1d 213d 62de d23c
00000200: 0887 bb3c e52d 0f3d 1161 c3bc d1db a93d
00000210: ec31 a03c 29d1 1d3d 5736 143d 04f1 003e
00000220: 4541 213d 1bfb 823d d866 083d a3a7 423c
00000230: 7ec3 613c dc9a ed3c d576 323d f3aa e2bc
00000240: 76b1 bd3b 256a b23c 33cb 433d 8d71 d53c
00000250: d73a 4e3d 6d8e adbd e61f 023d 8f5a 94bb
00000260: 4e02 a63d 71c8 33bd 13f9 803d 4370 3dbb
00000270: 66a3 35bd 4f23 d13c 2107 ba3d 8820 623c
00000280: 5d03 093d 72f2 94bc ae1a e83d d558 69bd
00000290: 866b 333e 6141 7e3d 6bba 23bc c3f9 ddbc
000002a0: de64 b53c e449 b13d 9df4 16bd a232 c7bc
000002b0: 8606 6cbc c517 b6bd abe6 b1bc 8555 ac3d
000002c0: 3237 9abc 7050 883d a08b ae3d ff79 02bd
000002d0: 591c e8bb ee0c 2fbd 1fda 32bc 9504 8a3a
000002e0: b7b7 c13d f4f7 733d 39f7 0d3d 0e3b 143d
000002f0: f790 a23d 6851 a73d 15e3 27bd cad7 e23d
00000300: 30a4 db3c a805 78bd 3093 843d fd2a d5bc
00000310: 8e3f 14bc 6845 40bd 38a5 373d 0423 9f3d
00000320: 4acb cd3c 35f9 4cbc faf1 ed3d 8ed2 bbbb
00000330: 423f cfbc 4ee4 143d 0af0 4ebd 7824 99bd
00000340: d1e3 8b3d bc1a 8fbd 133a b93d e8f2 5c3d
00000350: 4fdf 9fbd 073f 253c 4221 673d 1dc8 c13c
00000360: 24c8 fb3c 9d08 ea39 fff3 8f3d 685e 313d
00000370: 214e 21bd 58f1 dabc 8a37 8e3c 1702 17bd
00000380: 7df9 90bc da54 923b 28a4 293c ed51 b4bd
00000390: 90d2 e13d 042b 0d3e 66ae 2e3d 2599 dd3c
000003a0: f037 a8bb a477 da3c 631a f53b e4ab 1a3d
000003b0: f3d6 263d 4adb 6abd 1cbd 853d 7ece 4cbd
000003c0: 9197 913d 9d54 323c f265 a4bb 6924 603d
000003d0: 96b3 1bbd 1c45 2b3d af78 a1bd 4045 5cbd
000003e0: dc5f 163e 2d71 453c 8579 933d 87d5 a13d
000003f0: c0fb 6cbd b08d 15bd d6b8 193c 1339 303d

4.bias f4 [8]
0.05570458 0.15785061 0.04924748 -0.0060067647 0.07482041 0.18423933 -0.047734994 0.18612626
00000000: 7c2a 643d 97a3 213e bab7 493d 65d4 c4bb
00000010: 713b 993d 3ca9 3c3e c585 43bd e297 3e3e
