Runs/1/final_model-1.pth (torch, 113072 bytes, 6 tensors)

0.weight f4 [128, 5]
0.17648233 0.39478618 -0.15593328 0.39017645 -0.3426148 -0.08297487 -0.45384157 0.030087091
0.3358499 -0.54884404 -0.1517599 -0.07541395 -0.08908033 0.14840993 -0.33467123 0.33143476
0.043291125 -0.14186488 0.22447239 0.5816833 0.07338127 -0.3734965 0.059552293 -0.3234706
-0.06807566 -0.40590057 -0.25272787 0.023940591 -0.14640418 0.33985543 0.24040744 -0.6244446
-0.043017175 0.22982633 -0.21119553 0.2853808 -0.10558559 0.121683404 -0.23435357 -0.079268314
-0.24655554 -0.17906411 0.17189805 -0.30391216 -0.22099559 -0.24034725 0.20185246 -0.3449018
-0.11118354 -0.1987119 -0.096998386 0.1677556 0.26731363 0.008124417 -0.2534283 0.019090392
-0.11863384 -0.28282076 -0.39150536 -0.05862477 0.2760914 -0.15659887 -0.26926962 -0.19809242
-0.22242412 0.17998563 -0.25855336 -0.08893643 -0.24025731 -0.24771726 -0.37344918 -0.059661426
-0.20662673 0.49754828 -0.039563634 0.28394708 0.39091668 -0.2003803 0.09109927 0.23238063
0.32796726 0.14902455 0.14755522 0.22227527 -0.23980877 0.08187723 -0.32316914 0.35538003
0.14616321 -0.37822422 0.030229459 -0.5434671 0.296615 0.10757094 -0.101675786 -0.10809827
-0.22213934 0.17944022 0.12337226 -0.030208325 0.29684013 -0.42184207 -0.31238863 0.14753295
0.08058527 0.056657024 0.04860413 -0.110292174 0.062140025 0.38114238 0.18179071 0.28247333
-0.42197728 -0.07165711 -0.029369641 -0.34759837 -0.5231547 0.058401067 -0.06618881 -0.28802714
-0.017249528 0.06921577 0.39422882 -0.40767214 -0.14976072 0.28573257 -0.06955682 0.036676507
0.06100923 -0.336255 0.24901344 -0.09516877 -0.19130604 0.16651917 0.2214402 -0.054479815
-0.27556723 0.12782584 -0.20750713 0.1395347 0.359705 -0.679647 -0.2347796 0.4398945
-0.34802672 -0.32841614 -0.58704114 0.11164632 0.22711225 -0.4427226 -0.068764344 0.23618743
-0.054207373 0.20981456 0.04962247 -0.3782316 0.28174323 0.43828577 -0.25858632 -0.43138635
-0.35619074 -0.08491951 -0.26290157 0.31276676 0.58582944 -0.41980097 0.56327796 -0.11926117
0.35359877 0.29239395 -0.100474596 0.07793177 -0.06453718 -0.3644789 -0.22196703 0.4314022
0.23150384 -0.34032312 0.106956266 0.11579801 -0.235371 -0.78676 0.3827825 -0.13653459
-0.33843026 0.16142942 -0.28041753 -0.36117733 -0.110581756 -0.4269821 -0.061593235 -0.08238338
-0.37749386 0.050464727 0.020261977 -0.052087918 0.31378743 0.14843811 -0.13506897 -0.12866534
-0.07982856 -0.19259253 -0.059948727 -0.2748107 -0.0130130295 0.34836972 0.58882594 0.19134486
0.12291761 -0.22529566 0.38960537 0.42767447 -0.35200766 -0.28618577 -0.31680825 -0.3826997
0.27646753 -0.1592212 0.19175035 0.28406528 -0.332439 -0.5617213 0.27910075 -0.08039488
-0.42788804 0.40877318 -0.2999786 0.16312353 -0.15844032 -0.4403649 -0.40475845 -0.2021057
-0.047836035 0.20475374 0.4088114 -0.22907117 -0.37489206 -0.31618524 -0.032147996 0.08084367
0.2579819 0.027049236 -0.31322476 0.18632992 -0.25566283 0.16383998 -0.52761716 0.141641
-0.35182244 0.25187767 0.3417443 -0.50104046 -0.1389408 0.1926625 0.24895799 -0.30920628
00000000: c9b7 343e 6a21 ca3e f9ac 1fbe 35c5 c73e
00000010: 356b afbe bbee a9bd ec5d e8be 3479 f63c
00000020: 85f4 ab3e 0b81 0cbf f266 1bbe a172 9abd
00000030: c06f b6bd c6f8 173e 075a abbe d1b1 a93e
00000040: 0952 313d 0745 11be 17dc 653e 32e9 143f
00000050: eb48 963d ef3a bfbe 1bed 733d f09d a5be
00000060: 406b 8bbd 33d2 cfbe 8c65 81be 0f1f c43c
00000070: faea 15be 8801 ae3e 5e2d 763e 9adb 1fbf
00000080: c732 30bd 9857 6b3e a443 58be 6f1d 923e
00000090: 423d d8bd 2635 f93d 62fa 6fbe 6d57 a2bd
000000a0: 0e79 7cbe 955c 37be 0b06 303e 609a 9bbe
000000b0: ab4c 62be 971d 76be 69b2 4e3e f896 b0be
000000c0: 32b4 e3bd 227b 4bbe 17a7 c6bd 20c8 2b3e
000000d0: 55dd 883e 461c 053c 5bc1 81be 7463 9c3c
000000e0: 4cf6 f2bd e2cd 90be 6473 c8be 8720 70bd
000000f0: da5b 8d3e 745b 20be b5dd 89be bdd8 4abe
00000100: 26c3 63be 274e 383e 1b61 84be 4e24 b6bd
00000110: 0306 76be 98a9 7dbe bb34 bfbe 8a5f 74bd
00000120: f595 53be a6be fe3e 7a0d 22bd 8361 913e
00000130: 3b26 c83e 7e30 4dbe 4192 ba3d 30f5 6d3e
00000140: 53eb a73e e499 183e b718 173e 219c 633e
00000150: 6e90 75be 40af a73d 6d76 a5be 5ff4 b53e
00000160: cfab 153e 9ba6 c1be c5a3 f73c a920 0bbf
00000170: ecdd 973e 274e dc3d 653b d0bd a062 ddbd
00000180: 7f78 63be 2dbf 373e 98aa fc3d 7377 f7bc
00000190: 6efb 973e affb d7be 67f1 9fbe e112 173e
000001a0: e409 a53d 3211 683d 2015 473d dde0 e1bd
000001b0: 8a86 7e3d 1825 c33e 5827 3a3e 58a0 903e
000001c0: 680d d8be f6c0 92bd 9a98 f0bc 6af8 b1be
000001d0: 77ed 05bf f535 6f3d 008e 87bd 4b78 93be
000001e0: e24e 8dbc ffc0 8d3d 5cd8 c93e 67ba d0be
000001f0: e05a 19be 8a4b 923e ce73 8ebd 1b3a 163d
00000200: d0e4 793d 9e29 acbe 61fd 7e3e d8e7 c2bd
00000210: bbe5 43be 0084 2a3e 38c1 623e 3a26 5fbd
00000220: 2617 8dbe c7e4 023e c07c 54be 2fe2 0e3e
00000230: 412b b83e 59fd 2dbf 106a 70be da39 e13e
00000240: 8f30 b2be 2926 a8be 5448 16bf d3a6 e43d
00000250: 1d90 683e 89ac e2be 52d4 8cbd 1edb 713e
00000260: 8d08 5ebd a1d9 563e ee40 4b3d 93a7 c1be
00000270: a640 903e fe66 e03e 6d65 84be acde dcbe
00000280: a25e b6be 48ea adbd 099b 86be f722 a03e
00000290: ebf8 153f 27f0 d6be fc32 103f 333f f4bd
000002a0: e60a b53e a9b4 953e a0c5 cdbd b19a 9f3d
000002b0: 122c 84bd fa9c babe 534b 63be c0e0 dc3e
000002c0: 580f 6d3e d53e aebe e30b db3d 8227 ed3d
000002d0: 1805 71be 1a69 49bf 11fc c33e b9cf 0bbe
000002e0: bb46 adbe c14d 253e e392 8fbe 3cec b8be
000002f0: b078 e2bd 669d dabe 3049 7cbd 9eb8 a8bd
00000300: e046 c1be 1ab4 4e3d 72fc a53c 245a 55bd
00000310: bfa8 a03e 2900 183e 854f 0abe d9c0 03be
00000320: 287d a3bd fa36 45be cc8c 75bd fdb3 8cbe
00000330: 9a34 55bc 845d b23e 4cbd 163f e8ef 433e
00000340: 3abc fb3d e8b3 66be 5b7a c73e 26f8 da3e
00000350: 593a b4be f186 92be b134 a2be 37f1 c3be
00000360: 278d 8d3e e20a 23be 345a 443e 0171 913e
00000370: 7235 aabe f8cc 0fbf 4be6 8e3e 12a6 a4bd
00000380: 2414 dbbe b84a d13e cc96 99be db09 273e
00000390: 2e3e 22be 8277 e1be 803c cfbe ccf4 4ebe
000003a0: b8ef 43bd f7aa 513e ba4f d13e a291 6abe
000003b0: daf1 bfbe 08e3 a1be 9ead 03bd 5e91 a53d
000003c0: 3416 843e 5c96 dd3c ff5e a0be 45cd 3e3e
000003d0: 3de6 82be abc5 273e eb11 07bf 570a 113e
000003e0: 1222 b4be 1cf6 803e 1cf9 ae3e 3044 00bf
000003f0: 7f46 0ebe 5249 453e d8ee 7e3e 4950 9ebe

0.bias f4 [128]
0.074694864 -0.4075014 0.0038090777 0.3477638 0.6101132 0.48507032 -0.13686296 0.26339063
0.36539128 -0.028837642 0.28744304 0.021345705 -0.22688606 -0.27839357 0.33712426 0.55326134
-0.655886 -0.563306 -0.19652309 -0.30483574 -0.0592369 0.5460168 -0.14839484 -0.17494994
-0.16291647 -0.20869572 0.37899134 0.27082667 0.43633723 -0.5013467 -0.05672757 -0.39199486
0.3323064 -0.26189253 -0.13699125 -0.4309152 -0.27620593 0.09229845 0.06737604 0.378594
0.5759675 -0.4221683 -0.22412984 0.13267481 0.1912203 0.07397593 -0.46726 -0.2960825
-0.03730375 0.2912098 0.10335015 -0.17372091 -0.31707364 -0.34235695 0.10956819 0.062011637
0.1388012 -0.19647779 -0.033526972 -0.055841822 -0.23649164 -0.029589804 0.050484985 0.48812357
-0.36528346 0.0046805465 0.010364122 -0.18867825 0.5921737 -0.31755364 0.124422334 0.72693855
-0.36348125 -0.25378338 -0.38267687 -0.4268404 -0.33341703 0.5045964 -0.031342026 0.051731016
0.055082913 -0.35322663 -0.1208442 0.026816307 0.057710443 0.09224578 -0.23299195 -0.46870062
0.2488447 0.3777184 0.214669 -0.3290139 -0.39904287 0.3085177 0.14017388 0.13124451
-0.096143275 -0.42259893 -0.35352898 -0.39410868 -0.24879716 -0.35390708 -0.2556989 0.05536976
-0.5347567 -0.016958361 -0.119676985 0.3341559 -0.39104933 -0.009972482 0.34271654 -0.18588796
-0.119246855 0.56993365 0.49236593 -0.17137611 -0.03894174 -0.08754403 0.31036624 0.28491732
-0.50035435 -0.32244188 0.054743763 0.29335272 0.086517274 0.38914585 0.46343058 -0.44641754
00000000: 9ff9 983d 06a4 d0be b8a1 793b 190e b23e
00000010: 6130 1c3f 235b f83e ce25 0cbe 23db 863e
00000020: 9114 bb3e eb3c ecbc bc2b 933e 30dd ae3c
00000030: d254 68be 9a89 8ebe 8d9b ac3e 89a2 0d3f
00000040: 25e8 27bf d234 10bf 593d 49be 6e13 9cbe
00000050: 64a2 72bd c2c7 0b3f d1f4 17be 1426 33be
00000060: 93d3 26be 55b4 55be 270b c23e cba9 8a3e
00000070: 9867 df3e 4258 00bf 2b5b 68bd 8db3 c8be
00000080: 1124 aa3e c716 86be 6f47 0cbe eba0 dcbe
00000090: dd6a 8dbe f806 bd3d 73fc 893d 13d7 c13e
000000a0: 9b72 133f 7226 d8be 4b82 65be e8db 073e
000000b0: 41cf 433e b180 973d b43c efbe 2098 97be
000000c0: d1cb 18bd 7319 953e 3ea9 d33d e5e3 31be
000000d0: 7a57 a2be 6949 afbe 4a65 e03d eaff 7d3d
000000e0: e721 0e3e 7931 49be 9453 09bd 65ba 64bd
000000f0: dd2a 72be 5166 f2bc 58c9 4e3d 55eb f93e
00000100: 6f06 bbbe 455f 993b 47ce 293c df34 41be
00000110: b298 173f 6496 a2be 23d1 fe3d a518 3a3f
00000120: 371a babe e5ef 81be 39ee c3be d38a dabe
00000130: a3b5 aabe 3b2d 013f 7f60 00bd e7e3 533d
00000140: 9f9e 613d 1fda b4be 2a7d f7bd dfad db3c
00000150: c961 6c3d 5beb bc3d 7195 6ebe 87f9 efbe
00000160: 25d1 7e3e 4e64 c13e 31d2 5b3e 8374 a8be
00000170: 594f ccbe 08f6 9d3e be89 0f3e f664 063e
00000180: c4e6 c4bd e35e d8be c001 b5be 9dc8 c9be
00000190: afc4 7ebe 4f33 b5be f7ea 82be 67cb 623d
000001a0: d1e5 08bf 43ec 8abc 3519 f5bd 7b16 ab3e
000001b0: 9e37 c8be 9f63 23bc 8b78 af3e 6a59 3ebe
000001c0: b237 f4bd 2ce7 113f 6317 fc3e 387d 2fbe
000001d0: 6081 1fbd 494a b3bd 53e8 9e3e afe0 913e
000001e0: 3917 00bf 1a17 a5be ff3a 603d 5432 963e
000001f0: f82f b13d 203e c73e c646 ed3e d790 e4be

2.weight f4 [128, 128]
0.12996812 -0.09576011 -0.07859747 0.23042075 -0.27230528 -0.50012594 -0.26474404 -0.122933164
-0.13687915 -0.07245217 0.09804477 0.06210415 -0.0839269 0.010830907 0.12081756 0.2459337
0.04807051 0.03455869 -0.09097858 -0.02559668 0.037261892 0.17212433 0.058165926 0.07025549
-0.024108013 -0.021336298 0.028579732 -0.087453395 -0.29615223 -0.15292032 0.1687518 0.0146001605
0.12806278 0.23313381 -0.058798563 0.081255876 -0.20776321 0.0027735576 -0.03879945 -0.07671764
-0.09597642 0.01582412 -0.059408892 0.10211375 -0.19632922 0.068133086 0.032714777 -0.010364964
-0.030762173 0.0019618953 -0.20735739 -0.11076786 -0.12371661 0.014506983 0.20985653 0.08640598
-0.27742678 -0.007425288 -0.004175311 0.11237276 -0.0067314864 -0.03660508 -0.13301615 -0.06064402
0.0089586815 0.012150975 -0.014927476 0.03433851 -0.20596534 -0.005333789 0.15836252 -0.49204925
-0.08409398 0.013324757 -0.19265231 0.051722128 0.07986149 -0.023361329 -0.07397079 -0.048148718
0.13289294 -0.015132057 -0.11829814 -0.08103474 0.03731872 0.020049382 0.084223345 0.14709362
-0.24876872 -0.07354692 0.12353844 -0.23332572 0.048750658 0.09434067 -0.09452985 -0.12442017
-0.0042244336 -0.094152994 0.0605281 -0.029312411 -0.17204805 -0.059597533 -0.07713824 0.17778978
0.10999991 -0.14855984 -0.058204263 -0.19249907 -0.036944587 -0.084067315 -0.14454938 -0.004037879
0.06445076 0.24389315 -0.12174896 0.05640514 0.07551617 -0.0042103017 -0.14846359 0.06329114
-0.050610196 0.042954635 -0.07725453 0.1650502 -0.29779637 -0.025908839 -0.3090445 -0.19422378
0.050058685 -0.020333147 0.06522447 -0.049933143 0.0040028715 0.04136239 0.07749989 0.0060518025
0.007843044 -0.0056979903 -0.07122854 0.0857799 -0.007149844 0.041780327 -0.0738215 -0.07568199
0.00036412769 -0.08180139 0.04324746 0.05805161 0.05704227 -0.030145967 0.057530396 0.084569156
0.059956875 -0.021314852 0.031663246 -0.021808015 -0.10627881 -0.017127087 -0.052104484 0.053015318
0.016410017 0.054155506 0.00578259 0.077549286 0.048341807 -0.045870703 0.06529943 0.041457705
0.035750277 0.00407285 -0.06147006 -0.049551446 0.0008912394 0.009255261 -0.0854036 0.048491854
0.047118332 0.04714889 0.0585261 -0.08123764 0.08022482 0.034065295 -0.00517275 -0.070091195
-0.06457506 -0.055894718 -0.093314536 -0.07992607 -0.057667322 -0.025910832 0.03952887 0.04072295
0.058375135 -0.06424757 0.036607098 0.011591047 0.056166094 0.082591824 0.06329694 -0.102146
0.026190314 0.00748037 -0.02988439 -0.03297462 0.04745419 -0.026860029 -0.020011313 0.008402622
0.021158867 0.007849524 -0.091266885 -0.09476744 0.05588954 0.029767454 0.03700408 -0.037623864
-0.0014826629 -0.047905814 -0.0297349 -0.03768434 -0.025699357 -0.049928583 -0.020003302 0.037736446
0.04275509 -0.061272617 0.056543842 -0.06902829 0.04216064 -0.069270484 -0.018658368 0.061536886
-0.09077535 0.044563737 0.067056894 -0.09763758 -0.032208316 -0.09603892 0.06313481 -0.017621018
-0.10533333 0.0661103 0.02733889 0.07622823 -0.06441723 -0.06174526 0.03604685 0.049198188
-0.050105415 -0.066769235 -0.004438295 -0.03877181 -0.0860737 0.0025539156 -0.07390358 -0.050688077
00000000: 5d16 053e e01d c4bd b6f7 a0bd 6bf3 6b3e
00000010: 996b 8bbe 4108 00bf 888c 87be 62c4 fbbd
00000020: 0c2a 0cbe ce61 94bd b2cb c83d ec60 7e3d
00000030: dee1 abbd 1e74 313c 326f f73d 0bd6 7b3e
00000040: 95e5 443d 6a8d 0d3d fa52 babd 21b0 d1bc
00000050: ed9f 183d 5c41 303e 653f 6e3d 1ce2 8f3d
00000060: 2b7e c5bc 76c9 aebc 0b20 ea3c c41a b3bd
00000070: 44a1 97be 2597 1cbe 46cd 2c3e 8335 6f3c
00000080: e422 033e a1ba 6e3e c3d6 70bd 7b69 a63d
00000090: e1bf 54be 93c4 353b 2cec 1ebd 231e 9dbd
000000a0: 498f c4bd 96a1 813c bd56 73bd 0421 d13d
000000b0: 870a 49be 5c89 8b3d eeff 053d cfd1 29bc
000000c0: f400 fcbc 2493 003b 7f55 54be 43da e2bd
000000d0: 225f fdbd b2ae 6d3c a1e4 563e 9ef5 b03d
000000e0: e20a 8ebe d54f f3bb 0cd1 88bb b123 e63d
000000f0: cd93 dcbb 35ef 15bd 6335 08be dd65 78bd
00000100: 6fc7 123c e214 473c 5f92 74bc 8aa6 0c3d
00000110: 94e8 52be 11c7 aebb c929 223e e1ed fbbe
00000120: 7739 acbd 1550 5a3c a646 45be 95da 533d
00000130: 6c8e a33d 4260 bfbc ff7d 97bd 9737 45bd
00000140: 1615 083e 72ec 77bc 4c46 f2bd 8bf5 a5bd
00000150: 84db 183d 9a3e a43c 4a7d ac3d b69f 163e
00000160: 3abd 7ebe c59f 96bd b901 fd3d f0ec 6ebe
00000170: c5ae 473d ae35 c13d de98 c1bd 01d0 febd
00000180: 1e6d 8abb 49d3 c0bd 50ec 773d 9520 f0bc
00000190: 5d2d 30be 8b1c 74bd a7fa 9dbd 860e 363e
000001a0: a247 e13d 1220 18be 9867 6ebd 7a1e 45be
000001b0: 3553 17bd 7c2b acbd c104 14be 2f50 84bb
000001c0: c3fe 833d 20bf 793e 8557 f9bd 1309 673d
000001d0: 39a8 9a3d 92f6 89bb d706 18be c99e 813d
000001e0: a34c 4fbd 33f1 2f3d 9f37 9ebd eb02 293e
000001f0: c478 98be c63e d4bc 153b 9ebe 99e2 46be
00000200: 560a 4d3d b391 a6bc 6894 853d b286 4cbd
00000210: 852a 833b 9c6b 293d 43b8 9e3d 334e c63b
00000220: 1c80 003c 35b6 babb 45e0 91bd 5fad af3d
00000230: 3d49 eabb d921 2b3d ba2f 97bd 29ff 9abd
00000240: 64e8 be39 7d87 a7bd 4024 313d 86c7 6d3d
00000250: 28a5 693d adf4 f6bc fea4 6b3d 9832 ad3d
00000260: 5795 753d 7c9c aebc 52b1 013d b9a6 b2bc
00000270: b4a8 d9bd 1b4e 8cbc 836b 55bd 9726 593d
00000280: 4d6e 863c 2ad2 5d3d e17b bd3b 29d2 9e3d
00000290: 0f02 463d ebe2 3bbd b5bb 853d 8ecf 293d
000002a0: e26e 123d 8b75 853b 08c8 7bbd 75f6 4abd
000002b0: 10a2 693a 61a3 173c 15e8 aebd 659f 463d
000002c0: 27ff 403d 321f 413d 10b9 6f3d eb5f a6bd
000002d0: e94c a43d 0d88 0b3d 2c80 a9bb f98b 8fbd
000002e0: ee3f 84bd dcf1 64bd b11b bfbd 48b0 a3bd
000002f0: 9234 6cbd f442 d4bc 06e9 213d 1ccd 263d
00000300: c41a 6f3d 3b94 83bd 53f1 153d 60e8 3d3c
00000310: 6b0e 663d e725 a93d d3a1 813d ec31 d1bd
00000320: 128d d63c e41d f53b 1cd0 f4bc 6510 07bd
00000330: 535f 423d 9009 dcbc c4ee a3bc 27ab 093c
00000340: 5c55 ad3c 4a9b 003c 22ea babd 6e15 c2bd
00000350: 6eec 643d e0da f33c 9791 173d 7b1b 1abd
00000360: e955 c2ba e338 44bd 9b96 f3bc e55a 1abd
00000370: 7587 d2bc ea81 4cbd f7dd a3bc 8891 1a3d
00000380: f61f 2f3d fff8 7abd 849a 673d b45e 8dbd
00000390: a3b0 2c3d afdd 8dbd 6fd9 98bc 1a0e 7c3d
000003a0: 6de8 b9bd 7788 363d 2055 893d 36f6 c7bd
000003b0: deec 03bd 0eb0 c4bd d34c 813d f459 90bc
000003c0: 00b9 d7bd d664 873d cff5 df3c 8c1d 9c3d
000003d0: 2eed 83bd 99e8 7cbd dda5 133d 0a84 493d
000003e0: 563b 4dbd 4fbe 88bd 1e6f 91bb 30cf 1ebd
000003f0: 6847 b0bd 985f 273b c35a 97bd 4d9e 4fbd

2.bias f4 [128]
0.016534923 -0.09039109 -0.010219511 0.047765177 0.022029435 0.057321236 0.12946974 -0.023140589
0.0006927094 0.103745855 0.013472095 0.051793225 0.027616112 -0.08757142 0.14260668 -0.085246675
-0.05524421 -0.034951847 0.18937705 -0.03384057 -0.08622386 -0.00448522 0.02500862 0.020614829
-0.060210537 -0.04898982 0.13542196 -0.00046380758 -0.070941605 -0.040042363 0.12773068 0.06796903
-0.10051594 0.011511938 -0.028478254 -0.013309241 -0.03907465 -0.021601893 0.0028032619 -0.023653122
-0.03180515 -0.031960353 -0.008959547 0.06040336 0.052976128 -0.08354938 -0.019278815 -0.04762561
0.1309051 0.11484325 0.08497363 -0.023453668 0.027464734 -0.026503438 0.037924692 0.028480163
-0.013591854 -0.10129566 0.03878369 -0.025835872 0.0029385863 0.013415609 -0.09955438 -0.09203791
0.07409498 0.017573267 -0.116549745 -0.016798709 -0.020177344 -0.05854764 0.054154783 -0.077193744
0.032213826 0.15375789 -0.023479342 -0.012918419 -0.09145747 0.14792892 0.0587248 -0.085074104
-0.07825685 0.02228644 -0.025710415 0.02246349 -0.01181387 0.076886356 0.026254673 -0.07819518
-0.07780327 0.18063307 0.20171611 -0.08883136 0.039828166 -0.0006837895 0.04501339 0.12898931
0.04687002 0.015590908 -0.021136345 -0.027927566 0.06953133 -0.08271461 -0.051908262 -0.037465528
0.07607548 -0.06809116 -0.060185224 0.03613464 0.03791468 -0.01757284 -0.042786386 0.06596505
0.011510932 -0.051010784 -0.109071635 0.030345218 -0.09820974 0.21996522 -0.042499173 0.024483576
-0.04352752 -0.0074126553 0.055717368 -0.05688245 0.066249125 -0.094640195 0.053038467 -0.093134835
00000000: 3f74 873c f71e b9bd bc6f 27bc 6ba5 433d
00000010: 1377 b43c acc9 6a3d b793 043e 5591 bdbc
00000020: f196 353a b578 d43d 10ba 5c3c 2225 543d
00000030: 2f3b e23c a558 b3bd 7c07 123e cf95 aebd
00000040: c147 62bd ab29 0fbd 0fec 413e 699c 0abd
00000050: 2396 b0bd c1f8 92bb e1de cc3c 6ee0 a83c
00000060: 539f 76bd 8da9 48bd 0eac 0a3e 332b f3b9
00000070: d549 91bd 7603 24bd d5cb 023e 5933 8b3d
00000080: 4ddb cdbd 919c 3c3c 3a4b e9bc 010f 5abc
00000090: bd0c 20bd 74f6 b0bc eeb6 373b 31c4 c1bc
000000a0: 1e46 02bd dce8 02bd 10cb 12bc 8369 773d
000000b0: 7ffd 583d f01b abbd 9bee 9dbc 1213 43bd
000000c0: fd0b 063e f032 eb3d a806 ae3d e821 c0bc
000000d0: b9fd e03c bd1d d9bc ec56 1b3d 3b4f e93c
000000e0: 5eb0 5ebc 1974 cfbd a6db 1e3d c0a5 d3bc
000000f0: 4c95 403b 24cd 5b3c 2be3 cbbd 5f7e bcbd
00000100: 1cbf 973d d0f5 8f3c a2b1 eebd 729d 89bc
00000110: f54a a5bc a6cf 6fbd 68d1 5d3d c117 9ebd
00000120: a5f2 033d b572 1d3e c057 c0bc c7a7 53bc
00000130: 0e4e bbbd ae7a 173e 6a89 703d 553b aebd
00000140: 2145 a0bd 0d92 b63c a69e d2bc 5a05 b83c
00000150: f68e 41bc 9876 9d3d 0a14 d73c cb24 a0bd
00000160: 5257 9fbd e0f7 383e ab8e 4e3e 37ed b5bd
00000170: dc22 233d 5640 33ba f65f 383d c615 043e
00000180: c7fa 3f3d 0271 7f3c 2126 adbc 5ac8 e4bc
00000190: 7166 8e3d 4766 a9bd c29d 54bd 7475 19bd
000001a0: 76cd 9b3d 6173 8bbd c884 76bd eb01 143d
000001b0: 6c4c 1b3d ebf4 8fbc c740 2fbd af18 873d
000001c0: 5998 3c3c aff0 50bd f360 dfbd 8996 f83c
000001d0: 3022 c9bd 903e 613e 9d13 2ebd c891 c83c
000001e0: ea49 32bd dce5 f2bb e537 643d 92fd 68bd
000001f0: 9fad 873d b8d2 c1bd dd3e 593d 7abd bebd

4.weight f4 [80, 128]
0.046178218 -0.03622098 0.014207776 -0.042213876 0.085402645 0.020727936 0.07304603 -0.031490818
-0.021742685 -0.08476491 -0.01854036 -0.078570895 -0.07104247 -0.007169706 -0.089270875 -0.06098498
-0.056303345 -0.08265219 -0.08273575 0.047024902 -0.083698705 0.0047964165 0.06667157 -0.03312403
-0.08849843 0.01590673 -0.08525819 -0.07347188 0.0044880067 0.033040162 -0.24159884 0.0036559124
-0.020812303 -0.07392274 0.06267778 -0.115408406 0.0012040827 -0.08678327 -0.009681173 0.10100191
0.06753783 -0.062355407 -0.019815609 -0.054418903 -0.08425788 -0.009660602 -0.15476151 -0.07917456
-0.018992636 -0.049869385 -0.01571621 0.011035077 -0.090149716 0.06719208 0.07279967 0.026497006
0.021908578 -0.04380576 -0.20014064 0.021720052 -0.10375145 -0.0020675135 0.052035272 0.008701133
0.08160321 -0.018932503 0.07737571 -0.030315278 -0.08104227 -0.07152906 -0.00923937 -0.011569668
0.007973277 -0.022964597 0.014612631 -0.005117755 -0.017211689 -0.041431513 -0.049890086 -0.047083106
0.09683926 0.045862526 -0.020455424 0.00692086 -0.10573933 -0.0064160232 0.08202514 -0.07747374
-0.08179729 -0.18127489 0.008770693 0.06679137 -0.08727841 -0.032559756 -0.0006780585 -0.093553126
-0.059835836 0.024686847 -0.055477273 0.032551907 0.01799536 -0.0821418 0.02555154 0.04471615
-0.048585612 0.05542736 -0.08592711 0.008980159 -0.118854284 -0.092912234 -0.010472133 -0.07194285
0.014990867 0.009747923 0.016448999 -0.0074373065 0.068703756 -0.016737653 0.07149091 0.0036789423
-0.0060968734 0.0063213212 -0.015025109 0.043778006 -0.053351544 0.014296116 0.030301023 -0.07766934
-0.05820247 0.0875358 -0.012592193 -0.05040563 -0.06791102 0.017140385 0.049841464 0.04027828
0.046120465 -0.13493192 0.0062570367 0.08307896 0.042638965 0.0740536 -0.058940183 0.022214897
-0.028873034 0.05707049 -0.056932334 -0.0011652971 0.02711959 -0.08066012 -0.021148182 0.056573503
0.015409562 -0.024982007 0.04900053 -0.01643665 -0.056393366 0.029155215 -0.00050261215 -0.01862072
-0.069774695 -0.0076693143 -0.040076572 -0.056740705 0.0019161854 0.03847194 0.050655633 -0.122599706
0.07409432 -0.11513765 -0.058467284 0.084677495 -0.03357751 0.035373766 0.0060362793 0.050433677
-0.006220682 0.04791589 0.054610923 -0.031218013 -0.084738106 -0.019202061 -0.08207189 -0.03359996
-0.08184695 0.003652983 -0.029582758 0.07909988 0.035377305 0.05294743 -0.024441564 0.068673104
0.06336966 0.056535214 0.056819104 0.07628015 0.045391344 0.059071884 -0.06432767 -0.06681706
-0.016488701 -0.13752341 -0.10088445 0.029150251 -0.0457928 -0.011150751 -0.034867644 -0.06076605
-0.0066409335 0.0024464664 0.027187625 -0.06856797 -0.08953214 -0.06666832 -0.023953382 -0.07503614
-0.029691095 -0.14944571 -0.27176818 0.025931269 0.03346074 -0.11132779 0.0023880824 0.060608476
-0.051367808 -0.060228188 -0.019426305 0.05072821 0.0035875672 -0.0013849665 0.0366233 -0.048213854
-0.03201133 -0.03901935 0.013654788 -0.02958636 -0.014976069 -0.083051346 -0.021146612 0.03944027
0.07478976 0.04551791 0.06364988 0.08253791 0.069101214 0.0010633565 0.0013796244 -0.078588575
-0.23630387 0.06300442 0.06636917 0.023618588 0.1238935 -0.010470309 0.017028518 0.07331739
00000000: 5f25 3d3d 735c 14bd bbc7 683c 75e8 2cbd
00000010: 95e7 ae3d a2cd a93c 2899 953d 84fc 00bd
00000020: b71d b2bc 3a99 adbd f4e1 97bc c7e9 a0bd
00000030: b77e 91bd daef eabb a6d3 b6bd 63cb 79bd
00000040: 569e 66bd 8d45 a9bd 5c71 a9bd 2f9d 403d
00000050: 3a6a abbd 422b 9d3b 1b8b 883d 10ad 07bd
00000060: aa3e b5bd d54e 823c d99b aebd 6d78 96bd
00000070: 2110 933b 1f55 073d b065 77be 0898 6f3b
00000080: 907e aabc ce64 97bd 355d 803d 3e5b ecbd
00000090: 50d2 9d3a 6dbb b1bd c89d 1ebc 17da ce3d
000000a0: 4651 8a3d 6268 7fbd 5854 a2bc 5be6 5ebd
000000b0: 658f acbd 8047 1ebc cd79 1ebe 4626 a2bd
000000c0: 7296 9bbc d743 4cbd 48bf 80bc 78cc 343c
000000d0: 6aa0 b8bd 009c 893d fe17 953d 4010 d93c
000000e0: 9e79 b33c ab6d 33bd abf1 4cbe 40ee b13c
000000f0: a47b d4bd 1f7f 07bb f022 553d 328f 0e3c
00000100: 951f a73d 5618 9bbc 2877 9e3d bf57 f8bc
00000110: 7df9 a5bd d47d 92bd ba60 17bc b48e 3dbc
00000120: 59a2 023c 4020 bcbc d169 6f3c d7b2 a7bb
00000130: 87ff 8cbc 17b4 29bd 8c59 4cbd 37da 40bd
00000140: a953 c63d 58da 3b3d 2292 a7bc 62c8 e23b
00000150: dd8d d8bd 813d d2bb ccfc a73d 8daa 9ebd
00000160: 5685 a7bd 20a0 39be f4b2 0f3c eac9 883d
00000170: 06bf b2bd 615d 05bd bcbf 31ba c898 bfbd
00000180: 6c16 75bd 123c ca3c 233c 63bd 2655 053d
00000190: 016b 933c f639 a8bd 7751 d13c 4828 373d
000001a0: b501 47bd cd07 633d 8dfa afbd 8421 133c
000001b0: e069 f3bd c548 bebd 4f93 2bbc c656 93bd
000001c0: 419c 753c c1b5 1f3c 0dc0 863c a6b4 f3bb
000001d0: 8eb4 8c3d 671d 89bc d469 923d 691a 713b
000001e0: 48c8 c7bb 1623 cf3b e02b 76bc 9150 333d
000001f0: 2687 5abd 423a 6a3c da39 f83c 1a11 9fbd
00000200: b765 6ebd f845 b33d 7c4f 4ebc 2276 4ebd
00000210: ef14 8bbd fe69 8c3c 9026 4c3d d6fa 243d
00000220: d0e8 3c3d 982b 0abe d407 cd3b 4d25 aa3d
00000230: 32a6 2e3d 6aa9 973d 436b 71bd 04fc b53c
00000240: 2487 ecbc bfc2 693d e131 69bd e2bc 98ba
00000250: e729 de3c 2231 a5bd f43e adbc 9eb9 673d
00000260: 6378 7c3c 11a7 ccbc c8b4 483d 27a6 86bc
00000270: bbfc 66bd ebd6 ee3c bbc1 03ba 7b8a 98bc
00000280: 09e6 8ebd df4e fbbb 5527 24bd f168 68bd
00000290: 8328 fb3a c194 1d3d 487c 4f3d 8e15 fbbd
000002a0: c3be 973d 4acd ebbd 647b 6fbd 656b ad3d
000002b0: 9288 09bd 15e4 103d fbcb c53b 8b93 4e3d
000002c0: ddd6 cbbb 7443 443d b4af 5f3d ebbc ffbc
000002d0: 2c8b adbd a44d 9dbc 4f15 a8bd 1da0 09bd
000002e0: 609f a7bd e366 6f3b 8a57 f2bc 1eff a13d
000002f0: cbe7 103d 68df 583d ad39 c8bc 7ca4 8c3d
00000300: f4c7 813d 7891 673d 26bb 683d c438 9c3d
00000310: 46ec 393d 5cf5 713d 3abe 83bd 62d7 88bd
00000320: 5013 87bc f0d2 0cbe 829c cebd 82cc ee3c
00000330: 3b91 3bbd a4b1 36bc 60d1 0ebd d2e5 78bd
00000340: 309c d9bb e554 203b 95b8 de3c 5d6d 8cbd
00000350: a05c b7bd 6689 88bd e239 c4bc 8cac 99bd
00000360: bd3a f3bc 4c08 19be 3325 8bbe d06d d43c
00000370: 210e 093d d3ff e3bd 6081 1c3b 9840 783d
00000380: 0d67 52bd d5b1 76bd ea23 9fbc 62c8 4f3d
00000390: 641d 6b3b c487 b5ba 5002 163d e47b 45bd
000003a0: 501e 03bd c1d2 1fbd 55b8 5f3c 185f f2bc
000003b0: 305e 75bc d316 aabd a93b adbc 1f8c 213d
000003c0: 602b 993d fd70 3a3d de5a 823d a309 a93d
000003d0: f084 8d3d 5360 8b3a 83d4 b43a 0cf3 a0bd
000003e0: a4f9 71be 7608 813d 8fec 873d c57b c13c
000003f0: e0bb fd3d a98b 2bbc 647f 8b3c 6e27 963d

4.bias f4 [80]
-0.10787431 -0.15882075 -0.26242802 -0.1635152 -0.1558867 -0.060527697 -0.1105752 -0.0764
-0.061645176 -0.06840662 0.04218854 0.011770269 -0.0743461 -0.0484257 -0.03583147 0.0026357437
0.050435632 -0.014422667 0.041980352 -0.026057899 -0.05748054 -0.052402563 -0.053994656 -0.12724344
-0.03543902 0.046468023 -0.025131831 -0.0003705771 -0.038170367 -0.029692907 -0.08024603 -0.02173216
0.02892524 0.034895398 -0.03449121 -0.20066473 0.11510514 -0.046807252 0.03409355 0.1165433
-0.074141465 -0.17288294 -0.1873173 -0.16705136 -0.21641164 -0.1988749 -0.06556084 -0.14180088
0.00267256 -0.024065945 -0.034047127 -0.026512103 -0.020180095 -0.09693692 -0.089858726 -0.12753698
0.0063287998 -0.05992314 -0.017076213 0.04567689 -0.008472429 -0.06371661 -0.040907346 0.105125174
-0.027806602 0.005566961 -0.0727374 -0.019444859 0.03573839 -0.05787641 -0.060033582 -0.016377993
0.02978543 -0.104537 -0.024726717 0.025204139 0.035147857 -0.05598838 0.06049775 0.010679741
00000000: 35ed dcbd e8a1 22be f75c 86be 8770 27be
00000010: c3a0 1fbe e4eb 77bd 4075 e2bd 9a77 9cbd
00000020: a77f 7cbd c518 8cbd e4cd 2c3d 16d8 403c
00000030: c542 98bd 075a 46bd 05c4 12bd 71bc 2c3b
00000040: 9895 4e3d 0d4d 6cbc 97f3 2b3d 6077 d5bc
00000050: b770 6bbd 12a4 56bd 8029 5dbd 1b4c 02be
00000060: 8128 11bd 4155 3e3d 45e1 cdbc 044a c2b9
00000070: 8858 1cbd 8a3e f3bc 0858 a4bd a507 b2bc
00000080: a0f4 ec3c 7aee 0e3d a846 0dbd 0e7b 4dbe
00000090: 3ebc eb3d f6b8 3fbd aea5 0b3d 41ae ee3d
000000a0: 7bd7 97bd 3a08 31be 1bd0 3fbe 830f 2bbe
000000b0: 039b 5dbe dda5 4bbe c344 86bd 4034 11be
000000c0: 1e26 2f3b f225 c5bc 0075 0bbd e92f d9bc
000000d0: ba50 a5bc dd86 c6bd da07 b8bd 0e99 02be
000000e0: d261 cf3b f771 75bd 6ae3 8bbc b117 3b3d
000000f0: f1cf 0abc db7d 82bd 768e 27bd de4b d73d
00000100: acca e3bc 0e6b b63b 59f7 94bd d34a 9fbc
00000110: 6b62 123d d10f 6dbd c6e5 75bd 242b 86bc
00000120: 9300 f43c 7f17 d6bd af8f cabc e978 ce3c
00000130: 33f7 0f3d 1254 65bd 7dcc 773d 15fa 2e3c
