ddqn/payload/best_double_dqn_model-8thSize-1.pth (torch, 76092 bytes, 6 tensors)

0.weight f4 [128, 5]
00000000: c59a ca3d e0b7 06bf 8576 18be 4e92 0f3e
00000010: 93a4 213e b9ee 633e f614 89be 7906 82be
00000020: e401 413e 94d8 e2be 14d6 8abd 5ebd 26be
00000030: 5cf6 ac3e e856 c2be c43d 173e 83d0 7bbe
00000040: 19d6 44bf d542 7e3e ae7d 90be dba4 7dbe
00000050: 0f27 7b3d 488b 0fbf 13d0 913e 539a 51be
00000060: 4a5b b7bd 6c40 a6ba 03f6 fcbe 0dc5 803e
00000070: 5bf3 dfbe 0a84 003e 3a18 b3bc 848b 30bf
00000080: f411 2cbe 974a ff3e 59ec 973e a7ae 22be
00000090: de7b 803d 27bd 9fbd 0cbd 64be 3302 3fbe
000000a0: c11f e3be efb7 40bf 92e7 b13e 58b8 dfbc
000000b0: a8e6 a4be ccdc b03d b260 66be 18f6 f4bb
000000c0: 2607 703e 0694 a7be 19b3 833e 4f1a ff3d
000000d0: 9f11 913e ede5 093d 9f49 98be 53af 863e
000000e0: ec05 e3bd 2f6c dabe a91d 6fbe 4654 c43e
000000f0: 95da 9d3d deeb 4fbf 1c2d 483e a672 fb3d
00000100: 18dc 59be 4fce 8cbe 56e1 84be 22f6 113e
00000110: aacb 61be dbe7 eabe 0c67 d2be efce 213d
00000120: 7416 93be 6f1e 453e 81ee 28bd 9a49 b33e
00000130: 6ca1 14be 1613 1fbe 96d6 a4be 0ae6 933e
00000140: e469 553e 313a 98bd 9429 dfbd c2b4 95be
00000150: 06e8 77be 053c 793e ce10 8c3d b7d3 edbd
00000160: c876 6ebe 9b4c b7be 1cf9 013e 63e1 05bd
00000170: 5165 91be 236b 83be e6f9 133e d56b be3e
00000180: d1e7 f1be 12ba 72bd 4761 f43d 73c3 a0bc
00000190: 4624 e13e 6f28 553e 580d 083d 004a 2cbe
000001a0: f423 843e 6ca3 bcbe b8d7 43be 875e a7bd
000001b0: cd0d 2cbe fd77 debe cb16 d93e 8efb 18be
000001c0: 4ede 09be 0dc0 dbbe 900b 1bbe a933 423e
000001d0: b460 0a3c 9a7a 863e 9fdd d0be 8225 003d
000001e0: 6814 9b3e 4e9c b5be 6217 dbbe 1277 913e
000001f0: 014f c0bd eb75 d23e 2c6d 453c e6e1 e1be
00000200: 5296 d9be 4bfb cebd b087 b03d 21ef d4be
00000210: 4d8d c03e 1d21 f4be b95e 3f3e 84c6 c8be
00000220: 9342 263e f4dc 87bd f0e6 8e3e b8e2 953e
00000230: af32 253e 94f8 21bf ae78 5b3e d46b bbbe
00000240: a932 b3be b74b 6abe e904 12bf c285 1e3e
00000250: 396b 8abe 6353 493e c8d3 ae3e d43f 713f
00000260: 6baf 51bd 9b53 9b3e 0d16 cc3e 2eb2 70be
00000270: 35e4 223c 5a87 11be a147 943d 80c2 a6be
00000280: 9bad 03be 7a37 533d 10a9 a2bc 23c3 9fbc
00000290: 7123 99be 935c 293d b6cf e2bd d62c 1c3e
000002a0: 6bc5 1ebe 06f7 523e a9e9 05bd 07bd 353e
000002b0: 59a7 bebe 52fb c23e 8f8a 3bbe adc1 f6bd
000002c0: 1eb4 bdbe 49c7 af3e 08c9 8fbe 9501 103e
000002d0: 23c3 afbd fd37 b23c 864b 1d3d 3d84 9cbd
000002e0: 6391 1c3e 04b3 b3be 3ca3 9a3d 5b1d bf3e
000002f0: aeba d5bd 99b8 b6bd cf84 09be 6bd6 943e
00000300: 53b4 d1be 7edb bbbe d74c 22be 5d21 5f3e
00000310: 9264 653f 7dd6 283d ecc5 853d 429c db3e
00000320: 26b5 0a3e 02f3 323f aab3 33bc 91bd c0be
00000330: 7ece babd 790c cb3d c2e9 b63e b619 9cbd
00000340: bad7 173e 4aed fd3e 4d23 d1be def6 42bf
00000350: bd39 d73d b356 f7bc 112d 773e 8ed9 213e
00000360: 5a18 0e3f 1b6d 203e 6cf2 3a3d 780e 2e3f
00000370: acba aabe c9ac 2fbd b75e 4d3e 3c80 b1be
00000380: df1a 8b3b f1cf a0bd 773c 1d3f 5b63 34be
00000390: 4c20 77be e574 27be 5a66 84be a41a a6be
000003a0: a753 c4bc 9239 32be b023 87be c724 a83e
000003b0: 18ae b8be e99a 91be dd42 223e 7e3d f43d
000003c0: d5e2 fbbb 5587 3b3e 67d0 173d 211e 41be
000003d0: 45d5 98be d3eb aebe 0eb3 32bf 5b53 a83e
000003e0: b199 9cbe a465 e8be 87dd b53e 50d0 563f
000003f0: 1612 5d3d b360 5bbe 9d10 b3be b1a1 9bbe
0.09892801 -0.5262432 -0.14888962 0.14020655 0.15785436 0.22259034 -0.26773804 -0.25395563
0.18848377 -0.4430586 -0.067791134 -0.16283175 0.33781707 -0.3795693 0.14769655 -0.2459126
-0.7688919 0.24830182 -0.28220886 -0.24769919 0.061316546 -0.560719 0.2847906 -0.20469026
-0.08952959 -0.0012683994 -0.49406442 0.25150338 -0.43740353 0.12550369 -0.021862138 -0.68962884
-0.16803724 0.49861595 0.29672506 -0.15886937 0.06273626 -0.0779975 -0.2233774 -0.18653183
-0.44360164 -0.7528066 0.34746987 -0.027309582 -0.32207227 0.08635864 -0.22497824 -0.0074756257
0.23440227 -0.3273012 0.25722578 0.1245619 0.28333756 0.03366654 -0.29743668 0.26305637
-0.11085114 -0.42660663 -0.23351158 0.38345546 0.07707707 -0.8121928 0.19548458 0.12277727
-0.21275365 -0.2750115 -0.25953168 0.14254048 -0.22050348 -0.45880017 -0.41094244 0.039503988
-0.28728068 0.1924989 -0.04124308 0.3501709 -0.14514703 -0.15534624 -0.32194966 0.28886443
0.20841175 -0.07432974 -0.10896602 -0.2923947 -0.24209604 0.24339302 0.06839143 -0.11612647
-0.23287499 -0.35800633 0.12692684 -0.03268565 -0.2839761 -0.25667676 0.14450797 0.37191644
-0.47247174 -0.05925948 0.11932617 -0.019624447 0.43972987 0.20816205 0.03321585 -0.16825104
0.2580868 -0.3684343 -0.19125259 -0.081723265 -0.1680214 -0.4345092 0.42400202 -0.1493971
-0.13463709 -0.4291996 -0.1514113 0.1896502 0.008445907 0.26265413 -0.40794083 0.03128577
0.30289006 -0.35470814 -0.42791277 0.28411156 -0.09390069 0.4110559 0.012049954 -0.4411766
-0.42497498 -0.10106524 0.0861963 -0.4158869 0.37607804 -0.47681513 0.18688478 -0.39213955
0.16236334 -0.0663394 0.27910566 0.29274535 0.16132616 -0.63269925 0.21432754 -0.36605704
-0.34999588 -0.22880445 -0.5703874 0.15480712 -0.2703493 0.19660716 0.3414595 0.9423802
-0.051192682 0.30337223 0.39860573 -0.2350547 0.009942104 -0.14211789 0.07240225 -0.32570267
-0.12859194 0.05156658 -0.019856006 -0.019502228 -0.29909852 0.04134805 -0.11074774 0.15251479
-0.15504996 0.20602044 -0.03269354 0.1774789 -0.3723705 0.38082367 -0.18314575 -0.120486595
-0.3705148 0.3433173 -0.28083062 0.14063103 -0.08582141 0.021755213 0.038402103 -0.0764241
0.15289836 -0.35097516 0.07550666 0.37327084 -0.10435997 -0.08921928 -0.13429569 0.29069838
-0.4095789 -0.36690897 -0.15849625 0.21790071 0.89606583 0.041220177 0.06531891 0.42892653
0.13545665 0.6990205 -0.010968128 -0.37644628 -0.091214165 0.09914488 0.35725218 -0.076220915
0.14828387 0.495951 -0.40847245 -0.7615794 0.105090596 -0.030192709 0.24138285 0.15805647
0.5550591 0.1566662 0.045641348 0.6799083 -0.33345544 -0.04288939 0.20055662 -0.34668148
0.0042451466 -0.07852162 0.6142039 -0.17616026 -0.24133414 -0.16353185 -0.25859338 -0.324422
-0.02396567 -0.17404774 -0.26394415 0.3284056 -0.36070323 -0.284385 0.15845819 0.11925791
-0.0076869526 0.18313344 0.037063982 -0.1885915 -0.29850212 -0.34164295 -0.69804466 0.32876095
-0.30586007 -0.45390046 0.35520574 0.8391161 0.053972326 -0.21423607 -0.34973612 -0.30396798

0.bias f4 [128]
00000000: 756f af3e 5dd6 34be 030e 1dbe 2c03 953e
00000010: 15f1 d13e 1663 cb3e 2261 21bd abcf 1c3f
00000020: 51a6 0f3f 775a a7be 7b27 a9be 6258 f63d
00000030: 8e75 4abe dc17 36bd e7d0 973d 4586 cbbe
00000040: 07c4 4abd 96ce f5bd a04e 91be 4b5c 82bd
00000050: 393c d43d a9eb ac3d 1497 d4be 747b 6fbd
00000060: 8590 473e c0ee 71be dc77 3c3e 7b1a 033f
00000070: e1b7 9d3e e81b b5bd 4c7e 3fbc 7cc9 7cbe
00000080: c0ba 17be 5db5 b73d df67 d6be 648a f5be
00000090: 5a2a 9b3e 36da 99be edc6 193d 72de dbbd
000000a0: 072b 5e3e 82d6 8c3e d93e 92be ade2 a2be
000000b0: c091 c2bd 1f2a a73e 35b8 c8be 00ee 19bc
000000c0: ff6c 043f 4fbb 87be 0f6d 6c3d 673b a4be
000000d0: 22d5 a53e 06cf af3e b1f6 8b3e eca3 abbe
000000e0: e961 74be efcb a7be 4205 f7bd 9ce5 023f
000000f0: 6be7 f03d c1a0 063f 68b7 18be 3802 873e
00000100: f0d5 c8bd fd7e d93d 268c 1a3f bcc3 a5be
00000110: 89fa ab3e 4317 dabe 3c06 d7be c930 273f
00000120: 5484 b83e 9292 6b3e 2d8a 5dbe 8554 ae3e
00000130: ee31 9bbe a067 5ebe 5752 35be 2b42 0c3f
00000140: 194f d5be 8a45 50be d6c8 083f fe7d 153e
00000150: ad43 90be e601 c9be 2412 a13e e8ea 91be
00000160: eb6c dc3e 11ca 9a3e 44d2 cd3d 54ea 053f
00000170: 9e11 9ebd 12f1 21bd 0976 91be b176 d33e
00000180: 5e45 64be f6e6 703d 814a a33e 1166 36be
00000190: 5c87 acbe 7b79 3bbe a0f7 adbe 390d 18be
000001a0: 231f 56bd c413 a1bc 792a 073f ab4c 263f
000001b0: b2af 7a3e c20a 173f 9735 003f bf7d abbe
000001c0: 785a c23e 4525 083f 4e1d 163f c07d 28be
000001d0: 9f45 ae3e abc6 ecbe 2b09 ca3e d13f ba3d
000001e0: f7ea e93d 7cbf dabe 8f15 edbe cad1 0c3f
000001f0: 0a9d 7abc 0ba1 50be 7f9c 45be 296d 993e
0.34264722 -0.17659898 -0.15337376 0.29103982 0.41004243 0.39724034 -0.039399274 0.61254376
0.56113154 -0.32686207 -0.33037934 0.120285764 -0.19771406 -0.044456348 0.07412892 -0.39750877
-0.049503352 -0.12002294 -0.283803 -0.0636526 0.10363049 0.08443386 -0.41521513 -0.058467343
0.19488724 -0.23626232 0.18405098 0.5121228 0.3080435 -0.08843213 -0.011687826 -0.24686235
-0.14817333 0.08970139 -0.41876122 -0.47957146 0.3030575 -0.30049294 0.037543226 -0.107357875
0.21696101 0.27507406 -0.28563574 -0.31813565 -0.09500456 0.32649323 -0.3920304 -0.0093951225
0.51728815 -0.26510093 0.057721194 -0.3207657 0.3238917 0.34337634 0.27336648 -0.335235
-0.23865475 -0.32772776 -0.1206155 0.51131606 0.117628895 0.5258904 -0.14913714 0.2636888
-0.0980643 0.10619924 0.603701 -0.32375896 0.3358958 -0.42595872 -0.41996944 0.65308815
0.36038458 0.23005131 -0.21634741 0.34048858 -0.3031153 -0.21719217 -0.17707191 0.54788464
-0.4166191 -0.20339027 0.5343145 0.14598843 -0.28176633 -0.3925926 0.31459153 -0.28499532
0.43051848 0.3023229 0.100498706 0.5231068 -0.07718204 -0.039536543 -0.28410366 0.41301492
-0.22292086 0.05881401 0.3189278 -0.17812373 -0.3369702 -0.1830806 -0.33977985 -0.14848794
-0.052275788 -0.019662745 0.52799183 0.64960736 0.24481085 0.5900079 0.5008177 -0.33494374
0.37959647 0.5318187 0.58638465 -0.1645422 0.34037492 -0.46245322 0.3946012 0.09094203
0.11421769 -0.42724216 -0.4630551 0.5500761 -0.01529623 -0.20373933 -0.1929798 0.29966095

2.weight f4 [128, 128]
00000000: 32b1 133e db5b 05bd 0ee4 21bc 117a 4fbd
00000010: c968 e63d fe7d ab3d 62bc dc3d fabf 813e
00000020: 3c06 ddbb 7a76 bebb 7cae 8e3c b316 e63a
00000030: 7838 863c 3c96 0a3d 783f e63c 635b cbbc
00000040: 2812 1b3d 6e13 953d 045a 2ebd b598 2bbd
00000050: 110a fe3d af85 adbb a46c 653b 1fba 6cbc
00000060: 88a1 3dbb c193 a8bd dee7 0c3c 221c 273e
00000070: 1cdc 013d 320a 1d3d ab4e ab3e 427f 90bd
00000080: 4963 99bd 836a 843d 2ea6 98bd aa9a b2bc
00000090: f3c0 073e ec66 81bd 5885 913d 93b8 803e
000000a0: e927 02bd f86c 4a3e f382 ddbb 497f 613c
000000b0: bcf9 c03d 61c9 d4bb 0d4f 353d 1a1f 7abd
000000c0: 1639 073e ca46 88bd e634 0e3f 5ec1 1c3c
000000d0: 2b21 863d b93f df3d d290 c83e 9f09 903b
000000e0: 9a14 79bd 9dd3 863d 3777 02bd 8bc2 95bc
000000f0: 7056 d03d 2e0b 583d 8280 e53c 4d06 afbc
00000100: edd7 e5bc 8a09 9dbd 330c 3c3e e960 5ebd
00000110: ddcb 893e 9dcc b2bb 0b3a 9dbd 2b3a 363e
00000120: 63da 823b 8bde 9abd 4550 3b3d 36f8 bb3d
00000130: f53a a9bd 9cc6 1e3e dffe 7e3d bd02 b83b
00000140: ab2f 42bc a52e 923c 9f64 923d 8415 e43d
00000150: 51f4 393d ee96 0cbd 695b dc3d 9905 843d
00000160: 5f2e 4d3e e6e6 8d3c 08c4 ad3d cf03 1d3e
00000170: 9d24 9abd c532 323e 19e4 90bd c05e 903e
00000180: ce27 463d b6c1 433c 3052 a539 6c20 3abc
00000190: 3684 1fbe be4f 5a3d 6a5e 183e c6dc 01bd
000001a0: d005 95bd bec5 803d 7e0a 1e3d 4588 6a3e
000001b0: cb14 22bd 51a1 713e b9a3 233e 7287 863d
000001c0: 1128 c13d 28fd 263e b6df 6b3e bffa 943d
000001d0: 6469 61bd 45c2 d9bd 0c00 bf3c b6f6 6abd
000001e0: 42de 69bd 394d a5bd 06ed e63c 99ce 913e
000001f0: 7a7e 1f3d cad1 57bb a1db ffbb b10f 6b3d
00000200: 0504 2a3d ee06 6f3d ad9f 35bc 6fc5 a13c
00000210: 0dca 07bd 469f 093c 0cac 183c a397 a83d
00000220: fef6 fc3c 7339 903c 989d f0bc 91bc 8dbd
00000230: 45f3 9cbd 7f62 18bd bcb1 b83c 226d 98bd
00000240: a32c fc3b 13a0 a9bd 5208 0fbd 16da f9bb
00000250: 7002 9cbb b4e3 0c3c c2cf 4abd a35a 573c
00000260: a754 aabd 1998 95bd 209b 54bc 0d6e 98bd
00000270: a177 003d 9fe6 15bd dc37 2cbd 134c 5a3d
00000280: 43e6 4a3d 7e8b 6cbd 4aa8 2d3d 45d4 b5bd
00000290: b453 483d daee 6a3d 3a41 3abc d44c e53a
000002a0: 63dc 943d 238b cfbc 71c0 98bd a919 51bd
000002b0: 3097 9d3d 50c3 033d 47fd f43c d5d5 adbc
000002c0: 3688 ec3c a9ab 46bd 56e0 d1bb 7c95 843d
000002d0: 4a1f 713d 23f4 eabc a4bd 9abd 8755 3f3d
000002e0: 46cb 3f3d 084a 4d3d a1f5 f0bc 7dd2 db3b
000002f0: 3481 2fbd f898 673d f54c 4b3d b4f8 6cbd
00000300: 046f 9bbd f54f 8cbd 9c77 bbbd 1918 39bd
00000310: 0192 b8bd 68c8 2fbc 4507 28bd ce29 ff3c
00000320: 25db 42bd 4ece f73c eff1 6d3c 3959 4abd
00000330: d711 38bd ba3f 60bd f702 1dbd 3162 013d
00000340: f571 83bd fe4d 4abd 1e73 643d 0ef2 773d
00000350: 3855 50bd 9b3f dd3a 8a90 92bd f29f 7bbd
00000360: fb8b 673d 8bb6 9dbc f091 c6bc aecf 833d
00000370: 622a 24bd fe60 92bc b631 bf3c 6b86 6d3d
00000380: 6cf6 42bd 8c2a 77bd efc8 5bbd 30a6 e5bb
00000390: b0bc cabc cd2c 6ebd 3dea c8ba 6328 853d
000003a0: 950e ad3d 66bc f5bc bb97 873d 53a5 44bc
000003b0: e428 63bd 5d6e b5bc b5e6 2b3d fe2b 053d
000003c0: 50e6 e33b f9b9 d7bc c90e 783c f651 07bd
000003d0: f829 a43d 55a8 e4bc 79eb 673d a153 b2bd
000003e0: 43db 78bd 8ca2 8bbd 4c38 1dbc 1644 a6bd
000003f0: 537c 6fbd 5d07 87bd fd86 84bd c0cf f1bc
0.14423063 -0.032558303 -0.009881033 -0.05065352 0.11250455 0.083736405 0.10778119 0.2534178
-0.006745128 -0.0058124634 0.017417185 0.0017554372 0.016384348 0.03383468 0.028106436 -0.02482385
0.037859112 0.072790965 -0.042566314 -0.04189368 0.12404264 -0.0052954773 0.0035007382 -0.014448672
-0.0028935391 -0.08231307 0.008600203 0.16319326 0.031704053 0.0383398 0.33458456 -0.070555225
-0.0748964 0.06465628 -0.07453571 -0.021802265 0.13257198 -0.06318459 0.071055114 0.2514082
-0.031776343 0.19768131 -0.006759995 0.013763257 0.09422633 -0.006493733 0.04426484 -0.061064817
0.1320537 -0.06654127 0.55549467 0.009567587 0.06549295 0.10900826 0.3917299 0.004395678
-0.060810663 0.06583331 -0.031851973 -0.018281242 0.10172737 0.052745037 0.028015379 -0.02136531
-0.028057063 -0.07667835 0.18364029 -0.05429164 0.26913348 -0.0054565207 -0.076770864 0.17795627
0.003993319 -0.07561978 0.045730848 0.09178202 -0.08263198 0.15505451 0.062254783 0.005615561
-0.011852185 0.017844507 0.07148098 0.11136916 0.045399014 -0.034323625 0.107596226 0.0644638
0.2003722 0.017322015 0.084846556 0.15333484 -0.07526515 0.1740218 -0.07074756 0.2819729
0.048377804 0.01194804 0.00031532487 -0.011360269 -0.15577778 0.053298704 0.14879766 -0.031704687
-0.07276499 0.06287716 0.038584225 0.22903545 -0.03957061 0.23596694 0.15980424 0.06568803
0.0943147 0.16307509 0.23034558 0.072743885 -0.05503215 -0.10632757 0.023315452 -0.057364188
-0.057096727 -0.0807137 0.028189193 0.28477934 0.038938977 -0.003293144 -0.007808164 0.05738801
0.04150774 0.058356218 -0.011085433 0.019747464 -0.033151675 0.00839979 0.009318363 0.082320474
0.030879494 0.017605519 -0.029372022 -0.06920732 -0.076635875 -0.03720331 0.022545688 -0.074426904
0.007695751 -0.08282485 -0.034920044 -0.007624875 -0.0047610328 0.0085992105 -0.04951454 0.013144168
-0.083169274 -0.07304401 -0.012976438 -0.074428655 0.031364087 -0.03659689 -0.04204546 0.053295206
0.049536 -0.057750218 0.04239682 -0.08878378 0.04890795 0.057356693 -0.01136809 0.001749421
0.07268598 -0.0253349 -0.0745858 -0.051049862 0.07694852 0.032168686 0.029905928 -0.021220127
0.028873544 -0.04850355 -0.0064049168 0.064738244 0.05886773 -0.028680867 -0.07555702 0.046712425
0.046824716 0.05011943 -0.029414 0.006708442 -0.042847827 0.056542367 0.04963394 -0.05785437
-0.07589534 -0.06851188 -0.09153673 -0.045188997 -0.09012223 -0.010728933 -0.041022558 0.031147864
-0.047572274 0.03024974 0.0145230135 -0.049401496 -0.04493889 -0.054748274 -0.038332906 0.031587783
-0.0641822 -0.049390785 0.055773847 0.060533576 -0.05086252 0.0016879918 -0.07156475 -0.061431833
0.05652998 -0.019252082 -0.02423951 0.06436096 -0.040079482 -0.017868515 0.023339134 0.05798952
-0.047598287 -0.06034331 -0.053658422 -0.0070083365 -0.024748176 -0.058148194 -0.0015328598 0.06501844
0.08450047 -0.029997062 0.06620737 -0.012002307 -0.05545892 -0.022147352 0.041968066 0.032512657
0.0069549456 -0.026333796 0.015140244 -0.03303715 0.080158174 -0.027912298 0.05662105 -0.08707357
-0.06075598 -0.06818113 -0.009595942 -0.08118455 -0.058468174 -0.06593201 -0.064710595 -0.029518008

2.bias f4 [128]
00000000: 5839 4f3e e4fb 1ebd 67d2 a6bd 47f2 61bd
00000010: db18 523e 742e babc 7567 61bc 5746 95bd
00000020: ee07 d3bd 4bef 78bd 2e36 bebd 0c07 6abd
00000030: aeb9 503e d740 7bbd 6dc1 db3d e04c 5abd
00000040: baa0 543e 2ac5 c3bd 033b 96bd 3673 e43c
00000050: 43fe 993a 212c f73c 184d 553d 4371 f7bc
00000060: 1dab 233d 110d b6bd 325c 543d b075 4c3c
00000070: b9f0 3f3d ca0a ee3d 2a87 4f3c c47e 7b3c
00000080: c35f 9abd 5fb1 97bd 27fd 99bc 8ab4 a8bd
00000090: 0801 5e3e 52a1 513c 1523 003e cbde 443e
000000a0: 7579 9dbd 971a 8c3c 3c83 cdbc 44c9 d43c
000000b0: d40f b2bc 8114 86bd ca5a a8bd b4dc 8eb9
000000c0: 3da4 883d e8e1 bbbd 45f3 45bd 7e6b 583c
000000d0: 486e 273d bb9c 1cbd 0e75 3b3d dd96 9cbc
000000e0: 016e b43c f663 693c 9d93 e83d 79c1 523d
000000f0: f180 43bc 6d8a 0e3e 6ca1 d93c 6fc3 153e
00000100: 31d4 7cbd 730f 52bd 7731 23bd 0854 7ebc
00000110: 850a 0d3e ac67 da3c 0474 e03c 36ba 523b
00000120: d09a 343e 8584 173e 4e37 8cbd 0b32 2a3d
00000130: 8d06 473d 4105 613d 9ceb 8fbc 603e 103e
00000140: 89f3 673e bc9d 823d 189f 593e dd4c aebd
00000150: f206 66bc 80cf fbbd 0404 46bd 2cd3 58bd
00000160: de32 0a3e d891 e73c 0872 0d3e 5ae8 cebd
00000170: 59bf 293e eae0 f43d 0fce d23d de4a 8abb
00000180: 29f8 f73b 066b 7cbd 137a 86bc 4862 4ebc
00000190: ef08 9f3d 88ff ce3b bfd1 4c3d f9aa 313d
000001a0: ede5 5e3e ea15 96bd 6cd2 f73c 64d3 debb
000001b0: 314a bdbd 37e7 13bb b307 1bbc b118 8f3c
000001c0: 7e38 55bd 6799 35bb 1007 02bd c78c 923c
000001d0: 4281 b4bd b4e3 84bd c0e9 26bd 2fcd b6bb
000001e0: 7300 523e fcca 4cbd ba31 90bd 10af 0e3e
000001f0: b4c1 453e 7d49 a2bc 8ba4 97bd 1906 c6bc
0.20236719 -0.03881444 -0.081456 -0.055162694 0.20517294 -0.022727229 -0.013757576 -0.07288807
-0.10304247 -0.060775083 -0.09287678 -0.057135627 0.20383331 -0.061341133 0.107302524 -0.05329597
0.20764437 -0.095590904 -0.07335474 0.027886968 0.001174875 0.03017241 0.052075475 -0.030205375
0.03995811 -0.08889211 0.051845737 0.012479231 0.04686043 0.116231516 0.012666503 0.0153500475
-0.07537796 -0.07406878 -0.01879747 -0.0823756 0.21680081 0.012794809 0.12513383 0.19225614
-0.07689182 0.017102523 -0.025086991 0.025974877 -0.021736063 -0.065468796 -0.08220442 -0.00027248787
0.06671951 -0.091739476 -0.048327703 0.013209222 0.040876657 -0.038235407 0.04576593 -0.019114906
0.02202511 0.014245024 0.1135628 0.05145404 -0.0119325975 0.13919993 0.02656623 0.14625333
-0.0617258 -0.051284265 -0.039842095 -0.015522964 0.13773544 0.026660763 0.02739907 0.0032154447
0.17637181 0.14796646 -0.06846486 0.04155163 0.04859023 0.05493665 -0.017568402 0.14086294
0.22651495 0.06377742 0.21252096 -0.08510754 -0.014039742 -0.12295437 -0.048343673 -0.052935764
0.13495967 0.028267786 0.1381303 -0.10102911 0.165769 0.119569615 0.10293209 -0.0042203506
0.007567425 -0.061625503 -0.016415631 -0.012596674 0.07765376 0.006317083 0.050004717 0.043375943
0.21767397 -0.073283985 0.030251704 -0.006800102 -0.092426665 -0.0022568235 -0.009462285 0.017467828
-0.05205583 -0.0027709843 -0.031745017 0.017889393 -0.088137165 -0.064887434 -0.040750265 -0.005578659
0.20507984 -0.04999827 -0.070407346 0.13933969 0.19312173 -0.019810433 -0.07404431 -0.02417283

4.weight f4 [8, 128]
00000000: 7e1a 17be 8142 853c 65a6 653d 50dd aabc
00000010: cdc1 cebd 7940 9dbb 6611 233d 5953 263d
00000020: eb76 243d 273e 6b3d df0e b53c b036 87bc
00000030: cd32 f2bd b408 203c 6881 abbd 95a4 843d
00000040: f370 7cbd 806c 21bd a851 3c3b 271e 1fbd
00000050: f2d8 3abb 9807 143d 1c2c 64be bc9b c3bc
00000060: 0685 72bc a914 70bd fb5d b7bc 6fb7 bbbd
00000070: 696b 983c 60a9 9ebd f656 d13c 0321 7e3d
00000080: 7bbe b5bd 9e4d c83c 09a2 5f3c caba 883d
00000090: 427b bc3c 21a6 e03d a628 c43c 0999 8abd
000000a0: 082f ad3d d37f c9bc c5a0 873d 288f 69bd
000000b0: 017e 5cbd f991 b53c 9c41 3d3d 845e b5bb
000000c0: a52f 963d dff9 7b3d 5f98 8cbd 40dd 223d
000000d0: 2408 aebe 5e13 50bd 933e 9b3c b691 31bd
000000e0: 7392 a8bd 96a2 a0bc e6cf d0bd 0af0 c9bd
000000f0: c8b5 8dbd c8e1 4b3d c7d2 3bbe fa7c 4bbd
00000100: 980c b43d 521a 1fbd 938e 1c3c 5c84 4dbd
00000110: c263 14be 3dc6 8cbd cb64 93bc 96d5 86bd
00000120: 529d 14bd 1878 f7bc 8f13 62bd 419f b4bd
00000130: 21a3 c6bd cb53 b73b ad81 e53c f61a 82bd
00000140: 1fa8 973c 3def 913d 326f 97bd e1c6 893d
00000150: 3eaa 863d e22b 98bd 9b08 b4bd 0f57 f93c
00000160: 3957 8cbd f69d 19bc 590b aabc 4021 31bc
00000170: de32 03be dd2e eabc e99e 853d f237 083c
00000180: 69c3 dfbd 637d a33d f703 9bbd 194e 4c3c
00000190: 3e95 97bc e521 953d a073 ca3b 1b42 a6bc
000001a0: bd2a aebd 0e30 0a3b b3b1 aebd 1b7b b2bd
000001b0: b0eb 343d a5c5 d1bd 08ad 343d 0c92 893c
000001c0: 0503 7f3d 7ab6 bcbc f9f6 413d f326 4bbd
000001d0: a219 803d 0040 5ebd a8ed 2ebe d07d c5bc
000001e0: 6068 c3bd 0d81 98bd 2130 3a3d 8483 d63c
000001f0: 41f6 4d3d 2040 68bd c45b cbbc 858b 29be
00000200: e563 0ebe 2d6b 1d3c 1d6c 913d b608 e83c
00000210: 26e9 02bd 7f43 d0bb 4bb2 bfbc 5123 5c3d
00000220: e84d ac3d 03b2 353d cf0f 81bc fafd 8bbd
00000230: cf58 f0bc 5204 6e3d 00b1 36be 5c14 b43b
00000240: 6209 4bbc d700 003d 9964 e93c 797a 6b3b
00000250: 6ed2 723d 385e 9abc a638 79bd 461f cebb
00000260: 1695 a9ba 6c74 36be 3ed6 663d 5d3c e43c
00000270: 3ce9 c23c d754 10be 0e27 8a3d 8dea 573d
00000280: 55a4 b43d 8ae0 8f3d 4868 503d 9ee1 303d
00000290: 18ee 21bd b2a4 193c 39d3 313b 4235 44bc
000002a0: c854 14bd c20d c53b c6a8 71bd e1bb d63d
000002b0: 52d3 773d 42e2 f33c 2f0a 36bd 932d b53c
000002c0: 3602 9d3a d3c2 0dbd c645 243d 8bc4 89bc
000002d0: 7491 f1bd e767 7d3a d462 9bbd 0ea0 e5bc
000002e0: 7868 d8bc 101e 0e3b d258 19bd 8e38 bdbd
000002f0: 2381 8e3d d686 ea3b 44ca debd 9eb1 ae3d
00000300: eef1 cc3c fe0a 613b 2521 903d e598 493b
00000310: 55e5 9abd 5730 b43c 90a8 563d 9de4 843d
00000320: 9197 b9bd d1b4 93bc dd2f a03c de63 8ebd
00000330: 72f4 3cbe ac9e 6f3d 9bda f6bd a29f 20bd
00000340: a595 61bd 847e ea3c 77ec 87bc 62ce 40bd
00000350: afb9 b8bc 43ab 323d 9ec1 cebc b66a 60bd
00000360: 31fd 833d fc21 1bbd ee7f 36bd bc3f b43d
00000370: 7569 9bbd b491 3cbd cd6b 90bc 152f cbbc
00000380: 4a1f 38be 5978 283d 9683 d03c b039 883d
00000390: 4b28 efbc 4587 653d d1ee ce3c dad1 64bd
000003a0: 6762 c23c 8bcb 07bd 71a1 c73c 9a1b f83b
000003b0: 5ab5 a43c 4dde 053c eb02 b4bd 6c6f 37bd
000003c0: 1fdf f8bc 56cf 72bd 9cd8 b23c 4eb8 9d3d
000003d0: 3236 84bd 8c61 05bd 56f0 f7bd 865c f63c
000003e0: 50eb 6ebd ae0a 77bd 6579 623d fc69 e8bc
000003f0: 5270 b9bc f782 953a e976 94bb 10c8 7fbc
-0.147562 0.016267063 0.05606689 -0.020857483 -0.10095558 -0.0047989455 0.039811514 0.04060683
0.04015247 0.05743232 0.022101818 -0.01650557 -0.11826096 0.0097677 -0.08374292 0.06476704
-0.061631154 -0.039410114 0.0028735194 -0.038847115 -0.0028510657 0.036140054 -0.22282451 -0.02387797
-0.014802223 -0.058613453 -0.02238368 -0.091658466 0.018605905 -0.077471495 0.025554162 0.0620432
-0.08874222 0.024451073 0.013649472 0.06676252 0.023007993 0.109691866 0.023945164 -0.067674704
0.08456236 -0.024597084 0.06622461 -0.05702129 -0.053831104 0.022164332 0.046205148 -0.005534949
0.07333306 0.061517593 -0.06865 0.03976178 -0.33990586 -0.05079972 0.018950736 -0.04335185
-0.08231058 -0.019608777 -0.101959035 -0.09860237 -0.06919438 0.04977587 -0.18342124 -0.049679734
0.087914646 -0.03884346 0.009555477 -0.050175056 -0.1449118 -0.068737485 -0.017992398 -0.06583707
-0.036282845 -0.030208632 -0.055194434 -0.08819438 -0.09699083 0.0055947057 0.028015936 -0.06352799
0.018512784 0.07125709 -0.07394256 0.06727386 0.0657544 -0.07430245 -0.08790704 0.03043702
-0.06852574 -0.00937604 -0.020757364 -0.01081115 -0.12812373 -0.0285868 0.0652445 0.00831412
-0.109259434 0.079829 -0.075691156 0.012469792 -0.018503781 0.072818555 0.0061783344 -0.020295193
-0.085042454 0.0021085772 -0.08529987 -0.08714887 0.04417008 -0.10242776 0.044110328 0.016793273
0.06225874 -0.02303623 0.047354672 -0.04959769 0.06254889 -0.054260254 -0.17082846 -0.024107844
-0.09541392 -0.074464895 0.045456056 0.026185758 0.050283674 -0.05670178 -0.02482403 -0.16557129
-0.13905294 0.009608072 0.07100699 0.028324466 -0.03196063 -0.0063557024 -0.023400446 0.053744618
0.08413297 0.04435922 -0.015754608 -0.068355516 -0.029339222 0.05810959 -0.17840958 0.005495591
-0.012392374 0.0312508 0.028490352 0.0035931154 0.059282713 -0.018843755 -0.06084504 -0.006290349
-0.0012938108 -0.17817849 0.05635666 0.027860815 0.023792855 -0.14094864 0.0674573 0.05271392
0.08820406 0.07025249 0.0508807 0.043183915 -0.039533705 0.009377645 0.0027133955 -0.011975588
-0.036213666 0.006013603 -0.058998846 0.10485054 0.060504265 0.029770974 -0.044443306 0.022116458
0.0011978808 -0.034609627 0.040105604 -0.016817352 -0.11795321 0.0009666667 -0.07587209 -0.028030422
-0.026417002 0.00216854 -0.03743822 -0.092393026 0.069582246 0.007157187 -0.10878423 0.085299715
0.025017705 0.0034338827 0.07037572 0.0030761298 -0.07563273 0.021995706 0.052406847 0.06488917
-0.09062112 -0.018030556 0.019554073 -0.06952642 -0.18452623 0.05850093 -0.120534144 -0.039214738
-0.055074353 0.02862478 -0.016592247 -0.047071822 -0.022549478 0.04362036 -0.025238808 -0.054789267
0.06444777 -0.037874207 -0.044555597 0.08801219 -0.07588474 -0.04603739 -0.017629528 -0.024802724
-0.17980686 0.041130397 0.02545337 0.06651628 -0.029194018 0.056037206 0.02526036 -0.055864193
0.023728563 -0.033153098 0.024368973 0.0075716497 0.020106006 0.008170676 -0.08789619 -0.044783995
-0.03037983 -0.059279762 0.021831803 0.07701169 -0.064556494 -0.03256373 -0.12106387 0.030073415
-0.05832988 -0.06031292 0.055291552 -0.02837085 -0.022636566 0.0011406828 -0.0045307768 -0.015611663

4.bias f4 [8]
00000000: dde1 c0bd b78e 36be 820f fbbd 0f4f 59be
00000010: 6ec9 36be adda 7dbe 12c5 10be a6ac 49bd
-0.0941808 -0.17827879 -0.12258817 -0.21221565 -0.17850277 -0.2479045 -0.14137676 -0.049236916
