ddqn/payload/best_double_dqn_model-7thSize-2.pth (torch, 76092 bytes, 6 tensors)

0.weight f4 [128, 5]
0.071713775 0.36011654 0.1950927 -0.4354445 0.48143372 0.29493603 0.3360309 -0.36482635
0.00299273 0.3869817 0.255316 0.22250716 -0.27135688 0.17544188 0.2179885 -0.13914639
0.09249987 0.15042198 0.17189749 -0.41491786 -0.33475247 -0.0023039146 -0.19238186 0.3006619
0.2928243 0.31479338 0.29626676 0.098237514 -0.42606136 0.4292346 -0.24330084 -0.30384016
0.092397034 0.10232972 -0.39705667 -0.27695817 -0.44546598 0.02556287 0.158037 -0.18600586
-0.18181193 0.33870697 0.4035865 -0.3632742 0.31566164 -0.27653298 0.13851129 0.28917655
0.36933932 -0.2542156 0.22640674 0.013323685 -0.26368138 -0.4470375 0.21031691 -0.052440148
0.3905386 -0.0008708127 -0.12552288 -0.06380795 0.12994394 0.06915245 -0.29882407 -0.19479597
-0.4382625 0.074557066 0.3548893 0.29601723 -0.008184667 0.3602863 0.22909053 -0.19968678
0.24777871 -0.3697962 0.07090666 -0.32724482 -0.44904268 -0.3401628 0.32370842 0.32244462
-0.36864233 -0.047485065 0.050045107 -0.31265268 0.05258212 -0.36558297 0.33940205 -0.12132648
0.11833746 0.34518892 0.43555224 0.0650665 0.26599976 -0.4567112 -0.1825577 -0.38563564
0.11405687 0.08308806 -0.5061412 -0.23641752 0.27339306 -0.44615364 -0.036302987 0.18447343
0.2052368 0.066950984 0.3384702 0.094622284 -0.41084072 -0.16314867 -0.28656417 0.2182629
0.046356723 -0.35035345 -0.14518297 -0.035836335 0.080350645 -0.2683293 -0.33538786 0.12442475
0.3573947 -0.42529845 0.062419925 0.31255448 -0.47131166 -0.12731762 -0.4872106 0.3611733
-0.08128554 0.25438687 -0.1703339 -0.431981 0.16439123 -0.24287178 -0.0007843458 -0.121234186
0.39832306 0.26345497 -0.42890987 -0.14343937 0.11016149 -0.1265261 -0.4341538 -0.24327877
0.05315037 -0.20897238 -0.39123407 0.21874346 -0.33871683 0.10133887 0.43479174 -0.5691765
0.23241152 -0.10916073 -0.15704027 0.042579614 -0.09905815 -0.33498076 0.01943335 0.25005004
-0.096436635 0.28682438 -0.095338255 0.38271052 -0.13122645 -0.21811022 0.099547125 -0.34210372
0.18517022 0.00576724 -0.4340714 0.22048196 0.42627135 0.17946956 -0.29495135 0.35932863
0.36193883 0.03361407 0.10676156 -0.4242863 -0.41434845 -0.31880632 -0.14939092 -0.274178
-0.35262135 -0.2787069 -0.43818295 0.10230622 0.12184871 -0.43387085 -0.21723393 -0.38889834
0.15474497 0.4172506 -0.24265105 -0.10791908 -0.39731392 -0.36994135 -0.3014507 -0.06335589
-0.29983366 0.25656456 -0.118084475 -0.024603005 -0.25372556 -0.20449395 0.04252429 0.0279429
-0.39323404 -0.12404151 0.020533176 0.3731717 -0.23401219 -0.22374237 0.3414277 0.33147988
0.3656112 -0.021421663 -0.3062326 0.28324327 -0.3147086 0.2662918 -0.33900374 -0.30906713
-0.16460265 0.42318326 0.027774494 -0.30474612 -0.3613058 -0.39787284 -0.43321183 0.16707201
0.37704778 -0.1522314 -0.42493147 -0.2929755 -0.2701591 0.009232373 0.10280324 0.14917102
-0.2130645 -0.21573995 -0.12064363 0.03830454 0.026067974 0.22973128 -0.05687048 -0.13402873
0.3914315 0.36932102 -0.014546236 -0.01439691 -0.26229697 -0.0068548056 0.16036637 0.2259216
00000000: acde 923d 3261 b83e 61c6 473e 95f2 debe
00000010: 7b7e f63e db01 973e 3e0c ac3e 85ca babe
00000020: ad21 443b 7722 c63e c7b8 823e ebd8 633e
00000030: 4aef 8abe 09a7 333e 6138 5f3e 647c 0ebe
00000040: 9270 bd3d 3808 1a3e e505 303e 1d70 d4be
00000050: ad64 abbe 46fd 16bb c0ff 44be 5bf0 993e
00000060: 11ed 953e 992c a13e 47b0 973e c030 c93d
00000070: b724 dabe a3c4 db3e db23 79be f090 9bbe
00000080: a83a bd3d 3f92 d13d 034b cbbe 76cd 8dbe
00000090: 1e14 e4be 3969 d13c 74d4 213e 5278 3ebe
000000a0: e82c 3abe 006b ad3e e4a2 ce3e 13ff b9be
000000b0: 679e a13e bb95 8dbe e7d5 0d3e f30e 943e
000000c0: 0b1a bd3e 8c28 82be 2bd7 673e 964b 5a3c
000000d0: 3f01 87be 19e2 e4be 515d 573e 7bcb 56bd
000000e0: adf4 c73e 4047 64ba 1289 00be bead 82bd
000000f0: 0610 053e cd9f 8d3d 78ff 98be 9878 47be
00000100: f163 e0be 60b1 983d 0db4 b53e 928f 973e
00000110: fb18 06bc 7277 b83e b596 6a3e b17a 4cbe
00000120: b4b9 7d3e ed55 bdbe 8337 913d a28c a7be
00000130: ece8 e5be d229 aebe 1cbd a53e 7617 a53e
00000140: b0be bcbe b37f 42bd 19fc 4c3d 0314 a0be
00000150: 5960 573d b12d bbbe 1bc6 ad3e 047a f8bd
00000160: e95a f23d 9abc b03e b400 df3e 9641 853d
00000170: 1f31 883e 0dd6 e9be 68f0 3abe 0972 c5be
00000180: a696 e93d 132a aa3d 7892 01bf 6f17 72be
00000190: 2dfa 8b3e 406e e4be 71b2 14bd 9ae6 3c3e
000001a0: 9829 523e 991d 893d f74b ad3e 54c9 c13d
000001b0: b759 d2be 7210 27be 8ab8 92be 4f80 5f3e
000001c0: 8ce0 3d3d 8761 b3be d8aa 14be 1fc9 12bd
000001d0: e18e a43d 7562 89be f5b7 abbe 67d2 fe3d
000001e0: 70fc b63e b8c0 d9be 09ac 7f3d 2407 a03e
000001f0: c34f f1be 8d5f 02be ab73 f9be b5eb b83e
00000200: 0879 a6bd ff3e 823e 036c 2ebe 9d2c ddbe
00000210: 2d56 283e 61b3 78be 8e9c 4dba a149 f8bd
00000220: 00f1 cb3e 92e3 863e 139a dbbe c5e1 12be
00000230: 599c e13d 0f90 01be 6849 debe 121e 79be
00000240: 34b4 593d dbfc 55be d54f c8be 49fe 5f3e
00000250: 4b6c adbe c18a cf3d 069d de3e 8db5 11bf
00000260: 49fd 6d3e a98f dfbd 2acf 20be f667 2e3d
00000270: 00df cabd 9982 abbe b032 9f3c 8f06 803e
00000280: 9280 c5bd a5da 923e b440 c3bd a2f2 c33e
00000290: 3a60 06be 4958 5fbe 5ddf cb3d 3828 afbe
000002a0: 439d 3d3e 1efb bc3b 9b3e debe 06c6 613e
000002b0: 3d40 da3e dec6 373e dd03 97be ecf9 b73e
000002c0: 0c50 b93e e8ae 093d cea5 da3d 0e3c d9be
000002d0: 7b25 d4be 953a a3be eff9 18be 0f61 8cbe
000002e0: c98a b4be acb2 8ebe 8459 e0be ec85 d13d
000002f0: d18b f93d 5224 debe 9272 5ebe af1d c7be
00000300: 7775 1e3e dfa1 d53e 8479 78be ae04 ddbd
00000310: bb6c cbbe f468 bdbe bf57 9abe bcc0 81bd
00000320: cc83 99be 6e5c 833e 46d6 f1bd 3e8c c9bc
00000330: 51e8 81be dd66 51be f32d 2e3d 82e8 e43c
00000340: f955 c9be 7a09 febd 3135 a83c 5c10 bf3e
00000350: e4a0 6fbe b81c 65be 9dcf ae3e bbb7 a93e
00000360: 6431 bb3e 7c7c afbc 85ca 9cbe 4305 913e
00000370: 7c21 a1be 6657 883e e691 adbe 0c3e 9ebe
00000380: 998d 28be 7aab d83e 5687 e33c af07 9cbe
00000390: 13fd b8be fdb5 cbbe f1cd ddbe ed14 2b3e
000003a0: 680c c13e 8ce2 1bbe 9e90 d9be e200 96be
000003b0: 4b52 8abe 6143 173c 818a d23d 4ac0 183e
000003c0: 952d 5abe efea 5cbe 0214 f7bd 39e5 1c3d
000003d0: 818c d53c ad3e 6b3e 05f1 68bd d43e 09be
000003e0: b669 c83e a517 bd3e 5653 6ebc 04e1 6bbc
000003f0: ca4b 86be 479e e0bb 1537 243e fe57 673e

0.bias f4 [128]
-0.02993681 0.35524455 0.19251594 -0.25845566 0.2059189 -0.409517 -0.31153393 -0.2520091
-0.15423538 -0.34837294 -0.278722 -0.28824058 0.1869316 0.37635574 0.33685043 0.25339156
-0.14538032 -0.0004743559 0.3119944 0.36474073 0.04514862 -0.11785803 0.34350246 0.018343812
-0.020041462 -0.023116626 -0.25987622 0.4577136 0.19669484 -0.23425472 -0.058132663 -0.18447456
-0.14239602 -0.055533845 -0.30701336 0.26794538 -0.106906794 -0.25070357 0.017894313 0.25619802
0.37172636 0.30383787 0.17646405 0.40706745 -0.09191945 0.216864 0.063547455 0.0747609
0.5085644 -0.07143412 0.10257071 -0.34065363 0.5149545 -0.17302516 -0.52669114 0.30701894
0.14103027 0.06258324 -0.465175 0.34391764 -0.090179086 0.4449531 0.32268667 -0.19403936
0.32849497 -0.19107671 0.29624516 -0.17843348 0.017475517 -0.1065832 0.37817842 0.22274815
0.334457 -0.24012464 0.20983078 0.10155802 0.32195604 0.16239208 -0.27004945 0.4673574
-0.33197266 -0.42224336 -0.35975438 0.039619222 0.08060566 -0.19584702 0.20575675 0.1620171
0.5470328 0.23961776 0.01591399 -0.014373401 -0.077022135 0.45889404 0.061567724 0.15674748
0.2323593 0.17516264 0.024602642 -0.15197703 0.2381021 -0.2082303 -0.37155738 0.4698119
-0.23337987 -0.11811522 -0.446222 0.2753408 -0.18841389 -0.13556658 -0.41072717 0.15171468
0.10519997 -0.32523173 -0.028619915 0.19300129 -0.14009325 -0.18585113 0.2970027 0.0024844247
-0.2049358 0.30422208 0.39475748 0.23856084 -0.1543205 0.3131189 0.4596609 0.28490317
00000000: 0a3e f5bc 9de2 b53e e622 453e 4d54 84be
00000010: 67dc 523e 36ac d1be 6081 9fbe 5607 81be
00000020: e1ef 1dbe f05d b2be a6b4 8ebe 4594 93be
00000030: ff6a 3f3e b3b1 c03e a977 ac3e 8abc 813e
00000040: 94de 14be f9b2 f8b9 bbbd 9f3e 4cbf ba3e
00000050: c2ed 383d 8d5f f1bd 8edf af3e c345 963c
00000060: fe2d a4bc 145f bdbc 7f0e 85be 7059 ea3e
00000070: 5f6a 493e 78e0 6fbe 841c 6ebd e6e6 3cbe
00000080: 43d0 11be 7577 63bd db30 9dbe 2330 893e
00000090: f3f1 dabd 385c 80be 1897 923c 632c 833e
000000a0: eb52 be3e a390 9b3e feb2 343e 256b d03e
000000b0: 4440 bcbd 9911 5e3e 2b25 823d 3e1c 993d
000000c0: 4731 023f 0d4c 92bd 9810 d23d 276a aebe
000000d0: 0fd4 033f 822d 31be 3bd5 06bf 9631 9d3e
000000e0: 3d6a 103e a42b 803d 6b2b eebe f915 b03e
000000f0: d0af b8bd e5d0 e33e 3037 a53e 41b2 46be
00000100: 7e30 a83e 9da9 43be 72ad 973e 44b7 36be
00000110: d128 8f3c 4b48 dabd 9aa0 c13e 1718 643e
00000120: f33d ab3e 3ce3 75be e1dd 563e a7fd cf3d
00000130: 6cd7 a43e 1c4a 263e ec43 8abe 7849 ef3e
00000140: 52f8 a9be 4830 d8be ba31 b8be c447 223d
00000150: 9514 a53d 1f8c 48be e6b1 523e d0e7 253e
00000160: 570a 0c3f 5c5e 753e 0e5e 823c 6a7e 6bbc
00000170: c8bd 9dbd 29f4 ea3e 702e 7c3d 6982 203e
00000180: 99ef 6d3e d65d 333e 7b8b c93c de9f 1bbe
00000190: 09d1 733e 533a 55be c53c bebe 2f8b f03e
000001a0: 22fb 6ebe 64e6 f1bd 3677 e4be 78f9 8c3e
000001b0: 92ef 40be f7d1 0abe d54a d2be 185b 1b3e
000001c0: 1573 d73d c684 a6be 5074 eabc 21a2 453e
000001d0: 9b74 0fbe c24f 3ebe bd10 983e bbd1 223b
000001e0: b1da 51be ffc2 9b3e a71d ca3e 4b49 743e
000001f0: 3106 1ebe 1f51 a03e ac58 eb3e d4de 913e

2.weight f4 [128, 128]
-0.059274785 -0.049676724 0.01341428 -0.05136595 -0.027858082 -0.057356916 0.0841518 -0.049778555
0.011096969 -0.10757106 -0.07394238 -0.10746086 0.04272922 -0.03541037 -0.061146364 -0.01821514
-0.0071251565 0.020451244 -0.0048055 -0.033800438 -0.07233828 -0.11990054 -0.07603919 -0.06013151
-0.10143 0.042198356 -0.04811086 0.04214328 0.0059463093 0.048302982 -0.086566746 0.061360363
-0.022479624 -0.0041925786 -0.07256932 -0.04116091 0.04595962 -0.07236292 -0.028700434 -0.019646637
-0.018844921 -0.003954277 0.009336881 0.035611928 -0.06611172 -0.029412674 -0.022298563 0.05267179
-0.013262676 -0.0689115 0.036551107 -0.022424368 -0.047138043 0.026841694 -0.116913006 -0.08981195
0.0056253923 0.052847046 -0.007616451 -0.08592641 0.08822842 -0.019440455 0.06040879 0.0494255
0.08320851 0.031719144 -0.029523183 -0.054406308 -0.02569019 -0.009777259 0.057185337 0.025834247
-0.04080192 -0.029017892 -0.056144144 -0.007872506 0.031283896 -0.025009444 0.035846032 -0.064619936
0.05762396 0.04185793 -0.015983213 -0.031130489 -0.08379511 0.026650935 -0.02399574 -0.04852972
-0.0733273 -0.078670934 -0.075383455 -0.06209835 0.017317506 -0.07342464 -0.041449748 -0.06728553
-0.0791644 -0.045857795 0.0016212417 -0.06748915 -0.008704305 0.060399994 0.04820903 0.015099845
-0.076877795 0.061473463 0.011018059 -0.06005905 -0.05314049 -0.07661301 -0.007467568 0.022174653
-0.062857024 -0.050866023 -0.0497209 0.081998535 -0.023781685 -0.0017042605 0.015199971 -0.02833683
0.081572264 0.006828891 0.04743205 -0.09940824 -0.0015195723 0.07813755 0.02271181 -0.0094786035
-0.008745118 -0.021557968 0.04221265 -0.08044568 0.01941465 -0.064848065 0.01793033 0.07846422
0.071075216 0.03821564 -0.07213174 0.013907294 0.027850658 -0.013445447 0.0044920524 -0.012708917
0.061169185 -0.051612716 0.07897526 -0.042172533 0.044789135 -0.009754761 -0.040994827 -0.006273358
-0.059110478 -0.064956814 0.017549425 -0.011946981 0.02137666 -0.074437685 0.049696527 0.045837667
0.0062266677 -0.019544 0.058678683 0.0001680256 0.022170126 -0.05032301 0.00175336 0.030323783
-0.07480525 0.0640958 0.006148669 0.018570114 0.0117796855 -0.04626707 -0.07271322 0.06728933
-0.020212378 0.07090192 0.027083922 0.049210545 -0.06800532 -0.035313874 -0.07167676 -0.04576386
-0.04738271 0.06113277 0.058057148 -0.012578986 0.036407795 0.08177348 -0.019398822 0.021307888
-0.0020119697 0.075447254 -0.07818654 0.062500246 0.06796974 0.060764465 0.051180243 0.048678923
-0.089378566 0.045509305 0.012822485 0.023445955 -0.0160146 -0.047337238 0.05549387 0.062410545
-0.0041798567 0.058286034 0.022112807 0.008292034 -0.08330749 0.022950271 -0.0012113693 0.047364037
0.024731409 -0.096581526 -0.03075369 -0.08750357 0.03372224 -0.056010947 0.028058441 0.10705803
-0.07889221 -0.07554687 -0.02443239 0.02239909 -0.02159711 -0.060414717 -0.07101937 -0.02159473
-0.07631792 0.017003609 0.05652324 -0.05027332 0.018202987 0.026329048 0.022638759 -0.0243036
-0.06446805 -0.024395017 0.05311072 0.008747621 0.041617822 -0.07611717 0.004340571 0.0048194765
0.042414606 -0.048273455 0.021633381 0.059746493 -0.0700828 -0.04098215 0.03968567 0.020224633
00000000: 1eca 72bd d279 4bbd 91c7 5b3c 1a65 52bd
00000010: a236 e4bc 16ef 6abd c757 ac3d 99e4 4bbd
00000020: 10d0 353c 374e dcbd 1a6f 97bd 7014 dcbd
00000030: d604 2f3d 770a 11bd 9c74 7abd eb37 95bc
00000040: 257a e9bb 5e89 a73c 7577 9dbb 5472 0abd
00000050: 1826 94bd 6a8e f5bd 6fba 9bbd 754c 76bd
00000060: 88ba cfbd 2fd8 2c3d e50f 45bd 6f9e 2c3d
00000070: 42d9 c23b 59d9 453d e849 b1bd 0155 7b3d
00000080: 3027 b8bc e661 89bb 399f 94bd 5898 28bd
00000090: 2840 3c3d 0333 94bd 2c1d ebbc fcf1 a0bc
000000a0: aa60 9abc e192 81bb b8f9 183c d0dd 113d
000000b0: 9565 87bd d9f2 f0bc 7aab b6bc 60be 573d
000000c0: b24b 59bc 7921 8dbd 9db6 153d 4fb3 b7bc
000000d0: d213 41bd 1de3 db3c 1670 efbd 54ef b7bd
000000e0: 3655 b83b 2576 583d 6c93 f9bb 30fa afbd
000000f0: 1ab1 b43d 9741 9fbc 356f 773d 6572 4a3d
00000100: 3969 aa3d efeb 013d 9ada f1bc 26d9 5ebd
00000110: 3c74 d2bc cc30 20bc 2c3b 6a3d 58a2 d33c
00000120: ea1f 27bd eeb6 edbc 67f7 65bd affb 00bc
00000130: 8b23 003d 9be0 ccbc 4ad3 123d 7557 84bd
00000140: 1a07 6c3d 3973 2b3d 3aef 82bc 5e05 ffbc
00000150: c59c abbd 1053 da3c b792 c4bc 1ac7 46bd
00000160: a02c 96bd 3a1e a1bd a462 9abd d75a 7ebd
00000170: 71dd 8d3c a85f 96bd 36c7 29bd ffcc 89bd
00000180: f220 a2bd 62d5 3bbd d87f d43a c037 8abd
00000190: 809c 0ebc fc65 773d d576 453d 5765 773c
000001a0: 1b72 9dbd 99cb 7b3d 1785 343c 7a00 76bd
000001b0: d8a9 59bd 48e7 9cbd 80b2 f4bb 9ea7 b53c
000001c0: 2fbb 80bd e458 50bd 24a8 4bbd d9ee a73d
000001d0: cfd1 c2bc 7e61 dfba 4d09 793c a422 e8bc
000001e0: 5c0f a73d e4c4 df3b 1c48 423d 8c96 cbbd
000001f0: 632c c7ba 9406 a03d 1e0e ba3c 254c 1bbc
00000200: af47 0fbc 569a b0bc 2ce7 2c3d b4c0 a4bd
00000210: 790b 9f3c 10cf 84bd a1e2 923c d9b1 a03d
00000220: e28f 913d 0188 1c3d ceb9 93bd 6bdb 633c
00000230: 1027 e43c 4b4a 5cbc 1132 933b 1039 50bc
00000240: 8a8c 7a3d db67 53bd c8bd a13d 1bbd 2cbd
00000250: d074 373d 6fd2 1fbc 31ea 27bd be90 cdbb
00000260: d41d 72bd 1408 85bd d0c3 8f3c 45bd 43bc
00000270: 1b1e af3c c972 98bd 968e 4b3d 47c0 3b3d
00000280: 1309 cc3b bd1a a0bc 0f59 703d 0730 3039
00000290: 209e b53c 801f 4ebd 00d1 e53a 9569 f83c
000002a0: 7f33 99bd a944 833d c67a c93b 5a20 983c
000002b0: 95ff 403c 8a82 3dbd abea 94bd fdce 893d
000002c0: 6e94 a5bc 0735 913d 1adf dd3c ff90 493d
000002d0: 6046 8bbd 48a5 10bd 44cb 92bd e372 3bbd
000002e0: 5f14 42bd 5b66 7a3d 55cd 6d3d 1718 4ebc
000002f0: 5720 153d db78 a73d 47ea 9ebc e18d ae3c
00000300: 40db 03bb 1784 9a3d 4420 a0bd 2100 803d
00000310: b833 8b3d 29e4 783d 60a2 513d 8d63 473d
00000320: 1c0c b7bd f767 3a3d 6615 523c bb11 c03c
00000330: 0d31 83bc b1e4 41bd 8a4d 633d 33a2 7f3d
00000340: 2ef7 88bb 56bd 6e3d eb25 b53c 50db 073c
00000350: 1e9d aabd 3502 bc3c cfc6 9eba cb00 423d
00000360: 8699 ca3c 89cc c5bd 2aef fbbc 1235 b3bd
00000370: 5520 0a3d bc6b 65bd d1da e53c 3e41 db3d
00000380: 3d92 a1bd 51b8 9abd 7026 c8bc 4c7e b73c
00000390: 6cec b0bc 6c75 77bd 9a72 91bd 6ee7 b0bc
000003a0: 924c 9cbd 274b 8b3c ea84 673d 66eb 4dbd
000003b0: 6e1e 953c 04b0 d73c eb74 b93c 5818 c7bc
000003c0: d307 84bd 0fd8 c7bc a08a 593d 2f52 0f3c
000003d0: 7377 2a3d 52e3 9bbd 593b 8e3b b3ec 9d3b
000003e0: f0ba 2d3d 63ba 45bd 7d38 b13c bdb8 743d
000003f0: 9287 8fbd e6dc 27bd 718d 223d 21ae a53c

2.bias f4 [128]
-0.0422966 -0.030276537 -0.027142938 -0.035105202 0.022594905 0.09438184 -0.06509256 0.004323925
-0.068545446 0.052303784 0.014831183 0.0014730283 0.038031563 0.019492095 0.02805393 0.092890404
-0.015146502 -0.03199612 0.038362596 -0.04867196 0.051087953 0.010940887 0.06701218 -0.015794784
-0.08793813 -0.023058211 -0.0040093474 -0.043724306 0.09706221 0.026863443 -0.03479332 0.100998476
0.12427227 0.017819708 0.0077136843 0.121309236 0.13085598 -0.018440612 0.06571178 -0.0171683
0.040320612 -0.07560057 -0.05708176 -0.064613394 -0.053996075 0.11944888 -0.011026119 -0.02296184
0.009970677 -0.043798298 -0.039689705 0.05459978 -0.03576846 0.074289866 -0.014240469 -0.06698228
-0.013312609 -0.015139538 -0.04145585 -0.065652326 0.0249011 -0.07506369 0.10329583 0.12330853
-0.075550035 -0.0030481084 -0.06980119 0.023866665 0.07309892 0.06888575 0.08105173 0.07121344
-0.050488982 -0.026495118 -0.027803387 0.030443657 0.10992776 -0.10740446 0.054355342 0.046988092
0.05718736 -0.044946242 0.03300627 -0.060724292 -0.086253926 0.026111113 -0.07824923 0.036858093
-0.07536884 -0.034425713 0.14928685 0.074796006 -0.045129642 0.041849636 0.08385519 0.052785527
0.02094737 -0.06150063 -0.02489204 0.057529867 0.09466889 -0.073011406 -0.044124946 0.046787757
0.04399473 0.02123727 -0.068687074 -0.029458666 -0.054595433 0.10825144 -0.036492564 0.060339138
-0.019747738 -0.07783028 0.07473007 0.037745558 0.0436456 0.01982306 -0.053839076 -0.052794937
-0.010686998 0.09963758 -0.05564719 -0.0866847 -0.044363666 -0.0325792 0.01474467 -0.047971435
00000000: 333f 2dbd 8006 f8bc de5a debc 79ca 0fbd
00000010: f318 b93c 444b c13d 404f 85bd b6af 8d3b
00000020: 8e61 8cbd 7e3c 563d 7dfe 723c a112 c13a
00000030: fcc6 1b3d e3ad 9f3c 5bd1 e53c 533d be3d
00000040: 0929 78bc 5d0e 03bd 1922 1d3d 405c 47bd
00000050: 9a41 513d 6841 333c af3d 893d 1064 81bc
00000060: e818 b4bd 93e4 bcbc d860 83bb 4218 33bd
00000070: 8dc8 c63d b910 dc3c 7183 0ebd 4ad8 ce3d
00000080: 7682 fe3d a3fa 913c 13c3 fc3b fa70 f83d
00000090: 1cff 053e c410 97bc e693 863d 89a4 8cbc
000000a0: 3a27 253d 79d4 9abd 90ce 69bd 0754 84bd
000000b0: fd2a 5dbd 9da1 f43d e5a6 34bc 781a bcbc
000000c0: 0d5c 233c d865 33bd ac91 22bd 05a4 5f3d
000000d0: f381 12bd 4925 983d db50 69bc 012e 89bd
000000e0: 211d 5abc d30b 78bc 9ccd 29bd ba74 86bd
000000f0: 64fd cb3c feba 99bd c48c d33d 2f89 fc3d
00000100: fab9 9abd c6c2 47bb edf3 8ebd 0684 c33c
00000110: e3b4 953d f913 8d3d 73fe a53d 5ad8 913d
00000120: 89cd 4ebd 4a0c d9bc eec3 e3bc fa64 f93c
00000130: ce21 e13d dff6 dbbd b5a3 5e3d 9676 403d
00000140: 4b3d 6a3d 8d19 38bd 9531 073d 09ba 78bd
00000150: e6a5 b0bd f9e6 d53c 2241 a0bd 83f8 163d
00000160: fa5a 9abd fa01 0dbd a7de 183e a62e 993d
00000170: dcd9 38bd 866a 2b3d 45bc ab3d a335 583d
00000180: d299 ab3c 16e8 7bbd 64ea cbbc 70a4 6b3d
00000190: c3e1 c13d 0187 95bd 5cbc 34bd 85a4 3f3d
000001a0: d133 343d c9f9 ad3c cfab 8cbd 4d53 f1bc
000001b0: 769f 5fbd eeb2 dd3d 3a79 15bd 2c26 773d
000001c0: 02c6 a1bc 7b65 9fbd 140c 993d 169b 1a3d
000001d0: bbc5 323d f863 a23c 5d86 5cbd 813f 58bd
000001e0: 8518 2fbc ca0e cc3d 4fee 63bd bf87 b1bd
000001f0: adb6 35bd c471 05bd a193 713c b27d 44bd

4.weight f4 [8, 128]
-0.024371883 -0.06281703 0.08312543 -0.046992388 -0.0246831 -0.14404121 -0.04450507 0.060240112
-0.005825882 0.052785575 0.009525652 -0.1168804 -0.04617501 0.0043009804 -0.16771743 0.014365121
-0.044315692 0.05610212 0.0054304535 -0.02314323 0.06415906 -0.0806168 -0.08586044 -0.01590289
0.004999183 -0.042814016 0.006951406 -0.032642096 -0.085325 -0.040171444 0.039448358 -0.095842846
-0.019002559 -0.057823434 -0.04623664 -0.087419316 0.046230998 -0.011314757 0.051807303 -0.04073161
0.05772551 -0.03803166 0.06811679 0.03743703 0.059492454 -0.11334218 0.00335034 -0.0012927672
-0.091693915 -0.01224561 0.024320658 0.004002973 -0.06417716 -0.014748725 0.03230253 0.058377896
0.028918426 0.015277122 -0.05396574 0.065077566 -0.0805876 0.029355058 -0.032843564 -0.100128
0.044105157 -0.07412431 -0.004308353 0.053244576 0.010303473 -0.071125366 -0.091424786 -0.0567023
0.08352319 0.040455878 -0.07263491 0.04829809 -0.06571144 0.0003333398 0.029059814 -0.05682044
-0.056558244 0.047626916 -0.031632505 0.025461743 0.0039777984 0.07430813 -0.09360876 0.016336381
0.0802883 0.025416877 -0.11475183 -0.0709616 0.07243033 -0.042838577 -0.13626243 -0.031582464
-0.06442519 0.04122184 0.0115128355 0.0070601637 -0.016758198 0.073237084 -0.05927246 0.031718142
0.020575343 0.034968168 -0.010903295 -0.10429241 -0.032305494 -0.110090934 -0.017290913 0.07119428
0.07733925 0.021028467 -0.093396395 -0.0056515867 -0.06289504 0.030806493 0.045853123 0.04684646
-0.04585462 -0.055302106 -0.006240338 -0.10969339 -0.08133247 0.035949774 0.06571442 0.050462548
0.06817908 0.020557106 0.029097488 0.04590346 0.026350072 -0.08906155 -0.046341576 -0.05567842
0.03153215 -0.022174647 -0.040391862 -0.06556719 -0.027568081 -0.008085883 -0.040142868 -0.0728842
-0.036374006 -0.032780237 -0.0077924044 -0.058528118 -0.063323215 -0.050349038 0.017068071 0.06890263
-0.026796322 0.02159422 -0.047330964 0.031538304 -0.10002269 -0.03062882 0.06524297 -0.037728686
-0.102078766 -0.075719714 -0.00775934 -0.04195627 -0.06821007 -0.0988971 -0.06662547 -0.09824787
0.052094005 -0.004980493 0.05466788 -0.060043503 0.05873056 0.004235652 0.035261173 -0.028923588
-0.02337545 0.051075872 -0.0063647153 0.02228719 0.08770622 -0.025349 -0.07956274 -0.04003965
0.029579448 -0.09608012 -0.042731225 0.060862843 -0.03388555 -0.07464774 -0.11411855 -0.019560121
0.039514937 -0.06382225 0.026090836 0.05613527 0.0017513823 -0.06933394 -0.07962763 -0.08151462
-0.087830536 -0.0048418734 -0.05477078 -0.09432839 -0.1179765 0.040445436 0.05654347 0.040899184
0.017729 0.020689296 0.0029885885 -0.04007435 0.0701612 -0.035873733 0.014192207 -0.039956603
0.023081575 0.085346535 0.007919225 -0.10564998 0.07163939 -0.1181269 -0.10551682 -0.0005778592
-0.08433004 0.019995406 0.027094753 -0.022107543 -0.0448248 0.04135395 -0.033991918 0.05552093
-0.08589823 0.012641677 0.027145637 0.03335003 -0.12040689 -0.0027574203 0.03730256 0.013869976
-0.066296294 -0.008608297 -0.048129406 0.054418407 0.015576384 0.058835812 -0.03304825 0.010682409
-0.035342205 -0.06253972 0.051658615 -0.020971937 0.08724286 -0.08793677 -0.013392689 -0.10518434
00000000: 8ba7 c7bc 37a6 80bd aa3d aa3d 177b 40bd
00000010: 3634 cabc 8a7f 13be f34a 36bd 56be 763d
00000020: 0ae7 bebb b035 583d 7b11 1c3c fe5e efbd
00000030: 0222 3dbd 3def 8c3b 1ebe 2bbe af5b 6b3c
00000040: 5f84 35bd 56cb 653d f2f1 b13b df96 bdbc
00000050: d365 833d 6c1a a5bd 99d7 afbd c746 82bc
00000060: 30d0 a33b c05d 2fbd 9fc8 e33b b8b3 05bd
00000070: e0be aebd d08a 24bd 9a94 213d 4149 c4bd
00000080: 41ab 9bbc 44d8 6cbd a262 3dbd e608 b3bd
00000090: b75c 3d3d 8861 39bc e533 543d 30d6 26bd
000000a0: 9671 6c3d 16c7 1bbd d180 8b3d 9257 193d
000000b0: 5cae 733d f21f e8bd 6191 5b3b 1272 a9ba
000000c0: 05ca bbbd d0a1 48bc 1e3c c73c 5f2b 833b
000000d0: 516f 83bd a3a4 71bc a84f 043d a91d 6f3d
000000e0: 56e6 ec3c e54c 7a3c 2e0b 5dbd 6347 853d
000000f0: 1d0b a5bd 057a f03c f986 06bd e90f cdbd
00000100: 9ca7 343d 7cce 97bd 162d 8dbb fc16 5a3d
00000110: e6cf 283c 2daa 91bd eb3c bbbd ac40 68bd
00000120: 350e ab3d 10b5 253d 9dc1 94bd 38d4 453d
00000130: b893 86bd 1cc4 ae39 d90e ee3c 8dbc 68bd
00000140: 9ea9 67bd 7114 433d 1691 01bd 2595 d03c
00000150: 3158 823b dc2e 983d f3b5 bfbd e0d3 853c
00000160: 316e a43d 0e37 d03c 0203 ebbd 5154 91bd
00000170: 5a56 943d 8177 2fbd 6188 0bbe 9d5c 01bd
00000180: 5bf1 83bd 3bd8 283d 55a0 3c3c f258 e73b
00000190: 7d48 89bc 53fd 953d aec7 72bd e2ea 013d
000001a0: 9f8d a83c c83a 0f3d bca3 32bc 4297 d5bd
000001b0: c452 04bd 5b77 e1bd aca5 8dbc 4fce 913d
000001c0: 0a64 9e3d e443 ac3c 9c46 bfbd f230 b9bb
000001d0: 1dcf 80bd e65d fc3c 7cd0 3b3d 13e2 3f3d
000001e0: 0ed2 3bbd 7684 62bd c07b ccbb eea6 e0bd
000001f0: a391 a6bd 1240 133d 4895 863d d1b1 4e3d
00000200: 79a1 8b3d 6067 a83c db5d ee3c 4405 3c3d
00000210: 1bdc d73c e765 b6bd aad0 3dbd 0e0f 64bd
00000220: db27 013d 9ba7 b5bc f071 25bd 1748 86bd
00000230: 75d6 e1bc a77a 04bc d96c 24bd 5044 95bd
00000240: e9fc 14bd 9244 06bd 6d57 ffbb 2ebb 6fbd
00000250: 9aaf 81bd cb3a 4ebd 57d2 8b3c d21c 8d3d
00000260: f683 dbbc 5de6 b03c 1dde 41bd 4f2e 013d
00000270: b2d8 ccbd 4be9 fabc 1b9e 853d 6589 1abd
00000280: ac0e d1bd f012 9bbd 1042 febb 56da 2bbd
00000290: b9b1 8bbd 908a cabd ef72 88bd 2e36 c9bd
000002a0: 8660 553d 6733 a3bb 6deb 5f3d 2df0 75bd
000002b0: 758f 703d 39cb 8a3b 056e 103d 29f1 ecbc
000002c0: df7d bfbc ef34 513d 1a8f d0bb a093 b63c
000002d0: 529f b33d b5a8 cfbc caf1 a2bd 9e00 24bd
000002e0: 9950 f23c a7c5 c4bd f006 2fbd 514b 793d
000002f0: 93cb 0abd eae0 98bd fdb6 e9bd 8c3c a0bc
00000300: 6ada 213d 3db5 82bd 73bc d53c 19ee 653d
00000310: a38e e53a f4fe 8dbd d013 a3bd 23f1 a6bd
00000320: 7fe0 b3bd 94a8 9ebb 5357 60bd 3e2f c1bd
00000330: aa9d f1bd 1daa 253d 209a 673d e785 273d
00000340: 683c 913c 997c a93c 32dc 433b 0025 24bd
00000350: adb0 8f3d 56f0 12bd 6e86 683c 89a9 23bd
00000360: 9215 bd3c 2aca ae3d a3bf 013c 045f d8bd
00000370: acb7 923d 84ec f1bd 3419 d8bd 797b 17ba
00000380: 3ab5 acbd 68cd a33c d1f5 dd3c e11a b5bc
00000390: 369a 37bd c262 293d 1c3b 0bbd ea69 633d
000003a0: 69eb afbd 091f 4f3c 8760 de3c 0b9a 083d
000003b0: e397 f6bd d6b5 34bb 92ca 183d e53e 633c
000003c0: 5ac6 87bd d109 0dbc 5723 45bd d6e5 5e3d
000003d0: 1734 7f3c d2fd 703d 9a5d 07bd 4505 2f3c
000003e0: fdc2 10bd d314 80bd fc97 533d 57cd abbc
000003f0: 62ac b23d 3118 b4bd 026d 5bbc e36a d7bd

4.bias f4 [8]
-0.12591411 -0.12078759 -0.038947206 -0.11068186 -0.075945824 0.004308923 -0.034543123 -0.09294774
00000000: a1ef 00be 7c5f f7bd 1b87 1fbd 2cad e2bd
00000010: 7c89 9bbd de31 8d3b 177d 0dbd 625b bebd
