ddqn/payload/final_double_dqn_model-8thSize-1.pth (torch, 76102 bytes, 6 tensors)

0.weight f4 [128, 5]
0.09892801 -0.5262432 -0.15404403 0.14897476 0.16162908 0.22259034 -0.26773804 -0.25395563
0.18848377 -0.4430586 -0.067791134 -0.16248275 0.3362677 -0.37909272 0.14790626 -0.2459126
-0.7592779 0.2406357 -0.29450977 -0.25617912 0.061316546 -0.5721579 0.27766696 -0.21400334
-0.09745218 -0.0012683994 -0.5029978 0.24406289 -0.4447155 0.12034371 -0.021862138 -0.72786844
-0.17064261 0.49308333 0.29249874 -0.15886937 0.08400337 -0.07658756 -0.21807586 -0.1807447
-0.44360164 -0.7671341 0.3368758 -0.042601015 -0.33312595 0.08635864 -0.24524039 -0.015427158
0.21890745 -0.3427961 0.25722578 0.09301276 0.27588987 0.020290036 -0.3086052 0.26305637
-0.11085114 -0.42660663 -0.23351158 0.38345546 0.07707707 -0.8071485 0.18348075 0.10221443
-0.22892645 -0.2750115 -0.25953168 0.13708147 -0.22595336 -0.46232805 -0.41094244 0.039503988
-0.28728068 0.1924989 -0.04124308 0.3501709 -0.14514703 -0.15534624 -0.32194966 0.28886443
0.20841175 -0.07432974 -0.10896602 -0.2923947 -0.24209604 0.24339302 0.06839143 -0.11612647
-0.23287499 -0.35800633 0.12692684 -0.03268565 -0.2839761 -0.25667676 0.14450797 0.37191644
-0.47247174 -0.05687291 0.12303286 -0.017863523 0.43972987 0.20772135 0.018567566 -0.18394054
0.25074184 -0.3684343 -0.19125259 -0.081723265 -0.1680214 -0.4345092 0.42400202 -0.1493971
-0.13463709 -0.4291996 -0.1514113 0.1896502 0.008829114 0.25811225 -0.412478 0.02587722
0.30289006 -0.35470814 -0.42791277 0.28411156 -0.09390069 0.4110559 0.012049954 -0.4411766
-0.42497498 -0.10106524 0.0861963 -0.4188116 0.3730729 -0.47553393 0.18722385 -0.39213955
0.1534372 -0.07265424 0.27135566 0.28677666 0.16132616 -0.6420626 0.20823748 -0.37214476
-0.35453352 -0.22880445 -0.5703874 0.14368431 -0.2809174 0.18790631 0.3414595 0.93065256
-0.05036308 0.30130807 0.39950997 -0.2350547 0.009942104 -0.14211789 0.07240225 -0.32570267
-0.12859194 0.05156658 -0.019856006 -0.019502228 -0.29909852 0.04134805 -0.1209975 0.14427051
-0.16495538 0.1994101 -0.03269354 0.1774789 -0.3723705 0.38082367 -0.18314575 -0.120486595
-0.3860725 0.33145723 -0.290591 0.13223436 -0.08582141 0.018456325 0.03287624 -0.08446698
0.14897633 -0.35097516 0.061906315 0.3671258 -0.11699771 -0.0977107 -0.13429569 0.29069838
-0.4095789 -0.36690897 -0.15849625 0.21790071 0.8864183 0.043347724 0.064799264 0.43121275
0.13545665 0.7074992 -0.0052850964 -0.36808348 -0.06951845 0.09914488 0.33896253 -0.07978887
0.14374413 0.49519977 -0.40847245 -0.7615794 0.09833916 -0.03038558 0.2411069 0.15805647
0.5362641 0.15420192 0.039979994 0.6789785 -0.33345544 -0.03772026 0.19639488 -0.35084096
0.00035486266 -0.07852162 0.63371485 -0.15680082 -0.1939134 -0.11611111 -0.25859338 -0.324422
-0.02396567 -0.17404774 -0.26394415 0.3284056 -0.36070323 -0.284385 0.15845819 0.11925791
-0.0076869526 0.18869227 0.03401016 -0.19061822 -0.29564124 -0.34164295 -0.70010084 0.3237015
-0.31090423 -0.45859748 0.35520574 0.84243083 0.055500384 -0.22022751 -0.34858048 -0.30396798
00000000: c59a ca3d e0b7 06bf b8bd 1dbe d78c 183e
00000010: 1882 253e b9ee 633e f614 89be 7906 82be
00000020: e401 413e 94d8 e2be 14d6 8abd e161 26be
00000030: 482b ac3e 7118 c2be bd74 173e 83d0 7bbe
00000040: 0960 42bf 3469 763e fcc9 96be e929 83be
00000050: 0f27 7b3d f178 12bf 5d2a 8e3e b123 5bbe
00000060: 0295 c7bd 6c40 a6ba 77c4 00bf 9feb 793e
00000070: c0b1 e3be c376 f63d 3a18 b3bc 9655 3abf
00000080: f0bc 2ebe 6b75 fc3e 65c2 953e a7ae 22be
00000090: f509 ac3d f0d9 9cbd 474f 5fbe 2315 39be
000000a0: c11f e3be e662 44bf fc7a ac3e 677e 2ebd
000000b0: 7c8f aabe ccdc b03d 4c20 7bbe 31c2 7cbc
000000c0: 4629 603e f882 afbe 19b3 833e 797d be3d
000000d0: 7041 8d3e 4a37 a63c 8001 9ebe 53af 863e
000000e0: ec05 e3bd 2f6c dabe a91d 6fbe 4654 c43e
000000f0: 95da 9d3d 49a1 4ebf 61e2 3b3e cd55 d13d
00000100: b26b 6abe 4fce 8cbe 56e1 84be 165f 0c3e
00000110: 5160 67be 43b6 ecbe 0c67 d2be efce 213d
00000120: 7416 93be 6f1e 453e 81ee 28bd 9a49 b33e
00000130: 6ca1 14be 1613 1fbe 96d6 a4be 0ae6 933e
00000140: e469 553e 313a 98bd 9429 dfbd c2b4 95be
00000150: 06e8 77be 053c 793e ce10 8c3d b7d3 edbd
00000160: c876 6ebe 9b4c b7be 1cf9 013e 63e1 05bd
00000170: 5165 91be 236b 83be e6f9 133e d56b be3e
00000180: d1e7 f1be 92f3 68bd a7f8 fb3d 8656 92bc
00000190: 4624 e13e e8b4 543e 021b 983c e95a 3cbe
000001a0: 3c61 803e 6ca3 bcbe b8d7 43be 875e a7bd
000001b0: cd0d 2cbe fd77 debe cb16 d93e 8efb 18be
000001c0: 4ede 09be 0dc0 dbbe 900b 1bbe a933 423e
000001d0: fda7 103c 4a27 843e 5130 d3be 77fc d33c
000001e0: 6814 9b3e 4e9c b5be 6217 dbbe 1277 913e
000001f0: 014f c0bd eb75 d23e 2c6d 453c e6e1 e1be
00000200: 5296 d9be 4bfb cebd b087 b03d 796e d6be
00000210: 6903 bf3e 2f79 f3be 9cb7 3f3e 84c6 c8be
00000220: a41e 1d3e bfcb 94bd 21ef 8a3e 64d4 923e
00000230: af32 253e 375e 24bf 353c 553e c289 bebe
00000240: 6b85 b5be b74b 6abe e904 12bf fb21 133e
00000250: 68d4 8fbe 836a 403e c8d3 ae3e 3f3f 6e3f
00000260: 8449 4ebd 0d45 9a3e 928c cc3e 2eb2 70be
00000270: 35e4 223c 5a87 11be a147 943d 80c2 a6be
00000280: 9bad 03be 7a37 533d 10a9 a2bc 23c3 9fbc
00000290: 7123 99be 935c 293d 8acd f7bd a6bb 133e
000002a0: 10ea 28be 2932 4c3e a9e9 05bd 07bd 353e
000002b0: 59a7 bebe 52fb c23e 8f8a 3bbe adc1 f6bd
000002c0: 4bab c5be c3b4 a93e 58c8 94be 7268 073e
000002d0: 23c3 afbd b831 973c 3ca9 063d 06fd acbd
000002e0: 408d 183e 04b3 b3be 7a91 7d3d eaf7 bb3e
000002f0: 7f9c efbd 8c1c c8bd cf84 09be 6bd6 943e
00000300: 53b4 d1be 7edb bbbe d74c 22be 5d21 5f3e
00000310: 4fec 623f 628d 313d 7ab5 843d ebc7 dc3e
00000320: 26b5 0a3e ab1e 353f 9a2e adbb 7075 bcbe
00000330: b05f 8ebd 790c cb3d 7f8c ad3e 5968 a3bd
00000340: a931 133e d38a fd3e 4d23 d1be def6 42bf
00000350: 0b66 c93d 2eeb f8bc bae4 763e 8ed9 213e
00000360: 9b48 093f 1ce7 1d3e 10c2 233d 89d1 2d3f
00000370: acba aabe 8f80 1abd bd1b 493e 6da1 b3be
00000380: dc0c ba39 f1cf a0bd 233b 223f 6590 20be
00000390: 3c91 46be a9cb edbd 5a66 84be a41a a6be
000003a0: a753 c4bc 9239 32be b023 87be c724 a83e
000003b0: 18ae b8be e99a 91be dd42 223e 7e3d f43d
000003c0: d5e2 fbbb 8c38 413e 3d4e 0b3d 6c31 43be
000003d0: 4a5e 97be d3eb aebe cf39 33bf 34bc a53e
000003e0: d72e 9fbe 4acd eabe 87dd b53e 8ca9 573f
000003f0: 5f54 633d 5283 61be 2479 b2be b1a1 9bbe

0.bias f4 [128]
0.3401808 -0.17659898 -0.15487535 0.28563657 0.4041934 0.39183858 -0.041070614 0.61409515
0.5536368 -0.33481348 -0.33643392 0.120285764 -0.20661984 -0.04798693 0.07412892 -0.39750877
-0.049503352 -0.12002294 -0.283803 -0.06289407 0.09291272 0.08443386 -0.41521513 -0.063881256
0.19488724 -0.23626232 0.18072216 0.5078805 0.3034685 -0.09742936 -0.009842558 -0.24686235
-0.14817333 0.08310154 -0.41876122 -0.48964643 0.30014318 -0.30392998 0.037543226 -0.104785405
0.22631773 0.27328914 -0.2899579 -0.31851712 -0.09889839 0.34585246 -0.3920304 -0.0093951225
0.51641023 -0.26980922 0.061487593 -0.32466018 0.31811514 0.33869535 0.26517558 -0.3394593
-0.23865475 -0.33157128 -0.1206155 0.5086498 0.10417551 0.52553886 -0.1517809 0.25967252
-0.10285581 0.10619924 0.60410213 -0.32375896 0.33560193 -0.42595872 -0.41996944 0.6542801
0.36038458 0.23005131 -0.21634741 0.33648527 -0.3031153 -0.21735598 -0.17707191 0.5445094
-0.42137235 -0.21130154 0.5298173 0.13625292 -0.28282467 -0.3925926 0.31099036 -0.28499532
0.43037742 0.29394498 0.10204781 0.52456284 -0.07718204 -0.038606387 -0.28410366 0.41270706
-0.233644 0.057472125 0.31031296 -0.18038853 -0.33646673 -0.1830806 -0.33833745 -0.14951584
-0.052275788 -0.03167382 0.5243251 0.64923507 0.24481085 0.58681226 0.49876514 -0.33641216
0.37388963 0.5297287 0.58880913 -0.17097226 0.34037492 -0.46566218 0.39183924 0.09094203
0.10883448 -0.42724216 -0.46906123 0.5551014 -0.01529623 -0.20373933 -0.21064223 0.29671353
00000000: 2e2c ae3e 5dd6 34be a597 1ebe f53e 923e
00000010: 70f2 ce3e 119f c83e a939 28bd 5735 1d3f
00000020: 24bb 0d3f ac6c abbe 1141 acbe 6258 f63d
00000030: 2794 53be f18d 44bd e7d0 973d 4586 cbbe
00000040: 07c4 4abd 96ce f5bd a04e 91be 9bce 80bd
00000050: 0649 be3d a9eb ac3d 1497 d4be 2dd4 82bd
00000060: 8590 473e c0ee 71be 3b0f 393e 7504 023f
00000070: 3960 9b3e 0b89 c7bd ae42 21bc 7cc9 7cbe
00000080: c0ba 17be 2431 aa3d df67 d6be f0b2 fabe
00000090: 5eac 993e b69c 9bbe edc6 193d bb99 d6bd
000000a0: d6bf 673e 8eec 8b3e 5d75 94be ad14 a3be
000000b0: 3d8b cabd 9313 b13e 35b8 c8be 00ee 19bc
000000c0: 7633 043f 6f24 8abe 6ada 7b3d dc39 a6be
000000d0: fddf a23e 7a69 ad3e 18c5 873e 9ccd adbe
000000e0: e961 74be b6c3 a9be 4205 f7bd e036 023f
000000f0: f859 d53d b789 063f 746c 1bbe ccf3 843e
00000100: 11a6 d2bd fd7e d93d 70a6 1a3f bcc3 a5be
00000110: 04d4 ab3e 4317 dabe 3c06 d7be e77e 273f
00000120: 5484 b83e 9292 6b3e 2d8a 5dbe cc47 ac3e
00000130: ee31 9bbe 9192 5ebe 5752 35be f864 0b3f
00000140: 1ebe d7be 6e5f 58be 1ba2 073f e385 0b3e
00000150: 65ce 90be e601 c9be 213a 9f3e e8ea 91be
00000160: 6e5a dc3e f57f 963e 71fe d03d c049 063f
00000170: 9e11 9ebd bb21 1ebd 0976 91be 574e d33e
00000180: 5f40 6fbe e467 6b3d 57e1 9e3e c5b7 38be
00000190: 5e45 acbe 7b79 3bbe 913a adbe ae1a 19be
000001a0: 231f 56bd 68bc 01bd 2b3a 063f 4534 263f
000001b0: b2af 7a3e 5439 163f 255e ff3e 373e acbe
000001c0: 766e bf3e 4d9c 073f 32bc 163f 5a13 2fbe
000001d0: 9f45 ae3e 466b eebe 279f c83e d13f ba3d
000001e0: 9de4 de3d 7cbf dabe cb28 f0be 201b 0e3f
000001f0: 0a9d 7abc 0ba1 50be 99b2 57be d6ea 973e

2.weight f4 [128, 128]
0.14349069 -0.032558303 -0.012743051 -0.052349348 0.1120505 0.08078877 0.118474536 0.25745252
-0.0053860955 0.012965194 0.020623444 0.0017554372 0.01699273 0.035823893 0.028106436 -0.02482385
0.037859112 0.072790965 -0.042566314 -0.04358792 0.11170031 -0.0052954773 0.0035007382 -0.018501943
-0.0028935391 -0.08231307 0.0073396047 0.1655922 0.026820848 0.038441442 0.33984846 -0.070555225
-0.0748964 0.06169734 -0.07453571 -0.022039706 0.12780848 -0.060963027 0.071055114 0.25506863
-0.040995743 0.19942032 -0.008271645 0.018243775 0.08663549 0.010439841 0.04426484 -0.061064817
0.12716073 -0.0660347 0.5547918 0.008346999 0.06315695 0.10722459 0.38128194 0.0029807608
-0.060810663 0.0686364 -0.031851973 -0.020767827 0.10232019 0.050334174 0.01760065 -0.02566874
-0.03188336 -0.07667835 0.18219239 -0.05429164 0.26910824 -0.0054565207 -0.076770864 0.18105519
0.003993319 -0.07561978 0.045730848 0.08980037 -0.08263198 0.15941057 0.062254783 0.00047960185
-0.013177875 0.018752031 0.07341618 0.11172499 0.04280204 -0.034323625 0.102231674 0.0644638
0.20094757 0.018710762 0.091090485 0.15467659 -0.07526515 0.18165508 -0.07074756 0.28495455
0.041420165 0.019442514 -0.00016981261 -0.007320018 -0.15359403 0.053298704 0.1595776 -0.01795155
-0.07276499 0.06247657 0.032562803 0.23229258 -0.03957061 0.22763167 0.1495135 0.067954786
0.09652183 0.16610985 0.23337223 0.07066957 -0.05503215 -0.10377187 0.02095281 -0.057364188
-0.05752123 -0.0807137 0.030811166 0.2815085 0.038938977 -0.003293144 -0.010025464 0.043499466
0.05667255 0.058356218 -0.027856445 0.00022767037 -0.05799175 -0.012294946 0.034996185 0.090586945
0.0012282003 0.022757748 -0.055290453 -0.06920732 -0.1279311 -0.07375184 0.022545688 -0.074426904
0.007695751 -0.08282485 -0.034920044 -0.014285972 0.0039024425 0.0085992105 -0.04951454 -0.000845157
-0.083169274 -0.07304401 -0.03234922 -0.09231729 0.015620587 -0.07128731 -0.02830144 0.053295206
0.049536 -0.08158403 0.04239682 -0.11562483 0.024548147 0.032348674 -0.01136809 0.010542863
0.10650096 -0.02199567 -0.12661098 -0.043930527 0.05949033 0.06735745 0.029905928 -0.021220127
0.016442034 -0.07509263 0.02179635 0.028184088 0.03868563 -0.043054458 -0.049549554 0.010158694
0.046824716 0.030925594 -0.029414 -0.021700857 -0.09701049 0.027185533 0.05796852 -0.07678288
-0.10221001 -0.06851188 -0.09500681 -0.045188997 -0.07320177 -0.010728933 -0.041022558 0.03254421
-0.047572274 0.03024974 0.0145230135 -0.067514166 -0.04493889 -0.06082647 -0.038332906 0.0067433245
-0.09577204 -0.10028747 0.02849902 0.02900686 -0.07500347 0.0016879918 -0.09502641 -0.061431833
0.043924063 -0.050613258 -0.005077524 0.04940775 -0.040079482 0.010372277 0.023339134 0.08346021
-0.08273632 -0.054125525 -0.081065096 -0.02327842 -0.0786419 -0.058148194 -0.02586555 0.026561001
0.08450047 -0.06726633 0.03543538 -0.0043248218 -0.05545892 -0.067950286 -0.02447814 0.0296978
-0.022916052 -0.009354536 0.011741328 -0.055616956 0.080158174 -0.07846896 0.02357508 -0.08707357
-0.09438291 -0.06818113 -0.04616105 -0.05178117 -0.058468174 -0.06593201 -0.097606465 -0.08578466
00000000: 39ef 123e db5b 05bd 3bc8 50bc 456c 56bd
00000010: bc7a e53d 9574 a53d c7a2 f23d d1d0 833e
00000020: d87d b0bb f76b 543c 7ff2 a83c b316 e63a
00000030: 5634 8b3c 13bc 123d 783f e63c 635b cbbc
00000040: 2812 1b3d 6e13 953d 045a 2ebd 3f89 32bd
00000050: 22c3 e43d af85 adbb a46c 653b 6391 97bc
00000060: 88a1 3dbb c193 a8bd 1181 f03b 0091 293e
00000070: 65b7 db3c c674 1d3d 9e00 ae3e 427f 90bd
00000080: 4963 99bd 5ab6 7c3d 2ea6 98bd 9d8c b4bc
00000090: 3ae0 023e 5eb4 79bd 5885 913d 5b98 823e
000000a0: 27eb 27bd d734 4c3e cb85 07bc f873 953c
000000b0: f36d b13d de0b 2b3c 0d4f 353d 1a1f 7abd
000000c0: 6c36 023e 333d 87bd d606 0e3f dac1 083c
000000d0: 6e58 813d 9198 db3d 6337 c33e de58 433b
000000e0: 9a14 79bd 3e91 8c3d 3777 02bd 4a21 aabc
000000f0: 3f8d d13d 352b 4e3d 3d2f 903c 4047 d2bc
00000100: 2098 02bd 8a09 9dbd a490 3a3e e960 5ebd
00000110: 8ec8 893e 9dcc b2bb 0b3a 9dbd 8866 393e
00000120: 63da 823b 8bde 9abd 4550 3b3d 42e9 b73d
00000130: f53a a9bd 863c 233e dffe 7e3d 1273 fb39
00000140: 04e8 57bc dc9d 993c 395b 963d 12d0 e43d
00000150: 3151 2f3d ee96 0cbd d75e d13d 9905 843d
00000160: 33c5 4d3e 5047 993c a68d ba3d 8a63 1e3e
00000170: 9d24 9abd ca03 3a3e 19e4 90bd 90e5 913e
00000180: 31a8 293d e845 9f3c ba0f 32b9 c3dc efbb
00000190: c147 1dbe be4f 5a3d 4f68 233e 210f 93bc
000001a0: d005 95bd 6fe7 7f3d 9360 053d 1bde 6d3e
000001b0: cb14 22bd 4718 693e 111a 193e e12b 8b3d
000001c0: 3dad c53d b318 2a3e 21f9 6e3e 35bb 903d
000001d0: 6469 61bd 5986 d4bd 3aa5 ab3c b6f6 6abd
000001e0: 629b 6bbd 394d a5bd b367 fc3c e221 903e
000001f0: 7a7e 1f3d cad1 57bb d841 24bc 7f2c 323d
00000200: 7a21 683d ee06 6f3d 3333 e4bc cdba 6e39
00000210: c288 6dbd be70 49bc 2958 0f3d a685 b93d
00000220: 90fb a03a 756e ba3c 3e78 62bd 91bc 8dbd
00000230: 5f00 03be 340b 97bd bcb1 b83c 226d 98bd
00000240: a32c fc3b 13a0 a9bd 5208 0fbd b60f 6abc
00000250: 1fc0 7f3b b4e3 0c3c c2cf 4abd 878d 5dba
00000260: a754 aabd 1998 95bd 9e80 04bd d910 bdbd
00000270: 7eed 7f3c 15ff 91bd 6cd8 e7bc 134c 5a3d
00000280: 43e6 4a3d 8715 a7bd 4aa8 2d3d b6cc ecbd
00000290: 3219 c93c 0b80 043d 3a41 3abc f9bb 2c3c
000002a0: 2d1d da3d 4330 b4bc 4fa6 01be 7ff0 33bd
000002b0: 22ac 733d b4f2 893d 47fd f43c d5d5 adbc
000002c0: 72b1 863c 2aca 99bd 428e b23c 51e2 e63c
000002d0: d374 1e3d df59 30bd 79f4 4abd a770 263c
000002e0: 46cb 3f3d ac57 fd3c a1f5 f0bc ffc5 b1bc
000002f0: 70ad c6bd 32b4 de3c 6670 6d3d 5840 9dbd
00000300: 7b53 d1bd f54f 8cbd ee92 c2bd 1918 39bd
00000310: cfea 95bd 68c8 2fbc 4507 28bd 144d 053d
00000320: 25db 42bd 4ece f73c eff1 6d3c de44 8abd
00000330: d711 38bd 2d25 79bd f702 1dbd 1bf7 dc3b
00000340: 2224 c4bd 8463 cdbd c776 e93c cb9f ed3c
00000350: 6b9b 99bd 9b3f dd3a 359d c2bd f29f 7bbd
00000360: b8e9 333d d94f 4fbd 5c61 a6bb c85f 4a3d
00000370: 622a 24bd 7cf0 293c b631 bf3c 30ed aa3d
00000380: a971 a9bd bab2 5dbd 7505 a6bd 63b2 bebc
00000390: 010f a1bd cd2c 6ebd fde3 d3bc 7596 d93c
000003a0: 950e ad3d eec2 89bd b024 113d 3cb7 8dbb
000003b0: e428 63bd 8529 8bbd 6186 c8bc cd48 f33c
000003c0: 72ba bbbc c543 19bc b35e 403c 9bce 63bd
000003d0: f829 a43d 56b4 a0bd 8720 c13c a153 b2bd
000003e0: d44b c1bd 8ca2 8bbd 5f13 3dbd 7e18 54bd
000003f0: 537c 6fbd 5d07 87bd e6e5 c7bd deaf afbd

2.bias f4 [128]
0.20662047 -0.06913164 -0.081456 -0.055162694 0.20670775 -0.022727229 -0.013757576 -0.07288807
-0.10304247 -0.060775083 -0.09287678 -0.057135627 0.20340128 -0.062443618 0.11365701 -0.05329597
0.2079076 -0.095590904 -0.07335474 0.027886968 0.001174875 0.03017241 0.04819282 -0.030205375
0.03995811 -0.08889211 0.04951868 0.015398827 0.04686043 0.12248193 0.012666503 0.0153500475
-0.07537796 -0.07406878 -0.01879747 -0.0823756 0.21010086 0.012794809 0.12481069 0.19045457
-0.07689182 0.017102523 -0.025086991 0.025974877 -0.021736063 -0.065468796 -0.026407834 -0.00027248787
0.06671951 -0.091739476 -0.048327703 0.013209222 0.05578269 -0.03968806 0.04543098 -0.019114906
0.02202511 0.014245024 0.11217582 0.05145404 -0.0119325975 0.13748255 0.029461084 0.14505143
-0.0617258 -0.051284265 -0.039842095 -0.015522964 0.13285613 0.026660763 0.02739907 0.0032154447
0.18185598 0.1447491 -0.06846486 0.031169292 0.050425496 0.05493665 -0.0024751844 0.13853501
0.22651614 0.06377742 0.2105039 -0.08510754 -0.014039742 -0.12295437 -0.048343673 -0.052935764
0.13474129 0.028267786 0.13582985 -0.10102911 0.16751206 0.119090945 0.102460116 -0.0042203506
0.016789407 -0.061625503 -0.016145432 -0.012596674 0.07416586 0.006317083 0.050004717 0.043375943
0.21628591 -0.073283985 0.030251704 -0.006800102 -0.092426665 -0.0022568235 -0.009462285 0.017467828
-0.05205583 -0.0027709843 -0.031745017 0.017889393 -0.088137165 -0.064887434 -0.037830163 -0.005578659
0.20750998 -0.04999827 -0.070407346 0.13887277 0.19320777 -0.019810433 -0.078388736 -0.02545349
00000000: 5194 533e e494 8dbd 67d2 a6bd 47f2 61bd
00000010: 32ab 533e 742e babc 7567 61bc 5746 95bd
00000020: ee07 d3bd 4bef 78bd 2e36 bebd 0c07 6abd
00000030: 6d48 503e e1c4 7fbd 02c5 e83d e04c 5abd
00000040: bbe5 543e 2ac5 c3bd 033b 96bd 3673 e43c
00000050: 43fe 993a 212c f73c d665 453d 4371 f7bc
00000060: 1dab 233d 110d b6bd 19d4 4a3d 5d4b 7c3c
00000070: b9f0 3f3d ced7 fa3d 2a87 4f3c c47e 7b3c
00000080: c35f 9abd 5fb1 97bd 27fd 99bc 8ab4 a8bd
00000090: ae24 573e 52a1 513c bf9c ff3d 8606 433e
000000a0: 7579 9dbd 971a 8c3c 3c83 cdbc 44c9 d43c
000000b0: d40f b2bc 8114 86bd 3e55 d8bc b4dc 8eb9
000000c0: 3da4 883d e8e1 bbbd 45f3 45bd 7e6b 583c
000000d0: 647c 643d f28f 22bd d615 3a3d dd96 9cbc
000000e0: 016e b43c f663 693c 70bc e53d 79c1 523d
000000f0: f180 43bc 3ac8 0c3e 5f58 f13c 5d88 143e
00000100: 31d4 7cbd 730f 52bd 7731 23bd 0854 7ebc
00000110: 700b 083e ac67 da3c 0474 e03c 36ba 523b
00000120: 7438 3a3e 1c39 143e 4e37 8cbd be56 ff3c
00000130: f78a 4e3d 4105 613d b436 22bb 1fdc 0d3e
00000140: d9f3 673e bc9d 823d 568e 573e dd4c aebd
00000150: f206 66bc 80cf fbbd 0404 46bd 2cd3 58bd
00000160: 9ff9 093e d891 e73c fb16 0b3e 5ae8 cebd
00000170: 4888 2b3e f4e5 f33d 9cd6 d13d de4a 8abb
00000180: f089 893c 066b 7cbd 6d43 84bc 4862 4ebc
00000190: 45e4 973d 88ff ce3b bfd1 4c3d f9aa 313d
000001a0: 0e7a 5d3e ea15 96bd 6cd2 f73c 64d3 debb
000001b0: 314a bdbd 37e7 13bb b307 1bbc b118 8f3c
000001c0: 7e38 55bd 6799 35bb 1007 02bd c78c 923c
000001d0: 4281 b4bd b4e3 84bd cdf3 1abd 2fcd b6bb
000001e0: 7f7d 543e fcca 4cbd ba31 90bd aa34 0e3e
000001f0: 42d8 453e 7d49 a2bc 468a a0bd d683 d0bc

4.weight f4 [8, 128]
-0.1482057 0.082167886 0.05606689 -0.020857483 -0.0780111 -0.0047989455 0.039811514 0.04060683
0.04015247 0.05743232 0.022101818 -0.01650557 -0.11297214 0.0097677 -0.076429166 0.06476704
-0.056263175 -0.039410114 0.0028735194 -0.038847115 -0.0028510657 0.036140054 -0.2081315 -0.02387797
-0.014802223 -0.058613453 -0.011595414 -0.09845041 0.018605905 -0.06501382 0.025554162 0.0620432
-0.08874222 0.024451073 0.013649472 0.06676252 0.027867982 0.109691866 0.029207615 -0.055399407
0.08456236 -0.024597084 0.06622461 -0.05702129 -0.053831104 0.022164332 0.0034383133 -0.005534949
0.07333306 0.061517593 -0.06865 0.03976178 -0.36600223 -0.04992419 -0.0017985529 -0.04335185
-0.08231058 -0.019608777 -0.10617792 -0.09860237 -0.06919438 0.061853014 -0.18276364 -0.044506267
0.087914646 -0.03884346 0.009555477 -0.050175056 -0.14256984 -0.068737485 -0.017992398 -0.06583707
-0.045906633 -0.020243695 -0.055194434 -0.08849231 -0.09793498 0.0055947057 0.04847064 -0.052222144
0.02383995 0.07125709 -0.061126918 0.06727386 0.0657544 -0.07430245 -0.08790704 0.03043702
-0.06331264 -0.00937604 -0.008559714 -0.01081115 -0.114623904 -0.023368817 0.07039869 0.00831412
-0.08401945 0.079829 -0.07185559 0.012469792 -0.017020416 0.072818555 0.0061783344 -0.020295193
-0.072548926 0.0021085772 -0.08529987 -0.08714887 0.04417008 -0.10242776 0.044110328 0.016793273
0.06225874 -0.02303623 0.047354672 -0.04959769 0.06254889 -0.054260254 -0.17204666 -0.024107844
-0.096053496 -0.074464895 0.045456056 0.03134778 0.055601012 -0.05670178 -0.024824034 -0.16557129
-0.15616117 0.04791935 0.07100699 0.028324466 -0.030570393 -0.0063557024 -0.023400446 0.053744618
0.08413297 0.04435922 -0.015754608 -0.068355516 -0.043479282 0.05810959 -0.20120762 0.005495591
-0.024906512 0.0312508 0.028490352 0.0035931154 0.059282713 -0.018843755 -0.06428067 -0.006290349
-0.0012938108 -0.17817849 0.05149849 0.00020374807 0.023792855 -0.16249599 0.0674573 0.05271392
0.08820406 0.07025249 0.0508807 0.043183915 -0.051920574 0.009377645 -0.011113697 -0.017235108
-0.036213666 0.006013603 -0.058998846 0.10485054 0.060504265 0.029770974 -0.09195783 0.022116458
0.0011978808 -0.034609627 0.040105604 -0.016817352 -0.15367678 -0.00037536095 -0.090822175 -0.028030422
-0.026417002 0.00216854 -0.055881947 -0.092393026 0.069582246 -1.2251927e-05 -0.120535925 0.07162143
0.025017705 0.0034338827 0.07037572 0.0030761298 -0.09068908 0.021995706 0.052406847 0.06488917
-0.103170626 -0.023537606 0.019554073 -0.068521 -0.20151271 0.05850093 -0.08920334 -0.042483535
-0.06932227 0.02862478 -0.023810497 -0.047071822 -0.022549478 0.04362036 -0.025238808 -0.054789267
0.051163934 -0.037874207 -0.053839073 0.08801219 -0.09874892 -0.05976142 -0.031280734 -0.024802724
-0.17816193 0.041130397 0.020332137 0.06651628 -0.029140618 0.056037206 0.02526036 -0.055864193
0.014843159 -0.033153098 0.024368973 0.0075716497 0.020106006 0.008170676 -0.08789619 -0.044783995
-0.03037983 -0.059279762 0.021831803 0.07701169 -0.064556494 -0.03256373 -0.11475773 0.030073415
-0.07603528 -0.06031292 0.055291552 -0.042091727 -0.036682505 0.0011406828 -0.0046557407 -0.015611663
00000000: 3cc3 17be a347 a83d 65a6 653d 50dd aabc
00000010: 49c4 9fbd 7940 9dbb 6611 233d 5953 263d
00000020: eb76 243d 273e 6b3d df0e b53c b036 87bc
00000030: f05d e7bd b408 203c e586 9cbd 95a4 843d
00000040: 3774 66bd 806c 21bd a851 3c3b 271e 1fbd
00000050: f2d8 3abb 9807 143d 6d20 55be bc9b c3bc
00000060: 0685 72bc a914 70bd b1fa 3dbc 5ea0 c9bd
00000070: 696b 983c f725 85bd f656 d13c 0321 7e3d
00000080: 7bbe b5bd 9e4d c83c 09a2 5f3c caba 883d
00000090: 654b e43c 21a6 e03d cf44 ef3c 7dea 62bd
000000a0: 082f ad3d d37f c9bc c5a0 873d 288f 69bd
000000b0: 017e 5cbd f991 b53c 5355 613b 845e b5bb
000000c0: a52f 963d dff9 7b3d 5f98 8cbd 40dd 223d
000000d0: a564 bbbe 4f7d 4cbd 6cbd ebba b691 31bd
000000e0: 7392 a8bd 96a2 a0bc cf73 d9bd 0af0 c9bd
000000f0: c8b5 8dbd 9659 7d3d 6426 3bbe 344c 36bd
00000100: 980c b43d 521a 1fbd 938e 1c3c 5c84 4dbd
00000110: d4fd 11be 3dc6 8cbd cb64 93bc 96d5 86bd
00000120: 9808 3cbd 1bd6 a5bc 8f13 62bd 753b b5bd
00000130: 2392 c8bd cb53 b73b 2689 463d e3e6 55bd
00000140: 004c c33c 3def 913d 3860 7abd e1c6 893d
00000150: 3eaa 863d e22b 98bd 9b08 b4bd 0f57 f93c
00000160: 0faa 81bd f69d 19bc 0b3e 0cbc 4021 31bc
00000170: f0bf eabd f66f bfbc 302d 903d f237 083c
00000180: 6412 acbd 637d a33d 0629 93bd 194e 4c3c
00000190: 666e 8bbc e521 953d a073 ca3b 1b42 a6bc
000001a0: 8894 94bd 0e30 0a3b b3b1 aebd 1b7b b2bd
000001b0: b0eb 343d a5c5 d1bd 08ad 343d 0c92 893c
000001c0: 0503 7f3d 7ab6 bcbc f9f6 413d f326 4bbd
000001d0: a219 803d 0040 5ebd 002d 30be d07d c5bc
000001e0: b2b7 c4bd 0d81 98bd 2130 3a3d 8866 003d
000001f0: e3bd 633d 2040 68bd c65b cbbc 858b 29be
00000200: b7e8 1fbe 1547 443d 1d6c 913d b608 e83c
00000210: c36e fabc 7f43 d0bb 4bb2 bfbc 5123 5c3d
00000220: e84d ac3d 03b2 353d cf0f 81bc fafd 8bbd
00000230: 5517 32bd 5204 6e3d 5f09 4ebe 5c14 b43b
00000240: be08 ccbc d700 003d 9964 e93c 797a 6b3b
00000250: 6ed2 723d 385e 9abc 95a5 83bd 461f cebb
00000260: 1695 a9ba 6c74 36be 15f0 523d 35a5 5539
00000270: 3ce9 c23c 5965 26be 0e27 8a3d 8dea 573d
00000280: 55a4 b43d 8ae0 8f3d 4868 503d 9ee1 303d
00000290: abaa 54bd b2a4 193c 3916 36bc a430 8dbc
000002a0: c854 14bd c20d c53b c6a8 71bd e1bb d63d
000002b0: 52d3 773d 42e2 f33c 6354 bcbd 932d b53c
000002c0: 3602 9d3a d3c2 0dbd c645 243d 8bc4 89bc
000002d0: 725d 1dbe 18cc c4b9 fa00 babd 0ea0 e5bc
000002e0: 7868 d8bc 101e 0e3b 78e4 64bd 8e38 bdbd
000002f0: 2381 8e3d a08d 4db7 8adb f6bd 42ae 923d
00000300: eef1 cc3c fe0a 613b 2521 903d e598 493b
00000310: 32bb b9bd 5730 b43c 90a8 563d 9de4 843d
00000320: 1f4b d3bd f0d1 c0bc dd2f a03c bd54 8cbd
00000330: 5959 4ebe ac9e 6f3d 3eb0 b6bd 3703 2ebd
00000340: d6f8 8dbd 847e ea3c 3b0e c3bc 62ce 40bd
00000350: afb9 b8bc 43ab 323d 9ec1 cebc b66a 60bd
00000360: 4691 513d fc21 1bbd 5c86 5cbd bc3f b43d
00000370: e03c cabd 64c8 74bd 3a20 00bd 152f cbbc
00000380: 1570 36be 5978 283d 958f a63c b039 883d
00000390: 4eb8 eebc 4587 653d d1ee ce3c dad1 64bd
000003a0: b930 733c 8bcb 07bd 71a1 c73c 9a1b f83b
000003b0: 5ab5 a43c 4dde 053c eb02 b4bd 6c6f 37bd
000003c0: 1fdf f8bc 56cf 72bd 9cd8 b23c 4eb8 9d3d
000003d0: 3236 84bd 8c61 05bd 1a06 ebbd 865c f63c
000003e0: 63b8 9bbd ae0a 77bd 6579 623d 6068 2cbd
000003f0: 6540 16bd f782 953a 2f8f 98bb 10c8 7fbc

4.bias f4 [8]
-0.09155203 -0.19613081 -0.12703973 -0.22419673 -0.18140085 -0.26752174 -0.14579177 -0.05069375
00000000: a17f bbbd 84d6 48be b416 02be d493 65be
00000010: 25c1 39be 9cf8 88be 704a 15be 40a4 4fbd
