ddqn/payload/final_double_dqn_model-6thSize-2.pth (torch, 76082 bytes, 6 tensors)

0.weight f4 [128, 5]
0.08560006 -0.39886716 0.19607428 -0.3181015 0.18575916 -0.0016361458 0.2648949 0.30571562
0.11377783 0.40493596 -0.26313403 -0.3259857 0.04219512 -0.49600178 0.06449314 0.39456087
0.2720894 0.14514863 -0.26943076 -0.42766494 -0.12407662 -0.04618949 -0.043404434 -0.39154974
-0.0042279437 0.087141365 0.41133973 -0.25050154 -0.009203809 0.5571198 0.009758018 0.06848008
-0.27804273 -0.2038435 -0.3450479 -0.23489076 -0.3349821 -0.07762485 -0.07524841 0.36574766
-0.3510948 0.3351438 -0.1830991 0.24574402 -0.43459165 -0.36965558 -0.591006 0.19189647
-0.2642572 -0.27635705 -0.016243264 0.37918222 0.053946957 -0.30528915 0.15422195 -0.017094497
-0.4029072 0.3840405 -0.37724048 0.298455 0.43661538 -0.30335453 -0.14053786 0.17406851
-0.116526246 -0.20836665 -0.3840464 0.09721055 -0.25988263 -0.03179796 0.31659296 0.09441179
0.3276394 -0.37277013 0.0755929 -0.11830208 -0.39291972 0.07424691 -0.26108092 -0.11608515
-0.070512444 -0.02426732 -0.10237509 0.22184227 0.16466764 -0.049884424 -0.52064437 -0.10515464
0.27034163 -0.27084115 -0.21184158 -0.5659045 -0.2038383 0.36711898 0.22408344 0.107125
0.41178936 0.38606656 0.023307748 0.42794526 -0.13869499 -0.0936807 0.21713564 -0.23421721
-0.04570342 0.096374795 -0.2652061 0.16738933 -0.4306868 -0.005757751 0.43434003 -0.014109918
0.11467365 -0.2585537 0.22150613 0.23894717 -0.2874581 0.074160434 0.15522937 -0.28031698
0.13523258 0.13400236 0.05925998 -0.26058364 0.17683579 -0.441497 -0.42447743 -0.14979723
0.27187273 -0.4024392 -0.4015086 0.022999069 -0.4052759 0.284026 0.109071635 -0.04880251
0.14304392 -0.056486584 -0.36136082 -0.2299738 -0.16512857 -0.31129354 -0.32444814 0.35865209
0.600787 0.36399993 -0.24231692 -0.07400276 -0.24363522 0.061155625 0.11734049 -0.45968047
0.09172038 -0.21938841 0.0455934 0.031520355 -0.38776013 0.032635186 -0.5098281 0.016098458
-0.32501835 -0.41120046 -0.047985345 -0.06023644 -0.2841187 0.39283198 0.5108814 -0.026021458
-0.18607938 0.80045867 0.016857952 -0.2723738 0.06356104 -0.2515378 -0.28577158 -0.29857042
-0.28354555 -0.11541438 0.069608964 -0.105626084 0.14178042 0.38511613 -0.15890461 -0.37584624
-0.17192832 0.22208682 -0.037468217 -0.1429558 -0.1656038 0.30808175 0.13475326 -0.119341396
-0.236097 -0.40620503 -0.12348438 0.08968376 -0.6134588 0.2500063 -0.2742637 -0.06865348
0.2648984 0.47867274 0.2851419 0.18216662 -0.2929749 0.0941182 -0.20975651 -0.013218856
-0.5425021 0.48759863 -0.31071144 0.5700165 -0.046429552 -0.32820028 -0.042182337 -0.3660671
-0.44328672 0.1905196 -0.21688978 0.24278538 0.12075017 0.34343305 -0.22000258 0.19576779
-0.32150313 0.39192593 0.0995628 0.13275118 -0.35689622 -0.3994285 0.16867809 -0.41744792
0.23961066 0.24275315 0.30012935 0.08928003 0.6213988 -0.06729531 -0.30091107 0.08487393
-0.18574983 0.2645231 0.1409717 -0.32931504 -0.5294271 -0.4089794 0.32714316 0.038070213
-0.017639453 -0.17027634 -0.06907558 0.08633981 -0.126191 -0.002326618 -0.3691308 -0.010721686
00000000: 164f af3d 5138 ccbe b2c7 483e 33de a2be
00000010: a637 3e3e f173 d6ba 4ea0 873e c286 9c3e
00000020: 5a04 e93d c453 cf3e 81b9 86be 99e7 a6be
00000030: cad4 2c3d f2f3 fdbe fb14 843d e203 ca3e
00000040: 4d4f 8b3e d8a1 143e d4f2 89be e6f6 dabe
00000050: e21b febd 3131 3dbd d9c8 31bd 3579 c8be
00000060: 908a 8abb 2c77 b23d 1f9b d23e bd41 80be
00000070: 93cb 16bc 679f 0e3f 18e0 1f3c 493f 8c3d
00000080: 9e5b 8ebe 5abc 50be 1eaa b0be 3487 70be
00000090: c682 abbe c7f9 9ebd d71b 9abd 4743 bb3e
000000a0: b3c2 b3be f897 ab3e 557e 3bbe 52a4 7b3e
000000b0: cc82 debe 7f43 bdbe 2b4c 17bf 8280 443e
000000c0: b84c 87be ac7e 8dbe 9810 85bc 2c24 c23e
000000d0: 7cf7 5c3d dc4e 9cbe 5cec 1d3e c209 8cbc
000000e0: da49 cebe f5a0 c43e aa25 c1be 18cf 983e
000000f0: 0d8c df3e 4951 9bbe 28e9 0fbe 043f 323e
00000100: 50a5 eebd 115e 55be bba1 c4be 5316 c73d
00000110: 560f 85be 943e 02bd 7918 a23e f85a c13d
00000120: 5ac0 a73e badb bebe 73d0 9a3d 5c48 f2bd
00000130: c62c c9be c40e 983d 66ac 85be 0dbe edbd
00000140: d468 90bd 42cc c6bc 08aa d1bd 9f2a 633e
00000150: a29e 283e 9c53 4cbd f348 05bf 515b d7bd
00000160: 386a 8a3e b1ab 8abe 00ed 58be 1edf 10bf
00000170: fdba 50be 05f7 bb3e 2176 653e 5a64 db3d
00000180: 0ed6 d23e 84aa c53e e4ef be3c a41b db3e
00000190: 0f06 0ebe abdb bfbd ce58 5e3e a3d6 6fbe
000001a0: 8233 3bbd 2660 c53d 18c9 87be 1c68 2b3e
000001b0: fb82 dcbe 84ab bcbb d161 de3e 492d 67bc
000001c0: 05da ea3d 2761 84be 81d2 623e 91ae 743e
000001d0: b52d 93be 6de1 973d 73f4 1e3e b585 8fbe
000001e0: 697a 0a3e ea37 093e 98ba 723d 386b 85be
000001f0: 7114 353e e50b e2be 1b55 d9be 7264 19be
00000200: e732 8b3e 830c cebe 8992 cdbe 8b68 bc3c
00000210: 5380 cfbe db6b 913e f360 df3d 24e5 47bd
00000220: 1b7a 123e 7a5e 67bd 4904 b9be 407e 6bbe
00000230: 7717 29be de61 9fbe 111e a6be 3fa1 b73e
00000240: 2dcd 193f 335e ba3e ed21 78be c28e 97bd
00000250: 837b 79be 527e 7a3d 3650 f03d 3d5b ebbe
00000260: e5d7 bb3d 5ba7 60be 25c0 3a3d 7d1b 013d
00000270: 7f88 c6be 79ac 053d 1884 02bf eae0 833c
00000280: ce68 a6be de88 d2be 488c 44bd 7cba 76bd
00000290: 0278 91be 4621 c93e 20c9 023f f42a d5bc
000002a0: 988b 3ebe dcea 4c3f b019 8a3c 9474 8bbe
000002b0: 4a2c 823d 90c9 80be a750 92be 39de 98be
000002c0: e22c 91be 605e ecbd 258f 8e3d 7d52 d8bd
000002d0: e32e 113e f12d c53e e4b7 22be eb6e c0be
000002e0: fa0d 30be ba6a 633e 4678 19bd 0163 12be
000002f0: 0b94 29be e4bc 9d3e c2fc 093e 4369 f4bd
00000300: 69c3 71be 1bfa cfbe 61e5 fcbd 1fac b73d
00000310: a30b 1dbf d300 803e 4b6c 8cbe 329a 8cbd
00000320: c3a0 873e 9814 f53e 1efe 913e e389 3a3e
00000330: ce00 96be 0bc1 c03d 69ca 56be e793 58bc
00000340: 6be1 0abf 87a6 f93e 9215 9fbe 9aec 113f
00000350: ea2c 3ebd de09 a8be 63c7 2cbd 266d bbbe
00000360: 7af6 e2be 9217 433e 5b18 5ebe bb9c 783e
00000370: dd4b f73d 75d6 af3e 5b48 61be 5a77 483e
00000380: 0f9c a4be 84aa c83e 95e7 cb3d edef 073e
00000390: 1abb b6be e481 ccbe f3b9 2c3e bcbb d5be
000003a0: 7f5c 753e 4894 783e 8eaa 993e 73d8 b63d
000003b0: fe13 1f3f 20d2 89bd 0411 9abe 62d2 ad3d
000003c0: 3435 3ebe 926f 873e e35a 103e fb9b a8be
000003d0: 8988 07bf bf65 d1be 4f7f a73e 83ef 1b3d
000003e0: 9d80 90bc ec5c 2ebe 7f77 8dbd edd2 b03d
000003f0: 3738 01be 2c7a 18bb b6fe bcbe 03aa 2fbc

0.bias f4 [128]
0.1904404 0.29703566 0.34651944 -0.55666333 0.7242027 0.5753531 -0.41888732 -0.311534
-0.20908503 -0.051078755 0.21381281 -0.3708658 0.33499423 0.10612404 -0.26027033 0.20994326
0.29519138 -0.38655323 0.039903928 0.493941 0.22153871 -0.20751408 -0.25768307 0.49323794
-0.297848 -0.040978435 -0.3840396 -0.08198844 0.081582606 0.11385156 -0.15872557 0.42584214
0.49875322 -0.08679792 -0.37953526 -0.17818475 -0.43211135 0.023829617 0.08501187 -0.02251883
0.04847954 0.6214433 0.13024746 -0.45269853 0.20128594 -0.25779915 0.36599538 0.131776
-0.36146772 -0.47784907 0.5689868 0.15233551 0.45124444 0.33124137 0.014528105 0.14903551
-0.2205377 -0.26074266 0.46620524 -0.17584276 0.36339766 -0.021942837 0.4334004 -0.39715463
0.056499064 -0.23615378 -0.11561489 0.08087187 -0.4481588 0.24181104 -0.35772175 -0.53910726
0.46397838 -0.12869866 -0.030177267 -0.35329047 -0.29621598 -0.48611507 -0.12946925 -0.038578387
-0.26179147 -0.2798995 -0.25389227 -0.3943788 -0.04835869 -0.28073093 -0.42580974 0.21946466
0.46562865 0.29542235 -0.18117124 0.39380112 0.53713155 -0.32157996 -0.30775842 0.50316435
0.2736263 0.19220695 -0.41735289 0.26547572 0.056851104 -0.20832214 0.16126256 -0.122743286
0.25765672 0.37914163 0.48436776 -0.20208569 0.53466165 0.30026 -0.28298864 0.41183478
-0.4492895 0.186316 0.08365481 0.4821749 0.09791993 -0.0076067415 -0.2039772 -0.25823128
0.39008263 0.40325975 0.3782747 -0.23866768 -0.23775256 -0.24841769 0.3928042 0.17180309
00000000: cf02 433e 0f15 983e ff6a b13e 7d81 0ebf
00000010: 5965 393f 574a 133f 6678 d6be 6281 9fbe
00000020: 631a 56be f537 51bd bff1 5a3e 1fe2 bdbe
00000030: 5d84 ab3e 9057 d93d 2742 85be 5efb 563e
00000040: 5323 973e 4eea c5be 4d72 233d d6e5 fc3e
00000050: 0bdb 623e 927e 54be 09ef 83be af89 fc3e
00000060: 887f 98be 01d9 27bd d7a0 c4be 8ee9 a7bd
00000070: c814 a73d 022b e93d f588 22be fb07 da3e
00000080: 955c ff3e 1cc3 b1bd 7252 c2be 1076 36be
00000090: b33d ddbe 5436 c33c b41a ae3d 6979 b8bc
000000a0: 7b92 463d e816 1f3f 975f 053e 1ac8 e7be
000000b0: e71d 4e3e 40fe 83be bf63 bb3e 4af0 063e
000000c0: 4c12 b9be a2a8 f4be 1ea9 113f d7fd 1b3e
000000d0: 8309 e73e 7898 a93e 4a07 6e3c c49c 183e
000000e0: a3d4 61be 1080 85be 74b2 ee3e 2010 34be
000000f0: 420f ba3e 77c1 b3bc a8e6 dd3e da57 cbbe
00000100: 906b 673d 4cd2 71be 80c7 ecbd 27a0 a53d
00000110: 1275 e5be 509d 773e 4e27 b7be ef02 0abf
00000120: 938e ed3e 95c9 03be 5136 f7bc 7de2 b4be
00000130: 9fa9 97be 13e4 f8be 9693 04be 5f04 1ebd
00000140: 8809 86be fd4e 8fbe 2bfe 81be 05ec c9be
00000150: c313 46bd f7bb 8fbe bc03 dabe 58bb 603e
00000160: e166 ee3e 9941 973e f484 39be 4da0 c93e
00000170: 7481 093f 21a6 a4be 8392 9dbe 61cf 003f
00000180: bf18 8c3e e6d1 443e 47af d5be 6fec 873e
00000190: b4dc 683d 6652 55be 0322 253e d560 fbbd
000001a0: 95eb 833e da1e c23e 0dff f73e 8def 4ebe
000001b0: 96df 083f aebb 993e e3e3 90be 02dc d23e
000001c0: 4609 e6be 9fc9 3e3e 3753 ab3d a1df f63e
000001d0: 3f8a c83d f941 f9bb 66df 50be e436 84be
000001e0: e9b8 c73e 1078 ce3e 39ad c13e 4d65 74be
000001f0: 6875 73be 3561 7ebe a21d c93e 26ed 2f3e

2.weight f4 [128, 128]
-0.06590579 -0.047269568 -0.008675908 0.044332393 -0.09059668 -0.069184646 -0.020198476 -0.007516121
0.047901873 0.0037953132 0.00563442 0.009852953 0.060828038 0.03817456 0.081162 0.08529625
0.010709748 -0.005284709 -0.029165398 -0.09411042 0.005565139 0.06297158 -0.06635027 0.010172326
-0.052172877 -0.06897612 0.041997597 0.018174069 0.037189946 0.010759068 -0.05949292 -0.042255703
-0.03314388 0.008124536 0.07747433 -0.036765043 0.020327488 0.08075706 -0.0016468564 -0.028600745
0.052097615 -0.09391247 0.014683211 -0.07679832 -0.08293532 0.084973514 -0.116544425 -0.07270378
0.047072444 -0.017468182 0.047795374 0.04891577 0.06292326 -0.11140411 -0.03249898 -0.11520479
0.046208393 0.038483687 -0.061564162 0.014305894 -0.014831044 -0.08003837 -0.09443039 -0.07615619
-0.046752296 -0.017807065 0.05777905 0.0429734 0.040002797 -0.05972541 -0.077260956 0.031100381
-0.057604592 -0.08563913 -0.079408355 -0.021470267 -0.0151441945 -0.036968328 -4.7810568e-06 0.03515574
-0.03864706 0.049659867 -0.053129222 0.026123775 -0.0040612174 0.0031073922 0.04485216 0.03356717
0.017964609 0.01305642 0.05155471 -0.0779493 -0.053874273 -0.052231956 -0.051509727 -0.075397305
-0.00345931 -0.0062985937 -0.00579673 0.0069488455 0.0119132595 -0.036660984 -0.031471327 0.0006491352
-0.09634057 -0.09063147 -0.03542298 0.03326697 -0.008936659 -0.0694098 0.069874816 0.043935552
-0.045830682 0.000333673 0.0585818 0.02302024 0.016525969 0.0076170056 -0.05296649 0.08747573
0.05090918 0.05240126 0.0123449275 -0.08530901 0.024199277 -0.014091482 0.07128878 -0.037700206
-0.081880964 0.054503012 -0.04857695 0.05699575 -0.058005992 -0.03590253 -0.0166204 0.030810716
-0.019984981 0.085313424 0.023800585 0.061923154 0.024216663 0.011963245 0.044034112 0.05155513
-0.016765624 -0.00019273575 0.01018166 -0.027110295 -0.030325735 -0.07706144 0.07315676 0.047160078
0.048263937 -0.008223348 0.024945287 -0.048001215 -0.022395352 -0.0662525 0.0856969 0.044556
-0.025678486 -0.038517393 0.050644223 -0.06601747 -0.045654625 -0.0008639682 -0.079302065 -0.030080684
-0.04228474 0.029154943 -0.09588861 -0.04511655 -0.11081687 -0.034420446 -0.09155432 -0.03727503
-0.07888603 -0.104347266 -0.07633616 0.0044805473 0.061983015 -0.00046414058 -0.02378829 0.0030033325
-0.060407326 0.008011696 0.049367484 -0.04568034 -0.10913657 -0.019762047 -0.052002594 -0.05844928
0.053976394 -0.017645147 -0.08087902 -0.028076176 -0.04752647 0.06898017 0.048404254 -0.021485046
-0.10163256 0.0010221032 0.058445003 -0.050215334 -0.05950883 0.10008853 -0.044829946 0.05190316
0.027190987 0.05406899 0.024030332 0.08538942 0.07085466 0.03266484 0.07901396 0.06960419
-0.04003587 0.000688884 0.05053154 0.008630073 -0.09121935 -0.015588829 -0.072405756 -0.10962466
-0.07903009 0.066570416 0.026625408 0.010331454 0.030977268 -0.07887331 -0.041652404 -0.0050139367
0.025097404 0.060592305 -0.034186337 -0.006050841 0.06583821 0.001324133 -0.04885282 0.040051866
0.010608041 -0.09220375 -0.07973993 0.02576624 0.07776916 -0.058562674 -0.022194292 0.063934915
-0.031342223 -0.056767143 -0.08936909 -0.06096751 0.08547247 0.059958983 -0.060515586 0.036315177
00000000: 9df9 86bd bc9d 41bd 6525 0ebc e295 353d
00000010: c18a b9bd aeb0 8dbd 4677 a5bc cb49 f6bb
00000020: c134 443d caba 783b f1a0 b83b 486e 213c
00000030: d226 793d ed5c 1c3d 4338 a63d cdaf ae3d
00000040: f077 2f3c 5a2b adbb 46ec eebc f7bc c0bd
00000050: c55b b63b 3ef7 803d a6e2 87bd d4a9 263c
00000060: 3ab3 55bd 5a43 8dbd ac05 2c3d c9e1 943c
00000070: 7c54 183d cd46 303c d9ae 73bd 5114 2dbd
00000080: e1c1 07bd c61c 053c ddaa 9e3d f196 16bd
00000090: d585 a63c f563 a53d 55db d7ba 1c4c eabc
000000a0: 4f64 553d 2e55 c0bd da91 703c 7048 9dbd
000000b0: fed9 a9bd 9806 ae3d d8ae eebd b8e5 94bd
000000c0: 09cf 403d 6f19 8fbc 15c5 433d e75b 483d
000000d0: e9dd 803d d727 e4bd a71d 05bd 7df0 ebbd
000000e0: 0345 3d3d 12a1 1d3d b42a 7cbd 4563 6a3c
000000f0: e8fd 72bc 28eb a3bd b864 c1bd c7f7 9bbd
00000100: 567f 3fbd 1fe0 91bc baa9 6c3d e004 303d
00000110: f9d9 233d a2a2 74bd fe3a 9ebd 3ac6 fe3c
00000120: cbf2 6bbd 9163 afbd d9a0 a2bd 6ae2 afbc
00000130: 5b1f 78bc 1a6c 17bd f76c a0b6 77ff 0f3d
00000140: 614c 1ebd 2568 4b3d 079e 59bd 8701 d63c
00000150: f613 85bb 64a5 4b3b e6b6 373d bb7d 093d
00000160: 842a 933c 98ea 553c 082b 533d e2a3 9fbd
00000170: 45ab 5cbd 2df1 55bd ddfb 52bd e769 9abd
00000180: 97b5 62bb 6f64 cebb 7ff2 bdbb 24b3 e33b
00000190: d52f 433c d429 16bd 14e8 00bd ba2a 2a3a
000001a0: 344e c5bd fe9c b9bd b017 11bd f242 083d
000001b0: 116b 12bc ba26 8ebd 871a 8f3d c4f5 333d
000001c0: f4b8 3bbd d5f0 ae39 78f3 6f3d f194 bc3c
000001d0: 7861 873c 1398 f93b 64f3 58bd 7a26 b33d
000001e0: 2586 503d b4a2 563d 6142 4a3c 7eb6 aebd
000001f0: 903d c63c f6df 66bc daff 913d 886b 1abd
00000200: 35b1 a7bd 8d3e 5f3d a0f8 46bd 6074 693d
00000210: b197 6dbd 880e 13bd 8127 88bc c166 fc3c
00000220: 8bb7 a3bc ceb8 ae3d 72f9 c23c 22a3 7d3d
00000230: 0662 c63c 7d01 443c 1d5d 343d 792b 533d
00000240: 1058 89bc 1c19 4ab9 fad0 263c 6916 debc
00000250: ad6d f8bc 63d2 9dbd 36d3 953d ed2a 413d
00000260: 68b0 453d 39bb 06bc 0f5a cc3c ec9c 44bd
00000270: 7576 b7bc 64af 87bd db81 af3d 5a80 363d
00000280: b05b d2bc 6ac4 1dbd 5170 4f3d 2b34 87bd
00000290: 5800 3bbd ed7b 62ba 1f69 a2bd c46b f6bc
000002a0: c332 2dbd 59d6 ee3c 3f61 c4bd 22cc 38bd
000002b0: f5f3 e2bd 74fc 0cbd d580 bbbd b4ad 18bd
000002c0: 008f a1bd 05b4 d5bd 2256 9cbd 8ed1 923b
000002d0: e7e1 7d3d e557 f3b9 a9df c2bc 8fd3 443b
000002e0: ac6d 77bd 7d43 033c 8f35 4a3d 4f1b 3bbd
000002f0: fe82 dfbd 04e4 a1bc ac00 55bd 8368 6fbd
00000300: 5a16 5d3d 8e8c 90bc e6a3 a5bd 0200 e6bc
00000310: 1eab 42bd 7a45 8d3d 8a43 463d 6801 b0bc
00000320: bb24 d0bd 18f8 853a 0764 6f3d 98ae 4dbd
00000330: 88bf 73bd 37fb cc3d 9b9f 37bd 6898 543d
00000340: a2bf de3c 7277 5d3d 42db c43c a6e0 ae3d
00000350: 3f1c 913d 91cb 053d 12d2 a13d a48c 8e3d
00000360: a7fc 23bd 3996 343a 29fa 4e3d 2665 0d3c
00000370: 36d1 babd 4a68 7fbc 7849 94bd e582 e0bd
00000380: 87da a1bd 1256 883d 871d da3c 4245 293c
00000390: 0ac4 fd3c 5488 a1bd b69b 2abd f34b a4bb
000003a0: 1299 cd3c a32f 783d f906 0cbd 2246 c6bb
000003b0: 2fd6 863d 888e ad3a e519 48bd 6d0d 243d
000003c0: 59cd 2d3c 52d5 bcbd b04e a3bd b913 d33c
000003d0: 7045 9f3d 6adf 6fbd ced0 b5bc 4ff0 823d
000003e0: b460 00bd aa84 68bd 2407 b7bd 11b9 79bd
000003f0: 310c af3d 8d97 753d 31df 77bd 39bf 143d

2.bias f4 [128]
-0.02545493 -0.11557669 0.13223836 -0.04705404 -0.0064152875 0.28759074 0.13439806 -0.0827273
0.0706821 0.07449934 0.08648715 0.2156932 -0.09932148 0.18099757 -0.061325293 -0.019705366
0.020020187 -0.03607332 -0.11293497 0.1596987 0.082032084 -0.05722505 0.104559965 -0.053247146
0.07452084 0.10614673 0.10971224 0.047467753 0.22114836 -0.027806064 0.16351368 0.074600846
-0.026986841 0.0059417994 -0.056044538 -0.05246409 -0.0010747446 0.13673101 0.12780283 0.15315145
-0.062574215 -0.043917455 -0.062457666 0.26733148 -0.07370302 0.036371622 -0.046789322 0.20443085
0.007444768 0.21148767 0.16625938 0.16422197 -0.072314434 0.18361746 -0.058326103 0.017289838
0.01603932 0.0338657 0.13695782 -0.08669184 0.00078443636 0.09572909 0.09957458 -0.024377687
0.2382605 -0.0048897145 0.103579804 -0.023545401 -0.015565432 -0.03863794 0.011778347 -0.06814874
0.15057649 0.11010007 0.00308832 -0.018388143 0.12239432 -0.079628654 -0.1040675 0.07645081
-0.072695605 -0.036627516 0.0018950063 0.20008934 -0.0127056185 -0.07179116 -0.053536337 0.17840013
-0.067741014 -0.009149472 0.22534673 0.13743854 0.0046515544 0.052723654 -0.044018473 0.038515534
-0.022454357 0.030760473 0.18606238 0.022847552 -0.034979932 0.0063602277 -0.04164942 0.031819593
0.045770727 0.09435781 0.120240174 0.04252781 -0.03608899 0.059764326 0.24071842 0.15112753
0.05190675 -0.084553726 -0.057606857 0.094874054 0.0030771669 -0.00036794198 0.044863533 0.039744798
0.1768215 0.015217796 0.11752651 0.24491628 -0.08757254 0.05350533 0.013083299 0.1152246
00000000: db86 d0bc 79b3 ecbd 7e69 073e bdbb 40bd
00000010: 5537 d2bb 183f 933e a59f 093e ee6c a9bd
00000020: c7c1 903d 1c93 983d 2d20 b13d aede 5c3e
00000030: 0f69 cbbd 6d57 393e 3b30 7bbd 266d a1bc
00000040: 6001 a43c 9ec1 13bd 734a e7bd 0e88 233e
00000050: 7000 a83d d064 6abd 8923 d63d ae19 5abd
00000060: 629e 983d 7563 d93d d0b0 e03d 8c6d 423d
00000070: b774 623e 8bc9 e3bc 2170 273e 54c8 983d
00000080: 8213 ddbc 6db3 c23b f58e 65bd 96e4 56bd
00000090: 72de 8cba 3703 0c3e bfde 023e bcd3 1c3e
000000a0: e926 80bd cae2 33bd 9cd3 7fbd acdf 883e
000000b0: 9cf1 96bd 69fa 143d 29a6 3fbd 5256 513e
000000c0: 3ef3 f33b 3990 583e e63f 2a3e ce29 283e
000000d0: 9719 94bd 3706 3c3e 5ae7 6ebd 6ba3 8d3c
000000e0: e464 833c c3b6 0a3d ac3e 0c3e 7e8b b1bd
000000f0: a2a2 4d3a 9d0d c43d c2ed cb3d b7b3 c7bc
00000100: 8ffa 733e e639 a0bb a621 d43d 49e2 c0bc
00000110: 2706 7fbc d142 1ebd f8f9 403c 9191 8bbd
00000120: b930 1a3e 257c e13d 6965 4a3b bba2 96bc
00000130: e0a9 fa3d 5914 a3bd 5721 d5bd 3e92 9c3d
00000140: 6fe1 94bd bc06 16bd dc61 f83a 38e4 4c3e
00000150: 3a2b 50bc 3e07 93bd eb48 5bbd 86ae 363e
00000160: cdbb 8abd abe7 15bc 4bc1 663e b0bc 0c3e
00000170: 116c 983b c2f4 573d b74c 34bd 77c2 1d3d
00000180: 33f2 b7bc 63fd fb3c 2387 3e3e ca2a bb3c
00000190: 1e47 0fbd 7569 d03b 9598 2abd 4355 023d
000001a0: 167a 3b3d ab3e c13d 7b40 f63d a431 2e3d
000001b0: 0cd2 13bd 70cb 743d e47e 763e 2dc1 1a3e
000001c0: 2c9c 543d 812a adbd 2bf5 6bbd 544d c23d
000001d0: 4baa 493b 56e8 c0b9 d3c2 373d 71cb 223d
000001e0: b210 353e 1054 793c bdb1 f03d 55cb 7a3e
000001f0: 3b59 b3bd 6828 5b3d 555b 563c e0fa eb3d

4.weight f4 [8, 128]
0.08554131 0.07192472 -0.109204255 0.026651602 -0.0029828483 -0.23716581 -0.07046696 0.048011925
0.053798117 0.00512355 -0.06966365 -0.10646235 -0.011729552 0.0068760714 -0.017674513 0.034416296
0.07490762 0.054804653 0.016247777 0.032259103 -0.0583562 -0.07300905 -0.09284518 0.030646069
-0.05753267 0.09821834 -0.077494405 -0.08637796 -0.102533415 -0.086869754 -0.10915595 -0.13205898
0.010241344 0.04045578 0.033000592 -0.025333691 0.021581821 -0.18234563 0.016751846 0.08781122
-0.024781747 -0.074817754 -0.07414932 -0.12753618 0.06339576 -0.12015534 0.01722337 -0.033773445
-0.0010909877 -0.12656231 -0.08957473 0.025180554 0.06853424 0.078004375 0.05235421 -0.10423633
0.064836405 0.019724874 -0.13352673 -0.038120434 0.033410165 -0.12917377 -0.16051641 -0.034213793
0.009598429 0.021787412 -0.012956376 0.0038248473 0.04499239 0.012480539 -0.028076302 -0.08670866
0.07051394 -0.03272952 0.059247646 -0.017122813 -0.02035457 0.016754732 -0.048661385 -0.07356808
-0.0028271114 0.012015234 -0.058259692 -0.06136515 0.03066512 -0.038040295 -0.05358841 -0.19171478
-0.105162844 0.027275946 -0.12659143 0.07193149 0.052808106 0.03898099 0.043362573 0.0801627
0.07882476 -0.028738966 -0.012135 0.09288505 0.07314919 0.0008618602 0.025795672 -0.033347104
0.0581661 -0.008339049 0.03370778 0.061670408 -0.022777779 0.0017488097 0.010335338 -0.1483543
0.026527703 0.045713603 0.065802015 -0.17782378 -0.05147042 -0.03972567 0.046004117 0.06862817
-0.12899365 0.0789217 -0.13166349 -0.088872574 0.017580807 -0.007975964 -0.032818496 0.08340959
-0.01659726 0.014092438 -0.0046656444 0.03218284 -0.07576874 -0.18708408 -0.1618184 -0.018440036
0.079640925 -0.06873024 -0.081331395 0.014981035 -0.0025543713 0.050421853 0.04430869 0.0103178825
-0.07213078 -0.0022736434 -0.038120307 -0.029576989 0.013664566 0.05129105 -0.1254668 -0.053159017
0.10963128 -0.031938784 -0.017231332 -0.013846662 -0.16659227 -0.0194168 -0.07535058 -0.16944209
-0.012528516 -0.04167065 0.064966924 5.047085e-06 -0.026549995 0.00404428 -0.17605962 -0.07036144
-0.049697973 0.024315057 0.08405207 -0.1431488 -0.09919475 -0.03256953 0.024929851 -0.02609295
-0.045249082 -0.033308942 -0.102235064 -0.16638294 -0.03040934 0.008269221 0.028385969 0.013700993
-0.012057624 -0.0029437786 -0.16196509 0.04233362 0.04424379 -0.16615406 -0.025455177 0.0004589427
-0.10102169 -0.03749987 -0.07007381 0.021836212 0.054748777 -0.02572025 -0.08759497 -0.011026624
-0.040343452 0.026051816 -0.051104654 0.08779767 0.027712133 0.019482538 -0.07552609 0.04551137
0.05471625 0.011635586 -0.0081155095 -0.12851098 0.062051214 -0.011319094 -0.03955902 -0.11616293
-0.06023959 0.038703814 0.023771761 0.003342335 0.016363408 0.019612497 0.06346756 0.06368369
0.047675308 0.039907593 -0.010109871 -0.07864265 -0.043094914 -0.24310137 -0.064118445 0.021135379
-0.045003355 0.030107899 -0.011102052 -0.07335108 -0.07587676 0.037360188 -0.16183348 -0.012349969
-0.042181507 -0.081730805 0.0003030904 -0.018977206 -0.12292791 0.028326623 0.043284375 0.040035743
-0.16951968 0.06028895 0.018360334 -0.21567053 -0.013946879 0.00562986 0.03278857 0.039996207
00000000: 4830 af3d 454d 933d 7ba6 dfbd 7654 da3c
00000010: e47b 43bb 98db 72be fb50 90bd 27a8 443d
00000020: 6a5b 5c3d 74e3 a73b d1ab 8ebd ef08 dabd
00000030: 4f2d 40bc ab50 e13b 24ca 90bc 1af8 0c3d
00000040: 2b69 993d d87a 603d 0f1a 853c 1f22 043d
00000050: e906 6fbd c585 95bd 9d25 bebd 770d fb3c
00000060: 61a7 6bbd b226 c93d 63b5 9ebd eee6 b0bd
00000070: 0afd d1bd c5e8 b1bd 288d dfbd 783a 07be
00000080: 4fcb 273c f6b4 253d a12b 073d 9a88 cfbc
00000090: 5ccc b03c d0b8 3abe 2b3b 893c 5ed6 b33d
000000a0: 1703 cbbc 0d3a 99bd 99db 97bd d898 02be
000000b0: a3d5 813d 0114 f6bd 0618 8d3c 0656 0abd
000000c0: 79ff 8eba 8d99 01be f572 b7bd 7347 ce3c
000000d0: ae5b 8c3d c2c0 9f3d 5e71 563d db79 d5bd
000000e0: f3c8 843d 0f96 a13c 3bbb 08be 2c24 1cbd
000000f0: 19d9 083d 2146 04be 6a5e 24be c323 0cbd
00000100: bb42 1d3c 847b b23c fb46 54bc 4aaa 7a3b
00000110: f149 383d 2d7b 4c3c 4600 e6bc 4f94 b1bd
00000120: 9d69 903d 640f 06bd a9ad 723d 2445 8cbc
00000130: a1be a6bc 3841 893c 2951 47bd ddaa 96bd
00000140: 0f47 39bb 8bdb 443c b7a1 6ebd 065a 7bbd
00000150: 6b35 fb3c 24d0 1bbd 857f 5bbd e150 44be
00000160: 9e5f d7bd ce71 df3c 2fa1 01be d150 933d
00000170: 504d 583d 88aa 1f3d f49c 313d 572c a43d
00000180: e06e a13d fb6d ebbc e1d1 46bc 843a be3d
00000190: 3ecf 953d 75ee 613a 7251 d33c f996 08bd
000001a0: 943f 6e3d 82a0 08bc 2b11 0a3d 1c9a 7c3d
000001b0: 7798 babc 5138 e53a 8d55 293c 31ea 17be
000001c0: a050 d93c 303e 3b3d 35c3 863d 7017 36be
000001d0: a6d2 52bd 62b7 22bd d06e 3c3d ed8c 8c3d
000001e0: e916 04be b3a1 a13d cbd2 06be d302 b6bd
000001f0: a005 903c 9ead 02bc b06c 06bd a6d2 aa3d
00000200: faf6 87bc f8e3 663c 43e2 98bb 27d2 033d
00000210: a42c 9bbd f892 3fbe b9b3 25be 8f0f 97bc
00000220: c81a a33d 71c2 8cbd 1391 a6bd 0473 753c
00000230: 3d67 27bb 2587 4e3d 077d 353d 560c 293c
00000240: 4db9 93bd 6801 15bb 0a24 1cbd 714b f2bc
00000250: 58e1 5f3c 9016 523d 5e7a 00be 45bd 59bd
00000260: 5d86 e03d 3ed2 02bd b928 8dbc 1cdd 62bc
00000270: 2a97 2abe fb0f 9fbc 6851 9abd 3a82 2dbe
00000280: 6844 4dbc d8ae 2abd 610d 853d 215a a936
00000290: 607f d9bc e185 843b f948 34be a919 90bd
000002a0: 1a90 4bbd 5f30 c73c 7e23 ac3d 9995 12be
000002b0: 9e26 cbbd a167 05bd b039 cc3c e2c0 d5bc
000002c0: 1a57 39bd f56e 08bd 9e60 d1bd 4a60 2abe
000002d0: 021d f9bc a07b 073c b189 e83c 217a 603c
000002e0: 578d 45bc 69ec 40bb 2dda 25be 0566 2d3d
000002f0: fa38 353d 4a24 2abe 6087 d0bc 3f9e f039
00000300: 76e4 cebd 7799 19bd dc82 8fbd dbe1 b23c
00000310: 4140 603d 46b3 d2bc fe64 b3bd 03a9 34bc
00000320: 2d3f 25bd 9e6a d53c 1d53 51bd 44cf b33d
00000330: 8e04 e33c d899 9f3c 6cad 9abd 216a 3a3d
00000340: 261e 603d 2fa3 3e3c eaf6 04bc 6298 03be
00000350: 6a29 7e3d b973 39bc a408 22bd d5e6 edbd
00000360: cabd 76bd e487 1e3d ffbc c23c 140b 5b3b
00000370: 8e0c 863c 63aa a03c 48fb 813d 986c 823d
00000380: 2f47 433d 2576 233d dfa3 25bc 660f a1bd
00000390: 4b84 30bd 91ef 78be 8850 83bd 1a24 ad3c
000003a0: 7055 38bd d7a4 f63c 62e5 35bc 1739 96bd
000003b0: 4665 9bbd ff06 193d adb7 25be 8657 4abc
000003c0: 84c6 2cbd 7b62 a7bd 1be8 9e39 1676 9bbc
000003d0: a1c1 fbbd 3c0d e83c f54a 313d 85fc 233d
000003e0: 9196 2dbe 8cf1 763d 6968 963c bcd8 5cbe
000003f0: 7381 64bc b07a b83b 4f4d 063d 10d3 233d

4.bias f4 [8]
-0.13192646 -0.13179329 -0.2677751 -0.21340123 -0.2489556 -0.091412894 -0.15723671 -0.21311945
00000000: bb17 07be d2f4 06be d119 89be da85 5abe
00000010: 38ee 7ebe af36 bbbd a902 21be fc3b 5abe
