ddqn/payload/final_double_dqn_model-5thSize-1.pth (torch, 76102 bytes, 6 tensors)

0.weight f4 [128, 5]
000000 e0 bc 2f 3e c2 e8 fa bd af 54 7f bd 71 d0 01 bd
       0.17161894 -0.12251426 -0.06233662 -0.031692926
000010 07 40 99 be 35 6c 9d 3e 7e 7d 6c 3e a3 96 e1 bd
       -0.2993166 0.30746618 0.23094746 -0.1101506
000020 57 ac c5 3d 88 0c 89 be 22 61 a3 be 23 cd 0d be
       0.09652012 -0.26767373 -0.31910044 -0.13847785
000030 0a 5c 26 be b6 ae c6 be d2 c9 99 3e 1f 50 a1 bd
       -0.16246048 -0.3880517 0.3003679 -0.0787661
000040 24 1c 6d be 3c 21 fc bd ac 99 95 3e 4c 4c 8b be
       -0.23155266 -0.123110265 0.29218805 -0.27206647
000050 4e fc 7f be 57 75 cc be 51 e5 77 3c 08 d0 d9 bd
       -0.2499859 -0.39933273 0.015130357 -0.10635382
000060 6c 7e bc be 27 ed aa 3e 87 0e 91 3e 71 a3 4f 3e
       -0.36815202 0.33384058 0.28331396 0.20277192
000070 68 22 7d 3e 95 ad 9f be c0 02 6b 3e c1 c2 be be
       0.24720156 -0.3118712 0.22950268 -0.3725796
000080 e2 ca 7f 3e 80 f5 04 3e 64 e2 ff bd 5c a8 a7 3e
       0.24979737 0.12984276 -0.124943525 0.32745636
000090 6a 67 25 3e f1 d3 a7 bd f3 4a d1 bd c4 45 b9 3e
       0.1615273 -0.081947215 -0.102193736 0.3618604
0000a0 56 dd 15 bd 0a bc 91 3e 9e b1 ad be ce 66 8a 3d
       -0.036588036 0.28463775 -0.33924574 0.0675789
0000b0 fe 57 9f be f1 ca ba be 2b bb da be 9e 0d dc 3d
       -0.3112182 -0.36482957 -0.42720923 0.10744785
0000c0 5e eb 26 3c 09 2a 6c 3e ee d6 9e 3e 58 b8 d4 bd
       0.010187952 0.2306291 0.31023353 -0.10386723
0000d0 3e e2 9c bc 6e 7a f1 3d a5 89 a7 bd ce ab 0d be
       -0.01915085 0.1179093 -0.081805505 -0.1383507
0000e0 f9 2c 06 be 46 35 c2 3d 89 ae 09 be 63 51 95 be
       -0.13103093 0.09482817 -0.13445486 -0.29163656
0000f0 07 31 76 3d e1 af 0b bf 5f 23 96 be cc 67 90 bb
       0.06010535 -0.54565245 -0.2932386 -0.004406905
000100 33 08 f4 3e f8 12 6f 3d 04 df 53 3e 0f 78 b0 bd
       0.47662506 0.0583677 0.20690542 -0.08616649
000110 63 08 41 be ce bc a8 3e c9 97 45 be 56 62 7b 3e
       -0.18850856 0.32956547 -0.19296183 0.24549231
000120 c8 e2 35 3c 22 0d 08 be 3a 20 d5 3c 39 06 6f bd
       0.011101432 -0.1328626 0.026016343 -0.058355544
000130 7d a0 99 be e0 ed aa bd e0 b9 46 3d 1e 31 9f be
       -0.30005255 -0.08346152 0.048517108 -0.3109216
000140 49 96 8d be dc 64 d6 3e 60 f2 65 be 80 4b b7 be
       -0.2765372 0.41873825 -0.2245574 -0.3579979
000150 7b ed b3 bd ba 43 75 be ce 7c 08 3f eb 7c 30 3e
       -0.0878553 -0.23951617 0.53315437 0.17235152
000160 e3 d1 73 be 74 35 a7 be ab e0 3e be 7e 60 60 be
       -0.23810534 -0.3265797 -0.18640392 -0.21911809
000170 69 79 15 be 8e 95 68 be fa f3 b1 3e 0e 80 91 be
       -0.14597096 -0.227133 0.34756452 -0.2841801
000180 db 8c 9f be 31 50 92 be d2 3d de be 99 2c 92 3c
       -0.31162152 -0.28576806 -0.4340654 0.017843531
000190 30 ee 8b 3e 29 56 35 be 2b fa 48 be aa f3 51 3e
       0.2733016 -0.17708649 -0.19626682 0.20503107
0001a0 7b fd 54 bd 58 24 9e 3d 94 ec 8b 3e 01 4c f5 be
       -0.05199955 0.07721776 0.27328932 -0.4790955
0001b0 10 8c b9 bd 77 7d 01 3f ce 74 a6 be 1d f9 24 bd
       -0.09059918 0.5058207 -0.3251099 -0.040276635
0001c0 03 c3 73 bc 93 7a fe 3d 9b 71 0e bf 0b 30 6b be
       -0.014878037 0.12425723 -0.556421 -0.22967546
0001d0 e7 92 70 bd 91 a1 5c 3d bb 26 60 be ba b9 5a 3e
       -0.058733847 0.05386502 -0.21889775 0.21359912
0001e0 21 3e 62 be 37 3d 2a be a1 a8 a2 3e 89 f9 9a be
       -0.22094013 -0.16624914 0.3176928 -0.30268505
0001f0 9a d2 d5 3d 65 8a 1f 3e ea cb b0 bc ef c5 a0 be
       0.1044056 0.15580137 -0.021581609 -0.3140101
000200 83 d3 ac bd b4 d7 dd be e1 e8 da 3e 3a a2 f8 be
       -0.0843878 -0.4332863 0.42755798 -0.4856127
000210 ed d6 53 3e 24 be c9 be 4e b3 94 be 89 c0 3c bc
       0.20687456 -0.39402878 -0.2904305 -0.011520513
000220 a5 fd 4b be 8c 62 f5 bd 8c 57 cc bd f3 59 af 3e
       -0.19920976 -0.11981687 -0.09977636 0.34248313
000230 1a 49 17 3e 04 f7 d9 bd ab 1f ce 3e c3 c1 9f 3e
       0.1477398 -0.106428176 0.40258536 0.31202516
000240 24 3d 71 bb b4 20 99 3d 92 0f 27 bd 94 2b 3e be
       -0.0036810124 0.07476941 -0.040786333 -0.18571311
000250 fb 4f b9 3e 60 24 2e be d4 80 7d be 5b c3 05 bf
       0.36193833 -0.17006063 -0.24756175 -0.52251214
000260 d5 24 87 3e 84 c2 0a bf 96 4b bc be f8 58 b4 be
       0.26395288 -0.5420306 -0.36776417 -0.35224128
000270 26 ee b2 3e 98 89 d2 3d d1 aa 91 3d 58 1f 51 3e
       0.34947318 0.1028015 0.07112659 0.20422113
000280 59 94 18 be 2b 02 51 be cf 47 1e bd 88 b3 0a bd
       -0.1490034 -0.20410983 -0.0386427 -0.03386262
000290 5d 93 9a be 87 66 1a 3b 07 4f 61 be 57 5e 5a 3e
       -0.30190554 0.0023559646 -0.22002803 0.2132505
0002a0 17 f6 d4 be 3d 69 4f be 97 97 a4 3e ca 5f 48 bd
       -0.41594002 -0.20254989 0.32146904 -0.048919477
0002b0 70 c5 c8 3d 1b cb 13 3d 82 75 1d be 0f ae 2c bd
       0.09803283 0.03608237 -0.15376857 -0.042158183
0002c0 18 03 c2 3e ba cf 92 be 53 73 28 3e 8b 21 c7 bc
       0.37892985 -0.28674108 0.16450243 -0.024307987
0002d0 46 39 48 3d c3 bc 63 3e d5 fe 39 be 41 d6 90 3e
       0.048882745 0.22239976 -0.18163617 0.28288463
0002e0 ec 19 c3 be f0 41 db 3e 00 4b b3 be fd 09 36 be
       -0.38105714 0.42823744 -0.35018158 -0.17777248
0002f0 c0 d1 78 3c 8f 55 75 3e f4 ff 95 be 27 08 a3 3e
       0.015186727 0.2395842 -0.2929684 0.31842157
000300 92 50 35 bd 4e 43 f8 3d d3 10 c9 3d be 8d 68 3d
       -0.04426629 0.12122212 0.09817662 0.0567758
000310 fe d7 a5 be 46 d9 54 3e 47 80 b5 bd 56 9c 78 3e
       -0.3239135 0.20786008 -0.088623576 0.24278387
000320 55 fc a3 3e e6 b3 72 3c 20 08 0b 3e fa ea 95 be
       0.32028452 0.014813399 0.13577318 -0.29280835
000330 6d 1e 6d be 9d 69 75 3e fa e8 d4 be 47 0b a0 3d
       -0.23156138 0.2396607 -0.41583997 0.07814651
000340 00 42 9a bd 17 59 1e be 60 c3 81 be 11 83 8d 3e
       -0.0753212 -0.15463673 -0.25344372 0.27639058
000350 bb c3 9c be 41 e7 b1 3d 88 b8 8a bd 18 41 79 be
       -0.3061808 0.08686686 -0.06773478 -0.24341238
000360 f0 54 00 be da 0a 91 3c 81 d4 c2 3d 66 bc e8 be
       -0.12532401 0.01770537 0.09513188 -0.45456237
000370 8a 56 9a bd 13 91 2d be fd 2e 4e 3d af e0 9f be
       -0.07536037 -0.16949873 0.05033778 -0.31226107
000380 4a 84 9a 3e 78 38 69 bd 4a c7 dd 3e e6 c7 e2 be
       0.30179054 -0.05693862 0.43316108 -0.44293135
000390 ab 3d 8e 3d 48 a5 a5 be df 14 60 bd b7 22 3e 3e
       0.06945356 -0.32352662 -0.054707404 0.1856793
0003a0 4e b7 b0 bc 33 8e f3 3d 4a 1c a2 bd d6 db 8a 3d
       -0.021571781 0.11892357 -0.07915552 0.06780212
0003b0 ec a8 d9 be ae b8 3b be 01 68 cf 3e 39 ea c0 3e
       -0.4251169 -0.18332168 0.40509036 0.37678698
0003c0 e2 c8 d2 3e cc 30 eb 3d 74 e0 91 3d 92 04 f2 be
       0.41168886 0.11483917 0.07122889 -0.47269112
0003d0 4c ed 4a be 70 93 e4 3d 4d 33 93 be 92 53 b3 be
       -0.19817084 0.11160934 -0.28750077 -0.35024697
0003e0 3c 0f db 3e 18 58 99 be a5 41 8b 3e 51 25 75 be
       0.4278506 -0.29950023 0.2719852 -0.23940016
0003f0 0f 93 15 bc 02 21 98 bd db 0d a2 3e 5b 0a 86 be
       -0.0091293 -0.07428171 0.31651196 -0.26179776

0.bias f4 [128]
000000 e7 ab 8b 3d 1c fd 25 3c 32 33 9e be ef a1 65 be
       0.06819897 0.010131147 -0.30898434 -0.22425054
000010 29 23 5e 3e 9e 2c c3 be 69 57 0c 3e ba d7 32 3e
       0.216931 -0.38119978 0.1370522 0.17465106
000020 75 31 10 bd 9e 65 ca be 1b 4f b0 be ca d3 64 be
       -0.035203416 -0.39530653 -0.34435353 -0.22346416
000030 eb db e4 3e 03 6b c8 3e bc 17 6a be 7f b8 c3 3e
       0.44699034 0.39144143 -0.22860616 0.38226697
000040 56 8f 81 bd fc eb 97 be f7 75 6c be 5a d2 d7 be
       -0.06326167 -0.2967223 -0.23091875 -0.42152673
000050 a1 cb 40 3e b7 d9 8d 3c 23 9b 00 3b c5 36 6c bd
       0.18827678 0.017315729 0.0019623719 -0.05766942
000060 ff a7 d4 3e f0 0b 5e 3e 1b 1f 13 be 03 97 07 3f
       0.4153442 0.21684241 -0.14367335 0.529648
000070 0d 01 08 3e cc 75 cf be 55 d0 d4 be 13 77 d0 3e
       0.13281651 -0.4051956 -0.41565195 0.40715846
000080 ad 46 95 3e 51 61 c5 be 6b 7d 05 bf 67 3b ca be
       0.29155484 -0.3855081 -0.521445 -0.39498445
000090 7f db 18 be c8 fd 66 be ab 1e 93 be 0e f6 52 be
       -0.14927481 -0.22557747 -0.28734335 -0.20601675
0000a0 68 c4 b2 3e 61 1a be be 20 0f 1b be 39 9a 25 be
       0.3491547 -0.371295 -0.15142488 -0.16172113
0000b0 04 c2 ef 3e f5 99 5f be 8f 61 03 bf 9e 89 85 bd
       0.4682771 -0.21836074 -0.5132074 -0.06520389
0000c0 28 88 c8 3d 64 d4 e1 3d a2 d9 04 3d 12 5c 85 be
       0.09791595 0.110268384 0.032434113 -0.26046807
0000d0 6d e5 b6 be 85 cd 61 3e b3 0d 22 be f3 8a 8b 3e
       -0.35721913 0.22051056 -0.15825538 0.27254447
0000e0 1c d7 32 bf 9e 93 39 bb 68 7c 9a 3e 5e a5 ca 3e
       -0.6985948 -0.0028316746 0.3017304 0.3957929
0000f0 1b c9 3c 3e 62 c2 a2 be fa 1e b8 be cc 12 c0 bd
       0.1843609 -0.31788927 -0.35961133 -0.09378585
000100 be 8d 23 3f 8d c1 c5 bd c7 4e 09 be 0f 59 bc be
       0.63888156 -0.096560575 -0.13408957 -0.36786696
000110 81 98 9f 3e 29 be 42 3e 10 bf 7f 3d 5c 6c 7e be
       0.3117104 0.19017853 0.06243807 -0.24846023
000120 fc 4d 67 3c fb 9c 77 3e ab fa 03 bf bb 88 b7 3e
       0.014117714 0.24180977 -0.51554364 0.35846505
000130 2d 10 92 bb a3 ed a2 be 39 e1 d0 be 4f 85 b9 3d
       -0.0044574947 -0.31821927 -0.4079683 0.0905863
000140 2b 5b ed be e9 88 9a 3e 48 59 fe be b3 e0 e6 bd
       -0.46358618 0.3018258 -0.4967749 -0.11273327
000150 14 b6 bf be 87 b4 3b 3d 50 e4 a1 be 8a 41 e2 bd
       -0.37443602 0.04582646 -0.316195 -0.11047657
000160 f6 dc 91 be b0 45 c5 be 69 5a 8e 3e 1b c6 11 3e
       -0.28488892 -0.3852973 0.27803352 0.14235727
000170 23 2b 90 3e c9 a9 b6 3e c4 41 51 3e 04 ab 0c 3e
       0.2815791 0.3567641 0.20435244 0.13737112
000180 bf 95 4b be 35 6e d9 be 4c 11 8f be 67 80 d5 3e
       -0.19881342 -0.42466894 -0.27942884 0.41699526
000190 47 bd e4 3e a0 42 f3 3e 3e c7 48 3d 2c d4 7b be
       0.44675657 0.47511768 0.049018137 -0.24592656
0001a0 3e c2 c2 3d 86 e8 87 be e4 f3 83 3e 40 93 10 bf
       0.09509705 -0.2654459 0.2577201 -0.56474686
0001b0 c7 6d d9 be 17 9f 0a 3f 86 80 6c 3e b9 46 81 be
       -0.42466566 0.54149 0.23095903 -0.2524927
0001c0 0b 37 bb be 9e 54 86 be cb 61 9b 3e cc 7e 92 3e
       -0.36565432 -0.26236433 0.30348048 0.28612363
0001d0 c3 00 83 3e f4 b3 a6 be 70 82 f0 be 22 30 11 be
       0.2558652 -0.32559168 -0.46974516 -0.14178517
0001e0 46 a4 8d be d9 80 81 be 32 f5 c8 3e cf 00 c5 3e
       -0.27664393 -0.25293615 0.3924957 0.3847718
0001f0 9c c2 16 bf 90 27 ad 3e eb d9 6e bc e5 2d 20 be
       -0.588907 0.33819246 -0.014578323 -0.15642507

2.weight f4 [128, 128]
000000 ba 24 97 3d 41 af f5 3c a9 4a ba 3c d7 7b 64 3d
       0.07380052 0.029990794 0.022740679 0.055782165
000010 3e 45 bf 3c 85 d5 d3 bd a5 58 a1 bd 22 9c ac bd
       0.023348447 -0.1034346 -0.07878236 -0.084282175
000020 01 ed 95 bd 5a 90 26 3d e3 53 86 bd d5 58 c0 bc
       -0.073205955 0.040665008 -0.06558969 -0.023479858
000030 3e 30 5e bc 63 a0 02 bd bd ed 13 bd 00 f0 5e 3b
       -0.0135613065 -0.031891238 -0.036115397 0.0034017563
000040 7e 2f 47 bc 13 04 4d 3d 35 cd ad bd 2b bc 8b 3d
       -0.012157319 0.050052714 -0.08486406 0.068229996
000050 61 4e 3c bd d9 29 df 3c 07 b4 b6 3c 3e e4 c1 3b
       -0.045973185 0.027241634 0.02230264 0.005917101
000060 81 98 82 3c 85 b4 6e 3c 9d e1 0d 3d be 04 46 bc
       0.01594186 0.014569406 0.03463899 -0.012086092
000070 d3 62 e8 bd 53 1d 96 bd d3 ab 55 bd 7d 6c c3 bc
       -0.11346974 -0.07329812 -0.052165817 -0.023855442
000080 32 5a 49 bd 3a 8c eb 3c b6 05 5b bd 16 e5 47 3d
       -0.049158283 0.028753389 -0.053472243 0.048802458
000090 1d ac 57 3d cf 82 5a 3d 6d 46 41 3d 62 07 5c 3d
       0.052654374 0.053347405 0.047186304 0.05371798
0000a0 db ba 02 bd d3 61 a1 3d 0b d1 8c bd e3 ec 36 3d
       -0.03191648 0.078799866 -0.06875809 0.044659507
0000b0 a1 92 9b bd cf f5 d2 bb ac 1b a7 bc 09 c2 b9 3c
       -0.075963266 -0.006437994 -0.020398937 0.022675531
0000c0 49 34 ab 3c fe 51 4e 3d 88 63 4a bd 54 9d 9d bd
       0.020898955 0.050371163 -0.049411327 -0.076960236
0000d0 a9 bb 3f bd 6a 3a 8c bd ac 85 ee bd 39 c4 82 bd
       -0.046809826 -0.06847079 -0.1164659 -0.06385083
0000e0 27 82 ad bc 20 db 6b ba bc 13 69 3d 78 a5 fe bd
       -0.021180226 -0.0008997191 0.056903586 -0.124339044
0000f0 58 93 ec bc 0c 33 87 3d ec ca 1c bc fc 90 47 bd
       -0.028878853 0.06601533 -0.009569865 -0.048722252
000100 84 9a 95 bc 27 4c 6b bd 50 a0 b3 3d e8 62 86 bd
       -0.018262155 -0.05744567 0.087708116 -0.065618336
000110 52 90 34 bd ac 81 91 bd 95 56 f7 3a bf 60 99 3b
       -0.044082947 -0.07104811 0.0018870408 0.0046807225
000120 7f 84 c5 bd a8 aa fd 3b d3 ec 07 3d 4f 97 80 bd
       -0.09644412 0.007741291 0.033184838 -0.0627886
000130 b6 8e 86 bc 82 39 c7 3c f3 ae de 3b 03 18 ae ba
       -0.016425472 0.024319414 0.006795758 -0.0013282303
000140 a1 a1 33 bc c2 dd b0 bd e0 02 e3 3c c7 d7 88 bd
       -0.010963828 -0.08636047 0.027711332 -0.06681781
000150 eb 73 42 3d 7e e9 6a 3c a4 e9 26 bc 25 fe a7 bb
       0.04747383 0.014337895 -0.01018754 -0.005126732
000160 3d 2c 78 bd d9 fc 15 bd 64 e9 e7 ba 80 37 c6 3a
       -0.060589064 -0.036618087 -0.0017693457 0.0015122741
000170 75 6a 18 3d 5a 77 e5 bc 6a 15 4c bd 22 dd 1e 3d
       0.0372109 -0.028011013 -0.04982511 0.038785107
000180 79 9e 30 3d 98 d6 dd bc 20 f5 ac bc 12 85 f8 bd
       0.04311988 -0.027079865 -0.021112978 -0.12134756
000190 72 07 67 bc e1 5c 92 3c 60 a3 6e 3c cd 4d 44 3d
       -0.014100896 0.017866554 0.014565319 0.04792576
0001a0 66 85 74 3d dd d2 39 bd 5d 8c 1f bd 3f 51 92 3d
       0.05969753 -0.04536711 -0.03895222 0.07144403
0001b0 46 fc 96 bd c3 e9 11 3d 25 a3 4a 3c 4e dd a8 3c
       -0.07372336 0.035623323 0.012367998 0.020613339
0001c0 55 9b 7c bd 64 d9 bd bd 18 8c 3b bc 9e 44 02 3d
       -0.061671574 -0.092699796 -0.011446975 0.03180372
0001d0 ee 91 18 3d 56 2a b9 bd 87 f8 17 bd 08 5d 52 3c
       0.037248544 -0.09041278 -0.03710225 0.012839563
0001e0 08 fa 1b bd 09 ce 3b 3d 0b f1 a9 bb 7d de 1f bd
       -0.038080245 0.045850787 -0.0051862053 -0.03903054
0001f0 8c 4a a6 bd 4b ef 5c bc 48 22 17 bd 38 b8 3e bc
       -0.081196874 -0.013484786 -0.036897928 -0.011640601
000200 af 0b 14 3c 00 ac 59 bd 5c f0 53 3d 51 1a 89 bd
       0.009035989 -0.053142548 0.051742896 -0.066944726
000210 e7 65 83 bd c6 f0 55 3d 97 27 d4 3c bf 0a 9a 3c
       -0.06415921 0.052231573 0.025897784 0.018803952
000220 83 0f 8f 3c cb d5 63 bd 57 ff fc 3b d9 3a a0 bd
       0.017463451 -0.05562381 0.0077208686 -0.07823724
000230 0d 7c 59 3d 8d be 2f bd 38 75 a3 bd 5c c3 8a 3c
       0.05309682 -0.042906333 -0.07981342 0.016938858
000240 1f b8 55 3d ee 3c 2b bd be 81 72 3d d4 1c 83 3d
       0.052177545 -0.041806154 0.059205763 0.06401983
000250 2e 85 ab bd 58 f6 5a bc 64 7d 8a 3a 13 4b 35 3d
       -0.083750114 -0.013364397 0.0010565934 0.04426105
000260 5e cc 06 3d f1 d7 2b 3d 49 72 45 3c 63 d7 ac bd
       0.032909743 0.041953985 0.0120511735 -0.08439519
000270 59 a5 2a 3d 43 b4 4c bc 27 ed 75 bd ee 4a c8 bc
       0.041661594 -0.01249415 -0.06004062 -0.024449792
000280 cd c0 ab bd 72 94 14 bd f6 e5 70 bd 1d 43 e2 3c
       -0.08386383 -0.03627438 -0.058813058 0.027619893
000290 1a f7 45 bd 45 94 53 3d be 7c c5 ba 2c 15 d1 bc
       -0.048331358 0.051655073 -0.0015067083 -0.02552279
0002a0 71 69 2f 3d 6e 13 75 bd 9f bc 13 bd e1 86 5f bd
       0.042825166 -0.059832983 -0.036068555 -0.05457199
0002b0 dc 3d 87 3d 07 a7 a0 3d 97 d2 c7 bd 52 2a 63 3d
       0.066035956 0.07844358 -0.09756964 0.05546028
0002c0 e2 b5 e3 38 fa a8 00 bd eb be 4c 3d 44 a7 1e bd
       0.00010858082 -0.03141115 0.04998676 -0.038733736
0002d0 74 6b 29 3d 7c 0e c5 3b 81 c6 1e 3d 5d 72 4a bd
       0.04136224 0.0060136896 0.038763527 -0.04942547
0002e0 9e 4e d0 3c 3f a1 75 bd 88 36 93 bd 75 ad 13 bd
       0.025428113 -0.05996823 -0.071881354 -0.036054093
0002f0 fe b6 75 bd d0 a7 3c bd f1 45 8b bd 72 1e a3 bd
       -0.059988968 -0.046058476 -0.0680045 -0.07964791
000300 c6 ab ae 3c f9 55 c3 3c 9d b6 a0 3d fc b3 8e bd
       0.021322142 0.023844706 0.07847331 -0.06967923
000310 e3 33 f8 bc ad e0 ca 3b 8c 14 97 3d 8a 1d 2b bd
       -0.030298179 0.006191334 0.07376966 -0.041776218
000320 a4 77 a2 bd a9 92 3d bd 6c 02 2f 3d 17 45 d0 bc
       -0.07932976 -0.046282444 0.04272692 -0.02542357
000330 6d d0 3c 3d 89 d2 a3 3d 64 1f d8 bc d1 14 75 bb
       0.046097208 0.07999141 -0.026382156 -0.003739644
000340 37 ef 4e bd 87 cb 82 3a 6c dc 27 bd 4b c8 a6 bd
       -0.0505211 0.0009978869 -0.040981695 -0.081436716
000350 59 1c ac 3d a6 55 13 bd e8 49 a0 bd 52 db a7 3c
       0.084038444 -0.035970353 -0.078265965 0.020490322
000360 23 f6 9c bd 6f 97 8c 3d 11 9e 4f bd e6 e3 00 3c
       -0.07664134 0.06864821 -0.050687853 0.007866835
000370 5f 99 aa bd 3f 3b 41 3c f4 3b 07 3d a8 f7 c1 bd
       -0.083300345 0.0117939105 0.03301616 -0.09471065
000380 b1 08 c5 bd 18 11 52 3d 13 7b cb 3c 6c 63 b8 bc
       -0.096207984 0.051285833 0.02483896 -0.022508346
000390 e9 c1 e6 3b 64 37 a2 bd c4 cb 4b 3d 27 bc 73 bd
       0.007042159 -0.07920721 0.049754873 -0.059505608
0003a0 71 e0 91 3d 3e 4f 9a bc 1f a3 b4 bd 8c 74 54 bd
       0.07122887 -0.018836614 -0.088201754 -0.05186896
0003b0 16 fb cf 3c 2f 51 86 3d 1a 4b 51 3d 96 6e 2a 3d
       0.025388282 0.06558453 0.051097013 0.04160937
0003c0 f2 29 10 bd be 3a 8b bc 4e e3 37 3b 6b 50 75 bd
       -0.035196252 -0.016995784 0.0028059068 -0.059891146
0003d0 95 f9 b5 bd 0a 55 80 3c 04 40 6c 3d cd 7b 84 bd
       -0.088854946 0.01566555 0.057678238 -0.064689256
0003e0 5c 1b ac bd 9e 5e 55 bd 42 64 67 bd 43 4c 8d 3d
       -0.08403656 -0.052092187 -0.056492098 0.068993114
0003f0 d2 50 87 bd e9 ea 2d bd 4a 09 fa bc d4 38 94 3d
       -0.06607212 -0.042460356 -0.030522007 0.072374016

2.bias f4 [128]
000000 11 d7 95 bd 66 cb 85 bd 79 3d 89 bd cb f8 9c 3d
       -0.07316411 -0.06532936 -0.06701178 0.07664641
000010 b2 cb 99 3d 21 22 bb bd 47 fa 06 3e dc c4 25 bd
       0.07509555 -0.09137369 0.1318141 -0.040470943
000020 40 0f b4 bc d9 0b 52 bc ab 02 6f bd 6c 71 13 bd
       -0.021979928 -0.0128202075 -0.058352154 -0.03599684
000030 58 ab e3 3d 4d a4 9a bd 8f 27 47 3e 3b 68 81 3d
       0.111166656 -0.07550869 0.19448684 0.063187085
000040 97 d7 1e bd 9f fe 85 3d 9a 38 39 bd b6 d3 6f 3b
       -0.03877982 0.06542706 -0.045219995 0.0036594695
000050 37 fc 43 3d 70 90 69 3d c0 55 1a 3e 65 65 15 3e
       0.047847953 0.057022512 0.15071774 0.1458946
000060 5f 35 a5 bd c7 5b 92 bc 7f b9 e1 3d 1a 5b 41 3d
       -0.0806682 -0.017866028 0.11021709 0.04720602
000070 6b 84 8e 3d f8 41 35 3d 42 4f 49 3d 59 63 86 bd
       0.069588505 0.044252366 0.04914785 -0.06561918
000080 7f 3b 28 bd 76 c3 dd 3c 3e d9 27 bc 9a e5 2a bd
       -0.041072365 0.027070742 -0.010244666 -0.04172287
000090 d8 6f f4 3c 9e 76 27 3e 3e cc 98 bc 54 21 82 bc
       0.029838488 0.16353843 -0.018652078 -0.015885033
0000a0 5b 92 79 3d be 5a 7e 3d cc 44 3a bd 96 7a e9 bc
       0.06093059 0.062098257 -0.045475766 -0.028500836
0000b0 d9 a8 0f 3d 93 f1 08 3d 2a 00 18 3e 03 10 34 3e
       0.035073135 0.033433508 0.14843813 0.17584233
0000c0 fb 50 88 bc 73 29 0b be fb c7 90 bd ce bd 63 bd
       -0.016640177 -0.1359003 -0.07069393 -0.055600934
0000d0 e7 ff 59 bd fe ed ba bd e3 26 e2 3d db 9f 49 3d
       -0.053222563 -0.09127425 0.11042573 0.049224716
0000e0 a6 c6 61 bd f7 e6 53 bd 58 0f b4 ba 8b 40 26 bc
       -0.055121087 -0.051733937 -0.0013737483 -0.010147224
0000f0 0f 53 d4 bc 7f 24 54 3e e1 eb 91 bc 9f a0 89 bd
       -0.025918512 0.20717047 -0.017812671 -0.06720089
000100 81 8c 9b bd 81 5d e0 bc fb 67 b8 bd 0e e1 5d bd
       -0.07595158 -0.027388336 -0.09004208 -0.054169707
000110 33 22 96 3c 53 d9 95 bd 38 f7 36 3d 59 c5 79 bd
       0.018326854 -0.07316842 0.04466936 -0.06097922
000120 87 b1 f1 bd 1a 69 aa 3b c4 31 03 bd bd 95 a0 bd
       -0.11801439 0.0052005174 -0.032029882 -0.0784106
000130 34 ff 8c bd 01 1a 75 bc d7 80 3a 3d 84 84 ab bd
       -0.06884614 -0.014959813 0.045533027 -0.08374885
000140 7c 01 ad bd d8 e2 5f 3d 7d d9 6b 3d df 33 91 bd
       -0.08447549 0.054659694 0.05758046 -0.07089972
000150 36 bb 0e 3d e6 83 42 bc 8f e5 14 bd b6 16 a1 bd
       0.034846507 -0.011872267 -0.036351737 -0.0786566
000160 c4 6f 91 3d 84 08 8a bd eb 70 8a bd d8 cb b6 bd
       0.07101396 -0.067399055 -0.06759819 -0.08925599
000170 ee 42 ac bd 97 4a 0b 3e 01 60 21 3e 6a 5c e0 bc
       -0.08411203 0.13602673 0.15759279 -0.027387816
000180 91 10 be 3d 82 e4 31 bb b7 94 1b 3d ef 01 f5 3c
       0.092805035 -0.0027144258 0.037983622 0.029908149
000190 6d 46 ff 3c 51 6f d3 bd a9 c2 62 bd 1c ee 1c 3c
       0.031161511 -0.10323966 -0.055361424 0.009578254
0001a0 3c e8 af bd fa 9a 8c 3d 81 1e c4 3d 59 00 5c bd
       -0.08589217 0.06865497 0.09576131 -0.05371127
0001b0 6c 4a 90 bd 40 c7 cc 3c 72 c9 7c bd 88 84 a6 3d
       -0.07045445 0.024997354 -0.06171555 0.08130747
0001c0 a8 74 02 3d 26 7e 87 bd f9 41 0c 3d 44 39 a6 3b
       0.031849533 -0.06615858 0.034242604 0.0050727446
0001d0 a3 89 87 bc bc bf fb 3b 5b 77 8e 3d a0 bf 45 bc
       -0.016545122 0.0076827686 0.06956359 -0.012069613
0001e0 37 04 f5 bb f4 03 4f 3d 77 12 9d bd c5 34 5b bb
       -0.007477309 0.05054088 -0.076695375 -0.00334482
0001f0 27 29 7b bd 0f 64 b2 bc 7b 38 ff 3d b1 95 88 bd
       -0.061318543 -0.021776227 0.12461945 -0.06669176

4.weight f4 [8, 128]
000000 ca 43 92 bd a6 b9 8f 3d cd 32 1a bd ca d8 6a be
       -0.07141836 0.070178315 -0.037646104 -0.22934261
000010 19 5e 34 bc 11 0c b4 bb 9b 52 83 bd 20 24 a3 bd
       -0.011008763 -0.0054946025 -0.0641224 -0.07965875
000020 65 2c 97 3c 7c 2e fe bc be 40 6c 3c ef 07 b6 3c
       0.018453786 -0.031028025 0.014419733 0.02222058
000030 5f 91 3a be 01 13 65 3d 7b 0d 07 be 1f 19 64 3c
       -0.18219517 0.055926327 -0.13188736 0.013922005
000040 b4 2c 0b 3d c9 58 12 be 5b a7 52 3d 0f cc 84 bd
       0.03397818 -0.14291681 0.051429134 -0.064842336
000050 1b 54 d3 bd 3d 83 b4 bc a5 78 30 bd 2e bc 23 be
       -0.10318776 -0.022035236 -0.043083806 -0.15989754
000060 9e 89 66 3d da 86 99 bc 67 55 ff bd 02 5e 94 bd
       0.056283586 -0.01874106 -0.12467461 -0.07244493
000070 b3 75 92 be 10 84 c4 bd c7 73 31 bd 21 68 93 3d
       -0.28605422 -0.095955014 -0.043323305 0.071975954
000080 19 e3 1d bd 7d 8c e4 bc 62 40 b3 3d 63 62 8a bd
       -0.038546655 -0.027899021 0.087525144 -0.06757047
000090 e3 c6 a7 bd 68 9c d4 bd 10 4a 47 bd bd 6e 25 3c
       -0.081922315 -0.103813946 -0.048654616 0.010097203
0000a0 bb f1 9b bd 78 cf 9a 3d dc 04 aa 3d e7 9d a8 bd
       -0.07614466 0.07559103 0.08301708 -0.082332425
0000b0 84 53 67 3d 2e 78 3f bc 1d 93 32 be d9 e1 05 be
       0.05647613 -0.011686368 -0.17438932 -0.13074435
0000c0 3b 28 bf 3c ac 48 94 3d 3a 42 a8 3a 50 49 1d 3d
       0.023334613 0.072404236 0.001283712 0.038399994
0000d0 ec bc bd bc 8b 75 f9 bc e6 a6 16 be e6 75 cb bd
       -0.023161374 -0.030451557 -0.14712104 -0.09934597
0000e0 35 5b 5e 3d 91 8f 41 bd 00 ec fe bc 47 c0 a8 3d
       0.0542862 -0.047256056 -0.031118393 0.08239799
0000f0 80 47 81 3d 15 8a 2d be 9d 1c 3a bc 0b 21 d9 3c
       0.06312466 -0.16947205 -0.011359361 0.026505014
000100 4f c3 56 3d b5 be 01 3d c1 e1 ac bd 17 b5 3a 3d
       0.052432355 0.031676013 -0.08441497 0.045582857
000110 e0 60 eb 3c c0 02 e2 3c 03 32 9b bd d2 d4 3a 3c
       0.028732717 0.027589202 -0.07577898 0.011403279
000120 69 b5 f0 bc 8e 1f b3 3c 64 3d 23 3d 94 5f b9 bd
       -0.029383378 0.021865632 0.03985347 -0.09051433
000130 a3 f5 27 3d e8 0d 16 bd d5 71 03 be d7 d6 e2 3c
       0.04100574 -0.036634356 -0.12836392 0.027690334
000140 1a 88 da 3c 1b 07 7c bd 34 6e 03 bd 69 7f 89 bd
       0.026676226 -0.061530214 -0.03208752 -0.06713755
000150 7e 84 8b 3c 01 00 27 bd 2a 3d 03 3e 69 0a 31 bc
       0.01703095 -0.040771488 0.12816301 -0.010805705
000160 fd 0e ad bb 78 8e 1a bc 90 52 42 bc 92 0a 7d bd
       -0.0052813278 -0.009433381 -0.011860505 -0.06177766
000170 44 d4 74 3d 51 a6 22 be 77 71 40 be 23 2b ca 3c
       0.059772745 -0.15883757 -0.18793283 0.024678772
000180 ad c5 95 bd 81 96 09 3d 8b f5 27 3d 4b f3 9b 3c
       -0.07313094 0.033590797 0.041005652 0.01903691
000190 7a ea c7 bc d4 65 eb 3c 74 86 8a 3d 9d 0b 98 bd
       -0.0244038 0.028735079 0.06763926 -0.0742409
0001a0 01 ba c3 bc c2 ee a4 bc 82 08 5e bd d2 26 27 3d
       -0.023892405 -0.02013338 -0.054207332 0.040808506
0001b0 cd d6 91 bc 2b b2 04 be dc a7 5b bd 24 e1 da bd
       -0.01780262 -0.1295859 -0.05362688 -0.106874734
0001c0 1c 9a 73 be 30 9c 38 bb d6 30 29 be 71 55 0d 3d
       -0.23789257 -0.0028169267 -0.16522536 0.03450531
0001d0 fa 20 c7 3b c0 24 a1 3d 46 29 6c be c9 8e 9b bd
       0.006076929 0.07868338 -0.2306262 -0.075955935
0001e0 e0 a8 16 bd 29 b4 a2 3d a1 19 16 bd 88 cb b6 bd
       -0.036782146 0.07944519 -0.036645535 -0.08925539
0001f0 db 60 97 3c 4f 92 61 3d bd 37 f3 bd 58 3c 91 bd
       0.018478801 0.05507117 -0.118758656 -0.07091588
000200 39 fc ab 3d d3 6e bc ba 0b ba fb bc f2 b3 4e be
       0.08397717 -0.001437629 -0.03072836 -0.20185831
000210 3e c1 ec 3c d6 5b c6 3c 61 85 72 bd 33 cc 11 bd
       0.028900739 0.024213713 -0.05920923 -0.03559513
000220 5c 7e 29 3d 07 7b 86 3d d4 a6 90 bc 67 26 25 bc
       0.04138027 0.06566434 -0.017657675 -0.010079957
000230 2a 89 bb bd 4b 03 22 3d b2 3a 07 bd 49 24 86 bd
       -0.09157021 0.03955392 -0.03301496 -0.065498896
000240 fc 53 8c 3d 1f cd 14 be e3 b0 ce 3b 75 75 b9 bd
       0.06851956 -0.14531372 0.0063077076 -0.09055606
000250 9c f8 03 be b2 a6 d4 3c 9f aa 32 be eb 2c 10 be
       -0.12887806 0.025958393 -0.174479 -0.14079635
000260 72 57 7d bd 9f d8 da 3c 37 68 5a 3d 55 e4 eb ba
       -0.061850972 0.026714621 0.053322043 -0.0017997125
000270 e8 c8 3d 3d d1 1a aa bd 3a 91 08 3d 58 25 f7 3d
       0.046334177 -0.08305896 0.033341624 0.1206767
000280 13 a0 e7 3c 73 21 47 3c 52 53 ed bb 51 05 06 bb
       0.028274572 0.012153971 -0.0072425986 -0.0020449946
000290 1d 11 0d be 7b 93 b0 bd 4e 43 f9 3c 72 d6 68 bd
       -0.1377606 -0.0862188 0.030427601 -0.056845136
0002a0 11 47 85 3d 81 1a 14 bc 85 f1 6d 3d 02 6c 2b 3b
       0.065076955 -0.009039522 0.05809166 0.0026156907
0002b0 5d 9f 9e 3d 05 1b 01 be 35 fa 1e be 51 08 0b be
       0.0774524 -0.12607963 -0.15525134 -0.13577391
0002c0 f7 72 0c 3a a7 2c 68 bd 7a e1 22 bd d9 0d 98 3d
       0.0005357707 -0.05668321 -0.039765812 0.07424516
0002d0 ce 06 9e bd 76 9b 49 3d 57 8e 03 be c8 65 91 bd
       -0.07716142 0.049220525 -0.12847267 -0.07099491
0002e0 15 3a 5c bc cc 73 ab bb 7e 84 f1 bd 90 7e 2b 3c
       -0.013441582 -0.00523231 -0.11792849 0.010467187
0002f0 d0 42 0b 3d fb b4 47 be 24 ca 1d be 60 96 eb bc
       0.033999264 -0.19502632 -0.15409142 -0.028758228
000300 9a a2 a7 bd 17 0b ae 3c 7b 98 c8 bd b6 8c 63 3d
       -0.08185311 0.021245522 -0.09794708 0.055554114
000310 44 ec 32 3d 2d 48 25 bc 3f 13 a3 bd a6 24 76 3d
       0.04368235 -0.010088009 -0.07962655 0.060093544
000320 ba 75 98 3d 4e 56 32 3d 03 ca 17 bd e0 a5 66 bc
       0.074443296 0.043539338 -0.037057888 -0.014077634
000330 a3 19 9d 3d 2a 50 95 bd a2 70 52 bd 00 67 af bd
       0.076709054 -0.07290681 -0.051376946 -0.085645676
000340 0c f1 5f 3d bb 63 a6 bd 3f 55 0d 3d a0 62 33 3d
       0.05467324 -0.08124491 0.034505125 0.043795228
000350 fa dc 64 bd 00 22 8b 3d 81 ac 24 bc 3b 46 9f 3d
       -0.055874802 0.06793594 -0.010050894 0.07777067
000360 e2 78 7b bd 6b 1e 98 bd 82 db a0 bd ac 2f 86 3d
       -0.06139458 -0.07427677 -0.07854368 0.065520614
000370 6b 30 97 3d 28 a2 1f be 96 2c a6 bd 94 e7 f4 bd
       0.07382282 -0.15589201 -0.08113973 -0.119582325
000380 67 f5 9a bd 21 ed 80 bd 59 f9 fc bc cc 93 11 bd
       -0.07566338 -0.06295229 -0.030880617 -0.03554134
000390 d8 cb 03 bc 67 c6 0b 3d 26 1f 92 bd 20 1b c6 bc
       -0.008044206 0.034124758 -0.07134847 -0.024182856
0003a0 17 e0 28 3d 97 c6 30 3d be 8c 2c be 9a d8 a0 3c
       0.041229334 0.04315814 -0.16850564 0.019634534
0003b0 78 a0 c1 bd 5a d4 c9 bd 95 a7 d7 bc 86 e2 c9 bc
       -0.09454435 -0.09854956 -0.026325027 -0.024644148
0003c0 94 d0 23 be 0e fe b3 bd 02 04 a9 bd 7f 00 b7 bb
       -0.15997535 -0.087886915 -0.082527176 -0.005584776
0003d0 e3 46 6c bd 34 b3 a1 3d ae 5e e1 bd 01 6e 8d bd
       -0.05768479 0.078955084 -0.11004387 -0.06905747
0003e0 99 80 b7 3b fb 31 48 3d 80 30 ae bd 32 6d 68 3d
       0.005600047 0.04887579 -0.085053444 0.05674476
0003f0 94 5a a8 3c dc 45 ab 3c da 06 cc bd fe 2b 29 3b
       0.020551004 0.020907335 -0.09962244 0.0025813575

4.bias f4 [8]
000000 87 fc 0c be ad bc df bd 6b 02 2d be 54 43 22 be
       -0.13768207 -0.10924659 -0.16895454 -0.15845996
000010 3b c4 3a be 77 81 43 be 23 f9 4e be 96 ad 76 be
       -0.18238918 -0.19092356 -0.20212226 -0.24089655
