ddqn/payload/final_double_dqn_model-4thSize-2.pth (torch, 76082 bytes, 6 tensors)

0.weight f4 [128, 5]
0.35946548 -0.25046137 0.120612 -0.53981864 0.28066754 0.12231738 -0.033325974 0.26399
0.29250747 -0.4742614 0.10802917 -0.0718067 -0.38241637 -0.37137255 0.39517856 -0.2027265
-0.2027965 -0.35995686 -0.44704518 0.08341907 0.41837674 0.3067991 0.23870993 0.38133696
-0.17618586 0.08375088 0.4969126 -0.28098744 -0.010358384 0.43077993 -0.008263895 0.2824354
-0.2823302 0.28933945 -0.32298395 0.38482398 0.35110888 0.42110872 0.2460712 0.3602315
-0.3980394 -0.20816354 -0.24251002 0.21417114 -0.05962428 -0.040210374 -0.41024134 -0.3908859
0.30125168 0.38317627 -0.24972883 -0.16205263 -0.067027144 0.11186795 0.27486262 0.24208234
0.14348963 0.06461713 -0.02874376 0.2355866 -0.121993884 -0.5462934 -0.32186437 0.39515093
0.3412097 -0.12850834 0.20037784 0.062306028 0.08351678 -0.49278662 -0.16543193 -0.33397877
-0.017761163 -0.35523683 0.39717466 0.3869047 0.27436623 0.33643746 0.20921367 0.27201104
0.04716274 0.05593001 0.022438122 0.122955084 -0.19315657 -0.14659578 -0.431339 0.27249166
-0.18449366 -0.36053786 0.43343946 -0.36284962 -0.26875696 -0.11546497 0.30266532 0.18859845
0.02981701 0.035705738 -0.21371375 0.36201516 0.13745372 -0.3929105 -0.33770132 -0.42363492
0.40720436 -0.33833057 0.13042432 -0.36820886 -0.06391204 -0.44218796 -0.067758076 -0.39395767
-0.13263772 0.33102924 -0.34954482 -0.14819807 0.37415847 -0.07946105 -0.15789348 -0.030679416
-0.29983246 0.1680753 0.00725987 -0.23792288 0.22968106 -0.3740726 0.111636475 -0.3628607
-0.34720457 -0.23498705 0.3453742 -0.46758705 0.16681577 -0.059055276 0.28431913 0.33164582
-0.1264342 0.14175357 -0.36110428 0.28110602 0.38506857 0.04535437 0.34790275 0.38919762
0.46926323 -0.31707805 -0.06674542 0.07036564 0.074624285 -0.25526085 -0.07845439 0.20182234
0.23470275 0.026234714 -0.06738111 -0.09071092 0.22145408 0.16607326 -0.33631226 0.27033827
0.31679076 0.1562405 -0.035276394 0.0656644 0.2801075 -0.3079479 -0.28504187 0.21509841
-0.1312235 0.06947299 0.35985008 0.03050103 -0.27563816 0.077273 0.17736827 -0.41302374
-0.555413 0.28715524 -0.13399886 -0.1630176 0.24349037 -0.4232091 -0.24568442 -0.016069148
0.025518436 -0.28834534 -0.17105159 -0.05500115 -0.15615143 -0.28519508 0.21781786 0.35173872
0.39592987 0.020432973 0.2792577 -0.18066637 0.039505407 -0.11849559 0.18426625 -0.27453566
0.23995984 0.0019839294 0.15763623 -0.06620255 0.056595296 -0.057893757 -0.57234144 -0.06682831
0.16904902 0.09443198 -0.19814865 0.023286795 -0.121098936 0.029763885 -0.26174536 0.045295488
-0.24703608 -0.014099001 0.08741868 -0.31070256 -0.42765352 0.12502635 0.21669452 -0.27224594
-0.59392226 -0.049040068 0.41151497 -0.41293147 -0.43078682 0.37899533 0.42815763 0.02233507
-0.07851207 -0.40597463 -0.13397837 -0.3985369 -0.44627523 -0.13984089 -0.44593698 -0.0280579
-0.25511205 -0.21345639 0.18992479 -0.18113069 -0.43867728 -0.25050238 0.23612212 -0.31228977
-0.24785699 -0.04325614 -0.11978485 0.07940841 -0.2882642 -0.1192321 0.23173815 -0.1988938
00000000: dc0b b83e 793c 80be 6d03 f73d 8e31 0abf
00000010: a8b3 8f3e 8981 fa3d d180 08bd b329 873e
00000020: 8ac3 953e 64d2 f2be 663e dd3d 640f 93bd
00000030: 14cc c3be 8b24 bebe d854 ca3e 8997 4fbe
00000040: e3a9 4fbe 444c b8be 1be3 e4be 9ed7 aa3d
00000050: 7a35 d63e c614 9d3e 6070 743e 993e c33e
00000060: 116a 34be 9585 ab3d 546b fe3e 96dd 8fbe
00000070: 36b6 29bc 308f dc3e 4a65 07bc 5f9b 903e
00000080: 958d 90be 4d24 943e 275e a5be a607 c53e
00000090: 8bc4 b33e 909b d73e 17fa 7b3e 4370 b83e
000000a0: d2cb cbbe d328 55be 8c54 78be ae4f 5b3e
000000b0: 9738 74bd a2b3 24bd 270b d2be 3222 c8be
000000c0: a93d 9a3e ae2f c43e eab8 7fbe 20f1 25be
000000d0: 8745 89bd 061b e53d cbba 8c3e 6fe4 773e
000000e0: f2ee 123e fc55 843d 0978 ebbc 9d3d 713e
000000f0: eed7 f9bd e2d9 0bbf 68cb a4be 3951 ca3e
00000100: 0ab3 ae3e b197 03be d92f 4d3e 9b34 7f3d
00000110: d80a ab3d 874e fcbe fd66 29be 44ff aabe
00000120: dc7f 91bc 9ae1 b5be 7a5a cb3e 5f18 c63e
00000130: bb79 8c3e 8841 ac3e 1c3c 563e 0845 8b3e
00000140: b82d 413d de16 653d 27d0 b73c e0cf fb3d
00000150: d6ca 45be 341d 16be 77d8 dcbe 0784 8b3e
00000160: e8eb 3cbe 6b98 b8be c7eb dd3e 6dc7 b9be
00000170: 839a 89be e678 ecbd f3f6 9a3e f41f 413e
00000180: cd42 f43c 2e40 123d c7d7 5abe 0d5a b93e
00000190: abc0 0c3e 912b c9be 30e7 acbe ade6 d8be
000001a0: 177d d03e aa39 adbe f48d 053e df85 bcbe
000001b0: 51e4 82bd 7666 e2be bfc4 8abd d2b4 c9be
000001c0: 2fd2 07be aa7c a93e 8af7 b2be 3cc1 17be
000001d0: b391 bf3e 7abc a2bd d4ae 21be 6653 fbbc
000001e0: a483 99be ee1b 2c3e 34e4 ed3b 0ea2 73be
000001f0: 8331 6b3e 7286 bfbe aaa1 e43d e1c8 b9be
00000200: ccc4 b1be 72a0 70be e3d4 b03e 9267 efbe
00000210: c1d1 2a3e f2e3 71bd 4792 913e 7bcd a93e
00000220: f877 01be d927 113e a9e2 b8be 21ed 8f3e
00000230: b527 c53e 81c5 393d 4f20 b23e e944 c73e
00000240: 4543 f03e 0e58 a2be d3b1 88bd dc1b 903d
00000250: 9ed4 983d 8db1 82be b2ac a0bd 84aa 4e3e
00000260: eb55 703e 2fea d63c 1bff 89bd a6c6 b9bd
00000270: dcc4 623e 1c0f 2a3e 1f31 acbe c769 8a3e
00000280: 6632 a23e 82fd 1f3e fb7d 10bd 0f7b 863d
00000290: 406a 8f3e 59ab 9dbe 02f1 91be c242 5c3e
000002a0: 745f 06be db47 8e3d 453e b83e 4cdd f93c
000002b0: 7220 8dbe 4e41 9e3d 07a0 353e d977 d3be
000002c0: 8c2f 0ebf 0306 933e ff36 09be 16ee 26be
000002d0: 8a55 793e ddae d8be b294 7bbe 72a3 83bc
000002e0: 0a0c d13c 00a2 93be 2628 2fbe e348 61bd
000002f0: 29e6 1fbe 1705 92be a50b 5f3e 1917 b43e
00000300: 52b7 ca3e 0d63 a73c defa 8e3e 9b00 39be
00000310: 6cd0 213d d1ad f2bd 4bb0 3c3e f08f 8cbe
00000320: 08b8 753e d004 023b 646b 213e 3495 87bd
00000330: 78d0 673d 0122 6dbd f884 12bf 48dd 88bd
00000340: 301b 2d3e 8e65 c13d 7be7 4abe f3c3 be3c
00000350: b802 f8bd 64d3 f33c 7d03 86be c387 393d
00000360: 07f7 7cbe 7fff 66bc 9108 b33d 6814 9fbe
00000370: 67f5 dabe e806 003e 2be5 5d3e d263 8bbe
00000380: 4a0b 18bf 3dde 48bd 17b2 d23e c16b d3be
00000390: 1790 dcbe ad0b c23e 7a37 db3e 09f8 b63c
000003a0: f0ca a0bd e8db cfbe a031 09be 070d ccbe
000003b0: 307e e4be 7332 0fbe da51 e4be aed9 e5bc
000003c0: 0c9e 82be 5094 5abe a57b 423e 537a 39be
000003d0: 4f9a e0be d941 80be ffc9 713e 72e4 9fbe
000003e0: 39ce 7dbe 5a2d 31bd c251 f5bd e0a0 a23d
000003f0: 5d97 93be f62f f4bd c44c 6d3e d1aa 4bbe

0.bias f4 [128]
0.3341936 -0.036037643 0.27997535 0.07795939 -0.01431348 0.54764193 -0.33612233 0.18861635
0.60278004 -0.27875492 -0.35742706 -0.01194656 0.07493492 -0.3856675 -0.40313667 0.14444229
0.30979574 0.08903793 -0.3368462 0.44290426 -0.391632 0.17180122 -0.39315924 0.56201416
-0.27781788 -0.37929383 0.26154977 -0.27925664 0.42183134 -0.46125296 -0.10222624 -0.015420352
-0.47259346 0.3306447 -0.40383244 -0.19598265 0.14642012 0.0059803817 0.43949834 0.03339584
-0.27640846 -0.433931 0.05285524 0.1558487 0.32889578 -0.07745378 0.19492055 0.21501546
-0.3597836 -0.019216476 -0.05777876 -0.4467412 -0.36307034 -0.25014403 -0.41185614 0.31160575
0.4190053 -0.36855268 0.19819903 -0.33507752 0.32024747 0.5447348 -0.14158033 -0.2586167
0.51739424 -0.09092402 0.3859639 -0.3294565 -0.061553285 -0.046012666 0.5610668 -0.30555925
-0.010200029 0.5518874 -0.25791806 0.63573605 -0.5168533 0.13133766 -0.004191048 -0.2815519
-0.33753994 0.6734957 -0.4030585 0.13175483 0.66229594 0.5083046 0.12005396 -0.43119738
-0.18096523 -0.03495321 0.2643186 -0.34845772 0.027465845 -0.040581424 0.2450304 -0.31179667
-0.0733212 -0.020400375 0.105069816 -0.07967013 0.24985382 -0.38890815 0.27964154 -0.12795214
-0.13530499 0.1000127 0.35077557 -0.016429324 -0.47071144 -0.3141876 0.010877626 0.43378404
0.19099072 -0.23177172 0.47261822 0.40807596 -0.2899033 -0.09964466 0.23392327 0.32665375
-0.48177013 -0.085271955 0.23969689 -0.30693784 -0.16432394 -0.15381849 0.061572816 0.11659977
00000000: 6c1b ab3e 359c 13bd ee58 8f3e 2ca9 9f3d
00000010: 1683 6abc 4332 0c3f 3a18 acbe a524 413e
00000020: cb4f 1a3f f7b8 8ebe ae00 b7be 81bb 43bc
00000030: 7b77 993d 3676 c5be ee67 cebe aee8 133e
00000040: 8c9d 9e3e 8559 b63d 1b77 acbe 59c4 e23e
00000050: fd83 c8be a9ec 2f3e 2b4c c9be 29e0 0f3f
00000060: 253e 8ebe cd32 c2be dae9 853e bafa 8ebe
00000070: 47fa d73e 5929 ecbe fe5b d1bd a5a5 7cbc
00000080: c5f7 f1be 434a a93e 20c3 cebe adaf 48be
00000090: 28ef 153e 14f7 c33b ed05 e13e 14ca 083d
000000a0: 6985 8dbe 342c debe bc7e 583d cd96 1f3e
000000b0: 0765 a83e 16a0 9ebd 4199 473e 032d 5c3e
000000c0: 8e35 b8be df6b 9dbc 6ca9 6cbd 43bb e4be
000000d0: 5be4 b9be e112 80be cfde d2be ca8a 9f3e
000000e0: dd87 d63e f0b2 bcbe b0f4 4a3e 488f abbe
000000f0: 7af7 a33e bd73 0b3f 6ffa 10be 6869 84be
00000100: f373 043f 5f36 babd 0f9d c53e 86ae a8be
00000110: 4c1f 7cbd c777 3cbd 13a2 0f3f 4372 9cbe
00000120: 061e 27bc 7e48 0d3f d60d 84be 99bf 223f
00000130: 7f50 04bf 617d 063e 0f55 89bb 9227 90be
00000140: 09d2 acbe 376a 2c3f af5d cebe bdea 063e
00000150: 3a8c 293f 4020 023f dade f53d e7c5 dcbe
00000160: f34e 39be 192b 0fbd c454 873e 0d69 b2be
00000170: 0d00 e13c b538 26bd 40e9 7a3e d0a3 9fbe
00000180: 6d29 96bd b01e a7bc d82e d73d 182a a3bd
00000190: aed9 7f3e f81e c7be 2d2d 8f3e e305 03be
000001a0: 648d 0abe 75d3 cc3d db98 b33e ca96 86bc
000001b0: 1701 f1be 32dd a0be 1238 323c f118 de3e
000001c0: 1293 433e 9155 6dbe 04fb f13e 55ef d03e
000001d0: 356e 94be 8012 ccbd 9589 6f3e 293f a73e
000001e0: 93aa f6be 10a3 aebd 1a73 753e f526 9dbe
000001f0: 8944 28be 9882 1dbe c733 7c3d dccb ee3d

2.weight f4 [128, 128]
-0.011814234 0.006307633 0.032140236 0.019339038 -0.056369547 0.07795142 -0.06775524 0.003233812
-0.022386279 0.020548558 -0.012060173 -0.02271402 0.07630884 0.00893876 0.0012883553 -0.0056262226
0.08029035 -0.013858114 0.072443485 0.0609144 0.013076639 0.023362588 -0.062379736 0.015280091
-0.012754742 0.025076542 0.05448565 -0.05139215 -0.030391978 -0.01811911 0.023774179 0.0786214
0.017471917 -0.025497572 -0.025552738 -0.08764798 -0.038845856 -0.049453784 0.025928989 0.07376543
0.040534154 0.08341581 0.03181479 0.017676748 0.04583361 -0.048137307 0.035729285 -0.030578297
-0.051778235 0.037678838 0.017775033 -0.023112224 -0.06111513 -0.06973562 -0.014245877 0.020468539
-0.066285305 0.05741663 -0.05978124 0.02720659 -0.027071664 -0.06673359 -0.053942446 -0.05955398
-0.052149214 -0.07686954 0.057262886 0.013797776 -0.08762423 -0.060716733 0.067409284 -0.05347023
-0.020686997 0.033088673 0.040331945 0.05709036 0.041766707 -0.08850995 0.003074073 0.02564122
0.014903789 0.06889812 0.075607546 -0.04202696 -0.0303164 -0.047984548 -0.09242814 0.07596392
-0.013158077 -0.013741232 0.047335498 -0.07472409 -0.09210315 0.084805116 -0.059499234 0.014433323
-0.057275474 -0.022511484 -0.026577456 -0.006209041 -0.07573567 -0.08818921 -0.08575734 -0.03915335
-0.063129075 0.044510674 -0.004169254 -0.065211855 -0.020558631 0.050304953 0.042867403 -0.024124961
-0.07925439 -0.04512436 0.039054282 -0.061115287 0.06174367 -0.030722164 0.058995355 0.02111023
0.045570213 -0.033379227 0.071747676 -0.013206399 -0.08113206 0.073099524 0.038770296 -0.042080183
0.056515425 -0.06420479 0.0646488 -0.026212253 0.033142142 -0.02318084 0.012592508 -0.03570226
0.0007679472 0.03804538 -0.06506736 0.026573556 0.028265193 -0.039924677 -0.026158988 -0.04837517
-0.0776162 0.081120215 -0.064269125 -0.07229627 -0.082572274 0.062439207 0.008760707 0.07842395
-0.060363177 -0.07329493 0.08085596 -0.07007424 -0.01592881 0.013157108 -0.07433704 0.026919287
-0.014521854 0.06429231 0.023620842 -0.0035223912 0.00242553 0.03659675 0.06794497 -0.019747453
0.06365096 0.072261676 -0.017701613 -0.0014599457 0.011074559 0.018759267 -0.088123865 0.06720393
0.048538577 -0.04974407 1.800724e-05 0.002622419 0.05677251 0.017361509 -0.04060915 0.03882415
0.012174792 0.068796165 0.06901928 0.06504134 0.020771842 -0.08509126 -0.068699226 -0.07648767
-0.008390489 0.069779925 -0.024289776 -0.019592341 0.04055184 0.0069957552 -0.065647006 0.04462564
0.08248864 -0.062950626 0.037722737 -0.043435667 0.02191282 0.07217002 0.030248709 -0.046133414
-1.1590383e-06 0.022454692 0.05091393 -0.08385967 0.08680555 0.022656439 0.034925018 0.02475432
0.07111705 0.051883433 -0.07989335 0.02093397 -0.08458541 -0.019456303 -0.083950765 0.02398222
-0.04905516 -0.046683356 -0.08796277 -0.053527173 -0.018860536 0.037187554 -0.07967671 -0.0038233409
0.07884922 -0.071968764 -0.043516 -0.068202555 -0.04986696 -0.029884212 -0.036804207 -0.016928218
0.06667539 -0.026439361 0.03292712 0.07038619 0.058856547 -0.021971174 -0.053317163 0.054301746
-0.061664894 -0.059055857 0.03973393 -0.014083507 0.037944607 -0.05068697 -0.0066471375 0.012241531
00000000: 7d90 41bc 43b0 ce3b 7ba5 033d e76c 9e3c
00000010: c1e3 66bd fea4 9f3d 42c3 8abd 5dee 533b
00000020: 6e63 b7bc 7355 a83c 0898 45bc c112 babc
00000030: cf47 9c3d e073 123c 08de a83a 2d5c b8bb
00000040: 446f a43d 250d 63bc 405d 943d 6181 793d
00000050: 663f 563c e662 bf3c e581 7fbd 5959 7a3c
00000060: 44f9 50bc 526d cd3c 582c 5f3d 9380 52bd
00000070: 99f8 f8bc 876e 94bc 11c2 c23c 4204 a13d
00000080: 4421 8f3c 49e0 d0bc fa53 d1bc c980 b3bd
00000090: d51c 1fbd 0d90 4abd 0869 d43c 5412 973d
000000a0: 2407 263d e8d5 aa3d 3a50 023d d4ce 903c
000000b0: 06bc 3b3d a02b 45bd df58 123d 567f fabc
000000c0: 6a15 54bd 2055 1a3d f29c 913c d955 bdbc
000000d0: dc53 7abd 8cd1 8ebd 8a67 69bc a3ad a73c
000000e0: 97c0 87bd b32d 6b3d 2cdd 74bd 5be0 de3c
000000f0: 65c5 ddbc 9fab 88bd c1f2 5cbd e0ee 73bd
00000100: 6a9a 55bd c76d 9dbd 7d8c 6a3d 1110 623c
00000110: 5574 b3bd 1cb2 78bd e10d 8a3d 9a03 5bbd
00000120: c777 a9bc fd87 073d 1c33 253d 95d7 693d
00000130: 9113 2b3d b444 b5bd 6376 493b 890d d23c
00000140: 062f 743c 751a 8d3d 21d8 9a3d 7624 2cbd
00000150: 195a f8bc 728b 44bd f74a bdbd f992 9b3d
00000160: fa94 57bc e822 61bc dee2 413d f208 99bd
00000170: 94a0 bcbd 4eae ad3d 78b5 73bd bf79 6c3c
00000180: b099 6abd 016a b8bc f7b8 d9bc 3675 cbbb
00000190: 4e1b 9bbd 8b9c b4bd 8ba1 afbd 435f 20bd
000001a0: d149 81bd d350 363d 3d9e 88bb cb8d 85bd
000001b0: 936a a8bc 910c 4e3d bb95 2f3d b6a1 c5bc
000001c0: 2050 a2bd 52d4 38bd 62f7 1f3d 0654 7abd
000001d0: eee6 7c3d 0cad fbbc 1da5 713d 5cef ac3c
000001e0: d5a7 3a3d a8b8 08bd 72f0 923d a75f 58bc
000001f0: 9128 a6bd 34b5 953d 9acd 1e3d 455c 2cbd
00000200: b87c 673d cd7d 83bd 9766 843d 14bb d6bc
00000210: 0ec0 073d bfe5 bdbc cf50 4e3c 883c 12bd
00000220: 1050 493a 79d5 1b3d 0942 85bd c9b0 d93c
00000230: 688c e73c 0f88 23bd 604b d6bc 0b25 46bd
00000240: 3ef5 9ebd 5b22 a63d 889f 83bd 1110 94bd
00000250: a71b a9bd 41c0 7f3d 1289 0f3c bc9c a03d
00000260: 613f 77bd a71b 96bd cf97 a53d 1583 8fbd
00000270: 237d 82bc e990 573c 053e 98bd d685 dc3c
00000280: 12ed 6dbc b0ab 833d 7f80 c13c ebd7 66bb
00000290: a4f5 1e3b 79e6 153d bc26 8b3d 69c5 a1bc
000002a0: 6f5b 823d eefd 933d f902 91bc a65b bfba
000002b0: 1172 353c 09ad 993c 497a b4bd 37a2 893d
000002c0: 63d0 463d 70c0 4bbd 410e 9737 e4dc 2b3b
000002d0: 4b8a 683d b939 8e3c c855 26bd 1206 1f3d
000002e0: c778 473c 01e5 8c3d fb59 8d3d 6534 853d
000002f0: b629 aa3c 5444 aebd 2eb2 8cbd 91a5 9cbd
00000300: 4378 09bc c7e8 8e3d 5afb c6bc 1e80 a0bc
00000310: b019 263d a63c e53b f071 86bd 60c9 363d
00000320: ceef a83d 42ec 80bd 2883 1a3d 99e9 31bd
00000330: 8482 b33c e0cd 933d 24cc f73c 64f6 3cbd
00000340: 4190 9bb5 e7f2 b73c 208b 503d 9ebe abbd
00000350: 1cc7 b13d ff99 b93c 890d 0f3d 92c9 ca3c
00000360: d1a5 913d b983 543d 209f a3bd b87d ab3c
00000370: 1e3b adbd d362 9fbc 61ee abbd 5c76 c43c
00000380: 10ee 48bd 0c37 3fbd d325 b4bd 4f3f 5bbd
00000390: 6981 9abc fa51 183d 8b2d a3bd 0491 7abb
000003a0: b37b a13d 5c64 93bd d53d 32bd c8ad 8bbd
000003b0: 4c41 4cbd bccf f4bc 02c0 16bd 0cad 8abc
000003c0: 1b8d 883d 5c97 d8bc 96de 063d a326 903d
000003d0: 9013 713d e4fc b3bc 1963 5abd 826b 5e3d
000003e0: 5494 7cbd 8ee4 71bd 0cc0 223d 82be 66bc
000003f0: ce6b 1b3d 249d 4fbd 3bd0 d9bb b490 483c

2.bias f4 [128]
-0.06908784 -0.018831348 -0.047310706 -0.05293352 0.00043812222 -0.04071043 0.00039922548 -0.025412558
-0.035853352 -0.08976726 0.007703843 0.08000933 0.018524142 0.069713905 0.042920012 0.04681008
0.035777364 -0.019822948 0.06284826 -0.036655936 0.16397087 -0.029777398 -0.009282674 0.04276903
-0.04495547 0.11923253 0.037231263 0.006909633 0.04208977 0.11481431 0.006520581 -0.06015999
0.060046982 -0.059533328 0.11977189 -0.08448135 0.026458137 -0.022694947 -0.019961983 -0.044514384
0.059060093 0.07137548 -0.008591096 0.13715293 -0.0016961591 -0.018676285 -0.08503449 -0.07131132
-0.017134896 0.037036784 0.029652912 0.14185378 -0.08925004 0.06252779 0.18869473 0.065253176
0.08014075 -0.06914111 0.23028916 0.037204117 0.028061971 -0.093746506 -0.10430932 0.14023279
0.0336365 0.08192803 -0.03721966 0.063351326 0.16385016 -0.11241442 -0.0037571797 0.0021980002
-0.090566784 -0.0698355 0.045718126 0.030884178 0.15084586 0.08742798 0.02403004 -0.028070351
0.010744675 -0.084509075 -0.0006191165 -0.064856075 -0.031074576 0.038399696 -0.0013443053 -0.09075027
-0.046566878 0.010147702 -0.042134676 -0.043462623 0.0074175918 -0.017404122 -0.070788324 0.16649507
-0.06855131 -0.04670647 0.062316492 0.07525121 -0.006532888 0.016450685 0.08376587 0.0364135
8.884003e-05 -0.0009877721 -0.07850729 0.007966671 0.18824655 0.022466062 -0.026103934 -0.07551768
0.14730707 -0.09358968 -0.058594648 0.036256384 0.07255322 -0.06318661 -0.062216945 0.05426977
0.05660906 -0.05622142 -0.02279647 0.12636745 -0.105577104 -0.123765185 -0.049516726 0.07746331
00000000: ed7d 8dbd 3344 9abc dfc8 41bd d2d0 58bd
00000010: c5b3 e539 fbbf 26bd 234f d139 ff2d d0bc
00000020: f7da 12bd e6d7 b7bd 8570 fc3b eedb a33d
00000030: f1bf 973c 2ac6 8e3d e5cc 2f3d edbb 3f3d
00000040: 498b 123d bc63 a2bc 97b6 803d 8924 16bd
00000050: fbe7 273e bbef f3bc 5b16 18bc 942e 2f3d
00000060: 3a23 38bd 2f30 f43d cf7f 183d 346a e23b
00000070: 5366 2c3d c423 eb3d 99aa d53b 526a 76bd
00000080: d3f3 753d 38d9 73bd f74a f53d 8f04 adbd
00000090: bcbe d83c c1ea b9bc 5087 a3bc b754 36bd
000000a0: ffe8 713d 4f2d 923d abc1 0cbc d171 0c3e
000000b0: a851 deba 02ff 98bc 9026 aebd ab0b 92bd
000000c0: 7b5e 8cbc e2b3 173d aaea f23c 1e42 113e
000000d0: bac8 b6bd 920e 803d 3139 413e 75a3 853d
000000e0: d520 a43d db99 8dbd ecd0 6b3e 5863 183d
000000f0: 38e2 e53c 2bfe bfbd 20a0 d5bd 2f99 0f3e
00000100: 6dc6 093d e2c9 a73d a473 18bd 57be 813d
00000110: 56c8 273e 8839 e6bd 043b 76bb 530c 103b
00000120: 147b b9bd ea05 8fbd ee42 3b3d d100 fd3c
00000130: 5677 1a3e 710d b33d a5da c43c cbf3 e5bc
00000140: 6f0a 303c 1813 adbd 344c 22ba 43d3 84bd
00000150: 1c90 febc 0049 1d3d 6733 b0ba 47db b9bd
00000160: e9bc 3ebd 8c42 263c 6995 2cbd dd05 32bd
00000170: 450f f33b 1793 8ebc 78f9 90bd af7d 2a3e
00000180: a164 8cbd 494f 3fbd 943f 7f3d 4e1d 9a3d
00000190: d611 d6bb 96c3 863c 718d ab3d 5226 153d
000001a0: a14f ba38 2278 81ba 6ec8 a0bd a486 023c
000001b0: b4c3 403e bf0a b83c ebd7 d5bc 03a9 9abd
000001c0: aad7 163e f2ab bfbd f100 70bd 9381 143d
000001d0: c896 943d fb67 81bd 32d7 7ebd fa49 5e3d
000001e0: e7de 673d 6f48 66bd aabf babc 7866 013e
000001f0: cf38 d8bd 9a78 fdbd 0dd2 4abd 15a5 9e3d

4.weight f4 [8, 128]
-0.05936297 0.0036357979 0.057280876 -0.029677281 -0.0142368255 -0.036656484 0.036998473 0.0061657
-0.0778913 0.044652957 -0.0033978894 -0.16456805 0.025466504 0.047374133 0.0633467 -0.064050585
0.008395135 0.020016655 -0.04931784 0.037813377 -0.1634771 -0.05546795 -0.057308335 0.054146763
0.0535898 -0.16253093 0.06724233 0.016990922 -0.078602746 -0.16091001 -0.012737125 0.08265274
0.017229788 -0.07082674 -0.113334276 -0.029925853 -0.05811027 -0.034501884 0.014751334 0.0042547965
0.027055219 -0.11618079 0.094218045 -0.015652668 0.051609516 -0.020971028 0.043794014 -0.0060862987
0.008249592 -0.024816032 0.011762414 -0.19369026 -0.038382385 0.053416673 -0.18323828 0.014051306
0.053293478 -0.035210744 -0.120442025 0.07854415 0.01656782 -0.050220475 0.036082886 -0.03771725
0.05297789 -0.098875046 -0.009076103 -0.08827491 -0.14170188 0.03898841 -0.041449174 -0.057045873
-0.058289323 0.010992304 0.07283368 0.009929608 -0.120204315 0.041877173 0.005950682 -0.020222075
0.019225642 0.03812991 -0.08947865 0.011909073 -5.563384e-05 0.0040124324 -0.018727109 0.056533664
-0.060714 -0.08265659 -0.048612848 0.07041288 -0.015544699 0.061896935 -0.03306036 -0.14859045
-0.08087102 -0.009758997 -0.042775806 -0.054566883 0.07073538 0.055888806 -0.17945176 0.016894111
-0.05979775 0.0027697163 -0.033079542 0.0038840743 -0.055797588 0.06001527 0.025690064 0.06268345
-0.006071992 0.014713125 0.0014556784 0.029412651 -0.05749063 0.040013976 -0.06846245 -0.016124351
0.044023614 -0.10512299 -0.08117268 -0.09250494 0.010525834 0.05320121 -0.014449357 0.024868136
-0.04061481 0.025549661 0.009081057 -0.049630463 0.035725 -0.078634955 -0.048376817 -0.0136458725
0.019522905 -0.07525314 0.08597029 -0.03491127 0.07664863 -0.059747223 0.035581894 0.017317828
0.07659129 -0.014143471 -0.029945754 -0.0345381 -0.10822798 -0.13110986 0.0112170335 -0.039574448
0.049338467 -0.086405225 -0.084647894 -0.09993147 -0.10798541 -0.12523723 0.059114948 0.07197215
-0.1725056 0.016939033 -0.046608802 0.07804066 0.037134524 0.04958226 -0.07161346 -0.068166636
-0.0046608886 0.017695498 0.08190836 -0.12111932 0.036690526 0.061292898 0.10270131 -0.091382354
-0.016946046 0.0325766 0.07727277 0.013885009 0.024674006 0.008363937 -0.10968194 0.03575192
-0.042884745 0.03195151 -0.13010944 -0.14448921 -0.06994886 0.073875554 0.04298519 -0.11229079
-0.13195898 -0.15797259 0.048366934 -0.22581737 -0.16756837 -0.0100216735 -0.057597928 0.017311966
-0.0013540939 -0.022877445 0.07419751 -0.11304348 -0.1454741 0.08574278 0.049553063 0.013369178
-0.08493334 0.06785551 0.010151884 0.046034828 0.05916052 0.025080936 -0.07885428 -0.05075737
-0.026901208 -0.20317346 -0.043243457 0.0073227566 0.01869372 0.074502856 0.06161876 -0.036663532
-0.093248 -0.060365066 -0.0025411982 0.05548309 0.07706707 0.022293987 -0.117671244 -0.028939467
0.03848918 -0.030222429 0.06269604 0.027136859 -0.09092432 -0.0018738384 -0.02924867 -0.065062724
-0.0229586 0.021120956 -0.040551197 -0.016066948 -0.06261539 -0.03761324 -0.08292887 -0.01380246
-0.0161018 -0.027878143 0.078910656 -0.14431226 -0.11225874 0.0051054927 0.007377368 -0.02614684
00000000: 9626 73bd 9146 6e3b 5a9f 6a3d c51d f3bc
00000010: 9341 69bc 1c25 16bd b68b 173d a409 ca3b
00000020: 7985 9fbd 05e6 363d 20af 5ebb 8784 28be
00000030: 219f d03c 610b 423d eabb 813d f42c 83bd
00000040: c08b 093c f8f9 a33c 8101 4abd 33e2 1a3d
00000050: 8a66 27be 5c32 63bd 25bc 6abd ffc8 5d3d
00000060: fa80 5b3d 826e 26be 59b6 893d 8c30 8b3c
00000070: 7afa a0bd 98c5 24be 60af 50bc d745 a93d
00000080: 7c25 8d3c 9c0d 91bd cd1b e8bd 1027 f5bc
00000090: 0905 6ebd d951 0dbd 94af 713c d26b 8b3b
000000a0: e8a2 dd3c 32f0 edbd 64f5 c03d 063a 80bc
000000b0: 8064 533d 6fcb abbc 5a61 333d 936f c7bb
000000c0: 4c29 073c fe4a cbbc 24b7 403c bd56 46be
000000d0: d936 1dbd 71cb 5a3d d1a2 3bbe 7337 663c
000000e0: 434a 5a3d 2439 10bd 4faa f6bd c1db a03d
000000f0: 3db9 873c fcb3 4dbd a6cb 133d 677d 1abd
00000100: 58ff 583d 007f cabd efb3 14bc 7ac9 b4bd
00000110: 4c1a 11be 50b2 1f3d 9cc6 29bd efa8 69bd
00000120: c9c0 6ebd 1119 343c d329 953d cbaf 223c
00000130: ae2d f6bd 6687 2b3d f0fd c23b c4a8 a5bc
00000140: 187f 9d3c 1c2e 1c3d 9540 b7bd 461e 433c
00000150: 6158 69b8 b97a 833b 9869 99bc d88f 673d
00000160: 3eaf 78bd dc47 a9bd 441e 47bd a134 903d
00000170: 31af 7ebc a487 7d3d 4d6a 07bd 1828 18be
00000180: b59f a5bd 33e4 1fbc af35 2fbd 8681 5fbd
00000190: b6dd 903d a9eb 643d 34c2 37be 8565 8a3c
000001a0: 7cee 74bd 2184 353b 6a7e 07bd f48b 7e3b
000001b0: 038c 64bd 92d2 753d f873 d23c 2e60 803d
000001c0: 90f7 c6bb 520f 713c 76cc be3a cdf2 f03c
000001d0: 4b7b 6bbd b2e5 233d 0a36 8cbd 3717 84bc
000001e0: 1b52 343d b94a d7bd dd3d a6bd 3b73 bdbd
000001f0: 8c74 2c3c 83e9 593d ffbc 6cbc 43b8 cb3c
00000200: b75b 26bd 864d d13c b7c8 143c 5049 4bbd
00000210: 6154 123d 5d0b a1bd c526 46bd f092 5fbc
00000220: 80ee 9f3c 511e 9abd 3111 b03d 1fff 0ebd
00000230: f5f9 9c3d 81b9 74bd 52be 113d 1ede 8d3c
00000240: e5db 9c3d 04ba 67bc cc50 f5bc d377 0dbd
00000250: a2a6 ddbd aa41 06be a6c7 373c d118 22bd
00000260: 2217 4a3d 39f5 b0bd e05b adbd dfa8 ccbd
00000270: 7427 ddbd 303e 00be 8422 723d 2266 933d
00000280: 4fa5 30be bac3 8a3c dfe8 3ebd c8d3 9f3d
00000290: 5f1a 183d c516 4b3d 14aa 92bd f39a 8bbd
000002a0: 5eba 98bb 26f6 903c 92bf a73d 680d f8bd
000002b0: ce48 163d 430e 7b3d 1055 d23d ac26 bbbd
000002c0: 6fd2 8abc 0a6f 053d 3041 9e3d f37d 633c
000002d0: 2421 ca3c e508 093c eda0 e0bd 9b70 123d
000002e0: eaa7 2fbd 96df 023d 693b 05be fbf4 13be
000002f0: 5941 8fbd 114c 973d 3d11 303d b7f8 e5bd
00000300: 4120 07be 91c3 21be 681c 463d ab3c 67be
00000310: 0b97 2bbe f231 24bc ceeb 6bbd d3d1 8d3c
00000320: da7b b1ba 7b69 bbbc ddf4 973d 5783 e7bd
00000330: 2af7 14be e999 af3d 27f8 4a3d 660a 5b3c
00000340: 88f1 adbd d4f7 8a3d 1654 263c 048f 3c3d
00000350: 4d52 723d 8976 cd3c 5a7e a1bd f6e6 4fbd
00000360: ec5f dcbc b40c 50be 0d20 31bd bcf3 ef3b
00000370: 9323 993c f494 983d f463 7c3d 802c 16bd
00000380: cff8 bebd 5c41 77bd 3b8a 26bb 3d42 633d
00000390: 57d5 9d3d e1a1 b63c 9ffd f0bd 7612 edbc
000003a0: d5a6 1d3d 0795 f7bc c866 803d 1e4e de3c
000003b0: 8836 babd 959b f5ba e89a efbc 9b3f 85bd
000003c0: ad13 bcbc db05 ad3c 0319 26bd d59e 83bc
000003d0: 7f3c 80bd 5710 1abd 9dd6 a9bd b723 62bc
000003e0: ece7 83bc b460 e4bc e99b a13d 98c6 13be
000003f0: e9e7 e5bd fa4b a73b d9bd f13b e631 d6bc

4.bias f4 [8]
-0.12759712 -0.18581846 -0.1283986 -0.12083139 -0.07501788 -0.123635374 -0.10403871 -0.075944714
00000000: d2a8 02be 3247 3ebe ec7a 03be 7376 f7bd
00000010: f9a2 99bd 8b34 fdbd 3f12 d5bd e788 9bbd
